lstm_FullData/trial5/lstm_model_epoch198.pth (torch, 54245 bytes, 6 tensors)

lstm.weight_ih_l0 f4 [200, 11]
0	0xbd9c8cc3	-0.07644036
1	0xbde8c262	-0.113652006
2	0x3d35eb25	0.044413704
3	0xbe0c7a34	-0.13718492
4	0x3e8df7da	0.27728158
5	0xbd668d08	-0.05628684
6	0x3d267d47	0.040646818
7	0x3d203077	0.03910872
8	0x3e6996b9	0.22811402
9	0x3d3b2ee9	0.045699034
10	0xbe72343e	-0.23652741
11	0x3e83b54c	0.25724256
12	0xbdfac29d	-0.12244151
13	0x3f4af1d4	0.7927525
14	0xbec5645e	-0.38553137
15	0x3dcb3f92	0.099242344
16	0xbe2f9e74	-0.17150289
17	0x3e845260	0.25844097
18	0x3e937469	0.2879975
19	0xbd43994c	-0.047753617
20	0x3e1e7229	0.15473236
21	0xbea1d601	-0.31608585
22	0x3ea29974	0.317577
23	0xbe088729	-0.1333281
24	0x3ee9fadb	0.456992
25	0xbef0de9f	-0.47044846
26	0x3e08a90f	0.1334574
27	0xbe4a4b56	-0.19755301
28	0xbe33544a	-0.17512622
29	0x3d4337a6	0.047660492
30	0x3e2f4d0c	0.17119235
31	0x3ea8903b	0.3292254
32	0xbce40e33	-0.027838802
33	0xbd28550d	-0.041096736
34	0x3e8ddb53	0.27706394
35	0x3dfc61dd	0.123233534
36	0xbf212cb1	-0.6295882
37	0xbe458cef	-0.19292043
38	0x3e568f07	0.20952998
39	0x3d1765e7	0.036962416
40	0x3c2cd6da	0.0105492715
41	0xbd7756ba	-0.060385443
42	0x3eb11878	0.3458898
43	0x3ee20f02	0.44152075
44	0x3f0662a2	0.5249425
45	0xbee75d03	-0.4518815
46	0xbdfd6a0b	-0.12373742
47	0x3c487e8c	0.012237202
48	0x3e21dc39	0.15806665
49	0x3e556ddd	0.20842691
50	0x3e4c7f01	0.19970323
51	0x3d0e2fec	0.03471367
52	0x3df058be	0.11735676
53	0x3dbadd87	0.09124284
54	0xbdeeb6e2	-0.11655976
55	0x3e994f6b	0.29943404
56	0xbf14546d	-0.57941324
57	0xbdb44d7c	-0.088038415
58	0xbd8febe2	-0.07027413
59	0x3e584970	0.21121764
60	0x3d75f048	0.060043603
61	0xbe038d1c	-0.12846798
62	0x3e19c9f9	0.15018453
63	0x3f02a3f0	0.510314
64	0x3e27c316	0.16383013
65	0xbe3f6583	-0.18691067
66	0x3dbe0565	0.09278373
67	0xbcd3d6d2	-0.02585927
68	0x3e15a6a6	0.14614353
69	0xbe26bc9e	-0.16282889
70	0x3db2e4c4	0.0873504
71	0x3dad3249	0.08456857
72	0x3d558cdd	0.05213629
73	0xbcf20f4f	-0.029548315
74	0x3e25b916	0.16183886
75	0x3dc1992c	0.09453043
76	0x3e7b895f	0.24564122
77	0x3e1cace8	0.15300333
78	0xbe1ef883	-0.15524487
79	0x3ed3375b	0.4125317
80	0xbe2e889d	-0.17044301
81	0xbd464866	-0.04840889
82	0xbd637ec4	-0.055540815
83	0x3ec18a99	0.37801054
84	0xbe5c2736	-0.21499333
85	0x3ee2e832	0.44317776
86	0x3e9683d3	0.2939745
87	0xbf0c140d	-0.54718095
88	0xbe436dcc	-0.19084853
89	0xbf248483	-0.64264697
90	0x3f32f9a2	0.6991216
91	0xbf26688b	-0.6500327
92	0x3bc173a8	0.00590368
93	0x3c804278	0.015656695
94	0xbf01666e	-0.5054692
95	0xbef0f6c4	-0.47063267
96	0x3f28bd60	0.65913963
97	0x3fc8e3ff	1.5694579
98	0xbf036e55	-0.5134023
99	0xbc8b6d04	-0.017019756
100	0xbe68559d	-0.22688909
101	0xbc72b52b	-0.014813702
102	0xbec6db7c	-0.38839328
103	0x3e61b1e9	0.22040524
104	0x3d48313b	0.048875075
105	0x3b97ab86	0.0046286015
106	0xbe636ae6	-0.22208747
107	0x3d29f9b7	0.041497912
108	0x3e9a63e9	0.3015435
109	0xbe034c72	-0.1282213
110	0x3d927c85	0.071526565
111	0xbe2c0646	-0.16799268
112	0x3f1cf839	0.6131626
113	0xbdde698e	-0.10859977
114	0xbc755ebb	-0.014976199
115	0xbdd3e332	-0.103460684
116	0xbe5d4079	-0.21606626
117	0x3e63da8e	0.22251341
118	0x3e887f13	0.2665945
119	0x3e413555	0.18868001
120	0xbc8f429f	-0.017487822
121	0x3d98fc1c	0.07469961
122	0xbe88442a	-0.26614505
123	0x3e60c1cc	0.21948928
124	0xbdc8ee28	-0.0981105
125	0x3e83bd9f	0.25730607
126	0xbe670cd0	-0.22563481
127	0xbdbd94ef	-0.092569225
128	0x3db988d5	0.09059302
129	0x3e9c6789	0.3054774
130	0x3ea988c8	0.33112168
131	0xbebb0635	-0.36528173
132	0x3e4d8040	0.20068455
133	0xbe8f33e8	-0.2796929
134	0x3e8458ae	0.25848907
135	0xbe3625b1	-0.17787816
136	0x3e28fe85	0.16503341
137	0xbdcdd94c	-0.10051212
138	0xbcf0d111	-0.029396566
139	0x3e351f6f	0.17687772
140	0x3eed85f5	0.46391264
141	0x3e860b9a	0.26180726
142	0xbf0d0e3b	-0.5509984
143	0x3ca10339	0.019654857
144	0x3e29cf4f	0.16582988
145	0xbd8ba866	-0.06819229
146	0xbca54f7f	-0.020179508
147	0x3e6536af	0.22384141
148	0xbd3a8bf8	-0.04554364
149	0xbdb2584a	-0.08708246
150	0x3decd4c6	0.11564021
151	0x3da30173	0.07959261
152	0x3e8b48c0	0.2720394
153	0xbcc73e29	-0.024321632
154	0x3e5a8532	0.21339872
155	0xbd8497c5	-0.0647426
156	0xbe94ae1c	-0.29039085
157	0xbe4b0510	-0.1982615
158	0x3e17ee5e	0.14837024
159	0x3def1907	0.116746955
160	0x3c98f0a6	0.018669438
161	0xbf3a8d4c	-0.7287185
162	0xbe90ee14	-0.2830664
163	0x3ed40005	0.41406265
164	0xbc211c63	-0.009833428
165	0x3e8b38f7	0.27191898
166	0xbd9186be	-0.07105778
167	0x3ed1f60f	0.4100804
168	0x3da877a6	0.08225946
169	0x3ca4aa00	0.020100594
170	0x3e12e89d	0.14346547
171	0xbd1b27c6	-0.037879728
172	0x3f00e55c	0.50349975
173	0x3e916c51	0.2840295
174	0x3d92483f	0.07142686
175	0x3cc23cc2	0.023710612
176	0xbe193421	-0.14961292
177	0x3dcf2be3	0.101157926
178	0x3cd65963	0.02616567
179	0xbe02359e	-0.12715766
180	0xbe78c82b	-0.24295108
181	0x3d27f3b5	0.0410039
182	0xbdb58b24	-0.088644296
183	0xbd99cfb8	-0.07510322
184	0x3dfe8033	0.12426796
185	0x3e94e335	0.29079595
186	0x3e5613ae	0.20905945
187	0xbda4a9e6	-0.08040218
188	0xbe7d315f	-0.24725865
189	0x3e573390	0.21015763
190	0x3c7598ea	0.014990071
191	0x3e3dc1dc	0.18530983
192	0x3ce77d6f	0.028258054
193	0x3d1ec863	0.038765322
194	0x3d8c0a10	0.06837857
195	0x3e6d726b	0.23188178
196	0x3d9dc4b7	0.07703536
197	0xbe6a9065	-0.22906645
198	0xbd67f4cd	-0.056629945
199	0xbdf480c9	-0.11938626
200	0x3c885ac2	0.01664484
201	0x3de0b741	0.10972453
202	0x3e093124	0.13397652
203	0xbe21f283	-0.15815167
204	0x3e5ac2b6	0.21363339
205	0xbe6d1997	-0.23154293
206	0x3e66bb6e	0.22532436
207	0x3d676fed	0.056503225
208	0x3e2e17bf	0.17001246
209	0xbcceba69	-0.025235372
210	0xbeef9870	-0.46795988
211	0x3de0a31c	0.10968611
212	0xbe7f6aeb	-0.2494313
213	0x3e37947e	0.17927739
214	0xbe80de5c	-0.25169647
215	0x3dd7240f	0.105049245
216	0xbd9fa7be	-0.07795666
217	0x3e0f52bd	0.13996406
218	0x3e5a2b6c	0.21305627
219	0xbe6129e3	-0.21988635
220	0x3e9e585f	0.30926797
221	0xbf181d23	-0.5941946
222	0x3e3e4d06	0.1858407
223	0x3c93cad7	0.018041058
224	0x3d9a429d	0.07532237
225	0xbe9819ba	-0.29707128
226	0xbe69acde	-0.2281985
227	0x3f17094d	0.58998567
228	0x3f298f5f	0.6623439
229	0x3e95efcb	0.2928451
230	0xbd4113d9	-0.04713807
231	0xbe40825a	-0.18799725
232	0x3deb2ac0	0.11482763
233	0x3da24844	0.0792394
234	0xbf03be6d	-0.5146244
235	0x3ea98477	0.33108875
236	0xbef143c4	-0.47122014
237	0x3e14d77f	0.1453533
238	0x3e00b10f	0.12567542
239	0xbe4375c0	-0.19087887
240	0x3eb400f1	0.35156968
241	0xbf0e5933	-0.5560486
242	0x3d268792	0.040656634
243	0xbf028ef5	-0.50999385
244	0x3e8c701a	0.27429277
245	0xbe114a93	-0.14188604
246	0x3e7845d3	0.24245386
247	0xbe2f1f3c	-0.17101759
248	0x3ec70785	0.38872924
249	0xbe35c76f	-0.17751859
250	0x3ec0abdc	0.37631118
251	0x3e11a503	0.14223103
252	0xbec91335	-0.39272466
253	0x3f04b6d3	0.5184147
254	0xbf3c83e6	-0.7363876
255	0x3edac986	0.42731875

lstm.weight_hh_l0 f4 [200, 50]
0	0x3da8dfc1	0.08245803
1	0x3e34de88	0.17663014
2	0x3b9a3053	0.0047054677
3	0xbea38a90	-0.31941652
4	0xbd937348	-0.071997225
5	0xbe13a34f	-0.14417766
6	0x3da7f84b	0.08201655
7	0xbd4964ac	-0.049168274
8	0xbe9b4edf	-0.3033361
9	0x3c4d46c0	0.012529075
10	0x3dc83584	0.09775832
11	0x3e3704d4	0.17872936
12	0xbd52dab6	-0.05147811
13	0x3c01b4b8	0.007916622
14	0x3df1251d	0.11774657
15	0x3d3e35c6	0.046438
16	0xbd639b85	-0.055568237
17	0x3e1e190f	0.15439247
18	0xbe11f262	-0.14252618
19	0xbdf770e8	-0.12082082
20	0xbe44316d	-0.1915948
21	0xbe2b3504	-0.16719443
22	0x3e25eb9f	0.16203164
23	0x3dc1ba1b	0.09459325
24	0x3da05859	0.07829351
25	0xbda38c08	-0.07985693
26	0x3e037442	0.12837318
27	0xbd20b613	-0.03923614
28	0xbdcbbab3	-0.099477194
29	0x3d3e46db	0.04645429
30	0xbe2655be	-0.16243646
31	0x3e9db00f	0.30798385
32	0xbd05218e	-0.032502703
33	0xbd9db261	-0.07700039
34	0x3ded31c2	0.11581756
35	0x3dda7142	0.106661335
36	0xbe35ce60	-0.17754507
37	0xbba1f95f	-0.0049430574
38	0x3c5a8b7c	0.01333892
39	0x3d427ba6	0.0474812
40	0x3d926d00	0.07149696
41	0x3d7dd680	0.06197214
42	0x3d804919	0.06263942
43	0x3c8bc708	0.017062679
44	0x3ddadb47	0.10686355
45	0x3e04777c	0.12936205
46	0xbddced46	-0.10787444
47	0x3baa79f2	0.0052025253
48	0x3cc2e776	0.02379201
49	0xbd5e7d2a	-0.054318585
50	0x3deea66b	0.116528355
51	0x3e217c2e	0.15770027
52	0x3c144365	0.009049271
53	0x3c38d4c2	0.011281194
54	0xbd8d2973	-0.068926714
55	0xbcc91e32	-0.024550531
56	0xbb503168	-0.003176773
57	0x3d5d1304	0.053973213
58	0xbdb143ae	-0.08655487
59	0xbde8fed8	-0.113767326
60	0x3cba85c5	0.022768864
61	0xbcd47232	-0.025933359
62	0x3e74c414	0.23902923
63	0x3ddb8c62	0.10720135
64	0x3e514de0	0.20439863
65	0x3da2864b	0.079357706
66	0xbdc93aff	-0.09825706
67	0xbd2917ad	-0.041282345
68	0x3e73cd15	0.23808701
69	0xbe4b8bba	-0.1987752
70	0xbda57106	-0.08078198
71	0x3e175d0c	0.14781588
72	0x3d1e0559	0.03857932
73	0xbd922469	-0.07135851
74	0x3d52ecfa	0.05149553
75	0xbd4feabf	-0.05076098
76	0xbdb18b77	-0.08669179
77	0xbc9eca0b	-0.019383451
78	0x3bf6e8e6	0.007535088
79	0xbe126f9d	-0.1430039
80	0xbd0e12a1	-0.034685735
81	0x3df8fa6a	0.12157138
82	0xbe062f9a	-0.13104096
83	0xbcfffc1d	-0.031248147
84	0x3cf7f786	0.030269396
85	0x3e3c95ae	0.18416473
86	0xbe7bb910	-0.24582314
87	0xbb9eae72	-0.004842573
88	0x3dbded57	0.092737846
89	0x3e4eb7f9	0.20187367
90	0xbe14a518	-0.14516103
91	0x3d9568b9	0.07295365
92	0x3e5dfd16	0.21678576
93	0x3daed05b	0.085358344
94	0x3e168581	0.14699365
95	0xbe3376a5	-0.17525728
96	0xbe257113	-0.16156416
97	0x3cdd2186	0.026993524
98	0x3c8c345e	0.017114814
99	0x3e0cda1a	0.13755074
100	0x3b00b1b2	0.0019637165
101	0x3e039427	0.12849484
102	0x3df72a0f	0.12068569
103	0x3e550666	0.20803222
104	0xbc94feb3	-0.018187856
105	0xbc571ef8	-0.013129942
106	0xbdc27de4	-0.09496668
107	0xbe0d2811	-0.13784815
108	0x3c989074	0.018623568
109	0xbd28dea5	-0.041227955
110	0xbd808bc1	-0.06276656
111	0x3e6bac2d	0.23014899
112	0x3dca4fe6	0.09878521
113	0xbd893935	-0.067003645
114	0xbce059f6	-0.027386647
115	0xbe52ed90	-0.20598435
116	0xbe1ec86c	-0.15506142
117	0x3c41bf6e	0.011825426
118	0xbd97e0d1	-0.07415927
119	0xbbcabbb5	-0.006186927
120	0xbd7652a1	-0.060137395
121	0xbe265b22	-0.16245702
122	0xbd092261	-0.033480052
123	0xbd53c89c	-0.051704988
124	0x3dc1191b	0.094286166
125	0xbdc59e6d	-0.09649358
126	0x3d8646c7	0.065564685
127	0x3da052b7	0.078282766
128	0x3d283524	0.041066304
129	0x3e303d6b	0.17210929
130	0xbe829a97	-0.25508568
131	0x3de0da91	0.10979188
132	0xbe6bf59d	-0.23042913
133	0x3e0cda90	0.1375525
134	0xbb45ef1e	-0.003020234
135	0x3e24fdae	0.16112396
136	0xbde59169	-0.112093754
137	0x3dd1ee6f	0.10250556
138	0x3e18a9e0	0.14908552
139	0xbdf0c718	-0.11756724
140	0x3e036067	0.12829743
141	0xbdb503d1	-0.088386185
142	0x3b030000	0.0019989014
143	0xbe021fe2	-0.12707475
144	0x3d6e615b	0.058198314
145	0xbcd354d7	-0.02579729
146	0x3dc61146	0.096712634
147	0x3d087c7c	0.033321843
148	0xbdd7d35b	-0.1053836
149	0x3e2484fd	0.16066356
150	0x3e3990cf	0.18121646
151	0x3d8b68a8	0.06807071
152	0x3ea6b012	0.32556206
153	0xbe8f8897	-0.28033897
154	0xbd60b1a5	-0.054856915
155	0x3e9cdcbc	0.30637157
156	0x3daf99a1	0.08574224
157	0x3e2f03e1	0.17091323
158	0xbdf7ff6e	-0.12109266
159	0xbe2ac380	-0.1667614
160	0x3d642101	0.055695537
161	0xbebe6054	-0.37182868
162	0x3d185cb3	0.03719778
163	0xbdf77176	-0.12082188
164	0xbc4a4d36	-0.01234751
165	0x3e4705a8	0.19435751
166	0xbe9763d5	-0.29568353
167	0xbc0e26d9	-0.008676254
168	0x3e524be1	0.20536758
169	0x3e01c201	0.12671663
170	0xbe0a730d	-0.13520451
171	0xbdbf7074	-0.093476206
172	0xbdad4090	-0.0845958
173	0x3e602801	0.2189026
174	0xbd519073	-0.051163148
175	0xbe8d4ee8	-0.27599263
176	0xbe33587c	-0.17514223
177	0x3dc5557c	0.096354455
178	0x3d3eec45	0.046612043
179	0xbd3f853c	-0.04675792
180	0x3e928761	0.2861891
181	0xbd8bab5c	-0.068197936
182	0x3daf87d0	0.08570826
183	0x3db6871d	0.089124896
184	0x3d329951	0.043603245
185	0x3e16264b	0.14663045
186	0x3dbac01a	0.09118672
187	0x3e2f0f53	0.1709569
188	0xbbe9fbf2	-0.00714063
189	0xbce3e074	-0.027816989
190	0x3dfc6012	0.123230115
191	0xbd869b2b	-0.06572565
192	0x3d31e364	0.043429747
193	0x3b70c2aa	0.0036737123
194	0x3db2438f	0.08704292
195	0xbd9ec9f1	-0.07753361
196	0x3de74e88	0.112942755
197	0x3e15b166	0.14618453
198	0xbdebdf32	-0.115171805
199	0x3e84e1a9	0.25953415
200	0xbe3c72be	-0.18403146
201	0x3d8c6d74	0.06856814
202	0x3c9ec9e2	0.019383375
203	0xbe02f064	-0.12787014
204	0x3da8f8e9	0.08250601
205	0xbb850d89	-0.0040604514
206	0x3e8673a9	0.26260117
207	0x3c855231	0.016274543
208	0xbce87d91	-0.028380187
209	0x3d85746c	0.06516346
210	0x3e802e18	0.25035167
211	0xbe229554	-0.15877277
212	0xbddf3ea9	-0.10900623
213	0xbc70fdcd	-0.014708948
214	0x3d108a9e	0.035288446
215	0x3e46b2b2	0.19404104
216	0xbe1bf7b0	-0.15231204
217	0x3d085dd4	0.033292606
218	0x3d9019b9	0.07036156
219	0xbcbb5aca	-0.02287044
220	0xbd85dba2	-0.06536032
221	0xbe1981ce	-0.14990923
222	0xbe53e13f	-0.20691393
223	0x3d648270	0.055788457
224	0x3e270e1e	0.16313979
225	0xbd57ca78	-0.052683324
226	0xbdf7a532	-0.120920554
227	0x3df43482	0.119240776
228	0x3e35926c	0.17731637
229	0x3e201aed	0.15635271
230	0x3c8c9882	0.017162565
231	0xbda67e81	-0.081295975
232	0x3e638f75	0.22222693
233	0x3e464bef	0.19364904
234	0x3db3d529	0.087808914
235	0x3d551ac5	0.052027483
236	0xbdc8fee8	-0.098142445
237	0x3e0891d2	0.13336876
238	0xbd9f792c	-0.077867836
239	0xbdb3e7b9	-0.08784432
240	0xbdd18066	-0.10229568
241	0xbe06b2b6	-0.1315411
242	0x3e1a598f	0.15073226
243	0xbe1f4155	-0.15552266
244	0x3e187c67	0.14891206
245	0x3d8c4a46	0.06850104
246	0xbe2438a6	-0.16037235
247	0x3e0caa41	0.13736822
248	0x3cd09d73	0.025465703
249	0x3df47805	0.119369544
250	0xbd6a4d78	-0.057202786
251	0xbe2f609c	-0.17126697
252	0x3dddd2da	0.10831232
253	0xbd6f5901	-0.05843449
254	0xbc0e430a	-0.008682976
255	0x3e0547e7	0.1301571

lstm.bias_ih_l0 f4 [200]
0	0xbc2e5a0d	-0.010641587
1	0x3e8838c6	0.26605815
2	0x3dc62f85	0.096770324
3	0x3ef00c33	0.46884307
4	0x3e8c0373	0.27346382
5	0x3e1b73ff	0.15180968
6	0x3e53fa9f	0.20701073
7	0x3e09f9bc	0.13474172
8	0x3fccc68b	1.599809
9	0x3ee7dc0f	0.4528508
10	0x3ea61088	0.32434487
11	0x3da28ac4	0.07936624
12	0x3e74339d	0.23847814
13	0x3e09fa74	0.13474447
14	0x3e0eb0f7	0.13934694
15	0x3de2aea5	0.11068467
16	0x3d1c3625	0.038137574
17	0x3dc410e3	0.095735334
18	0x3e1a855c	0.15089935
19	0x3e2011af	0.15631746
20	0x3eb68585	0.35648742
21	0x3e7ea9b7	0.24869429
22	0x3e207686	0.15670213
23	0x3c0a532a	0.008442679
24	0x3dc81020	0.097687006
25	0x3ebe42c2	0.37160307
26	0x3e0c9140	0.13727283
27	0x3e8b00ae	0.27148956
28	0x3e20b04b	0.1569225
29	0x3eca5aca	0.39522392
30	0x3e9980dc	0.29981124
31	0x3e8b8260	0.27247906
32	0x3d8caad5	0.06868521
33	0x3e486c4c	0.19572562
34	0x3e100340	0.1406374
35	0x3e1a3bec	0.15061921
36	0x3e6f854d	0.23390694
37	0x3da9f80d	0.08299265
38	0x3e56095e	0.20902011
39	0x3e69dab8	0.22837341
40	0x3e98a703	0.2981492
41	0x3e3730a3	0.17889647
42	0x3e4a7211	0.19770075
43	0x3da87a3f	0.082264416
44	0x3e5e0ada	0.21683827
45	0x3e2b8d1f	0.16753052
46	0x3e464768	0.19363177
47	0xba602343	-0.0008550176
48	0x3e9663ff	0.29373166
49	0x3e2e81ad	0.17041655
50	0x3dc0d163	0.09414937
51	0xbcdbbeaa	-0.026824314
52	0x3dcbdb38	0.09953922
53	0xbd732bea	-0.05936805
54	0xbda43cd5	-0.08019415
55	0xbc6fd143	-0.014637294
56	0x3c08bf24	0.008346353
57	0x3d534e9e	0.051588647
58	0x3da33b5e	0.07970308
59	0x3e3e8229	0.1860434
60	0x3dd5c48f	0.10437881
61	0x3d92e802	0.07173158
62	0x3de82580	0.113352776
63	0x3d8ffda5	0.07030801
64	0x3dce3307	0.100683264
65	0x3dd37cc3	0.10326531
66	0xbe17a1e7	-0.14807855
67	0x3e19acfd	0.15007396
68	0xbd08ae1f	-0.03336918
69	0x3e441956	0.1915029
70	0x3d832b8c	0.0640479
71	0xbd8a2b69	-0.06746561
72	0xbcced9f7	-0.025250418
73	0x3c8e2b78	0.017354712
74	0x3da2a382	0.07941343
75	0xbdc92095	-0.09820668
76	0x3d0bd2a2	0.034136422
77	0xbe712cc3	-0.23552231
78	0xbe0e5f27	-0.13903485
79	0xbe3d4ece	-0.18487093
80	0x3e090492	0.1338065
81	0xbc903bb3	-0.017606592
82	0x3d5bcc28	0.053661495
83	0x3bb60431	0.005554699
84	0x3e1bae1d	0.15203138
85	0xbd49edf5	-0.0492992
86	0xbdaef789	-0.08543307
87	0x3c41b9db	0.011824097
88	0x3d931855	0.07182375
89	0x3ce43307	0.027856363
90	0x3c2d5971	0.0105804065
91	0xbdc131e2	-0.094333425
92	0xbcc95fd3	-0.024581825
93	0x3c124c70	0.008929357
94	0xba176830	-0.0005775718
95	0xbb1ff649	-0.0024408272
96	0xbd273486	-0.040821575
97	0x3dcccbc1	0.099998005
98	0xbd7e378f	-0.062064704
99	0xbd5271d9	-0.051378105
100	0x3c4b955f	0.01242575
101	0xbd8d6877	-0.06904691
102	0x3dbac9e1	0.091205366
103	0x3bb2f3c1	0.0054611866
104	0xbc96ece9	-0.018423514
105	0x3e680b84	0.22660643
106	0xbe082bfc	-0.13298029
107	0x3bd01a11	0.0063507636
108	0x3dc0f02e	0.09420811
109	0x3e32528e	0.17414305
110	0xbdf0a6f9	-0.117505975
111	0xbcee26a1	-0.029071154
112	0x3e6381b3	0.22217445
113	0x3c492ed2	0.012279229
114	0x3e000f93	0.12505941
115	0xbda37c37	-0.079826765
116	0x3d978689	0.073987074
117	0x3db1b8cf	0.086778276
118	0xbe031c99	-0.12803878
119	0x3d2b4331	0.041812126
120	0xbe07042b	-0.13185184
121	0xbca473e0	-0.020074785
122	0xbd8b7c77	-0.06810849
123	0x3dc71d6c	0.09722409
124	0x3d2c6aba	0.04209397
125	0xbcb96556	-0.022631329
126	0xbd42ccab	-0.047558468
127	0xbd52c087	-0.05145314
128	0x3dab127e	0.083531365
129	0x3d2dd34a	0.04243783
130	0x3d4bf93c	0.049798235
131	0xbdc00324	-0.09375599
132	0x3c5f881b	0.01364329
133	0x3e07fe77	0.13280664
134	0x3e2c8770	0.1684854
135	0x3c747a6b	0.014921765
136	0xbdc6758f	-0.09690391
137	0xbaec65cf	-0.0018035712
138	0xbc7bbb00	-0.0153644085
139	0x3de92ed8	0.11385888
140	0xbe3b660c	-0.18300647
141	0xbd7ab654	-0.061209038
142	0xbd246f2c	-0.040145084
143	0x3d5b8e6d	0.053602625
144	0x3dc89303	0.09793665
145	0xba44b04c	-0.0007503077
146	0xbc53ebbe	-0.012934623
147	0x3d1bb071	0.038010065
148	0xbdde8d39	-0.1086678
149	0x3d85382b	0.06504854
150	0xbc6fdb60	-0.014639705
151	0x3e8e3209	0.2777255
152	0x3dc7bfb9	0.09753365
153	0x3eef7b23	0.46773633
154	0x3d1a7632	0.037710376
155	0x3e271ad5	0.1631883
156	0x3e0ae017	0.13562046
157	0x3e3a7a1f	0.18210648
158	0x3e7afaa1	0.2450967
159	0x3e956146	0.29175776
160	0x3e3a9a75	0.18222983
161	0x3ea94ac8	0.33064866
162	0x3de2760a	0.110576704
163	0x3e37d0b9	0.17950715
164	0x3e9759f7	0.29560825
165	0x3d90dc45	0.07073263
166	0x3e297d01	0.16551591
167	0xbd104921	-0.03522599
168	0x3db691b0	0.089145064
169	0x3e3f3315	0.1867183
170	0x3e3a6de4	0.18205982
171	0x3e5a819c	0.21338505
172	0x3e830cae	0.2559561
173	0x3e42f149	0.19037355
174	0x3d8397e9	0.06425459
175	0x3e068838	0.13137901
176	0x3e8cc301	0.27492526
177	0x3eaf414f	0.34229514
178	0x3e423add	0.18967767
179	0x3eae1686	0.3400156
180	0x3e4df62d	0.2011344
181	0x3ea05585	0.31315246
182	0x3e33726c	0.17524117
183	0x3daa44bc	0.08313891
184	0x3e5ba11c	0.21448177
185	0x3e78d017	0.2429813
186	0x3e15e38c	0.14637583
187	0x3d1eb57b	0.038747292
188	0x3ea3bbcc	0.31979215
189	0x3def9680	0.116986275
190	0x3e298ac4	0.16556841
191	0x3be1eda7	0.0068947854
192	0x3e2ddbd3	0.16978388
193	0x3e480cdb	0.19536154
194	0x3e9c8554	0.3057047
195	0x3e2178b3	0.157687
196	0x3d7f2253	0.062288594
197	0x3e4cc1ef	0.19995855
198	0x3e9cdde7	0.30638048
199	0x3e474fce	0.19464037

lstm.bias_hh_l0 f4 [200]
0	0x3e51866f	0.20461439
1	0x3e26fb7d	0.16306873
2	0x3e47b381	0.19502069
3	0x3e9c1e59	0.30491903
4	0x3d30e2e7	0.04318514
5	0x3e83a86f	0.25714442
6	0x3ec13075	0.37732282
7	0x3e5d1e50	0.21593595
8	0x3fcb5b41	1.5887223
9	0x3f1ab786	0.60436285
10	0x3e3b994f	0.18320201
11	0x3e9c2f5b	0.3050488
12	0x3ebf21dd	0.37330523
13	0x3e6a9cd4	0.22911388
14	0x3ecbc793	0.398007
15	0x3c65b64f	0.014020517
16	0x3e408ea1	0.18804409
17	0xbbd34bc7	-0.0064482423
18	0xbdbbf941	-0.09178401
19	0x3dd4a149	0.10382325
20	0x3e9345a5	0.28764072
21	0x3e83d6d6	0.25749844
22	0x3e5b22e2	0.21400025
23	0x3d164e5c	0.036695823
24	0x3ded39ac	0.11583266
25	0x3e8925a2	0.26786524
26	0x3e1a9298	0.15094984
27	0x3e6adf10	0.22936654
28	0x3ec8f885	0.39252105
29	0x3ec1820c	0.3779453
30	0x3e9eb6c6	0.3099882
31	0x3de320e0	0.11090255
32	0xbd4023c8	-0.046909124
33	0x3eada345	0.33913627
34	0x3d63caa9	0.055613194
35	0x3da26df3	0.079311274
36	0x3b459ab1	0.0030152018
37	0x3d7ef082	0.062241085
38	0x3e857e4b	0.26072916
39	0x3e802c8f	0.25033996
40	0x3e266b9d	0.16251989
41	0x3e6b63b1	0.22987248
42	0x3d122b01	0.035685543
43	0x3c5f9bf7	0.013648025
44	0x3e594d20	0.21220827
45	0x3dd698f4	0.10478392
46	0x3e36ea68	0.17862856
47	0x3e8dbb2a	0.27681857
48	0x3ee6a2a3	0.45045957
49	0x3dea99bd	0.114551045
50	0xbe07873e	-0.13235185
51	0xbd43800b	-0.047729533
52	0x3d9f7224	0.077854425
53	0x3e1ac880	0.15115547
54	0x3e37bd08	0.17943203
55	0x3cc14ebf	0.02359712
56	0x3d58aa48	0.052896768
57	0x3c25fbd9	0.010130846
58	0x3e71ff12	0.23632458
59	0x3e4eb4a7	0.20186101
60	0xbdb9f29d	-0.09079478
61	0xbd8e52ae	-0.06949364
62	0x3d9021f8	0.07037729
63	0xbcacb490	-0.021082193
64	0x3d8a3af5	0.067495264
65	0xbc7c01cf	-0.015381291
66	0x3d85b592	0.065287724
67	0xbcf4c2b5	-0.029878
68	0xbd6496ef	-0.055808004
69	0x3d6ee502	0.058323868
70	0x3c869efe	0.016433235
71	0x3d34359c	0.04399644
72	0xbd0d39d0	-0.034478962
73	0xbe51deca	-0.20495144
74	0x3dd03324	0.10166004
75	0x3dc994ff	0.09842872
76	0xbdc24612	-0.09486021
77	0xbe47c817	-0.19509922
78	0x3d00b621	0.03142369
79	0xbc908fce	-0.017646696
80	0xbdbf44fe	-0.09339331
81	0x3c43175a	0.011907423
82	0x3d786e78	0.060652226
83	0x3e0a31b2	0.1349552
84	0xbd51747f	-0.05113649
85	0xbc9fe49f	-0.019518195
86	0xbe4cfca1	-0.20018245
87	0x3d6e872e	0.058234386
88	0x3dd18dc9	0.102321215
89	0x3d37d952	0.044884987
90	0x3db81930	0.08989179
91	0x3c9edf65	0.019393632
92	0x3e0ba2fd	0.13636394
93	0xbda21ea5	-0.07916001
94	0x3c59e3e9	0.013298967
95	0xbb4d2351	-0.0031301568
96	0x3db59468	0.08866197
97	0xbd20c634	-0.03925152
98	0x3e47b5e9	0.19502987
99	0x3e1ec491	0.15504672
100	0x3e37a1c1	0.17932798
101	0xbe027372	-0.12739351
102	0x3bcfafab	0.00633808
103	0xbd0a8e1e	-0.03382694
104	0xbd185f74	-0.037200406
105	0xbca78488	-0.020448938
106	0xbca70a3c	-0.020390622
107	0x3d2cd098	0.042191118
108	0xbdc75926	-0.097338006
109	0x3c3f8dff	0.011691569
110	0xbd34a610	-0.044103682
111	0x3d40c840	0.047065973
112	0x3e2931f1	0.16522957
113	0xbdbea2a0	-0.09308362
114	0x3cfd85aa	0.030947525
115	0xbd564727	-0.05231395
116	0xbdeb592f	-0.1149162
117	0x3dde7b39	0.108633466
118	0x3a37de5d	0.00070140307
119	0xbdac9b5d	-0.08428071
120	0x3de7c66a	0.11317141
121	0xbdb0557a	-0.08610053
122	0xbd9c3faf	-0.07629334
123	0x3dd6d2b6	0.10489409
124	0x3e0fc59e	0.14040229
125	0xbc931e6e	-0.017958846
126	0xbde04087	-0.109498076
127	0x3d61b0ef	0.055100378
128	0x3d05f673	0.032705735
129	0x3e1e80c0	0.15478802
130	0x3e070275	0.13184531
131	0x3de24502	0.110483184
132	0xbe10f75f	-0.14156865
133	0x3dbdb4aa	0.092629746
134	0x3e1912c2	0.14948562
135	0x3d25a6d9	0.04044232
136	0x3cc136d1	0.023585709
137	0x3e2d0721	0.1689725
138	0xbd3e0069	-0.04638711
139	0x3d842e8c	0.064541906
140	0xbe677bc0	-0.226058
141	0xbcca0d1b	-0.024664452
142	0x3dd83267	0.105564885
143	0x3dfb3c86	0.12267403
144	0x3d96eb7f	0.07369136
145	0xbe4a625c	-0.19764084
146	0xbdc0228f	-0.093815915
147	0x3d02c14b	0.03192262
148	0xbe19258e	-0.14955732
149	0x3dfe40d3	0.12414708
150	0x3dd7f2df	0.10544371
151	0x3e0d2940	0.13785267
152	0x3eb075e1	0.34464934
153	0x3ea7ff73	0.3281208
154	0x3e701665	0.23446043
155	0x3b9d2db0	0.004796706
156	0x3e1d9f89	0.15392889
157	0x3ec83f09	0.39110592
158	0x3d9ece68	0.077542126
159	0x3f00aef2	0.50266945
160	0x3e701853	0.23446779
161	0x3e9ad666	0.30241698
162	0x3e9db47d	0.30801764
163	0x3e4f643f	0.20253085
164	0x3e1eb756	0.15499625
165	0x3e9b5754	0.30340064
166	0x3e21128b	0.1572973
167	0x3e59e36a	0.21278158
168	0x3e2cbc38	0.16868675
169	0x3e3f64ed	0.18690844
170	0x3ea2bab6	0.31783074
171	0x3e5e58f6	0.21713623
172	0x3e73f686	0.2382451
173	0x3e0a34c1	0.13496687
174	0x3d5a37dd	0.05327593
175	0x3e9e71aa	0.30946094
176	0x3dcf7fc0	0.10131788
177	0x3e4e9b49	0.20176424
178	0x3e8d3599	0.27579954
179	0x3e07de99	0.13268508
180	0x3ea5a45d	0.32351962
181	0x3e946e91	0.28990605
182	0x3d066d28	0.032818943
183	0x3e65c090	0.22436738
184	0x3df993ae	0.12186371
185	0x3e76c387	0.24098025
186	0x3e4108f0	0.18851066
187	0x3d9e84f8	0.077402055
188	0x3e796632	0.2435539
189	0x3e60074b	0.21877782
190	0x3e82bc4a	0.25534278
191	0x3d09e3b6	0.033664428
192	0x3e159aaf	0.14609788
193	0x3e166ce7	0.1468998
194	0x3e375c2d	0.17906256
195	0x3d5d8c5b	0.05408893
196	0x3eab638c	0.33474386
197	0x3d263fc4	0.040588155
198	0x3de91354	0.1138064
199	0xbc125e8b	-0.008933674

linear.weight f4 [4, 50]
0	0xbe446c0c	-0.19181842
1	0xbc076186	-0.0082629975
2	0xbd2cf4cb	-0.04222564
3	0x3e1c0187	0.15234958
4	0xbe4595a7	-0.19295369
5	0xbc926b03	-0.017873293
6	0x3e342bec	0.1759488
7	0xbe14d106	-0.14532861
8	0xbe559cfc	-0.20860666
9	0xbc50c7c6	-0.012742942
10	0x3dda330a	0.10654266
11	0x3d9dfa59	0.07713766
12	0x3e31e830	0.17373729
13	0xbe490885	-0.19632156
14	0x3e9177cc	0.2841171
15	0xbd7ea07c	-0.06216477
16	0x3e306658	0.17226541
17	0x3cdfd707	0.027324213
18	0xbe32907b	-0.17437927
19	0xbd807974	-0.06273165
20	0xbdb45422	-0.088051096
21	0xbd916f3a	-0.07101293
22	0x3dcff724	0.1015456
23	0x3e3bc6b0	0.18337512
24	0x3e22d037	0.1589974
25	0xbd840755	-0.06446711
26	0xbe2fb846	-0.17160138
27	0x3e454ac4	0.19266802
28	0xbd1028af	-0.03519505
29	0x3db80981	0.08986188
30	0xbdaf5e1c	-0.08562872
31	0x3e5437ff	0.20724486
32	0x3da02904	0.07820323
33	0x3e55d470	0.2088182
34	0x3e245e31	0.16051556
35	0x3e7818ba	0.24228182
36	0xbe85d831	-0.26141503
37	0xbe57f2b4	-0.21088678
38	0x3c7622f1	0.015022979
39	0xbdd9f331	-0.10642088
40	0x3cbc8645	0.023013243
41	0x3da1862a	0.07886918
42	0x3db0054c	0.0859476
43	0x3e5dfe25	0.2167898
44	0x3e8ee757	0.27910873
45	0x3c91b0c6	0.017784487
46	0x3d8d99e5	0.06914119
47	0x3e26dc34	0.16294938
48	0xbdfc38f7	-0.12315553
49	0xbd0ed478	-0.034870595
50	0x3c9a8649	0.01886286
51	0xbe87ee85	-0.26549163
52	0x3e3f692c	0.18692464
53	0x3ebef7d7	0.37298462
54	0x3e406922	0.18790105
55	0xbdf99886	-0.12187295
56	0xbd92a75f	-0.0716083
57	0xbe53f941	-0.20700552
58	0xbe0e9ebb	-0.13927738
59	0xbd902fdf	-0.07040381
60	0xbe74f1a3	-0.23920302
61	0xbe13e879	-0.1444415
62	0xbd6ff30d	-0.0585814
63	0xbc45bcb0	-0.012068912
64	0x3e95e2ef	0.292747
65	0x3dbf2ba8	0.09334499
66	0xbdf8493b	-0.121233426
67	0x3e160770	0.14651275
68	0x3e31c796	0.17361292
69	0x3e86d842	0.26336867
70	0x3d1b34ea	0.03789226
71	0x3e13a59e	0.14418647
72	0x3dbbf688	0.091778815
73	0xbc9c7269	-0.019097524
74	0xbcbb6215	-0.022873918
75	0x3de9ace2	0.11409928
76	0x3cc93581	0.024561645
77	0xbe6f8a6a	-0.23392645
78	0xbe43e454	-0.19130069
79	0xbe8b0369	-0.2715104
80	0x3e0ded7f	0.13860129
81	0xbe3adc6b	-0.18248145
82	0x3d1e150b	0.038594287
83	0xbcaab907	-0.020840181
84	0xbd4d46a5	-0.0501162
85	0xbe264744	-0.16238123
86	0x3e32799e	0.17429206
87	0x3e4794bd	0.19490333
88	0xbeb33feb	-0.35009703
89	0x3e1f87cb	0.15579145
90	0xbe3e9efb	-0.18615334
91	0x3e0e241d	0.13880964
92	0x3d0b107a	0.03395126
93	0xbdc8ba46	-0.09801154
94	0xbe13eccc	-0.144458
95	0x3e944bdc	0.28964126
96	0x3ebb06fd	0.3652877
97	0xbd42600b	-0.047454875
98	0x3d85ddf5	0.065364756
99	0xbccca2a9	-0.024979906
100	0xbe4109e3	-0.18851428
101	0xbda23800	-0.079208374
102	0xbd75579e	-0.05989801
103	0xbd09a502	-0.03360463
104	0x3e480879	0.19534482
105	0xbe80b685	-0.2513925
106	0x3da01132	0.0781578
107	0xbdbed502	-0.09317972
108	0x3d495f2e	0.049163036
109	0x3e6d36ee	0.23165485
110	0x3e55ecec	0.2089116
111	0x3ba6f379	0.005094942
112	0xbe301826	-0.17196712
113	0xbd90e82a	-0.07075532
114	0xbe289797	-0.16464077
115	0xbdad05de	-0.08448385
116	0x3e661ac0	0.22471142
117	0x3db30812	0.08741774
118	0x3d47a280	0.048738956
119	0xbe19f2a0	-0.1503396
120	0xbe2485a2	-0.16066602
121	0x3be72134	0.0070535187
122	0x3e32c8d4	0.17459422
123	0xbd7cb9d5	-0.06170066
124	0x3e5b3c0a	0.21409622
125	0xbe22a7c7	-0.15884314
126	0x3e1da19d	0.15393682
127	0x3d84e618	0.064891994
128	0x3e57082d	0.20999213
129	0xbdd89c52	-0.10576691
130	0x3e0199b2	0.12656286
131	0x3d6b518e	0.057450823
132	0x3e065149	0.13116945
133	0xbc80a03e	-0.01570141
134	0x3ddcf268	0.10788423
135	0x3e6b4960	0.22977209
136	0xbc404160	-0.011734337
137	0x3b80978e	0.0039243167
138	0x3db4489f	0.08802914
139	0xba8b8b98	-0.001064646
140	0xbe227a78	-0.1586703
141	0x3bc56181	0.0060235863
142	0xbddb0891	-0.10694993
143	0xbd868110	-0.065675855
144	0xbe978e1d	-0.2960061
145	0x3e208e42	0.15679267
146	0xbd3d795b	-0.04625831
147	0x3e1a2ff9	0.15057363
148	0xbe44546d	-0.19172831
149	0xbe67efca	-0.22650066
150	0xbd030deb	-0.031995695
151	0x3e1f48c0	0.15555096
152	0xbc4c3260	-0.012463182
153	0xbcad0e23	-0.021124905
154	0xbdfbb82a	-0.12290986
155	0x3e4504cc	0.19240111
156	0xbcf8e5f2	-0.030383084
157	0x3e1ea6a7	0.1549326
158	0x3d789170	0.060685575
159	0xbd063475	-0.03276487
160	0x3e1ae273	0.15125446
161	0xbd8ebe54	-0.06969896
162	0x3e13fc8a	0.14451805
163	0x3ce73cab	0.02822717
164	0xbd435848	-0.047691613
165	0x3e0399cb	0.12851636
166	0x3a84203b	0.0010080406
167	0x3da2a2a0	0.079411745
168	0xbd075bb0	-0.033046424
169	0x3d9fff30	0.07812345
170	0x3e784497	0.24244915
171	0x3ea285e0	0.31742764
172	0x3e396885	0.18106277
173	0x3e8f251e	0.27958006
174	0x3e09d669	0.13460697
175	0xbe9317de	-0.28729147
176	0xbeabe27f	-0.3357124
177	0xbde499b8	-0.11162132
178	0xbe183745	-0.14864834
179	0x3e3c80f6	0.1840857
180	0x3dca5af6	0.09880631
181	0x3dae94e8	0.08524495
182	0xbeb461ed	-0.3523096
183	0xbe27afd5	-0.16375668
184	0xbe3eb038	-0.1862191
185	0xbe405aa8	-0.18784583
186	0xbe793f17	-0.24340473
187	0xbe08edc1	-0.13371946
188	0xbdb6236b	-0.08893474
189	0x3cef0b28	0.029180124
190	0x3dd49364	0.10379675
191	0x3d687bcf	0.056758698
192	0xbdc353e5	-0.09537486
193	0x3e2ffaad	0.17185469
194	0xbd9a136c	-0.07523236
195	0xbda0dfa3	-0.07855155
196	0x3e052305	0.1300164
197	0x3e3115fe	0.17293546
198	0x3e487cb2	0.19578817
199	0x3db286d1	0.087171204

linear.bias f4 [4]
0	0xbd99518a	-0.074862555
1	0xbd9b66c6	-0.07587962
2	0x3dd4727a	0.10373397
3	0xbe6207de	-0.22073314
