lstm_FullData/trial10/jt2_pos/lstm_model_epoch148.pth (torch, 50829 bytes, 5 tensors)

lstm.weight_ih_l0 f4 [200, 8]
00000000: 2f03 a8bd efaf 573d fe8b 81bd 5d54 33be
00000010: 3143 aabb 106e 9dbd 3f68 4f3d a0f4 86bd
00000020: 27e1 d13d d2ae 0c3e 7b05 a53e f4f4 d5be
00000030: 6329 a2bd 78d1 61bd 48ec b13d 8e02 5ebc
00000040: 2590 86be fd1f 25be 56d6 2ebc 80ba 1dbe
00000050: c820 38be b515 943d 9e23 853e d19a 7cbe
00000060: 4e55 fc3d 2222 71be 319b b43e cfdc a9be
00000070: b225 b0bd 666d c7bd 161b a13d 0f9d 49bc
00000080: c032 ffbb 7985 bd3c 8463 083e 06d8 5cbe
00000090: b5e4 243c c434 24be 885f a9bd 1f25 ccbc
000000a0: 4862 65bc e99b a23d bf73 693e e796 86be
000000b0: 94e0 383d 28f5 aabd 3021 c4bd 2ae3 40be
000000c0: 1371 1d3f cf79 1cbd 7cfb ffbd 30a8 c0be
000000d0: 4bc2 61be 9804 1a3e 460a 3f3e bdf8 4dbd
000000e0: d2ee 823d f942 b9bb 5d79 0bbe 6ec0 96be
000000f0: b2e6 c3bd a067 a03d 7715 40bd ad16 90bd
00000100: af51 97bc 4921 533e bdbb 053e b9ae b8be
00000110: bac1 65bc ec62 f43d 64c1 a83e 7d43 38be
00000120: ad3a 7e3d c30e 603d f8cb fb3d 7288 95be
00000130: 03f7 16be cd08 c63d 00d5 c23c ca0f 973d
00000140: 4119 19be 391d df3d 18b8 af3d 3348 29bd
00000150: 0bbb 9f3d 0cbe bebd a75e 0e3e 5ea4 8ebd
00000160: 6709 7fbd 5844 b63d 4940 1b3e 0fc5 ff3c
00000170: 2c1e dbbd b65d 92bb 14b8 0a3e 69c9 9abd
00000180: 68f2 acbc b2ca a23b 589e c8bc 0b12 52bd
00000190: b414 8fbd 360a babd bb12 4abe d3b9 cfbc
000001a0: ba7c cdbd 9ad4 d3bd 42e0 793d 2941 87be
000001b0: 08c0 54be 91f9 8bbd da34 2e3e 24e7 41be
000001c0: 164e c93c 8eff 39be c5c6 b93e acdd acbe
000001d0: 6480 1c3e 3f53 643d 8c99 643e 01a9 433e
000001e0: dfb0 19be f222 21bd 70bd 823e e08c 56be
000001f0: e14e 913c 482d 203c 869c 2bbe 47f2 8f3e
00000200: 47dd 0c3d 17bb 1ebe 7bb7 ba3e 04c0 85be
00000210: 0448 f13d f0e5 d9bd 64f9 e4bc f649 0c3e
00000220: 07a7 153e bb8c 723c c9d6 c03d d81c ed3d
00000230: cb1e 21bd 65ae 3fbd 4ee3 ebbc 0258 aab9
00000240: ff22 c53d 7e05 403e a840 893d c9f2 adbd
00000250: 8277 d9bb cfad 383d d435 683d 2276 37be
00000260: 170f ffbb 9825 bb3d 2335 ad3e 34dd d9be
00000270: 3c6e b6bc 929c 3abd 0059 0abe 91da 9c3a
00000280: 3157 c73e 523f 99bd 6e90 ca3d 29ba c9bd
00000290: cd88 60bd 7d2c ef3d 48cc 193e 04c6 ebbd
000002a0: 4a1b 133d ecd0 1e3d de46 6c3e ed76 abbe
000002b0: 72a0 26be 1d3d 59bc 1a61 91bb 24ba 003e
000002c0: 3131 d53d 6efe 5bbe c716 253e 22a1 86be
000002d0: 9c66 d33d 04c1 dabd 023f 623d 7b8f 0d3e
000002e0: 27be df3d 564d 34be 2dac 2c3e 2e7d 60be
000002f0: dc3c 9f3d f5b6 8ebe 06bc 873e eea0 f0bc
00000300: e4ae 25be 543b 0f3c 6613 a4bd 7e80 2b3d
00000310: 8e34 26be 4347 dfbd 6bf4 a5bd abd9 67bd
00000320: 969e 2e3d 3f2b 283e 1ebc 963d 0eca 35be
00000330: 73c1 0cbd 2d16 1a3d 2511 983c 0f2d 3bbe
00000340: ae0e 00be d330 04be 3eb2 1e3e 6da3 0cbe
00000350: e870 493e 2e43 91be c309 9e3d 665a 543e
00000360: eb2b 90be fb11 8f3d 9cfa d53e b19d 1cbe
00000370: 4e56 89be 45fb c23d a264 fe3e 7312 90be
00000380: 29ea 9bbd 6208 a6b9 2943 9cbb 8e46 76be
00000390: 6edd 723d 4f5d 593d e6db a13d 35a9 babd
000003a0: 5913 b73d daed a23d d966 a03e 27eb dcbe
000003b0: cc85 443d a9c1 993d bfc0 fb3d 613f 413e
000003c0: 9105 e13d 5aa3 75bd 0fbd 2abe f098 413d
000003d0: f9a9 20be ad9a 13bb 34e7 d03d 79f3 c7be
000003e0: 5c67 65bd 378b 01be 7054 8a3e 18c7 d9bd
000003f0: 3bd8 21bd 812a d03d c321 ddbc 1ec0 963c
-0.08203732 0.052658018 -0.063255295 -0.17512651 -0.005195998 -0.076870084 0.050636526 -0.06589627
0.102480225 0.13738564 0.32230744 -0.41788447 -0.0791805 -0.055131406 0.08687645 -0.013550414
-0.2628185 -0.16125484 -0.010671219 -0.15403175 -0.17981255 0.07230703 0.26003736 -0.24668433
0.12320958 -0.23548177 0.35274652 -0.33176276 -0.0860094 -0.09737663 0.07866494 -0.012305512
-0.0077880323 0.023134934 0.13319212 -0.21566781 0.010064294 -0.16035753 -0.08270174 -0.024920044
-0.014000483 0.07939894 0.2279806 -0.26287004 0.04513605 -0.08347541 -0.095766425 -0.18836656
0.6150066 -0.038202103 -0.12499139 -0.37628317 -0.22046773 0.15040815 0.18656263 -0.050286043
0.063932076 -0.0056537357 -0.13620515 -0.29443687 -0.09565486 0.07832265 -0.04689547 -0.07035575
-0.018471567 0.20618166 0.13059898 -0.36070803 -0.014023239 0.1193293 0.32960045 -0.17994495
0.062067676 0.054701578 0.12294763 -0.29205662 -0.14742665 0.09669647 0.023783207 0.073760584
-0.1495104 0.10894246 0.08580035 -0.04132862 0.077993475 -0.09313592 0.13903295 -0.06964944
-0.062264826 0.08899754 0.15161242 0.031221895 -0.10699114 -0.0044667376 0.13546783 -0.07557947
-0.021111682 0.004968011 -0.024489567 -0.05128674 -0.06986371 -0.09083979 -0.19733708 -0.025357163
-0.10033555 -0.10343285 0.061004885 -0.264169 -0.20776379 -0.068347104 0.17012349 -0.1893583
0.024573367 -0.18163893 0.36284462 -0.33762872 0.15283352 0.055743452 0.22324198 0.19107439
-0.15008877 -0.039339967 0.25535154 -0.20952177 0.017737808 0.009776421 -0.16758928 0.2811453
0.034390714 -0.15501057 0.3646811 -0.2612306 0.11781314 -0.1063956 -0.02795095 0.13700089
0.14614497 0.014804061 0.09415967 0.11577767 -0.039336007 -0.046797175 -0.02879491 -0.00032490498
0.096258156 0.18752095 0.06701785 -0.08493573 -0.006636561 0.04508763 0.05669196 -0.17916158
-0.0077837813 0.0913803 0.33829603 -0.42551577 -0.02226936 -0.045559473 -0.13510513 0.0011966993
0.3893371 -0.074827805 0.09890829 -0.0984996 -0.054817963 0.11678407 0.15019333 -0.11512378
0.035914697 0.038773462 0.23073909 -0.3348917 -0.16272143 -0.013259199 -0.0044366242 0.12571007
0.10409773 -0.21483776 0.1612197 -0.2629481 0.103223056 -0.10681346 0.05523587 0.13824265
0.109249406 -0.17607626 0.16862555 -0.21922752 0.0777528 -0.2787396 0.26510638 -0.029373612
-0.16179997 0.008742172 -0.080115125 0.041870587 -0.16230986 -0.10902264 -0.0810326 -0.05660407
0.042631708 0.16422747 0.07360099 -0.17752859 -0.034364175 0.037618805 0.018562863 -0.18278907
-0.125056 -0.1290925 0.15497681 -0.13734217 0.19671977 -0.28371567 0.07716706 0.2073761
-0.28158507 0.069858514 0.41792762 -0.1529453 -0.26823658 0.09520582 0.49686152 -0.28139076
-0.07613022 -0.00031668233 -0.0047687483 -0.24050352 0.059293203 0.0530675 0.079032704 -0.09114305
0.08939237 0.07955523 0.31328467 -0.43148157 0.04797916 0.07507641 0.12292623 0.18871833
0.1098739 -0.059970237 -0.16673683 0.047264993 -0.1568984 -0.0022522614 0.102003485 -0.39052942
-0.056006774 -0.12650762 0.27017546 -0.10633677 -0.039512854 0.10164357 -0.026993638 0.018402155

lstm.weight_hh_l0 f4 [200, 50]
00000000: cb34 b7bd e120 0b3e 94f2 18be d641 16be
00000010: a5ea 22bd e953 233d 1d59 193e 5ebd 60bd
00000020: bd90 13bd 1410 033e b460 40bd ac64 f6bd
00000030: d51f 8e3c 8ef0 b73d 4c98 973d 15c8 68bd
00000040: 64fc 9cbd 3008 613e 8b70 ccbd ffd3 ff3b
00000050: 2385 88be 9063 823c bd7c 4e3d 504a 5a3d
00000060: d3fb 193e 1960 97bd 5fba 5d3d b318 dabd
00000070: ba2f 9c3d d1e1 633c 8c68 143d 48ab 0e3e
00000080: d1af 173c 3d2d e43d 95b2 b13d 1d24 03bc
00000090: 8e7e c2bd f885 2ebe 93ba 223d d881 abbc
000000a0: 80aa 4a3b cc33 34bd 2f8f 1c3d ec2f edbd
000000b0: f17f 5fbc a719 12bd b306 c03b 6234 06be
000000c0: c922 2fbd ae08 083e 7881 553e bb8f 08be
000000d0: 9b5c 2f3e a5c3 1a3c 9e9f 64be 348f 783e
000000e0: 4434 3a3c 367f 2e3e 6854 273d 2f80 0cbe
000000f0: 82a0 1abd 8899 f63c 1d6d 0abe 2823 4cbe
00000100: 5fcb 10be 37ae 9ebd c9e6 183e d0c1 3dbd
00000110: b20f 48be cf07 843b 3c02 c83d 47fc 4e3d
00000120: b028 2d3b dc8b f2bd 9bcc c1bd a536 a63c
00000130: 1f0f 3b3d b47e 8abb ca16 cebc 8894 013e
00000140: 265c bfbd f350 493e 56b2 c33d b290 e4bc
00000150: 1f39 b5bc 32ad 54bd f88e 3fbd 7c29 ac3e
00000160: 2cd5 51be 6c1a 823d 314e 50bc f5c2 113e
00000170: 888b 433d 36f3 aa3d 4c58 dd3d 8507 4abe
00000180: cba5 14be 3d87 273d adc2 e43b 9a4f 683e
00000190: 9135 a53c 9fda 10be bcf3 2e3e 2534 093d
000001a0: f4d1 28bd 2df8 a9bd 12ff 14bd 4a43 59bd
000001b0: 1633 4cbd 2e17 f23d a3d2 13be b23c a8bd
000001c0: 088f 943c 5a99 8a3c c906 38be bb1e b2bc
000001d0: bda8 b73d 7eca 173e 10bb d5bd ae55 5ebe
000001e0: f018 0abe 1205 283a d0b1 663d cddf 1dbe
000001f0: fe20 23be 0b24 82bc 1983 aabd cfcf 8b3e
00000200: 1e4a 8c3d 0870 0fbd 2fc4 83bd 3774 d6bd
00000210: 5e6b 90bd 1204 483e 22a9 9ebc 42dd 8cbb
00000220: 15c4 58bd 002f 383e a9de ddbd c90c 04be
00000230: fda8 e0bd feb6 123e 4741 a13d cfa9 433d
00000240: 2c8c 463d ab4f 97bd 40ea 353c be3f d6bd
00000250: fa16 9bbd 2cbb 3e3e a3d4 ae3d e9cc f2bc
00000260: e3e5 23bc e299 303e 2816 38be f63f b43d
00000270: 3a16 d7bd 2c19 0e3d a848 c53d 6905 b43d
00000280: 03a6 f9bb 3ba3 3ebe dfdc 08bd 97c9 e8bd
00000290: 265f c13d 449c 6b3c 5bd6 d0bd 0d67 173d
000002a0: 1b6e b13d 4d0e 18bd 9c19 193c cdde 96bd
000002b0: 1486 293e 7490 0a3e 5763 01be 83ce 2dbe
000002c0: 22ee b13c eae0 a93c 1049 bebc 2d22 203d
000002d0: ad9d d33d 2cb7 3bbc 8ef5 d6bd 5451 433e
000002e0: 844f 2d3e bd3d 67be eeda 9bbc aad9 01be
000002f0: 12a5 cdbd 85b5 35bd f61f 5bbd 8437 823c
00000300: 9df7 ba3d 3012 49be c654 0ebe e552 30bd
00000310: a01c ee3d 8ca5 dc3d 5760 85bd 44a4 0fba
00000320: 18bd 2f3c 980b 543d b133 d23b 9870 68bc
00000330: 453b a3bd 7b28 f7bc b112 b0bd a536 fc3d
00000340: 5ba5 783d 2155 31be 0785 da3c 8f3c 95bd
00000350: 96e0 05be 77da 8b3b aa2e 803d d1b6 5abd
00000360: 3526 3a3e 5ad5 27be 2106 1f3e 543d 033c
00000370: 4bf5 31bd d605 b3bc 4cee 99bc c210 43bd
00000380: 932b 86bc 28a1 b6bc bd9f 2c3e 14fb 58bd
00000390: db2c 8abd 950f 0b3e b619 203b bcc4 58b9
000003a0: c7a0 043d 1742 a53c 3213 b53d 2624 5c3d
000003b0: 7fc4 19be c1b9 a33d d696 2cbe 8307 12be
000003c0: ed6f 043e e253 d43d 4e94 92bc 40dd 153d
000003d0: 8fe4 29bd 50d8 06be b69a 4c3d 2f56 023e
000003e0: 47d0 afbc 1e15 02be 0431 8b3d 6b4a 85bd
000003f0: ea6f 0dbe be5e 883e 0fea 2d3d 3d27 a03d
-0.08945616 0.13586761 -0.14936286 -0.14673552 -0.039774556 0.039874945 0.149754 -0.054868095
-0.036026705 0.12799102 -0.046967223 -0.120309204 0.017349163 0.08981429 0.07402095 -0.056831438
-0.07665327 0.2197578 -0.09982403 0.0078072543 -0.26664075 0.015916616 0.05041193 0.053293526
0.1503747 -0.07391376 0.054132815 -0.10649242 0.076262906 0.013908819 0.036232516 0.13932526
0.0092582265 0.11141441 0.0867664 -0.008004216 -0.09496795 -0.17043293 0.039728712 -0.020935938
0.003092438 -0.04399471 0.038222488 -0.11581406 -0.013641343 -0.035668995 0.0058601736 -0.1310592
-0.042757783 0.13284561 0.2085017 -0.13336079 0.1712517 0.009446059 -0.22326514 0.24273378
0.011365 0.17040715 0.04085198 -0.13720773 -0.03775073 0.030102506 -0.13518186 -0.19935286
-0.1414008 -0.077480726 0.14931788 -0.046327412 -0.19537237 0.004029251 0.09766051 0.05053356
0.0026421957 -0.11843082 -0.094628535 0.020289728 0.045668717 -0.00422653 -0.025157351 0.12654316
-0.09343748 0.19659786 0.09555499 -0.027901027 -0.022121964 -0.051922984 -0.046767205 0.336254
-0.20491475 0.06352696 -0.012713955 0.14234526 0.04774049 0.0834717 0.10807857 -0.19729431
-0.1451637 0.040900458 0.006981215 0.22686616 0.020167144 -0.14145897 0.17085165 0.033496995
-0.041215852 -0.08299289 -0.036376067 -0.053042687 -0.049853407 0.118208274 -0.1443582 -0.08214702
0.018134609 0.016918827 -0.17971338 -0.021743169 0.08967731 0.14823338 -0.1043607 -0.21712372
-0.13486075 0.0006409447 0.05632192 -0.15417404 -0.15930554 -0.015886327 -0.08325786 0.27306983
0.06850074 -0.03501895 -0.064339034 -0.10471385 -0.07051729 0.19532803 -0.019367758 -0.004298837
-0.052921373 0.17986679 -0.10833485 -0.12895502 -0.10969732 0.14327618 0.07873779 0.047769364
0.048473522 -0.07388242 0.011103213 -0.104613766 -0.07572742 0.18626088 0.08536651 -0.029638724
-0.01000354 0.17246202 -0.17977202 0.08801262 -0.10502286 0.034691975 0.09632999 0.087900944
-0.007618667 -0.18616955 -0.033413764 -0.11366575 0.09441976 0.014380518 -0.10197135 0.03696351
0.08663579 -0.037123013 0.009344485 -0.073667146 0.16555053 0.13531667 -0.12635551 -0.16973309
0.021719996 0.02073713 -0.023228198 0.039095093 0.10332809 -0.011457246 -0.104960546 0.19073993
0.16924864 -0.22582145 -0.019025292 -0.12680689 -0.1004125 -0.044362564 -0.053497277 0.015895613
0.0912926 -0.19635844 -0.13899526 -0.043047804 0.116265535 0.10773763 -0.06512516 -0.00054794946
0.010726236 0.05176887 0.0064148535 -0.014187001 -0.07970289 -0.03017067 -0.08597315 0.1231511
0.06070457 -0.1731763 0.02667476 -0.07286941 -0.13073954 0.0042679864 0.062589005 -0.053397004
0.18178637 -0.16389981 0.15529682 0.008010227 -0.04344682 -0.021853369 -0.018790387 -0.047623403
-0.0163782 -0.022293642 0.1685781 -0.05297382 -0.06746837 0.13580163 0.0024429387 -0.00020672655
0.03237989 0.020173116 0.08841552 0.05374541 -0.15016364 0.07994414 -0.16854414 -0.14260678
0.12933321 0.10367562 -0.017892983 0.036587954 -0.041477736 -0.13168454 0.04995223 0.12728189
-0.021461619 -0.12703368 0.06796458 -0.06508335 -0.13812223 0.26634783 0.042459544 0.07819984

lstm.bias_ih_l0 f4 [200]
00000000: 2b89 77ba 9a41 1e3d 3b21 213e 551c 783e
00000010: bfa6 323e 9fca ad3e 1ce1 633e 1c78 413e
00000020: 217f 0d3e 98f1 763d 42cf f83d 4468 493e
00000030: 881f 063d 3a91 2a3e 2412 483e 219e a43d
00000040: a02d 1c3e 7a8e 6bbc 627b 80bd 0137 963e
00000050: c35b d7bc d44b 7b3e cf3a 513d b897 633e
00000060: c27e cdbc 6555 3e3e 1f70 c9bc 444c a23e
00000070: e790 333e 6468 683e 10aa 943e c083 fdbb
00000080: 1c0c c33d 31e8 0c3e c1a7 8d3d 11f3 ba3d
00000090: b765 543e d118 833e d84d bb3e baf1 84bd
000000a0: 0620 f73d af59 963e 4363 013e 262c 613e
000000b0: b1f1 823e db5f a83e e0f9 9e3e 0d07 3e3e
000000c0: 5744 81bb bf6e 153e b468 f93d 5e18 82bd
000000d0: 9523 89bc 00b4 1fbd c434 29bd 0b23 303e
000000e0: cc64 fd3d 0636 e03d 9d71 863d b851 9a3d
000000f0: d0e7 2d3e 11f7 683d 871d 1dbd ff7e 3e3e
00000100: 120b 6f3d 978f 87bd 1824 8bbd 8018 96bd
00000110: 29fe 3bbd ce18 59bd 5a9f 563d c24d 67bd
00000120: 1f55 b7bd 754e 083d b521 e63d 1fbb 48bc
00000130: 8663 f9bd a959 f5bd cf9b 043e ef24 d2bd
00000140: 1bc7 3d3e d54d 1d3e 4988 c23d 32f6 87bd
00000150: 5036 7cbd 3d72 e93d 3671 3c3d d45a d0bd
00000160: 383a 58be 8bd4 8d3d d517 1f3e dd78 4cbd
00000170: f4e4 1e3e edcd a8bd 8ca8 863c 2017 f93d
00000180: a5c4 debc ce95 3fbe fa2f 7ebd bc19 e0bc
00000190: 055b eb3d f5de 1e3d e775 85bd 0cd2 8dbc
000001a0: 7565 eabd f6ea 6e3d 05d3 623d c5b6 10bd
000001b0: e5e7 473d 5827 28be e524 8a3c de61 0a3e
000001c0: de1e 88bc 7b78 0dbd fe5f 5d3d d348 65bd
000001d0: 6b5f d53d 0fe2 6fbd a1d9 d2bc 24e0 33bd
000001e0: 0e8f 8dbc 77ed d83d a036 583c e8f6 6ebc
000001f0: 1058 97bd 1bb1 7dbd 9456 093e 5c40 08bd
00000200: 6ce2 433e 479d 8b3d d131 143d e154 d53d
00000210: 0fed c03d c143 23be 3883 d8bd 12ee 76bd
00000220: 0929 44be f895 003e f601 453e ba5a 823c
00000230: b629 68bd 5c6e 0f3e 4c71 d3bd 437b 3fb9
00000240: 2e02 c03d a504 2e3e ee9a 36be 387c 593e
00000250: 64ff 273e 5122 c2bd b523 7d3d 9987 b1bc
00000260: 5c54 3b3e 1da8 293e a62d 083d 434f 343e
00000270: 1570 6e3e 40a5 9f3d 97f7 233e 20d1 f53d
00000280: 4662 0c3e fb1e 91bc 758a 423e aa1d 633e
00000290: f27a cf3d 8987 433e 168a 1e3d 8cd9 173e
000002a0: 55ca 1d3e 985d 883e 9488 323e fde7 3cbb
000002b0: b497 5c3e d6f7 3d3e a17e 14bd 1842 d2bc
000002c0: e2bb 8a3d c6ba 403e a149 22bb fe66 a93d
000002d0: 4c0c 843e ef91 1fbd 7e90 8e3e e177 953b
000002e0: d8db 8fbc d406 f13d a3c1 b23d 4b50 863e
000002f0: 0d92 873e 404f 6b3c 0ba5 38bb a90d 423e
00000300: 205f 0f3e cfaf 053e bff6 163e 2477 2f3e
00000310: 0d0c 6f3e 3298 c63d 7c6f 093d 7e2a 113e
-0.0009442742 0.03863678 0.15735333 0.24229558 0.17446421 0.3394365 0.22253841 0.18893474
0.13818027 0.060288996 0.12148906 0.1966868 0.032744914 0.16656962 0.1953817 0.08037973
0.1525178 -0.014377231 -0.062735334 0.2933884 -0.026288873 0.24540645 0.051081475 0.22225845
-0.025084857 0.18587263 -0.024589596 0.3169881 0.17535745 0.22696072 0.29035997 -0.007736653
0.09523794 0.13760449 0.06916762 0.091283925 0.20741926 0.2560487 0.36582828 -0.06491418
0.12066655 0.29365298 0.12635522 0.21989498 0.2557502 0.32885632 0.31050014 0.18557377
-0.0039449143 0.14593028 0.12178174 -0.06352304 -0.0167406 -0.03899002 -0.041310087 0.17200868
0.12372741 0.10947804 0.06564639 0.07535118 0.1698296 0.056876246 -0.038358238 0.18603133
0.058360167 -0.066191845 -0.06793994 -0.07328892 -0.045896683 -0.05300217 0.052398063 -0.05647064
-0.089517824 0.033277947 0.11236898 -0.012251644 -0.12177186 -0.11979992 0.12950061 -0.10260951
0.18532984 0.15361722 0.094986506 -0.06638755 -0.061575234 0.11398742 0.046006404 -0.10173574
-0.21115959 0.06925305 0.15536435 -0.04991995 0.15517026 -0.08242402 0.016437791 0.12162614
-0.027193377 -0.1870949 -0.062057473 -0.027356021 0.1149197 0.038786847 -0.06516629 -0.017312072
-0.11445133 0.058329545 0.055377025 -0.035330553 0.048805136 -0.16421258 0.016863296 0.13513896
-0.016616281 -0.034538727 0.054046623 -0.055977654 0.1041859 -0.058565196 -0.02573854 -0.04391493
-0.017280128 0.10592168 0.013196617 -0.014585234 -0.073898435 -0.06193648 0.13411933 -0.033264503
0.19129342 0.06817108 0.03618032 0.1041658 0.09420215 -0.15943815 -0.10571903 -0.060285635
-0.19156279 0.12557209 0.1923903 0.015912402 -0.056680404 0.14006943 -0.10324344 -0.00018261098
0.09375416 0.16993959 -0.17832538 0.21238792 0.16406018 -0.094792016 0.06180163 -0.021671103
0.182939 0.16568036 0.03324666 0.17608361 0.23284943 0.07795191 0.16012417 0.12002778
0.13709363 -0.017714968 0.1899813 0.22179285 0.10130872 0.19094671 0.038705908 0.14829081
0.15409215 0.26633906 0.17434913 -0.00288248 0.21542245 0.18551573 -0.036253575 -0.025666282
0.06774117 0.18821248 -0.0024763125 0.08271597 0.25790632 -0.038957532 0.27844614 0.00456141
-0.017560884 0.117688805 0.087283395 0.26233134 0.26478615 0.014362156 -0.0028174545 0.18950523
0.14001131 0.13055347 0.14742564 0.17135292 0.23344441 0.09696998 0.033553585 0.14176366

lstm.bias_hh_l0 f4 [200]
00000000: e33e 67bd f833 823e d9b3 5d3e bd75 8f3e
00000010: dd62 5e3e 0437 d33d eb69 f23d be8a 3f3e
00000020: 9607 1f3d 985d 923d 20b7 1b3d 6567 c43c
00000030: a624 843d 1298 8f3e cd9f be3c c229 84bb
00000040: bd60 753c aedd 113e c179 133c 09ae 533e
00000050: 6f89 73bc be14 7b3b cdae 373e bbed ff3d
00000060: c1ee 0a3e 3a96 703d 30de 953d 630b 023e
00000070: 8de2 8ebc 6e83 083e f9ec ad3e c2f5 d83d
00000080: eb1a 983d a4b3 d23d c70b c93d f105 ad3d
00000090: 68d5 363d 12b4 0a3e 4d32 b53e c5e0 71bd
000000a0: c510 b03d 3021 ad3e 94f7 023e 864e dbb9
000000b0: ae23 bd3e 2660 823e 4477 263e 70a7 843e
000000c0: 43cb cdbd 8cc9 f63d 5881 e2bd 1aa8 7a3c
000000d0: 39dd 1cbd 658b be3d f75d db3d 7c67 04bd
000000e0: 31ac 143e 5648 4a3d bd4f 15be 3a1b 133e
000000f0: 3f04 c13d 576e 203e bb84 53bd 6b45 143e
00000100: fbcf 133d c08b 703d 6e90 ca3d 1d3b 023e
00000110: 5f64 6cbd 0cc6 31bd e773 c8bd 47ef 0f3e
00000120: 26ce db3d 7f0b 6bbd aa80 213e fefa 1e3e
00000130: 5801 ff3d fd21 b5bc 4894 ec3d 422e 45be
00000140: 8c7e 613d a430 f43d 542c 03be 3eaa 84bd
00000150: 1163 63bc f894 9b3c 17c3 b13c 374c 81be
00000160: f4c0 6bbe c68f 3dbb 7f06 90bc 9392 80be
00000170: 98f3 edbd be63 8c3d 7b2b e63d 4639 733d
00000180: 2d58 a5bc 85b7 09be fbbf c4bb ef19 2a3e
00000190: 94ed 503b e67e ef3c 39e5 9f3c ec01 5a3d
000001a0: 6714 953d c112 fcbc 9b9f ddbc 577a 213e
000001b0: 0e99 adbd a83d 723d 5f6b 9d3d 9d01 973d
000001c0: f95e fbbd 62d7 4ebd 369f f03d 8e61 bf3c
000001d0: 719f 94bd 6e9e a73c 5e8f 2cbe a7c7 333d
000001e0: d5f2 853d 126e aebd f2d5 773d af5f 263e
000001f0: ce84 903d 8074 1f3e e946 8bbc 003b 1cbd
00000200: e2da 223e e3e5 ce3d fde9 4bbd f608 183e
00000210: 5a42 8fbd e00d 943d 1524 3cbc c080 e53d
00000220: d3f7 e93c c022 05bd aeea da3d 0ec0 21bd
00000230: 7dc9 803d 3a67 63bd 6094 09bd 093e 6ebc
00000240: cdce 5c3d 245c d33d 275d 22be ab74 4b3e
00000250: 7f82 83bd ed15 d43b 88b5 1b3d 8149 0c3e
00000260: ee3c 8d3e 2b5a f83d a93d 853e d17c b1bc
00000270: 8f6e 413d 3b05 aebc 34a4 d93b 52fe 95bc
00000280: 9e31 c83d 12e4 35bd a10b 0b3e b43b 783e
00000290: f8ae fe3d aba9 3c3e 0cb1 323e d65d 3bbd
000002a0: 2dd3 4c3c 0790 703e b2fb 293e 0cd5 143b
000002b0: 3d80 213e dda2 8abc f39f 463e 7c85 853d
000002c0: f8a0 abbb e278 ee3d 52cc d63d a0e8 9d3e
000002d0: 304d fa3d 3d7c aa3d b0c6 633e ae69 c53d
000002e0: 4854 67bc 34a2 26bd cc0e 933d 089b 8a3e
000002f0: 52b8 953e da71 49bd 4dcc 4d3e 1c68 c23e
00000300: b4d2 7f3d b223 cc3d 5367 323e 8d65 e53d
00000310: a2ec 093e b58a 7d3e a9a5 383e e502 733d
-0.056456458 0.25430274 0.21650638 0.28019515 0.21717401 0.10313228 0.118366085 0.1870527
0.038825594 0.07146758 0.03801644 0.023975084 0.06452303 0.28045708 0.023269558 -0.004033298
0.0149766775 0.1424472 0.009001196 0.20671858 -0.01486431 0.0038311924 0.17937775 0.12496515
0.1356764 0.058737017 0.073177695 0.12699656 -0.017442012 0.13331386 0.33969858 0.105937496
0.07427009 0.1028817 0.098166995 0.08448399 0.044637114 0.13545254 0.3538994 -0.059052248
0.085969485 0.33814383 0.12789756 -0.0004182944 0.36941284 0.2546398 0.16256434 0.25908995
-0.10048535 0.12050161 -0.110598266 0.015298868 -0.038296912 0.09303931 0.10711282 -0.032325253
0.14518811 0.04938539 -0.14581199 0.14365855 0.09424638 0.15667091 -0.051640254 0.14479606
0.036087018 0.058727026 0.09890829 0.12717862 -0.05771291 -0.043401763 -0.097877316 0.14056121
0.10732679 -0.05738401 0.15771738 0.15525433 0.12451428 -0.022110933 0.1155172 -0.19255927
0.055052325 0.1192334 -0.12809879 -0.064777836 -0.0138786 0.018991932 0.021699471 -0.2525346
-0.23022825 -0.0028924807 -0.017581223 -0.25111827 -0.116187274 0.06854962 0.11238762 0.059380792
-0.020183647 -0.13448913 -0.006004331 0.16611455 0.003187989 0.029235315 0.019518482 0.05322449
0.07279282 -0.030770661 -0.027053645 0.15769325 -0.084764585 0.05914083 0.07686495 0.073733546
-0.12273974 -0.050498374 0.11749117 0.023361947 -0.072569735 0.020461287 -0.16851565 0.043891575
0.06540457 -0.08517088 0.06050677 0.16247438 0.070565805 0.15571785 -0.017001586 -0.038142204
0.1590381 0.10102441 -0.049783695 0.14847168 -0.069950774 0.07229209 -0.011483212 0.11206198
0.028560555 -0.032503843 0.10689293 -0.0394898 0.06288431 -0.055518366 -0.033588767 -0.0145411575
0.053908158 0.10320309 -0.15855847 0.19868724 -0.064213745 0.0064723403 0.03801492 0.13699915
0.27585548 0.12126573 0.26023605 -0.021665962 0.047224578 -0.021242728 0.006641889 -0.018309746
0.09775089 -0.044406958 0.13578655 0.24241525 0.124357164 0.18424098 0.1745035 -0.045743786
0.01250152 0.23492442 0.1659992 0.0022709994 0.15771575 -0.016923362 0.19396953 0.06519601
-0.005237695 0.1164415 0.1048819 0.3084154 0.122217536 0.08324478 0.22243762 0.096392974
-0.014119215 -0.040682033 0.07180557 0.27071404 0.29242188 -0.049180843 0.20097466 0.37970054
0.0624568 0.09967746 0.17422228 0.1120101 0.13469175 0.24759944 0.18031944 0.059328932

linear.weight f4 [1, 50]
00000000: 512b 06be f524 7b3e 3230 bebd 9711 90be
00000010: 2084 833e 3a3a bbbd 518e 343e a2c0 55be
00000020: 74c3 0e3e c7bf 1f3e e3c2 593e 84e8 f03d
00000030: 038d 383e 4e15 6f3e 47fd 833e 872b 513e
00000040: 92c0 52be c8f3 cebc dbee 133e b73c 6cbe
00000050: 1dca 7a3a 1f94 33be c581 18be 0269 0f3e
00000060: 3cdc db3c b612 d9bd 0f30 53be 5dff 40be
00000070: ca65 3cbe 1bd1 68be 6bd5 193e 0db0 1ebe
00000080: 9203 5fbe 2968 f5bd 5484 b03d 0f6a b0bd
00000090: fde2 533d 791b 37be 5e3c 6f3e 2bcf 08be
000000a0: a92c 983e 7be9 4ebe 589a 1e3d caac 0cbe
000000b0: bad9 16be bb2d 63be e064 1f3e d992 64be
000000c0: b2af b53c cc79 093e
-0.13102461 0.24525817 -0.09286536 -0.2813842 0.2568674 -0.09141965 0.17632414 -0.20874265
0.13941747 0.15600501 0.2126575 0.11763099 0.18022542 0.23347971 0.25779173 0.2042676
-0.20581272 -0.025262728 0.14446585 -0.23070036 0.00095668604 -0.17536972 -0.14893253 0.14004901
0.026838414 -0.10599272 -0.20623802 -0.18847413 -0.18398204 -0.22736017 0.15022819 -0.15496846
-0.21778706 -0.119827576 0.086189896 -0.08613979 0.051730145 -0.17881574 0.23362872 -0.13360278
0.29721573 -0.20206253 0.038721412 -0.13737789 -0.14731494 -0.22185414 0.15565825 -0.22321643
0.022178505 0.13425368
