archive/lstm_singleJoint/trial5/j13/lstm_model_epoch144.pth (torch, 45669 bytes, 5 tensors)

lstm.weight_ih_l0 f4 [200, 1]
-0.14335811 12.556457 0.6648511 1.3596936 0.83069825 0.5156255 0.56208533 -0.5616948
-0.8690878 0.3707005 1.0843959 1.1170509 -0.61159796 0.5128629 -0.4809518 1.6511486
-0.36406413 0.7486196 0.98428106 1.1117306 1.3139746 -0.54804045 0.7210291 -0.842904
-0.12782088 0.14194052 -1.3827323 0.8370458 0.36766466 0.90390456 0.5547027 -0.4992815
-1.1452549 -1.098118 0.23579274 -0.49298066 0.17023884 0.40494776 0.7179965 -0.24931213
-0.5390846 0.73704183 -4.8237967 0.28681472 0.8163605 0.83649325 0.06701029 -5.531916
-0.092725314 0.7740865 -0.037019517 1.106459 0.091788836 -0.07703204 0.72561103 0.65918905
0.25774083 0.46386635 -0.4406751 0.6014257 -0.7065414 -1.638792 0.20374794 0.0059421575
-0.86355436 0.4157853 -1.1124457 -0.083972275 -0.93725836 -0.8138897 0.62305784 0.28861693
1.2134522 -0.8755439 0.51950836 -0.18177956 -0.14224656 -0.58781445 -0.22023141 0.42763138
1.0500032 -0.32732302 0.06806419 -0.016110118 -0.63194656 -1.9616638 -0.7909931 -0.22199677
-0.62422127 0.6496127 0.26605576 -0.9865023 -1.1141357 0.5982596 -0.34546864 -0.25696105
-1.0477053 0.5125727 0.46816823 0.20358717 0.8979257 2.9959133 1.8965687 1.0137837
-0.9790374 1.2338536 1.058458 -0.7122031 -5.960956 -0.8848538 -0.55703896 -0.7298862
-0.9775648 0.21454607 0.16034779 0.84791076 -0.5910693 -0.4895893 -1.5434362 0.91485715
-0.70217794 0.86203617 0.061760843 -0.24714734 0.7283737 -1.1217812 -2.1620939 1.0762392
-0.3113995 -0.75523657 -0.52582353 6.0883665 -1.3044858 0.9026282 1.5816042 -1.6603458
0.99823743 0.3035546 0.40456253 -0.50403535 4.253444 -1.1779996 -2.9517379 -1.5382242
0.8287405 -2.1679106 -0.67632544 -0.7804672 1.3942611 -1.202136 -0.7738273 3.925392
0.30674565 1.6246088 1.3545321 0.7586743 0.7897599 -0.16692102 -0.63231254 0.45780706
0.6905648 -2.6107585 0.6119258 -0.1552394 -0.9173446 1.6409549 -0.598571 0.9339182
0.9625297 1.1249045 2.013692 -1.5887431 1.6218332 -1.2128875 1.4382423 0.37651995
-0.55763614 0.8895281 -0.28112534 1.3816146 1.7218946 -0.37415445 -0.9453058 -0.853121
0.3118458 -0.4555017 -0.47509584 -0.5920067 -0.7229226 -0.44037342 -0.4501267 0.76852673
-5.0923557 0.42291367 0.9054327 0.5021624 -0.6043144 -4.5303493 0.32740206 1.0106376
00000000: 78cc 12be 3fe7 4841 af33 2a3f 710a ae3f
00000010: a4a8 543f 0800 043f d3e4 0f3f 3bcb 0fbf
00000020: 8a7c 5ebf 75cc bd3e 7ccd 8a3f 86fb 8e3f
00000030: af91 1cbf fc4a 033f 503f f6be d658 d33f
00000040: 9d66 babe 89a5 3f3f d8f9 7b3f 304d 8e3f
00000050: 5230 a83f 614c 0cbf 5d95 383f 8ec8 57bf
00000060: 7ae3 02be db58 113e 5ffd b0bf a248 563f
00000070: 8b3e bc3e 4a66 673f ff00 0e3f d3a1 ffbe
00000080: b697 92bf 218f 8cbf a773 713e f667 fcbe
00000090: 1753 2e3e 5055 cf3e 9ece 373f ae4b 7fbe
000000a0: 7301 0abf c6ae 3c3f 8b5c 9ac0 61d9 923e
000000b0: 00fd 503f 6c24 563f b13c 893d 7505 b1c0
000000c0: c5e6 bdbd 882a 463f c7a1 17bd 73a0 8d3f
000000d0: c9fb bb3d f9c2 9dbd a5c1 393f 9dc0 283f
000000e0: 9bf6 833e e47f ed3e 2ba0 e1be 09f7 193f
000000f0: e6df 34bf f0c3 d1bf 4da3 503e 6eb6 c23b
00000100: e611 5dbf d0e1 d43e 9f64 8ebf a8f9 abbd
00000110: 2af0 6fbf 135b 50bf b880 1f3f 99c5 933e
00000120: 6752 9b3f a523 60bf 80fe 043f 6c24 3abe
00000130: 15a9 11be 027b 16bf 5884 61be 80f2 da3e
00000140: 8166 863f e296 a7be 3d65 8b3d 5ef9 83bc
00000150: 40c7 21bf cd17 fbbf 867e 4abf 1f53 63be
00000160: f7cc 1fbf 054d 263f 7638 883e 6a8b 7cbf
00000170: 009c 8ebf 8b27 193f 44e1 b0be 6690 83be
00000180: 351b 86bf f737 033f bfb3 ef3e 2879 503e
00000190: 75de 653f 0bbd 3f40 c3c2 f23f aac3 813f
000001a0: 32a2 7abf eaee 9d3f 8d7b 873f f152 36bf
000001b0: 27c0 bec0 c785 62bf 1b9a 0ebf d2d9 3abf
000001c0: b041 7abf f7b1 5b3e 3632 243e ae10 593f
000001d0: 5150 17bf 73ab fabe 518f c5bf 1434 6a3f
000001e0: efc1 33bf 67ae 5c3f f0f8 7c3d 3114 7dbe
000001f0: b376 3a3f 8796 8fbf bf5f 0ac0 35c2 893f
00000200: c16f 9fbe 2f57 41bf 5f9c 06bf e6d3 c240
00000210: 64f9 a6bf a412 673f 0272 ca3f 3686 d4bf
00000220: 7d8c 7f3f 826b 9b3e d222 cf3e 7608 01bf
00000230: 371c 8840 b1c8 96bf 46e9 3cc0 88e4 c4bf
00000240: 5628 543f 0cbf 0ac0 aa23 2dbf b3cc 47bf
00000250: 2677 b23f 98df 99bf 8c19 46bf 9f39 7b40
00000260: c40d 9d3e 2ef3 cf3f 4f61 ad3f 7b38 423f
00000270: b42d 4a3f 58ed 2abe 3cdf 21bf b065 ea3e
00000280: dbc8 303f ab16 27c0 2ba7 1c3f 14f7 1ebe
00000290: 19d7 6abf cf0a d23f f33b 19bf 4315 6f3f
000002a0: 5968 763f dffc 8f3f 54e0 0040 ef5b cbbf
000002b0: 3b98 cf3f e63f 9bbf 5318 b83f 39c7 c03e
000002c0: 3ec1 0ebf 1db8 633f a9ef 8fbe bfd8 b03f
000002d0: 0b67 dc3f 2c91 bfbe 90ff 71bf 2366 5abf
000002e0: 41aa 9f3e 8537 e9be c33f f3be c08d 17bf
000002f0: 7511 39bf a078 e1be 0277 e6be 2bbe 443f
00000300: 94f4 a2c0 2488 d83e 70ca 673f b78d 003f
00000310: 59b4 1abf 9ff8 90c0 3ea1 a73e 935c 813f

lstm.weight_hh_l0 f4 [200, 50]
0.32185277 0.20931971 0.5195787 0.2622393 -1.8547822 -1.4608794 -0.20919041 -0.4722392
-0.018412279 0.11149382 0.31220815 -0.20565408 -0.99584657 -0.008421444 -1.2414029 -1.0535085
-0.9246794 0.19318926 2.1514592 -0.4479888 0.43176576 0.10286146 -0.39143956 0.35216987
-0.012057515 0.37730268 -0.4680311 1.0635275 -1.2871146 0.9631053 0.2597155 -0.46377146
-1.3934277 -3.7365632 1.1991166 -0.6582038 1.547125 0.016297314 -0.114232406 0.27838212
-0.0059590833 -0.926404 -2.025668 -0.9224082 1.4755006 0.15128767 -0.6794771 1.7649579
-0.025404857 -0.80897075 -0.26239616 -0.23568128 -1.2966274 0.3746162 -2.3829365 0.24777918
0.3469622 -0.6288167 0.20726243 -0.36515772 -0.8168142 -0.8947044 -0.34510887 0.0744981
-0.05816339 -0.51843566 0.8327786 0.09276442 -1.010524 -0.1360318 -0.45069894 1.424505
-0.65110487 -0.25770903 0.4864631 -0.5500112 0.5565404 0.5635265 -0.034952164 -0.17053385
0.7000507 -0.082564436 0.8460688 -0.0472452 0.2012209 -0.6991037 0.2835283 -0.118666165
-0.28993684 0.06483619 -0.03670792 -1.7628729 0.07047161 -0.069929704 0.8942436 0.6099214
1.3785477 0.22712898 -1.3026904 0.23943529 0.20870514 -0.81811005 -0.68273133 -1.0788547
0.059558548 -1.337129 -1.3022466 -1.7385571 1.6962684 1.2050699 0.45974857 -0.6239345
-0.26264796 -1.493433 0.37236467 -2.7542691 -0.4461572 -0.5315617 0.30922025 -2.8902788
1.6096748 0.59025425 -0.9838883 -0.35468653 -0.35059014 0.8719251 -0.26441407 -0.5335588
-0.3167364 1.337873 -0.17975281 -0.5053227 0.08671245 0.7035216 -0.4147555 -0.0867542
0.30967048 0.31213996 -0.66630995 -0.18194905 -0.42795324 0.32448786 -0.014600224 0.6544368
-0.660662 0.5515322 1.007191 1.5455697 -1.6703793 1.2542361 1.9744918 -0.013667244
1.8931386 -0.39031246 1.1311568 -0.38130268 -0.4230882 0.0045689996 -0.12890264 0.75649256
1.3325557 0.3486203 1.5108163 0.21353698 0.2187458 2.2838893 0.2865541 -0.61812097
1.4870884 2.047256 0.1918952 -0.88664484 2.3861358 0.18269491 0.47086072 -0.7205048
0.025150407 1.4849923 -2.6238089 1.7576028 0.5673285 0.31729096 0.605152 0.13808113
-1.4227611 0.83084935 -0.35405257 1.0983745 -0.28577152 0.031448033 -0.32165202 -0.13928118
-1.7499648 1.7223353 -0.5553162 -0.17298172 0.42615125 1.6675158 1.1468973 -0.06762887
-0.42790604 -0.46688703 -1.4050568 -0.68368655 0.54610807 0.1243555 0.1725624 -2.2681825
0.26009336 1.127542 0.71968895 0.5283981 -0.022040812 -0.42817068 -0.98261184 -0.7306446
1.4534544 1.4354136 -0.47133607 1.1030645 1.0595791 -1.5788653 -0.9993444 0.24535146
-1.8565413 0.009231915 0.26295388 -0.6550156 -0.730323 -0.13108812 -0.35278088 -0.01659808
0.022683976 0.17350852 -0.15706539 0.30671954 -0.26725757 0.8228572 1.2062651 -0.4452981
-0.04967372 0.19800787 -0.6615132 0.119678795 -0.32768482 -0.01799205 -0.6744656 -0.23043981
-0.67292315 1.0282303 -0.23057343 -1.0562241 -0.851062 0.7925602 -0.328858 -0.18766111
00000000: e3c9 a43e e857 563e 1c03 053f 3b44 863e
00000010: 8169 edbf 19fe babf 0336 56be 56c9 f1be
00000020: 59d5 96bc df56 e43d bfd9 9f3e fc96 52be
00000030: cdef 7ebf 19fa 09bc 4ae6 9ebf 5ed9 86bf
00000040: cab7 6cbf 68d3 453e 82b1 0940 ca5e e5be
00000050: 6710 dd3e 07a9 d23d c46a c8be 9c4f b43e
00000060: e28c 45bc d12d c13e c6a1 efbe ab21 883f
00000070: 2cc0 a4bf 128e 763f 6ef9 843e 7473 edbe
00000080: d75b b2bf da23 6fc0 a77c 993f 0b80 28bf
00000090: 3108 c63f f281 853c aef2 e9bd 1a88 8e3e
000000a0: 6a44 c3bb d028 6dbf 8ba4 01c0 f222 6cbf
000000b0: 34dd bc3f 28eb 1a3e 36f2 2dbf 24ea e13f
000000c0: d91d d0bc b518 4fbf ca58 86be 6f56 71be
000000d0: e3f7 a5bf b2cd bf3e 0882 18c0 d3b9 7d3e
000000e0: 08a5 b13e 22fa 20bf 9a3c 543e f4f5 babe
000000f0: bc1a 51bf 590b 65bf 1cb2 b0be 7692 983d
00000100: bc3c 6ebd 33b8 04bf fa30 553f 46fb bd3d
00000110: da58 81bf ec4b 0bbe 03c2 e6be 2e56 b63f
00000120: cfae 26bf 70f2 83be b111 f93e 89cd 0cbf
00000130: 6f79 0e3f 4643 103f 002a 0fbd 6da0 2ebe
00000140: 8636 333f 8b17 a9bd f797 583f 2f84 41bd
00000150: da0c 4e3e 76f8 32bf 9f2a 913e 3f07 f3bd
00000160: 9a72 94be d6c8 843d 0b5b 16bd d2a5 e1bf
00000170: 6b53 903d 4e37 8fbd 26ed 643f cf23 1c3f
00000180: 4074 b03f 8094 683e 8fbe a6bf 862e 753e
00000190: cdb6 553e a96f 51bf 7bc7 2ebf e917 8abf
000001a0: aaf3 733d 0b27 abbf 04b0 a6bf 0a89 debf
000001b0: 531f d93f bb3f 9a3f 2a64 eb3e 2cba 1fbf
000001c0: cb79 86be d028 bfbf 95a6 be3e f245 30c0
000001d0: b76e e4be 6d14 08bf 1e52 9e3e 54fa 38c0
000001e0: d309 ce3f e71a 173f 1be0 7bbf 7999 b5be
000001f0: 8d80 b3be 7c36 5f3f 4861 87be 4f97 08bf
00000200: 462b a2be 6c3f ab3f 1f11 38be d45c 01bf
00000210: 4c96 b13d fe19 343f d55a d4be 30ac b1bd
00000220: 218d 9e3e cfd0 9f3e 4a93 2abf da50 3abe
00000230: b01c dbbe 4623 a63e c735 6fbc 2c89 273f
00000240: 2521 29bf 3731 0d3f a2eb 803f 3ad5 c53f
00000250: fdce d5bf cf8a a03f 26bc fc3f 94ec 5fbc
00000260: 5e52 f23f 09d7 c7be bfc9 903f 1b3a c3be
00000270: 049f d8be 8cb7 953b 0eff 03be 7fa9 413f
00000280: 2f91 aa3f 5c7e b23e 6e62 c13f 70a9 5a3e
00000290: e6fe 5f3e 3e2b 1240 38b7 923e 2d3d 1ebf
000002a0: ea58 be3f 3e06 0340 2d80 443e 28fb 62bf
000002b0: 73b6 1840 6014 3b3e a814 f13e 0173 38bf
000002c0: 3a08 ce3c 3a14 be3f 7cec 27c0 21f9 e03f
000002d0: 713c 113f f673 a23e 3eeb 1a3f 2465 0d3e
000002e0: 091d b6bf 8bb2 543f 6146 b5be 8997 8c3f
000002f0: a550 92be a7cf 003d 93af a4be ba9f 0ebe
00000300: d9fe dfbf 7c75 dc3f 3429 0ebf 1f22 31be
00000310: 7f30 da3e 2871 d53f 88cd 923f 0181 8abd
00000320: 8016 dbbe d10b efbe e7d8 b3bf 1506 2fbf
00000330: bdcd 0b3f 19ae fe3d 33b4 303e e729 11c0
00000340: f52a 853e 4c53 903f 893d 383f 1945 073f
00000350: ef8e b4bc 3039 dbbe 738c 7bbf 860b 3bbf
00000360: cb0a ba3f a2bb b73f f652 f1be 3831 8d3f
00000370: 4aa0 873f 4218 cabf 09d5 7fbf 6a3d 7b3e
00000380: 25a3 edbf 7541 173c e4a1 863e 1aaf 27bf
00000390: 73f6 3abf f73b 06be b29f b4be b2f8 87bc
000003a0: bfd3 b93c 38ac 313e c0d5 20be 580a 9d3e
000003b0: fcd5 88be c5a6 523f e566 9a3f 1dfe e3be
000003c0: ac76 4bbd 93c2 4a3e ee58 29bf 281a f53d
000003d0: 4ec6 a7be 1064 93bc c7a9 2cbf 6af8 6bbe
000003e0: b144 2cbf 0d9d 833f 711b 6cbe 5a32 87bf
000003f0: 33df 59bf 3ae5 4a3f 1360 a8be 3c2a 40be

lstm.bias_ih_l0 f4 [200]
-0.22647114 0.38788202 1.4829248 -0.45751894 0.32669032 0.015077492 -0.10598805 -0.6348159
1.1451721 -0.48694453 -0.49371228 -0.5096259 -0.5653612 -0.89862245 -0.84190685 -0.09823144
-0.51470524 -0.37326586 -0.05848435 -0.32484385 -0.22637992 -0.6853562 0.066544354 -0.1383174
-0.25995553 0.13825904 -0.037995752 0.1649761 -0.25734064 -0.38723066 -0.3984415 0.55993056
-0.2326664 -0.74124056 0.41888848 -0.17435905 -0.13100319 -0.3165022 -0.19163235 0.03488442
0.97231203 -0.32551718 -0.14698224 0.015134059 -0.3462903 0.20976222 -0.1788245 -0.047687184
0.34524307 -0.10061027 -0.18008152 -0.8767229 -0.6520874 -0.37225163 -0.58321375 -0.86572796
-0.6162168 0.28670982 -0.630912 0.21017978 -0.08321491 0.19944257 0.48294318 0.28905413
0.5813877 -0.31552255 0.76413625 0.5288062 -0.33342394 -0.21453172 0.4924543 0.22265543
-0.07085837 -0.2668109 0.9800673 -0.46664488 1.3854345 -0.50421154 0.16203432 -0.29081404
0.5483544 -0.35585663 0.44797888 -0.03535667 -0.48668253 -0.8090323 0.67165667 0.49778235
0.66807795 0.06970977 -0.39874467 -0.28046674 -0.5116201 -0.77911824 -0.027265683 -0.17791088
0.35247755 -0.65698636 -0.6729109 -0.23022963 0.06998748 0.016612753 -0.5761456 -0.15292087
-0.024502195 0.08854044 -0.15384041 -0.031080559 0.15089636 0.19080792 0.030475548 -0.22438319
-0.042021453 -0.041515354 0.09893026 -0.34557152 -0.073073 -0.029086074 -0.2153718 -0.08063387
0.20801915 0.0070096455 0.031934977 0.05812023 -0.24105698 0.023502665 -0.0817313 0.13198662
0.17621996 -0.14997828 -0.16711116 0.092175364 -0.05684776 0.20552504 0.0802421 -0.09977243
0.19817914 -0.046822537 -0.1276613 -0.18781795 0.19068344 -0.11701047 -0.40554652 -0.06426089
-0.0035821362 -0.021262983 0.09330443 0.21966843 -0.19284068 0.14036186 -0.3381862 1.5392324
1.3337109 -0.5878794 0.6897024 0.0057890927 -0.09736823 0.021686556 -0.067256056 0.0033134345
-0.57357466 0.11103404 -0.31694704 -0.4540861 -0.3812456 -0.30348143 0.23231463 -0.5878549
0.017869145 -0.0056297546 -0.3198512 -0.28239855 -0.33970058 -0.051751133 0.42646715 -0.037135717
0.52961016 0.35350797 -0.5048675 -0.4053 -0.30358928 0.86683136 -0.09641975 -0.36194712
0.2868973 -0.03739448 -0.10599948 -0.018118046 0.07797998 0.047756325 1.0678127 -0.03352474
-0.16135052 0.213858 -0.46855932 0.20059529 -0.008098978 0.1692351 0.32555425 0.025962478
00000000: 0de8 67be 7998 c63e 7bd0 bd3f ec3f eabe
00000010: f443 a73e 9607 773c 4310 d9bd 4b83 22bf
00000020: 0095 923f cb50 f9be dbc7 fcbe d876 02bf
00000030: 83bb 10bf 1f0c 66bf 3587 57bf 912d c9bd
00000040: b9c3 03bf b41c bfbe 498d 6fbd ef51 a6be
00000050: 23d0 67be 8173 2fbf 6848 883d 14a3 0dbe
00000060: e418 85be c793 0d3e 6fa1 1bbd 7fef 283e
00000070: 27c2 83be 1943 c6be 8600 ccbe 9c57 0f3f
00000080: 1a40 6ebe f1c1 3dbf 8d78 d63e 2e8b 32be
00000090: b325 06be 940c a2be 453b 44be f7e2 0e3d
000000a0: 71e9 783f 30aa a6be 8382 16be d8f4 773c
000000b0: f64c b1be e8cb 563e c51d 37be a353 43bd
000000c0: b3c3 b03e c20c cebd 4a67 38be e970 60bf
000000d0: 33ef 26bf c497 bebe 7f4d 15bf 59a0 5dbf
000000e0: 62c0 1dbf a1cb 923e 7383 21bf 5e39 573e
000000f0: 946c aabd ac3a 4c3e 5444 f73e e7fe 933e
00000100: d3d5 143f 2c8c a1be 6f9e 433f d85f 073f
00000110: 8bb6 aabe 34ae 5bbe f822 fc3e c9ff 633e
00000120: 311e 91bd 709b 88be b1e5 7a3f 14ec eebe
00000130: eb55 b13f 0214 01bf 53ec 253e 94e5 94be
00000140: f460 0c3f d732 b6be 7d5d e53e 28d2 10bd
00000150: 742e f9be be1c 4fbf b1f1 2b3f 54dd fe3e
00000160: 2807 2b3f ffc3 8e3d 4328 ccbe 5699 8fbe
00000170: 89f9 02bf 4b74 47bf 485c dfbc 452e 36be
00000180: f077 b43e 4230 28bf e443 2cbf 51c1 6bbe
00000190: 9955 8f3d 7817 883c 477e 13bf 4a97 1cbe
000001a0: d4b8 c8bc b154 b53d 5788 1dbe a89c febc
000001b0: 9384 1a3e 2763 433e dba7 f93c b5c4 65be
000001c0: b01e 2cbd 010c 2abd f39b ca3d c0ee b0be
000001d0: 4ca7 95bd eb45 eebc 6d8a 5cbe 5f23 a5bd
000001e0: f902 553e 2bb1 e53b 40ce 023d 7a0f 6e3d
000001f0: a4d7 76be a988 c03c bd62 a7bd 8027 073e
00000200: 0173 343e e893 19be 301f 2bbe 70c6 bc3d
00000210: 32d9 68bd 2875 523e f855 a43d 7d55 ccbd
00000220: 79ef 4a3e fdc8 3fbd a5b9 02be 5953 40be
00000230: 8542 433e 2fa3 efbd cba3 cfbe 379b 83bd
00000240: 46c2 6abb b52f aebc 6516 bf3d c3f0 603e
00000250: 0778 45be 05bb 0f3e be26 adbe 9105 c53f
00000260: 0ab7 aa3f 447f 16bf 5690 303f 6eb2 bd3b
00000270: ff68 c7bd 01a8 b13c 8bbd 89bd 3526 593b
00000280: cad5 12bf d165 e33d e246 a2be f97d e8be
00000290: a032 c3be eb61 9bbe e3e3 6d3e a97d 16bf
000002a0: 5062 923c ce79 b8bb 89c3 a3be 8b96 90be
000002b0: 3ced adbe fff8 53bd e759 da3e 9f1b 18bd
000002c0: 8894 073f fffe b43e ff3e 01bf 7b83 cfbe
000002d0: 0e70 9bbe a9e8 5d3f b877 c5bd 2251 b9be
000002e0: 34e4 923e f42a 19bd 4116 d9bd 4c6c 94bc
000002f0: f8b3 9f3d 239c 433d 16ae 883f 3d51 09bd
00000300: 1239 25be 97fd 5a3e 02e7 efbe da68 4d3e
00000310: 93b1 04bc f74b 2d3e 0caf a63e 43af d43c

lstm.bias_hh_l0 f4 [200]
-0.34757364 0.51021343 1.4964074 -0.41338533 0.26048708 -0.13544957 -0.114008 -0.60988754
1.0265543 -0.5784408 -0.57258254 -0.58819777 -0.39326453 -0.7141467 -0.6676249 -0.17675783
-0.67033046 -0.5220037 0.024455527 -0.24510711 -0.23567282 -0.5343612 -0.021429367 0.012124586
-0.37195855 0.15178995 -0.0358445 0.08188034 -0.27951553 -0.3866432 -0.29570967 0.81185246
-0.28627738 -0.59007996 0.3438978 -0.02624045 -0.11478566 -0.40170854 -0.21114798 -0.06908716
0.99352235 -0.22065693 -0.21628909 0.25431603 -0.43195277 0.11006347 -0.20876066 0.08165985
0.19230501 -0.23941697 -0.192476 -0.84412044 -0.5585014 -0.37334055 -0.5881427 -0.981023
-0.6725315 0.25075483 -0.57654005 0.28787327 -0.12108104 0.25323507 0.7087995 0.5371265
0.7640633 -0.23475327 0.8849669 0.5341927 -0.29143277 -0.35999948 0.48724458 0.02551949
0.024313858 -0.016087001 1.0716673 -0.43279535 1.443798 -0.5187328 0.10228207 -0.4768266
0.5925187 -0.4059722 0.21736796 0.07657285 -0.46700191 -0.6475518 0.52515787 0.5197845
0.61154115 -0.064641915 -0.1964117 -0.26042476 -0.75377536 -0.9540884 -0.13156421 -0.020379713
0.3726141 -0.63422763 -0.8136389 -0.16369747 0.036950517 -0.18177699 -0.4814018 -0.04260914
-0.0034525401 -0.04164632 0.07849211 -0.033702493 0.14751603 0.0951004 0.003451093 -0.18081106
-0.013759128 0.096958056 0.023745831 -0.25624222 -0.06157333 0.05979431 -0.15487318 -0.13158993
0.19056077 0.08979975 -0.15323278 -0.13077101 -0.11328261 -0.014525058 0.1337318 0.0789971
0.16372968 -0.05442784 -0.1419527 0.17310701 0.03205939 0.10305795 -0.08937125 -0.025001084
0.1904219 -0.020989971 -0.36412907 -0.21979071 0.20904462 -0.008587956 -0.22992992 0.096235886
-0.099395 -0.17920452 0.2620617 0.2768626 -0.014953009 0.038738992 -0.32160145 1.3448573
1.3528018 -0.48151153 0.5950284 0.13795544 -0.07216706 -0.24006838 -0.08690012 0.11374152
-0.4286713 0.24627216 -0.3543507 -0.36430606 -0.27856106 -0.08542081 0.19694932 -0.73883873
0.08527204 0.008305981 -0.33784738 -0.34593102 -0.10437278 0.110584155 0.30080202 0.10724602
0.63463116 0.577375 -0.41100606 -0.47834316 -0.31554925 0.9487843 -0.09492983 -0.4098552
0.44084334 0.06254435 -0.06608646 -0.09650413 -0.117997736 0.04638696 1.0143409 -0.12944312
-0.24570228 0.1383393 -0.3058437 0.17251942 -0.15008147 0.22321056 0.3693024 -0.20813917
00000000: 2cf5 b1be 599d 023f 478a bf3f 3ea7 d3be
00000010: 905e 853e 4bb3 0abe 077d e9bd 9721 1cbf
00000020: 2266 833f b214 14bf c594 12bf 2194 16bf
00000030: f859 c9be 51d2 36bf 77e9 2abf 0100 35be
00000040: c79a 2bbf 09a2 05bf f556 c83c 5cfd 7abe
00000050: 3754 71be e5cb 08bf a48c afbc 33a6 463c
00000060: 5a71 bebe d36e 1b3e afd1 12bd e1b0 a73d
00000070: a91c 8fbe 19f6 c5be 4267 97be 90d5 4f3f
00000080: f392 92be 7b0f 17bf 5f13 b03e 36f6 d6bc
00000090: be14 ebbd beac cdbe 2d37 58be 927d 8dbd
000000a0: 7b57 7e3f e4f3 61be e37a 5dbe b635 823e
000000b0: ea28 ddbe f568 e13d 5bc5 55be 483d a73d
000000c0: 9beb 443e b929 75be 6e18 45be 4718 58bf
000000d0: f3f9 0ebf 7e26 bfbe 8590 16bf 5324 7bbf
000000e0: 062b 2cbf f062 803e 2198 13bf 2064 933e
000000f0: 56f9 f7bd 07a8 813e e273 353f 1f81 093f
00000100: a799 433f 2963 70be 318d 623f dac0 083f
00000110: ad36 95be da51 b8be 1f78 f93e 400e d13c
00000120: db2d c73c e3c8 83bc 652c 893f 5a97 ddbe
00000130: 5fce b83f accb 04bf 4379 d13d 9e22 f4be
00000140: 4eaf 173f 97db cfbe b595 5e3e 3ad2 9c3d
00000150: e01a efbe f4c5 25bf bf70 063f 9910 053f
00000160: f68d 1c3f fb62 84bd 2620 49be 6556 85be
00000170: 6cf7 40bf 233f 74bf c5b8 06be 5bf3 a6bc
00000180: 46c7 be3e be5c 22bf a44a 50bf 4fa0 27be
00000190: 6d59 173d bf23 3abe 4c7a f6be ec86 2ebd
000001a0: 0344 62bb 5595 2abd 79c0 a03d a00b 0abd
000001b0: 710e 173e 00c4 c23d bc2b 623b 8926 39be
000001c0: f76d 61bc f291 c63d 9e86 c23c 2e32 83be
000001d0: 5134 7cbd e1ea 743d 1397 1ebe 83bf 06be
000001e0: 5d22 433e eee8 b73d 0ee9 1cbe d6e8 05be
000001f0: b700 e8bd 82fa 6dbc fdf0 083e 3bc9 a13d
00000200: c1a8 273e baef 5ebd 0c5c 11be f742 313e
00000210: b550 033d 0c10 d33d 4608 b7bd 13cf ccbc
00000220: f5fd 423e 29f3 abbc 206f babe d110 61be
00000230: cb0f 563e 80b4 0cbc c072 6bbe 5217 c53d
00000240: 9b8f cbbd 6481 37be f32c 863e efc0 8d3e
00000250: 77fd 74bc c7ac 1e3d f2a8 a4be 4924 ac3f
00000260: 9c28 ad3f ae88 f6be c853 183f 3144 0d3e
00000270: 53cc 93bd 7cd4 75be b1f8 b1bd 50f1 e83d
00000280: ce7a dbbe c52e 7c3e 746d b5be 5386 babe
00000290: 8e9f 8ebe 1bf1 aebd 15ad 493e 8924 3dbf
000002a0: 1ba3 ae3d cf15 083c 55fa acbe df1d b1be
000002b0: 65c1 d5bd f279 e23d b902 9a3e cda3 db3d
000002c0: 3077 223f d9ce 133f 636f d2be 65e9 f4be
000002d0: ac8f a1be 87e3 723f 926a c2bd 8ad8 d1be
000002e0: 38b6 e13e 4117 803d 5758 87bd f5a3 c5bd
000002f0: cca8 f1bd 4100 3e3d ecd5 813f bd8c 04be
00000300: 6199 7bbe d1a8 0d3e 8c97 9cbe eea8 303e
00000310: f5ae 19be 4f91 643e 3415 bd3e 6f22 55be

linear.weight f4 [1, 50]
0.2626341 -0.32746753 -0.14866664 0.33712593 -0.0680841 0.02068789 0.17051913 0.0901636
0.52686423 -0.23200156 -0.13858473 -0.36097872 0.016890075 0.026735123 0.13975589 0.16888593
-0.13306332 -0.2327045 -0.26369405 0.022411551 -0.18979795 0.1809025 -0.050753627 -0.19083743
0.30181286 -0.23547035 -0.2668967 0.38839385 -0.024647946 -0.077003345 -0.1015817 -0.008916211
-0.18102087 0.12912428 0.24884528 0.25539604 0.16941343 0.042602062 0.020943122 0.05690839
0.04744784 -0.28028283 0.45817995 0.13071284 0.14005068 -0.2166249 -0.036150135 -0.8637812
0.43165782 -0.18814892
00000000: fa77 863e d3a9 a7be 113c 18be c59b ac3e
00000010: ad6f 8bbd a679 a93c 919c 2e3e b2a7 b83d
00000020: 93e0 063f d191 6dbe 28e9 0dbe 34d2 b8be
00000030: 0e5d 8a3c 9e03 db3c 2b1c 0f3e 6ff0 2c3e
00000040: c041 08be 174a 6ebe e802 87be 6e98 b73c
00000050: 655a 42be 813e 393e 09e3 4fbd e36a 43be
00000060: 3787 9a3e 241f 71be afa6 88be 8fdb c63e
00000070: 7dea c9bc eeb3 9dbd 110a d0bd 4d15 12bc
00000080: 895d 39be 2839 043e 4cd1 7e3e 45c3 823e
00000090: b77a 2d3e 807f 2e3d e990 ab3c c618 693d
000000a0: ab58 423d 3b81 8fbe 9096 ea3e 96d9 053e
000000b0: 7269 0f3e ebd2 5dbe 2a12 14bd c420 5dbf
000000c0: 4102 dd3e 1caa 40be
