lstm_FullData/trial9/jt4_vel/lstm_model_epoch149.pth (torch, 50829 bytes, 5 tensors)

lstm.weight_ih_l0 f4 [200, 8]
0	0x3daef1f7	0.08542245
1	0xbe5e751b	-0.2172436
2	0x3e8eeeb9	0.27916506
3	0xbe005d64	-0.12535626
4	0x3e274cb9	0.16337861
5	0x3d220963	0.039559733
6	0xbe6ee3d1	-0.23329093
7	0x3e780d62	0.24223855
8	0xbf018582	-0.5059434
9	0xbfc9ec5f	-1.577526
10	0xbd85a27e	-0.065251336
11	0x3c95c9ff	0.018284796
12	0xbb8b7bc3	-0.004256697
13	0xbe8b2e65	-0.27183834
14	0xbf0d25b9	-0.55135685
15	0x3e2e3185	0.17011078
16	0x3e768b8c	0.2407667
17	0xbed38e6c	-0.41319597
18	0xbed3c95a	-0.41364557
19	0xbddfacc2	-0.10921623
20	0xbdae4540	-0.08509302
21	0x3d99b538	0.07505268
22	0x3df6e317	0.12055033
23	0xbf38e53c	-0.72224784
24	0x3e1026d6	0.14077315
25	0xbf7ff074	-0.9997628
26	0xbe04579b	-0.12924044
27	0xbdba7b3d	-0.09105537
28	0x3f2225e3	0.6333906
29	0xbefa51dd	-0.48890582
30	0x3da9133e	0.08255623
31	0xbd31abaf	-0.04337662
32	0x3f1efbd5	0.62103015
33	0xbf279e70	-0.6547613
34	0x3e4f36b7	0.20235716
35	0xbde71c93	-0.11284747
36	0x3e6b4b2b	0.22977893
37	0x3d14bce7	0.036312964
38	0x3e2bd977	0.16782175
39	0xbc93626e	-0.01799127
40	0x3d0f4cf1	0.034985486
41	0xbe203da2	-0.15648511
42	0xbe418d00	-0.18901443
43	0xbe138aa9	-0.14408363
44	0xbe2b488b	-0.16726892
45	0x3e87f18c	0.26551473
46	0xbf11e418	-0.5698867
47	0x3e0ccb01	0.13749315
48	0x3e7cd012	0.24688748
49	0xbe7c22af	-0.24622606
50	0x3dae9c61	0.08525921
51	0xbea5e9e2	-0.32405
52	0xbe38b806	-0.1803895
53	0x3e01f9a6	0.1269289
54	0xbe3cc87a	-0.1843585
55	0x3e4a5044	0.19757181
56	0x3e5426a4	0.20717865
57	0xbe77085c	-0.24124283
58	0xbdf60c0b	-0.12014016
59	0xbd930f37	-0.071806364
60	0xbdb67969	-0.08909876
61	0x3e3c1579	0.18367566
62	0x3e65aaa8	0.22428381
63	0xbec9ea59	-0.39436606
64	0xbdda6248	-0.10663277
65	0xbf4ab8cb	-0.7918822
66	0xbf2942a5	-0.66117316
67	0x3f160e4f	0.58615583
68	0x3e2df44e	0.16987726
69	0xbe23a492	-0.15980747
70	0xbc0ac81b	-0.00847056
71	0xbf4106dc	-0.7540109
72	0x3ebbb907	0.36664602
73	0xbf3d437b	-0.7393109
74	0xbfafaad9	-1.3724014
75	0xbee3d38c	-0.44497335
76	0x3c737d9a	0.014861489
77	0xbe1422e0	-0.14466429
78	0xbcf04f1e	-0.029334601
79	0xbd98532d	-0.074377395
80	0x3e964646	0.2935049
81	0xbe9fe016	-0.31225652
82	0xbe853fb6	-0.2602517
83	0xbe58aefe	-0.21160504
84	0xbce452a6	-0.027871441
85	0x3e5916f9	0.2120017
86	0xbe88e645	-0.26738182
87	0x3e38c206	0.18042764
88	0xbf1af9df	-0.60537523
89	0x3d1d893c	0.038460955
90	0x3f098fcf	0.5373506
91	0xbf1a8ed3	-0.6037418
92	0xbc6d983e	-0.014501629
93	0x3da13995	0.07872311
94	0x3ef113ef	0.4708552
95	0xbea32a5e	-0.3186826
96	0x3e7c4a0f	0.24637626
97	0xbeaeddcf	-0.34153602
98	0x3e62f321	0.22163059
99	0xbea64b31	-0.32479241
100	0x3f0175ea	0.5057055
101	0xbdebc08f	-0.11511337
102	0xbe9c4f1c	-0.30529106
103	0x3e8d32c0	0.27577782
104	0x3e5a500d	0.213196
105	0xbee51e21	-0.4474955
106	0xbe893550	-0.26798487
107	0xbf1dfb56	-0.61711633
108	0xbe9a4185	-0.30128112
109	0xbdaea08f	-0.08526718
110	0xbe7127d4	-0.2355035
111	0xbd663dc0	-0.056211233
112	0x3ea61f95	0.3244597
113	0xbf6f5549	-0.9348951
114	0x3e6d3404	0.23164374
115	0xbeb38b13	-0.35067043
116	0x3d7966c5	0.060889024
117	0xbe6fca93	-0.2341712
118	0xbf9715f1	-1.1803571
119	0x3f81d8c0	1.0144272
120	0x3f30f7c0	0.69128036
121	0xbf94805d	-1.1601673
122	0xbe331aa7	-0.17490636
123	0xbed49a58	-0.41524005
124	0x3e244ae1	0.16044189
125	0xbeb0c6a0	-0.3452654
126	0xbe8b97f7	-0.27264377
127	0xbebbc4c8	-0.3667357
128	0x3dc6fa15	0.09715668
129	0xbdf98d23	-0.12185123
130	0x3f464fd7	0.77465576
131	0x3e56e1c8	0.20984566
132	0xbe6df6cb	-0.23238675
133	0xbd810dbc	-0.06301448
134	0xbe9a905a	-0.30188257
135	0xbe5326ae	-0.20620224
136	0x3ca22dc2	0.01979721
137	0xbcb56f74	-0.022147872
138	0xbe609fdd	-0.21935983
139	0x3e540e0d	0.20708485
140	0xbdc273c7	-0.09494739
141	0x3e59cc87	0.21269427
142	0x3e64e495	0.22352822
143	0xbbd91575	-0.0066248723
144	0xbd22e931	-0.03977317
145	0xbe6c87a0	-0.23098612
146	0x3e0a31f1	0.13495614
147	0x3eab0e61	0.33409408
148	0x3e5d7a28	0.2162863
149	0xbc9ced80	-0.019156218
150	0x3e424760	0.1897254
151	0xbe4e14c8	-0.20125115
152	0x3ec87d15	0.3915793
153	0xbf82b400	-1.0211182
154	0x3f4cc755	0.79991657
155	0xbd7b80e0	-0.0614022
156	0xbde21b08	-0.11040312
157	0xbe61a80a	-0.22036758
158	0xbf2bcf6f	-0.67113394
159	0x3f3cf290	0.7380762
160	0x3e28d121	0.16486026
161	0xbbd879b5	-0.0066063055
162	0xbf51a750	-0.81895924
163	0xbd5047a1	-0.05084956
164	0x3e029971	0.12753846
165	0x3e829fcc	0.2551254
166	0xbd8eb29c	-0.06967661
167	0x3e658643	0.22414498
168	0xbd95ad8d	-0.07308493
169	0xbc162271	-0.009163485
170	0xbe90999e	-0.282422
171	0xbf4f7d10	-0.81050205
172	0x3d3c51a0	0.04597628
173	0xbed36ad8	-0.41292453
174	0xbd93d798	-0.072188556
175	0x3eb1ced1	0.347281
176	0xbe0886c6	-0.13332662
177	0xbe962b74	-0.29330027
178	0xbeb84f0f	-0.35997817
179	0xbe35a9a5	-0.17740496
180	0xbe63cc59	-0.22245921
181	0x3e0dd054	0.13849002
182	0x3ac4016d	0.0014954038
183	0x3e578b48	0.21049225
184	0x3e7e6433	0.2484291
185	0xbea28a60	-0.31746197
186	0x3e3b60c3	0.1829863
187	0xbf1e0c0a	-0.6173712
188	0x3b1e216b	0.0024128805
189	0xbbb415c2	-0.005495758
190	0xbee127e6	-0.43975753
191	0xbe47b04e	-0.19500849
192	0xbdba4c49	-0.090965815
193	0xbe951c2c	-0.29123056
194	0x3e0be957	0.13663231
195	0xbf3ab81e	-0.7293719
196	0xbca68cba	-0.020330776
197	0xbd1f0065	-0.038818736
198	0xbf598e4d	-0.8498276
199	0x3e955e76	0.2917363
200	0x3dfdc8f7	0.123918466
201	0xbec3e0a4	-0.38257325
202	0x3c855c4c	0.016279362
203	0xbe9e9646	-0.30974025
204	0xbe3ebc13	-0.18626432
205	0xbdabeda4	-0.08394936
206	0x3f0b33c5	0.5437587
207	0xbef1fda2	-0.4726382
208	0xbe1fa204	-0.15589148
209	0xbe4145e3	-0.18874316
210	0x3ea6c025	0.3256847
211	0x3daf8a03	0.085712455
212	0x3e5edc8e	0.21763822
213	0xbeed8e5f	-0.46397683
214	0xbdabad4f	-0.08382665
215	0x3eda41e4	0.42628396
216	0x3e4d94bf	0.20076273
217	0xbedc11ae	-0.4298224
218	0x3df83490	0.121194005
219	0xbf243d08	-0.64155626
220	0xbe20bfc0	-0.15698147
221	0x3eb65536	0.35611886
222	0xbe86c014	-0.2631842
223	0xbec16c5d	-0.37777987
224	0xbd2ad789	-0.041709457
225	0xbedba345	-0.42898002
226	0x3e699de0	0.22814131
227	0xbe62944a	-0.2212688
228	0x3e1cc958	0.15311182
229	0xbe56c48b	-0.20973413
230	0xbe7aa681	-0.24477579
231	0xbe03a757	-0.12856804
232	0xbebca880	-0.36847305
233	0xbe2af849	-0.16696276
234	0x3d9affb6	0.07568304
235	0x3de144a0	0.10999417
236	0x3e256716	0.16152605
237	0xbf027603	-0.5096132
238	0x3d88bc19	0.06676502
239	0xbe86a013	-0.26294002
240	0x3f39462f	0.72372717
241	0xbf2d2fbc	-0.6765096
242	0xbea1d601	-0.31608585
243	0xbf339c40	-0.70160294
244	0xbe4e77d7	-0.20162903
245	0x3eb7ac98	0.35873866
246	0xbe73cea4	-0.23809296
247	0x3d535b97	0.05160102
248	0x3ef23e5b	0.47313198
249	0xbecb867c	-0.3975104
250	0x3dc203ba	0.09473367
251	0xbe896cee	-0.2684092
252	0xbd6ff10e	-0.058579497
253	0x3e2182f1	0.15772606
254	0x3ea9def7	0.3317792
255	0x3e4c4b89	0.1995069

lstm.weight_hh_l0 f4 [200, 50]
0	0x3dbf4ee7	0.09341221
1	0xbd37c3a4	-0.04486431
2	0x3e7ebcf5	0.24876769
3	0xbe238fdf	-0.15972851
4	0x3e02c924	0.12772042
5	0x3e9906ef	0.29888102
6	0xbd8d3ae0	-0.06895995
7	0xbe75d538	-0.24007118
8	0x3d9ab05f	0.07553171
9	0xbde4c755	-0.11170832
10	0xbc553a27	-0.013014353
11	0xbbf1a991	-0.00737495
12	0xbd0f2ae9	-0.03495303
13	0xbbc86a3d	-0.00611618
14	0x3e18760c	0.14888781
15	0x3e15cd2b	0.14629047
16	0xbe4ae903	-0.1981545
17	0xbde24eff	-0.110502236
18	0x3e9b8c97	0.303807
19	0xbd3ddf79	-0.0463557
20	0xbdeed709	-0.116621085
21	0x3e2e65de	0.17031047
22	0x3cbb3dbd	0.022856588
23	0x3e503428	0.20332396
24	0xbea2a27b	-0.31764588
25	0x3d64ac22	0.05582822
26	0x3dfac2c7	0.12244182
27	0xbd1de883	-0.03855182
28	0xbddb2bff	-0.10701751
29	0xbe0f81ec	-0.14014405
30	0xbd26a5aa	-0.040685333
31	0xbd808ecc	-0.06277236
32	0x3bf9b999	0.007621002
33	0xbdae9ce2	-0.08526017
34	0x3d1e8cb4	0.038708404
35	0x3b6a2ec9	0.0035733453
36	0xbd7e31ca	-0.0620592
37	0xbd671e0c	-0.05642514
38	0x3e314647	0.17311965
39	0x3d27d8cc	0.040978238
40	0x3d559eb2	0.052153297
41	0xbdf9da82	-0.1219988
42	0x3d8dc5e1	0.06922508
43	0x3e0145a2	0.12624219
44	0xbcc27b22	-0.023740355
45	0x3deb6f83	0.114958785
46	0x3cad1f09	0.021132963
47	0x3da96f8a	0.082732275
48	0x3c91a37b	0.017778149
49	0xbcc4571b	-0.023967316
50	0x3e042fbc	0.12908834
51	0xbe452883	-0.19253735
52	0x3e4fbd6d	0.20287104
53	0x3d3e739a	0.046496965
54	0xbde7c16b	-0.113161884
55	0xbeaa910c	-0.33313787
56	0xbe9b4400	-0.30325317
57	0x3e257d4c	0.16161078
58	0xbee20ad6	-0.44148892
59	0x3ef458f5	0.4772412
60	0x3e4fa1dd	0.2027659
61	0x3d7c06f1	0.061530057
62	0xbef358de	-0.47528738
63	0x3e0353e2	0.12824968
64	0xbe9a304e	-0.3011498
65	0xbe54644e	-0.20741388
66	0x3be68205	0.0070345425
67	0x3e36e091	0.17859103
68	0x3efd5097	0.49475548
69	0xbed18254	-0.40919745
70	0x3ef240bb	0.4731501
71	0x3f50f991	0.8163081
72	0x3d2c1112	0.042008467
73	0xbded2786	-0.11579804
74	0x3e99a386	0.3000757
75	0xbdb05fae	-0.086119995
76	0xbe9b5a82	-0.3034249
77	0xbe7e83eb	-0.2485501
78	0xbea54fa5	-0.32287326
79	0xbf376f0a	-0.7165381
80	0xbe48cd58	-0.19609582
81	0x3e091017	0.13385044
82	0xbee6cf48	-0.45080018
83	0xbc2f9667	-0.010717011
84	0x3ea138ac	0.3148855
85	0x3eb7ecbb	0.359228
86	0x3d8afb66	0.06786232
87	0x3efba702	0.49150854
88	0x3eb6c63a	0.3569811
89	0xbf178e3a	-0.59201396
90	0x3f2a052c	0.6641414
91	0xbca357f1	-0.019939395
92	0x3f17b838	0.5926547
93	0x3ea6263c	0.32451046
94	0xbdfcc6d8	-0.12342614
95	0x3ec8f8e3	0.39252385
96	0x3dc78987	0.09743028
97	0x3b3ca63c	0.0028785607
98	0xbed080b6	-0.407232
99	0xbdd322dc	-0.10309383
100	0x3e952e81	0.29137042
101	0xbe196602	-0.14980319
102	0x3d5e0d9f	0.05421221
103	0x3e41efe1	0.18939163
104	0x3ed5c748	0.41753602
105	0x3e194c7f	0.14970587
106	0x3db2ed59	0.08736677
107	0xbde3a4ae	-0.111153945
108	0xbe273fe0	-0.1633296
109	0xbd5865d6	-0.052831493
110	0xbaa7bb1d	-0.0012796853
111	0x3dd3a3c0	0.10333967
112	0x3e11d1e6	0.14240226
113	0xbd8e6aba	-0.0695395
114	0xbdfb9599	-0.12284393
115	0xbc62fa1e	-0.013853578
116	0x3e1549bd	0.1457891
117	0xbc49ae00	-0.012309551
118	0x3db436f0	0.08799541
119	0x3d1210f8	0.035660714
120	0xbc92ccb0	-0.017919868
121	0xbd0362b5	-0.032076556
122	0x3ed57bef	0.41696116
123	0x3e5b4a87	0.21415149
124	0x3d9c5fc3	0.076354526
125	0xbd6c8fdf	-0.057754394
126	0xbe8559ba	-0.26045018
127	0x3cc8ad5e	0.02449673
128	0xbde22a57	-0.11043232
129	0xbd6b9bfc	-0.057521805
130	0xbe298f4b	-0.16558568
131	0x3c8e0731	0.017337414
132	0xbe43709c	-0.19085926
133	0xbeec2ba2	-0.4612704
134	0xbdf154fa	-0.11783786
135	0x3ee61816	0.4494025
136	0x3d27233b	0.040805083
137	0x3cc45eb5	0.023970941
138	0xbda41306	-0.08011441
139	0x3e2ca797	0.16860805
140	0x3ebb6122	0.36597544
141	0x3d340761	0.04395235
142	0xbcdecee9	-0.027198272
143	0x3e2fbe83	0.17162518
144	0xbcadb7b3	-0.021205759
145	0x3e47f043	0.19525246
146	0x3e019760	0.12655401
147	0xbe54d9f9	-0.20786275
148	0x3dcda81d	0.10041831
149	0xbd8aa4df	-0.06769728
150	0x3ce0e0f2	0.027451012
151	0xbe0ca561	-0.13734962
152	0x3e2963d7	0.16541992
153	0x3b11eca9	0.0022266305
154	0x3e82b1e9	0.2552636
155	0x3ca67112	0.020317588
156	0x3e3507e3	0.1767879
157	0x3a758af8	0.0009366716
158	0x3cabbf8f	0.020965366
159	0xbd57b8e3	-0.052666556
160	0xbdcb5524	-0.09928349
161	0xbe7722cb	-0.24134366
162	0xbde236fa	-0.11045642
163	0x3e1e2068	0.1544205
164	0xbdb2e454	-0.087349564
165	0x3e4397cd	0.19100876
166	0xbe4e2b58	-0.20133722
167	0x3cdd23db	0.026994636
168	0x3e0ad4fa	0.13557807
169	0xbe0a5c40	-0.13511753
170	0x3e4709ad	0.19437285
171	0x3d185488	0.03718999
172	0xbd96c7a9	-0.07362301
173	0xbe9970c2	-0.2996884
174	0x3c5f403d	0.013626155
175	0x3dc8d4a6	0.098061845
176	0xbc544f28	-0.012958325
177	0x3cef0ae5	0.02918
178	0xbee45293	-0.4459425
179	0xbe4ceaa7	-0.20011388
180	0xbe56148c	-0.20906276
181	0xbc532b02	-0.012888672
182	0xbe2ec1d0	-0.17066121
183	0xbce8736c	-0.02837535
184	0x3e56c7f5	0.20974715
185	0xbd4c3349	-0.049853597
186	0x3cd16f76	0.025565844
187	0x3e123b30	0.1428039
188	0xbe3bbd28	-0.18333876
189	0xbd741732	-0.059592433
190	0xbdb11d41	-0.08648158
191	0x3dfcdc8f	0.12346756
192	0x3e8f4c3b	0.27987847
193	0xbd7e1d4c	-0.06203966
194	0x3ea58811	0.32330373
195	0x3e4d552b	0.2005202
196	0x3e95c2fa	0.29250318
197	0x3d8dc273	0.06921854
198	0xbe1e0cc3	-0.15434556
199	0xbe660cc2	-0.22465804
200	0xbd7aedeb	-0.061262053
201	0xbe655eca	-0.2239944
202	0x3e841d45	0.2580358
203	0x3e052e53	0.13005953
204	0xbd41c27f	-0.047304627
205	0xbdc94e0a	-0.09829338
206	0xbe3b9085	-0.18316849
207	0x3915c5a4	0.00014283374
208	0x3ddd9ee7	0.10821324
209	0xbde6fca1	-0.11278654
210	0x3daa8b9b	0.08327409
211	0x3dbdc1c7	0.09265476
212	0xbd1d93f2	-0.03847117
213	0x3d969396	0.073523685
214	0xbd45c971	-0.048287813
215	0x3d807900	0.06273079
216	0x3b488cbd	0.0030601465
217	0x3b62550a	0.003453555
218	0x3e2fbc81	0.17161752
219	0xbe8c0992	-0.27351052
220	0x3e678df4	0.22612745
221	0x3c5d2a8b	0.013498913
222	0xbe5b9581	-0.2144375
223	0xbde8e931	-0.11372603
224	0x3d970b15	0.073751606
225	0xbdddba31	-0.10826529
226	0xbe18783f	-0.1488962
227	0xbe14733f	-0.14497088
228	0xbeb83848	-0.3598044
229	0xbe0191af	-0.1265323
230	0x3d5024d9	0.05081639
231	0x3c705910	0.014669672
232	0x3d223c74	0.039608434
233	0xbdc33e74	-0.09533396
234	0xbe241f69	-0.16027607
235	0x3d0a3c7c	0.03374909
236	0xbdc245f3	-0.09485998
237	0xbd8c218c	-0.06842336
238	0xbc883f0a	-0.016631622
239	0x3e20f292	0.15717533
240	0x3d1b8a63	0.037973773
241	0x3d9e7845	0.07737783
242	0x3ddf6a05	0.109088935
243	0x3cb0ad0a	0.021566886
244	0x3eab2754	0.33428442
245	0xbd75a6b4	-0.059973434
246	0x3e91918f	0.28431365
247	0x3bd463bd	0.0064816163
248	0xbd951474	-0.07279292
249	0xbe821c4d	-0.25412217
250	0x3e4eae48	0.2018367
251	0xbd36018a	-0.04443506
252	0x3db98b9f	0.09059834
253	0xbe9c47ad	-0.30523434
254	0xbdad5d25	-0.084650315
255	0x3d3602ad	0.044436146

lstm.bias_ih_l0 f4 [200]
0	0x3e27db29	0.16392197
1	0x3ed477d0	0.4149766
2	0x3f0391fe	0.5139464
3	0x3e721b55	0.23643239
4	0x3e20b3b9	0.15693559
5	0x3e891ff7	0.267822
6	0x3dd7ecef	0.10543238
7	0x3e7c3aea	0.24631849
8	0x3eb85f84	0.36010373
9	0x3e8eb921	0.27875617
10	0x3e01ae28	0.12664092
11	0x3e4d8ae6	0.20072517
12	0x3da33d88	0.079707205
13	0x3ed29f41	0.41137126
14	0x3edf7bdc	0.43649185
15	0x3f1d616a	0.6147677
16	0x3e849f06	0.25902575
17	0x3e16376d	0.14669581
18	0xbc0f6a57	-0.008753381
19	0x3e9add43	0.30246934
20	0xbc20bf77	-0.009811274
21	0x3f44474b	0.76671284
22	0x3e6671ec	0.22504395
23	0x3f1a8037	0.6035189
24	0x3eb389da	0.3506611
25	0x3e036e27	0.12834989
26	0xbd2911fc	-0.041276917
27	0x3ede6473	0.43436012
28	0x3e6ea961	0.233068
29	0x3e9c6b6d	0.3055071
30	0x3ef308e1	0.47467712
31	0x3e816b52	0.2527719
32	0x3eaf5f15	0.3425223
33	0x3e6d61e2	0.2318187
34	0x3ea291cd	0.31751862
35	0x3fa78f68	1.3090639
36	0x3f23e8ab	0.640269
37	0x3f0d5836	0.55212724
38	0x3d9b0a89	0.07570369
39	0x3e73fd67	0.23827134
40	0x3e98952d	0.29801312
41	0x3eace63d	0.33769408
42	0x3e61ab34	0.22037965
43	0x3ea1e9b2	0.31623608
44	0x3e1cbf4e	0.15307352
45	0x3edec9eb	0.43513426
46	0x3efe10a0	0.4962206
47	0x3e71c081	0.2360859
48	0x3dd0b6fd	0.10191152
49	0x3e449248	0.19196427
50	0x3e10beab	0.14135234
51	0xbdd30119	-0.10302944
52	0x3deb5cf6	0.1149234
53	0x3d2f9dda	0.04287515
54	0xbd9700ef	-0.07373225
55	0xbd9e16ec	-0.07719216
56	0xbc7af78a	-0.015317807
57	0x3de86eea	0.1134928
58	0x3c7feca6	0.015620386
59	0xbd8eebee	-0.06978594
60	0x3dac9032	0.084259406
61	0xbd540fd7	-0.05177292
62	0xbd865d3d	-0.065607525
63	0x3cdc8fa7	0.026923968
64	0x3ddf20b5	0.1089491
65	0x3d51f3dd	0.051257957
66	0x3dfec7be	0.124404415
67	0xbd5afc7e	-0.05346345
68	0xbd2aecd3	-0.04172976
69	0x3de4b338	0.11166996
70	0x3c48b05c	0.012249079
71	0xbaab0b20	-0.001304958
72	0xbe017c3f	-0.12645052
73	0x3b83e322	0.004024879
74	0x3d6595a5	0.056050915
75	0x3e1c9a15	0.15293153
76	0x3d845698	0.06461829
77	0xbe063ac0	-0.13108349
78	0xbd2eb352	-0.042651482
79	0xbd0a94f4	-0.03383346
80	0x3e158c58	0.14604318
81	0x3d26cb41	0.04072118
82	0x3b877004	0.0041332263
83	0xbc8580b2	-0.016296718
84	0x3e1629a3	0.1466432
85	0xbe296a7f	-0.16544531
86	0x3cb5cf0a	0.02219345
87	0x3e55fd9c	0.20897526
88	0x3e2f5dad	0.17125578
89	0x3b91876d	0.004441193
90	0x3e36b7a1	0.17843486
91	0x3dbf6d1f	0.09346985
92	0x3d98e342	0.07465221
93	0xbd53c3cd	-0.051700402
94	0x3d9d9a3c	0.076954335
95	0xbda7dd2b	-0.08196481
96	0x3d6e9ff5	0.058258016
97	0x3c94a56e	0.01814529
98	0xbc520919	-0.012819552
99	0x3bd8312e	0.0065976596
100	0x3dc1cea9	0.094632454
101	0x3cf245d8	0.02957432
102	0x3bd4386c	0.0064764526
103	0xbd18da9a	-0.03731785
104	0x3db08fe5	0.08621196
105	0x3d2632ca	0.04057578
106	0x3cbd4423	0.02310378
107	0xbde89d05	-0.11358074
108	0xbe0388e1	-0.12845184
109	0xbd4a964c	-0.04945974
110	0x3e008423	0.12550406
111	0x3db2c687	0.08729272
112	0xbd999ec5	-0.07500986
113	0x3dde619d	0.10858462
114	0xbc71a943	-0.014749828
115	0xbe021ffb	-0.12707512
116	0xbd5bdcae	-0.053677253
117	0x3da2341d	0.07920096
118	0xbd10d1e2	-0.03535641
119	0xbe37efcc	-0.17962569
120	0x3dc727df	0.09724402
121	0x3e0121cd	0.1261055
122	0x3e376c6e	0.17912456
123	0x3e10f384	0.14155394
124	0xbc8b174f	-0.016978888
125	0xbdf8cebd	-0.12148807
126	0xbdd4c34f	-0.10388815
127	0x3de4d722	0.11173846
128	0xbdf5e8ff	-0.12007331
129	0xbe1ef10a	-0.15521637
130	0xbd1c6d36	-0.03819009
131	0x3cf0ae9b	0.029380133
132	0xbd4323cc	-0.04764156
133	0xbdfe75e1	-0.12424827
134	0x3d806768	0.06269723
135	0x3d3b57d6	0.045738064
136	0xbe81eae1	-0.2537451
137	0x3dfa350a	0.12217148
138	0x3daafc75	0.083489336
139	0xbd0f5cae	-0.035000496
140	0x3ddf3ce7	0.10900288
141	0xbe0b9927	-0.13632642
142	0x3d58ceb4	0.052931502
143	0x3db5aa28	0.08870345
144	0xbd81b233	-0.06332817
145	0x3ddad65a	0.106854156
146	0x3dde186c	0.10844502
147	0x3dba6c4c	0.09102687
148	0x3d234f32	0.03987045
149	0x3da1e73e	0.07905434
150	0x3e936ef5	0.2879559
151	0x3eb560de	0.35425466
152	0x3efe1dae	0.4963202
153	0x3da4219c	0.08014223
154	0x3e70b999	0.235083
155	0x3ea8f599	0.32999876
156	0x3e378875	0.17923148
157	0xbb02bef6	-0.0019950247
158	0x3de7aa7f	0.113118164
159	0x3edf51a5	0.43616977
160	0x3dac5a67	0.084156804
161	0x3e8992bf	0.2686977
162	0x3e978083	0.29590234
163	0x3e84d19d	0.25941172
164	0x3f1d6b9c	0.61492324
165	0x3ee2932d	0.4425291
166	0x3e00ccd4	0.12578136
167	0x3e8c1e79	0.27367
168	0x3e90bd74	0.2826954
169	0x3ee6bfa7	0.45068094
170	0x3e8cc219	0.27491835
171	0x3ecb7a01	0.3974152
172	0x3e7aa784	0.24477965
173	0x3f188e94	0.59592557
174	0x3eece942	0.46271712
175	0x3e69a660	0.22817373
176	0x3d57715d	0.052598346
177	0x3e0cd4b3	0.13753013
178	0x3e130739	0.14358224
179	0x3e4bd9fc	0.19907373
180	0x3eeab23a	0.458391
181	0x3e114174	0.14185125
182	0x3f2400c0	0.64063644
183	0x3e3de632	0.18544844
184	0x3e2099ea	0.15683714
185	0x3f931f20	1.1493874
186	0x3e5b71bf	0.2143011
187	0x3edbb99b	0.42915043
188	0x3e915fb3	0.28393325
189	0x3eb1d665	0.34733883
190	0x3deb21bc	0.11481044
191	0x3eca4630	0.39506674
192	0x3e93cbb9	0.28866366
193	0x3df12710	0.11775029
194	0x3e84c02c	0.25927866
195	0x3f0df510	0.5545206
196	0x3e9e7454	0.30948126
197	0x3e0d61b8	0.13806808
198	0xbb7d64d5	-0.0038664837
199	0x3eb385b9	0.3506296

lstm.bias_hh_l0 f4 [200]
0	0x3e87b3e9	0.26504448
1	0x3ece0d6d	0.40244618
2	0x3f0822c9	0.5317808
3	0x3e3a9d1e	0.18223998
4	0x3e30c47a	0.1726245
5	0x3e06b33d	0.13154311
6	0x3e6de88a	0.23233238
7	0x3ddb4851	0.10707153
8	0x3e6fa592	0.23403004
9	0x3eac9a0f	0.33711287
10	0x3e867f29	0.2626889
11	0x3e355de2	0.17711595
12	0x3e09135a	0.13386288
13	0x3eaf82d2	0.34279495
14	0x3f2b0c62	0.6681577
15	0x3f1a9697	0.6038603
16	0x3e95f1fc	0.29286182
17	0x3e660d36	0.22465977
18	0x3c24bb36	0.0100544
19	0x3e8c135b	0.27358517
20	0x3bb1b3c6	0.005423042
21	0x3f4fbefd	0.811508
22	0x3e0de612	0.13857296
23	0x3ebddd87	0.37083074
24	0x3f12dd0c	0.5736854
25	0x3e4f1995	0.20224603
26	0x3db16f65	0.08663825
27	0x3e9ae0ee	0.30249733
28	0x3e8a403e	0.27002138
29	0x3ea43e24	0.3207866
30	0x3eeb0ca2	0.45908076
31	0x3e8500f1	0.2597728
32	0x3dfb41da	0.122684196
33	0x3e8e0162	0.2773543
34	0x3edc5ff8	0.43041968
35	0x3fa00f3e	1.2504652
36	0x3f43627f	0.7632217
37	0x3f1423df	0.57867235
38	0x3e923903	0.2855912
39	0x3ea862cb	0.32887873
40	0x3e7a312f	0.24432825
41	0x3f007e7d	0.50193006
42	0x3e8578e4	0.26068795
43	0x3eae2d78	0.34019065
44	0x3e962106	0.2932207
45	0x3eebed10	0.46079302
46	0x3f1c1972	0.60976326
47	0x3e968e79	0.29405573
48	0x3d9ef2e1	0.07761169
49	0x3eb46e77	0.35240528
50	0x3dcc3be1	0.099723585
51	0x3d8d0c56	0.068871185
52	0xbc9d8ea5	-0.019233057
53	0xbc0fafa6	-0.008769905
54	0x3d36d036	0.04463216
55	0x3de06977	0.10957616
56	0xbddaf90c	-0.10692033
57	0x3dfb70e3	0.12277391
58	0x3e1dd5ec	0.15413636
59	0xbdffc8ea	-0.12489493
60	0x3df29d4d	0.11846409
61	0xbac46d7d	-0.0014986243
62	0xbd6ba8a0	-0.05753386
63	0x3d8fe28d	0.07025633
64	0x3e11ed58	0.14250696
65	0x3d21581b	0.039390665
66	0x3e457c5e	0.19285724
67	0xbd0551aa	-0.032548584
68	0x3d6cfb00	0.05785656
69	0x3dba0df4	0.090846926
70	0xbd4557cf	-0.048179444
71	0x3dfc1df2	0.12310399
72	0xbda5a951	-0.08088935
73	0x3e467f60	0.19384527
74	0xbd9dd6cf	-0.07706987
75	0x3dc5ca04	0.09657672
76	0x3e20e91e	0.15713927
77	0x3dc10b87	0.09426027
78	0x3e298c15	0.16557343
79	0x3d92dc78	0.07170957
80	0x3e227fd2	0.15869072
81	0xbd47673e	-0.048682444
82	0xbe1d82f7	-0.1538199
83	0x3e0be5e8	0.13661921
84	0x3db53ac4	0.08849099
85	0xbe241783	-0.16024594
86	0x3d50ced5	0.0509785
87	0x3e95dbae	0.29269165
88	0x3dbdb0bf	0.09262227
89	0x3df218ab	0.11821111
90	0x3e21340c	0.1574251
91	0x3e39dd02	0.18150714
92	0x3dfe127a	0.12405868
93	0x3e2ff6ea	0.17184034
94	0xbd5492a3	-0.051897656
95	0xbce47aea	-0.027890641
96	0x3e6455ac	0.22298306
97	0x3d085afb	0.03328989
98	0xbca28b4f	-0.019841818
99	0x3e1e2c19	0.1544651
100	0x3e127b88	0.14304936
101	0xbd50a843	-0.050941717
102	0x3e269e9e	0.16271445
103	0xbdb18db2	-0.08669604
104	0x3e2d405f	0.16919087
105	0x3e195d1f	0.14976929
106	0x3c45174a	0.012029478
107	0xbd1dfdb5	-0.038572032
108	0xbd9d228c	-0.07672605
109	0xbd91bc9e	-0.07116054
110	0xbd2585ce	-0.04041081
111	0xbcb4b3cd	-0.022058392
112	0xbdad8364	-0.084723264
113	0x3d945d77	0.072443895
114	0xbd82c3c5	-0.06384996
115	0xbbdf8b22	-0.006822006
116	0xbd898348	-0.06714493
117	0xbd81d16e	-0.06338774
118	0x3dc39ff9	0.09551997
119	0xbb5e34e8	-0.0033906046
120	0x3ddfec91	0.10933793
121	0x3e1d5be1	0.1536708
122	0xbbd08183	-0.0063630952
123	0x3e6427e8	0.22280848
124	0xbe1f815f	-0.15576695
125	0xbe154ecc	-0.1458084
126	0x3d78f4d1	0.06078035
127	0xbdf3b6a0	-0.11900067
128	0xbdbfe5e0	-0.09370017
129	0x3db948b8	0.09047073
130	0xbdf5166c	-0.11967167
131	0xbe1a5294	-0.15070564
132	0xbe36d3d1	-0.17854239
133	0xbe2096e9	-0.15682568
134	0x3dbfea98	0.09370917
135	0x3d997af4	0.074941546
136	0xbd051fe4	-0.032501116
137	0xbba918fa	-0.005160448
138	0xbd10d290	-0.035357058
139	0x3c8e141d	0.017343575
140	0x3d80e245	0.062931575
141	0xbe34b865	-0.17648466
142	0xbd89344b	-0.06699427
143	0x3e133b07	0.14377986
144	0x3da88b3a	0.0822968
145	0x3d498edb	0.049208503
146	0x3d396b32	0.045268245
147	0xbd9a2797	-0.075270824
148	0x3d8b3809	0.06797797
149	0xbd35bc50	-0.044369042
150	0x3e958649	0.29204014
151	0x3ed7c430	0.42141867
152	0x3eb3a284	0.35084927
153	0x3d9b65b5	0.075877585
154	0x3e8434ae	0.2582144
155	0x3eb14143	0.34620103
156	0x3da3c5a0	0.07996678
157	0x3e5fcd27	0.21855603
158	0x3e9326eb	0.2874063
159	0x3ef6cb81	0.48202136
160	0x3de93623	0.11387279
161	0x3d9e5c83	0.07732489
162	0x3df5c4f3	0.12000456
163	0x3ed1d886	0.40985507
164	0x3ef9784f	0.487246
165	0x3ef630fd	0.4808425
166	0x3e7ab786	0.24484071
167	0x3e212f64	0.15740734
168	0x3e64d83e	0.22348115
169	0x3eaad71c	0.3336724
170	0x3e0d038a	0.13770881
171	0x3ea2ec8a	0.3182109
172	0x3ea1098e	0.31452602
173	0x3eb96c6d	0.36215535
174	0x3f156b22	0.58366597
175	0x3e235972	0.1595209
176	0x3e4d1a63	0.20029597
177	0x3e2b5ae7	0.16733895
178	0x3e8740bd	0.2641658
179	0xbb8f654a	-0.0043760883
180	0x3eeb3d36	0.45945138
181	0x3e047e91	0.12938906
182	0x3f0c7060	0.5485897
183	0x3e1a7558	0.15083826
184	0x3ea75e73	0.32689247
185	0x3f9fed90	1.2494373
186	0x3ebf0546	0.3730871
187	0x3eec15ea	0.4611047
188	0x3e130c72	0.14360216
189	0x3ed94902	0.42438513
190	0x3e51ab3d	0.20475478
191	0x3e562d68	0.20915759
192	0x3e6de5cb	0.2323219
193	0x3d9872bd	0.074437596
194	0x3e8abfc9	0.27099445
195	0x3f22f86f	0.6366033
196	0x3eafc784	0.34331906
197	0x3e94a793	0.290341
198	0x3e70e9bf	0.23526667
199	0x3eae528f	0.34047362

linear.weight f4 [1, 50]
0	0xbea25857	-0.31708023
1	0x3f2c0536	0.6719545
2	0x3edd8573	0.43265876
3	0x3ef3ee3d	0.476427
4	0x3e71e39a	0.2362198
5	0x3eb89ebc	0.36058605
6	0xbcdf4879	-0.027256237
7	0x3dc7003f	0.09716844
8	0x3ea33e93	0.31883678
9	0xbeb7a673	-0.35869178
10	0x3ec63aae	0.38716644
11	0x3f04a0f1	0.5180808
12	0x3d632801	0.055458073
13	0xbe89321e	-0.2679605
14	0x3ebe88a9	0.37213638
15	0xbeb0ea96	-0.34553975
16	0x3eb529e1	0.35383514
17	0x3ed1c194	0.40968
18	0x3ecbc5af	0.39799258
19	0x3df76d6d	0.12081418
20	0xbede8d57	-0.4346721
21	0x3e29700c	0.16546649
22	0x3d2d5c07	0.042324092
23	0x3eaec67d	0.3413581
24	0xbec95f66	-0.39330596
25	0xbe819585	-0.25309387
26	0x3e92447b	0.2856787
27	0x3efd153a	0.49430257
28	0x3c462c52	0.012095528
29	0x3e914a17	0.2837684
30	0x3db7a9d3	0.08967938
31	0xbe997a26	-0.29976004
32	0x3eb10baf	0.34579226
33	0xbe056e50	-0.13030362
34	0xbf0c5389	-0.54814965
35	0xbf37d2d1	-0.71806055
36	0xbee08c9b	-0.43857273
37	0xbdb18d1b	-0.08669492
38	0x3eb743c6	0.35793895
39	0x3e6d664f	0.23183559
40	0xbe135960	-0.14389563
41	0x3f1f1449	0.6214033
42	0xbeba4442	-0.36380202
43	0xbdc5b8cb	-0.09654387
44	0xbf0bf61b	-0.546724
45	0xbe205493	-0.15657263
46	0xbde0cc81	-0.10976506
47	0xbf06092b	-0.5235774
48	0x3e72e6bb	0.23720829
49	0xbea9cb3b	-0.33162865
