archive/lstm_4to1/trial2/j4/lstm_model_epoch10.pth (torch, 48089 bytes, 5 tensors)

lstm.weight_ih_l0 f4 [200, 4]
000000 e2 e5 a6 be 06 93 30 bf a7 be 84 be c8 8e 91 3e
       -0.32597262 -0.6897434 -0.25926706 0.28429246
000010 d8 e2 07 bf a7 c4 5b bf 09 05 17 c0 28 93 9c bf
       -0.5308051 -0.8584694 -2.3596823 -1.2232409
000020 88 99 80 3e ce 78 1f be e7 4c 4a 3e 6f 3c 80 3e
       0.25117135 -0.15573427 0.19755898 0.25046107
000030 b7 f4 ee 3e 35 cd d8 be 91 56 a6 be 73 b5 b8 3e
       0.46671078 -0.4234406 -0.3248792 0.36075935
000040 0e 0c b3 bf ed 9a e4 3e e4 52 50 bf c9 4b 65 3e
       -1.3988054 0.4464945 -0.8137648 0.22392191
000050 b6 ca 93 bd 48 2b 88 3e ad e2 ae bf bb 9e 13 bf
       -0.072163984 0.2659552 -1.3662926 -0.5766408
000060 94 7d f9 bd c5 e5 d5 3d 83 24 c5 3d 24 36 68 3e
       -0.12182155 0.10444216 0.09626105 0.22676903
000070 6b cf 45 3d ba af 13 be 39 a7 a8 bf 24 8d 47 be
       0.048293512 -0.14422503 -1.3176032 -0.19487435
000080 9d 08 c1 bd ce 79 e0 be 62 de 7a 3d 14 bd f2 3c
       -0.09425471 -0.4384293 0.061247237 0.029631175
000090 b7 62 21 3f ca 3d 83 bf e3 64 5d be 6d 52 cb be
       0.6304125 -1.0253232 -0.21620516 -0.39711323
0000a0 29 91 87 be db 1f 11 bd 9f cd 36 3e 48 a4 70 3f
       -0.26477936 -0.03543077 0.17851876 0.94000673
0000b0 dc b4 9c 3f 53 f5 41 be 1f e9 79 bf e4 75 6f 3e
       1.2242694 -0.1894124 -0.9762134 0.23384815
0000c0 e9 16 25 3e 08 f6 1a 3d 4f 75 3b 3e 19 ed 09 3f
       0.16122021 0.03783229 0.18306468 0.5387741
0000d0 bc 70 33 be 27 21 5a 3d d4 cf bb be b0 8b a9 3f
       -0.17523474 0.053254273 -0.36681998 1.3245754
0000e0 c0 79 ba be 9e b1 42 3e eb 9d 3c 3f 0a 10 0e 3e
       -0.36421013 0.19013068 0.73678464 0.13873306
0000f0 52 b8 ab 3d c1 7a 66 be df d4 5c bf 5d a4 6c bd
       0.08384766 -0.22507764 -0.86262316 -0.057773937
000100 41 12 47 3d ae ab 49 be b0 49 41 bd c6 0a c7 3d
       0.048601393 -0.19694397 -0.047189415 0.09718852
000110 9d cd ed bf 5f 35 d9 bb 79 3f b9 3f 6e 7c d2 bd
       -1.8578373 -0.006628677 1.4472495 -0.10277639
000120 3b cf 1a 3e 34 24 d4 3e 3b 66 ce bd 85 6c 91 3e
       0.15118115 0.4143387 -0.10078093 0.28403106
000130 11 b6 02 bf 2d 52 13 3f 11 ec 15 3e 77 5f 55 be
       -0.5105906 0.57547265 0.14640833 -0.20837198
000140 d9 05 dd be d5 bf 8e 3d c1 ab 6d 3e 51 ce 92 3d
       -0.43168524 0.06970183 0.2321005 0.07168258
000150 8a 8a e5 3e b6 5e ed be 83 29 db be a9 7e 93 3e
       0.4483226 -0.4636132 -0.42805108 0.28807572
000160 07 4f e6 be 9f 19 38 bf 04 c0 20 be 6b 24 63 be
       -0.44982168 -0.71914095 -0.15698248 -0.22181861
000170 33 09 db be 08 19 3f 3e 4e bb 35 ba 36 63 2e be
       -0.42780456 0.18661892 -0.00069325126 -0.17030033
000180 cb f9 68 bf 2f e1 fe bf fe 2e 46 bf 0c 0e c1 3e
       -0.91006154 -1.991247 -0.77415454 0.3770603
000190 05 d0 37 3e 9f e0 24 3d 52 3f 35 3f 7d 77 a8 be
       0.17950447 0.040253278 0.70799744 -0.32903662
0001a0 45 0f 79 be 0b f3 8f bb 87 1a ef bd 86 9a 50 bd
       -0.24322231 -0.0043929867 -0.116749816 -0.050928615
0001b0 fb 78 d0 be af f2 66 be 95 13 c6 3e bb 92 52 3f
       -0.407173 -0.22553514 0.38686815 0.8225514
0001c0 fa c6 b9 3e 36 5d 1f be 34 99 8a be 72 5e 15 3f
       0.3628462 -0.15562901 -0.2707001 0.5834724
0001d0 5f 76 71 3c 8a aa b8 bd 84 f5 ff be 2d e5 05 3f
       0.0147376945 -0.09016903 -0.49992 0.5230282
0001e0 a6 c1 c9 3f 30 4d 73 bf 76 96 7d be 5d 2a 4d 3f
       1.5762222 -0.95039654 -0.24764428 0.80142766
0001f0 cd 14 4d 3d 88 73 34 be 65 1d 10 bf e1 6a 85 3e
       0.050068665 -0.17622197 -0.5629485 0.26058105
000200 5f 00 e1 be 80 30 17 bd 35 a6 f7 be 25 28 a3 be
       -0.43945596 -0.036911488 -0.48368993 -0.31866565
000210 d0 49 88 3e 1f ac 23 be db 6d 92 be 4d 70 9a 3d
       0.26618814 -0.15983628 -0.28599438 0.07540951
000220 57 70 6e be d5 85 b9 3d b2 5a 7d be 3e ab 03 be
       -0.23285042 0.090587296 -0.24741629 -0.12858292
000230 91 63 49 3e 70 2e 08 be 1d 7f ce bf 51 ad b7 be
       0.19666888 -0.13298965 -1.6132542 -0.35874417
000240 66 b3 24 be 5a c0 f1 bd a3 cd fb 3e 6a 7f 30 be
       -0.1608406 -0.11804266 0.49180326 -0.17236105
000250 f2 f3 04 3d 96 8a 2a 3e cf d2 00 3f fc 6d 36 be
       0.032459207 0.16654429 0.5032167 -0.17815393
000260 97 39 34 be 48 9b 97 be dd 1f c9 bc e8 18 9f bd
       -0.17600094 -0.29610658 -0.024551326 -0.07768422
000270 a4 42 03 3e 46 fc 86 bf 8c 3a 69 bf ee e9 81 bf
       0.1281839 -1.0545738 -0.9110496 -1.0149515
000280 33 44 c0 3e 5d ec 97 be af 70 b3 be a3 f9 7d be
       0.37552032 -0.29672518 -0.35046908 -0.2480226
000290 ae df 45 bf 78 c1 fe 3d ca 3c 81 3d 5c 0d 3b be
       -0.77294433 0.12439245 0.06310423 -0.18266815
0002a0 47 35 58 bc 3d 58 23 be 4e d3 ee be 5c d7 00 3e
       -0.013196296 -0.15951629 -0.46645588 0.12582153
0002b0 52 37 6a be e1 fc 36 bd 81 29 57 bf e5 1a 15 be
       -0.22872666 -0.044674758 -0.84047705 -0.1456104
0002c0 c6 60 ad 3e d2 6f 14 3e 6d a4 b0 3e 86 10 99 3d
       0.33862895 0.14495781 0.34500447 0.07473855
0002d0 2e 6d 53 be 80 67 61 3a 20 be 86 bf 2a 39 1c 3f
       -0.20647117 0.00085984915 -1.0526772 0.61024725
0002e0 3b 3b 0e be e4 a1 4b be 73 39 4c bf df 3a ac 3e
       -0.13889782 -0.19885975 -0.7977516 0.33638665
0002f0 ab 34 df 3e 88 48 a4 be 7f 37 b0 3e d0 87 9b be
       0.4359487 -0.32086587 0.3441734 -0.30377054
000300 3f 4d f9 bf cf 20 db 3e 9e 95 c8 3e 9d a1 f7 3e
       -1.9476699 0.42798468 0.3917665 0.4836549
000310 8e 5d 5c 3e 54 48 15 3e 05 bf d2 be 90 d8 9b 3d
       0.21520063 0.14578372 -0.4116136 0.076096654
000320 25 4c c9 bd 84 2c 3f be 07 39 b6 be 2f ad 6b 3e
       -0.098289765 -0.18669325 -0.35590383 0.23015283
000330 a7 4f b9 be fe 0e e6 3d 2b 19 89 be 17 fe 89 be
       -0.36193582 0.11233328 -0.26777014 -0.26951668
000340 ed cf 83 3e 09 74 bc bc c4 e9 49 be 9c 6d 20 3f
       0.25744572 -0.023004549 -0.19718081 0.6266725
000350 2c 79 76 3e 43 97 92 be 03 87 b8 be d7 f5 6f 3e
       0.24069661 -0.2863103 -0.36040506 0.23433624
000360 91 09 b6 be 1b fc c0 3d e0 43 9c be dd 7e f3 bc
       -0.35554174 0.09423085 -0.30520535 -0.029723579
000370 ec ec b6 3d 92 c0 40 3e 9a ef 5f bf b7 e0 84 be
       0.08931908 0.1882346 -0.8747498 -0.25952694
000380 b9 a3 b7 3e 6a 29 0d bf 19 c1 ae be 54 bc d5 3c
       0.35867098 -0.5514132 -0.34131697 0.026090778
000390 a4 f7 61 3d d5 83 26 be f9 a3 1d bf a5 1b a2 3d
       0.05516781 -0.16261227 -0.6157833 0.07915429
0003a0 ef ac ed bd e0 06 b0 be c7 f9 d2 be bf f9 a5 3e
       -0.1160525 -0.34380245 -0.4120619 0.32417104
0003b0 79 a7 3e 3e b5 c7 de 3d 81 fc 15 bf e8 31 83 3e
       0.18618573 0.10877935 -0.58588415 0.25624013
0003c0 bb b8 ca bd ee 11 a8 bd 48 00 d8 3e a2 d5 ee 3e
       -0.09898516 -0.08206545 0.42187715 0.46647364
0003d0 ce b4 eb bd ae 8a 32 3c d3 bd 1c 3e 14 0f 00 3f
       -0.11509095 0.010897322 0.15306787 0.5002301
0003e0 a9 54 18 3f f2 19 fa be b2 5c 53 be d4 ba 04 3e
       0.5950418 -0.4884792 -0.20640829 0.12961894
0003f0 77 03 53 be fd 54 04 3c 1e 55 36 bd 2a f2 f3 3e
       -0.2060679 0.008076903 -0.044514768 0.47645694

lstm.weight_hh_l0 f4 [200, 50]
000000 e0 68 b3 3e 70 4f bc 3e 04 45 ac bd 4c 33 79 3e
       0.3504095 0.36779356 -0.08411601 0.24335974
000010 36 26 01 bf a9 a5 11 3e 09 70 c6 be 5b ca b6 be
       -0.5044893 0.1422335 -0.3875735 -0.3570126
000020 56 15 13 3f e1 d8 e7 3e 2c 3e 80 be 49 39 63 3f
       0.5745443 0.45282653 -0.25047433 0.88759285
000030 14 2a 9a bb 71 bb 5d bd b5 c1 0c be 7c 20 d9 3d
       -0.004704723 -0.054133836 -0.13745768 0.10601899
000040 3d 20 a7 be 95 c3 1b bf 41 68 d5 bd 47 98 d8 be
       -0.32641783 -0.6084531 -0.104202755 -0.42303678
000050 77 2a af 3c 85 f3 f9 3d bc 6e 46 bf d5 ae 16 3f
       0.021382554 0.12204651 -0.7751272 0.5886052
000060 dc 95 c0 bc 63 61 22 3f 14 e5 27 bf a5 ec 0d bf
       -0.023508959 0.6342985 -0.6558392 -0.55439216
000070 b5 dc 3d 3f dc 58 5b 3e 9b 50 04 3e aa ff 3e be
       0.741649 0.21420616 0.12921374 -0.18652216
000080 40 e6 4e be 9c 36 99 3d cc 6d 86 bf 74 af fc be
       -0.20205021 0.07481119 -1.0502257 -0.4935261
000090 a8 fe c3 3e 87 be 52 be dd 76 bd be 5d 99 00 3e
       0.38280225 -0.20580493 -0.37004748 0.12558503
0000a0 a1 a7 2d 3f 09 ec ed 3e 35 d9 18 3c a8 99 2a be
       0.67833906 0.46469143 0.00932913 -0.16660178
0000b0 70 43 08 3f fa 2f 82 3c 1a c8 50 bf f2 ce 02 be
       0.532279 0.015892018 -0.8155533 -0.12774256
0000c0 5f b1 2a 3c c1 56 3e 3e ab 92 18 3f b4 a0 e0 3e
       0.010418265 0.18587781 0.595988 0.43872607
0000d0 7c 05 33 bf 87 96 28 3e d8 2d 44 bf 65 98 33 be
       -0.69930243 0.16463672 -0.7663245 -0.17538603
0000e0 e3 3e af bd 7a 52 00 bf 97 23 d9 3e 3a 66 cb 3d
       -0.085569166 -0.5012585 0.42409965 0.099316075
0000f0 35 1d 23 3e 2a 05 dc bd 0e ea 76 be 6f 93 2e bf
       0.1592911 -0.107431725 -0.24112722 -0.68193716
000100 67 56 13 be 05 ea 62 3e 78 db 01 3e 91 e2 cd be
       -0.14388429 0.22159584 0.12681377 -0.4021192
000110 92 66 cf 3e 95 8f 29 3f 00 a5 48 3f b2 4d 17 3c
       0.40507942 0.66234714 0.7837677 0.009234833
000120 93 0f 5d 3e b9 58 fb bd 89 b0 31 bf 08 8a 87 3e
       0.21587972 -0.12272782 -0.69409996 0.26472497
000130 f1 3d 5a be 2f 83 5f 3f 47 48 85 bd 60 34 e8 3d
       -0.21312691 0.87309545 -0.065079264 0.11338115
000140 8f 1a a3 be dd 36 59 3e a7 78 86 3d 6b a6 21 3d
       -0.318562 0.21212335 0.06565981 0.03946535
000150 3c ff 65 bf 2d 19 ae be 7d af 83 3e 6a 23 3f 3d
       -0.8984258 -0.34003583 0.25719824 0.046664633
000160 1c b6 ac be 0b c7 14 bf 8c d1 c8 3b e2 2c 86 3f
       -0.33732688 -0.58116215 0.0061284956 1.0482447
000170 64 42 9f bd 0b 94 a3 3e c2 b1 22 3f 4f 2f 07 3f
       -0.07776335 0.31948885 0.63552487 0.5280656
000180 b5 6b 28 bf d7 95 7d bd 32 6f c1 3f a0 66 4a 3f
       -0.6578935 -0.061910477 1.5112059 0.79062843
000190 43 d6 d9 3d d5 21 09 3f 7d 82 a0 be 47 15 c0 3b
       0.1063657 0.5356725 -0.31349555 0.0058619115
0001a0 da de e7 be 45 36 81 bc 40 1e f8 3e 53 54 ae be
       -0.4528721 -0.015772948 0.4846058 -0.3404871
0001b0 a3 c4 24 3e 9f a4 2f 3e 7a bf 5f 3e 98 a6 c3 be
       0.16090636 0.17152642 0.21850386 -0.38213038
0001c0 80 e1 ce be 7d e1 c1 3d a7 3a cb 3d 95 7b a5 3e
       -0.40406418 0.094668366 0.099232964 0.32320848
0001d0 81 c5 c4 3e bc 84 36 be 3b d6 07 bf 16 94 be 3e
       0.38431934 -0.17824072 -0.53061265 0.37222356
0001e0 09 60 79 3d a2 6a 89 be 79 be 30 bd f1 9f a6 3e
       0.060882602 -0.26839167 -0.0431504 0.325439
0001f0 cc a8 c2 3e 4a ff 22 3e 67 3a 41 3e ec c9 21 be
       0.38019407 0.15917698 0.18869935 -0.15799683
000200 c2 ff 19 bf 6e 15 7e 3c ab c0 17 be ca 22 df 3e
       -0.6015588 0.015508039 -0.14819591 0.4358123
000210 86 a7 8a 3e 91 e0 72 bd dc f6 81 be b1 5c ac be
       0.27080935 -0.059296194 -0.2538365 -0.33664468
000220 19 26 2b bc c2 a2 14 3f d5 34 cc 3d b3 2c ce be
       -0.010446095 0.5806085 0.099710144 -0.40268478
000230 7b 6c 0e bf 75 75 32 3f 1f 9e 1a 3e 74 62 6c bd
       -0.5563428 0.69710475 0.15099381 -0.05771108
000240 f3 af ac 3e 8e 48 d7 be 53 7b c3 ba 37 4d 1b bf
       0.3372799 -0.42047542 -0.0014914073 -0.60664696
000250 8f 09 25 3f d0 1a 87 3d 6b 94 18 3e 02 55 00 bf
       0.6446771 0.06596911 0.14900367 -0.5012971
000260 34 df c7 3e 26 03 2c be da f3 05 3f 60 1e 93 bd
       0.39037478 -0.16798076 0.5232521 -0.07183528
000270 d8 5a 3e be da e2 b4 be f2 7d 12 3f 35 b6 2a 3e
       -0.18589342 -0.35329324 0.5722343 0.16671069
000280 ef e9 6b be a7 5a 02 3e fc 1e af be 17 88 2e 3e
       -0.23038457 0.12729894 -0.34203327 0.17044102
000290 99 e6 8f 3d 08 33 01 3e 88 c8 e8 3d bf 35 79 bd
       0.07026405 0.12617123 0.11366373 -0.060842272
0002a0 35 42 c1 be dc 3d 4a be 9d 44 11 be 66 0e 3f 3d
       -0.37745824 -0.1975016 -0.1418633 0.04664459
0002b0 45 85 8f bd 8f ce 0d bb 04 c6 b9 3e ca 55 20 3f
       -0.07007841 -0.002163801 0.36283886 0.62630904
0002c0 ef c8 08 bf 5d 4e d0 be 4c fc c5 bd 92 c6 88 3e
       -0.534316 -0.40684786 -0.096672624 0.26713997
0002d0 72 e8 c3 bc 04 9b 5e be cb 72 9b 3e 88 98 3e bd
       -0.02391455 -0.21738821 0.30361018 -0.046532184
0002e0 c4 2e 1b 3e 3d a8 86 3e aa fe f9 3c 30 ed 31 3e
       0.15154558 0.2630023 0.030516941 0.17375636
0002f0 f7 d0 55 be 92 9f 94 bd 08 5a d1 bd dd 2d 23 3f
       -0.20880495 -0.07256998 -0.1022225 0.63741857
000300 9d d8 b3 3e 81 21 23 be 39 d0 0f 3e ce 15 30 bf
       0.351262 -0.1593075 0.14044274 -0.6878327
000310 6d f7 0c be 79 a6 b2 be 10 56 0e bf 20 e2 67 3e
       -0.1376626 -0.34892634 -0.5560007 0.22644854
000320 04 20 6d bf 58 02 86 3d 33 0b c7 3d 49 b8 6a bd
       -0.92626977 0.06543416 0.09718933 -0.057304654
000330 15 67 7d 3e 2e c9 ad bd 33 e5 ac 3e 14 62 6c bd
       0.24746354 -0.084856376 0.33768615 -0.057710722
000340 57 cd 81 be 66 e6 83 3e 93 9f 71 3e cd 6e 43 3e
       -0.25351974 0.25761718 0.23596029 0.19085236
000350 bc 84 a3 3e b3 62 9e bd f6 a1 b7 be 58 ad 70 3e
       0.31937206 -0.07733669 -0.35865754 0.23503625
000360 d8 f1 f1 3e 26 e8 8e be 09 4a 85 3d cf 71 ff be
       0.47254825 -0.2791149 0.06508262 -0.49891517
000370 5a 84 b2 be 48 19 fa be d0 a0 0b 3f b6 ca c8 bf
       -0.348666 -0.48847413 0.54542255 -1.5686862
000380 92 3f 51 bf 4f 01 0e 3d 4e 80 0b 3f 5a 24 d8 bd
       -0.81737626 0.034669217 0.5449265 -0.105538085
000390 f5 54 26 bf fc 56 65 bd 8b 1c 86 3d a3 cb 35 3f
       -0.64973384 -0.055991158 0.06548413 0.7101385
0003a0 70 e8 ba be df 76 db bd 7d ab df 3e 42 d1 eb 3e
       -0.3650546 -0.10716032 0.43685523 0.4605809
0003b0 5f 27 35 be 15 df d0 3e 6e bd 77 3d d2 6f 43 bf
       -0.176908 0.40795198 0.06048339 -0.763425
0003c0 53 8a d5 be 2c 2f 30 3f 2b cf f0 be 15 52 c3 3e
       -0.41707096 0.6882198 -0.47033057 0.3814856
0003d0 4a 7a 4a 3f 6b b1 1d bf 92 9b 88 3e 6c 19 2e 3e
       0.7909285 -0.61598843 0.2668119 0.17001885
0003e0 e1 4c 22 bf 3d 4d 04 3e cf 00 6d be 54 c1 ca be
       -0.6339856 0.12920089 -0.2314484 -0.39600623
0003f0 18 f5 38 3e 85 c0 37 bd 5e a6 0e bd 9a ea 1c 3e
       0.18062246 -0.044861335 -0.03482663 0.15323868

lstm.bias_ih_l0 f4 [200]
000000 cb df 60 3e c3 b9 59 3f 75 b3 a2 ba 35 70 48 be
       0.2196037 0.85049075 -0.0012413102 -0.19574054
000010 06 17 76 3e df f3 58 3e d8 dc 8b be 0b 8f 45 3e
       0.2403222 0.2118678 -0.27316928 0.19292848
000020 9e 9b 9f bc 17 1e 8c 3f 8d bc 97 bd 39 26 8d 3e
       -0.019483384 1.0946683 -0.0740901 0.27568224
000030 21 b2 a7 3b ad 19 24 3e bc ab 5a bd e4 54 75 3e
       0.00511767 0.1602542 -0.053386435 0.23958164
000040 04 b9 01 bd f3 cd 30 3f ee da d1 bd ff d8 de bc
       -0.031670585 0.69064254 -0.10246836 -0.027203081
000050 8c 8c 6e be df 45 3e be 01 e2 6f 3f 6b 6f 0a be
       -0.23295802 -0.18581341 0.9370423 -0.13519065
000060 96 92 5e 3e 3f 3d fb 3e 84 5e d0 bd 79 9e b8 3d
       0.21735606 0.49070165 -0.101742774 0.09014601
000070 e7 6b 27 be 08 67 0c be 05 9f 88 3e 11 5c a2 3c
       -0.16349755 -0.13711178 0.26683822 0.019819291
000080 b7 ef 9a 3e 49 5b 84 bd 75 a5 0b 3f 88 46 09 3e
       0.30261013 -0.06462724 0.5454934 0.13405812
000090 9d 2b e4 3e af b6 71 be d1 0a c1 bc 75 c1 4d 3f
       0.44564524 -0.23604845 -0.023564728 0.80373317
0000a0 6b 62 cb 3d 12 5f 88 3e 49 60 ae bd 8a 88 b9 3d
       0.09930881 0.26635033 -0.08514459 0.09059246
0000b0 73 92 82 3e 1c da 1a be cc 89 80 be 21 9d 4a be
       0.25502357 -0.15122265 -0.2510513 -0.19786502
0000c0 03 2c 94 3e e4 e5 07 bd 29 5a f8 bd 21 95 79 bd
       0.28939828 -0.033178225 -0.12126572 -0.060933236
0000d0 5a cb e7 be 67 2a 96 bd c8 d7 b7 bc 43 ac b5 3d
       -0.45272332 -0.07332306 -0.02244176 0.08870747
0000e0 f4 87 05 3e 1d 70 d2 bd fd bc 67 be 4a 88 02 be
       0.13040143 -0.1027529 -0.22630687 -0.12747303
0000f0 47 0f 9c be 96 3e af bc a4 b3 90 3e 57 2a 02 3e
       -0.30480406 -0.021392148 0.28262055 0.12711464
000100 32 6b a0 3e 6a e1 15 be 69 7e eb 3d 9e 6f 61 be
       0.31331784 -0.1463677 0.1149872 -0.22015235
000110 c4 10 14 3e 18 a3 fc 3e 46 43 5e 3e b5 96 68 be
       0.1445952 0.4934318 0.2170535 -0.2271374
000120 5d f3 d9 be a5 74 96 3e 51 6a 4f be ea 6d 2d 3e
       -0.42568484 0.29385868 -0.202554 0.1693646
000130 54 c9 33 be f4 2c d5 3d d5 fd 54 bc c3 f5 6e be
       -0.1755727 0.10408965 -0.012999971 -0.23335938
000140 74 f1 f4 3d d3 e7 c4 3a 4c b5 b1 bd bf 09 5a be
       0.11960116 0.0015022702 -0.08677158 -0.2129278
000150 ec 57 95 3d 82 fe d5 bb 39 e9 31 3d 33 cb bf 3d
       0.072921604 -0.006530584 0.04343531 0.09364929
000160 9d cb 40 be cc 85 1e 3e 59 db 0b 3d 1d a8 82 be
       -0.18827672 0.15480727 0.034144733 -0.25518885
000170 75 cd f9 bd 96 a4 7a be 3c 34 a1 bc ed 28 fa 3c
       -0.12197391 -0.24476847 -0.019678228 0.030537093
000180 f7 bd d4 bc ba 0a 90 be cb e1 0f 3d 5f f7 0c be
       -0.025969489 -0.28133184 0.035127442 -0.1376624
000190 b6 47 b5 bd fc 04 86 bd 06 8b cc 3d 5d 8f 49 bd
       -0.088515684 -0.065439194 0.09987454 -0.049208988
0001a0 13 63 38 3e d8 f3 bc bd 06 fe 9e bd 9a 9f 29 3e
       0.18006544 -0.09226197 -0.07763295 0.1656479
0001b0 ca e2 b7 bd 7e 16 e0 bb 83 1c a9 38 2d 27 22 be
       -0.089788035 -0.006838619 8.063859e-05 -0.15835257
0001c0 2c 95 ce 3c f4 65 2f 3e e1 d4 b8 3d ad 30 d7 bd
       0.025217615 0.17128736 0.090249784 -0.10507331
0001d0 c9 0c 8c 3d b0 05 63 bd f4 0f 98 3d 31 b7 8d bd
       0.06838376 -0.055425346 0.07424918 -0.069197066
0001e0 07 ed aa bd c5 ac 8c 3d 47 5c 42 3d bf ca 51 bd
       -0.08345991 0.06868891 0.047451284 -0.051218744
0001f0 27 b4 d1 3d 43 e9 a9 bc d1 83 49 bd c8 7e 03 be
       0.102394395 -0.02074111 -0.049197976 -0.12841332
000200 49 50 85 3d 8d 3d b9 3c c7 5b 92 bd ae 85 d5 bd
       0.06509454 0.022612358 -0.071464114 -0.10425888
000210 27 54 16 be 34 a9 fc 3b e3 b3 95 bd ae 4c 01 be
       -0.14680539 0.0077106003 -0.07309701 -0.12626907
000220 d5 eb bd bb 3f 09 d3 bc d0 e2 ed 3d 10 ea 0d be
       -0.0057959356 -0.025761245 0.11615527 -0.13858819
000230 b3 76 5d 3c 01 34 c0 bd c3 4a b9 bb 15 6e eb bd
       0.01351707 -0.09384919 -0.0056546642 -0.11495606
000240 b7 d3 d8 3c 25 8f 7b be 4f 99 cf 3c 38 04 16 3e
       0.026468141 -0.24566324 0.025341658 0.14650047
000250 1e 5e 87 bd fb 35 8f 3d 45 83 8d 3e 36 46 2a 3f
       -0.06609748 0.06992718 0.27639213 0.66513383
000260 f8 d8 80 bd fc 0d 4d be c7 9c 14 3e 3c 53 3c bd
       -0.062913835 -0.20024866 0.14512931 -0.045977816
000270 a1 93 07 be cc 22 54 3d a3 f8 45 3e 27 f9 17 3f
       -0.1323991 0.051790997 0.19333129 0.5936455
000280 a7 01 9d 3d 73 94 d3 3e 24 20 0d 3e 8a 72 f7 3d
       0.07666331 0.41324195 0.13781792 0.120823935
000290 6b 78 d6 3c 8b 23 a3 bd 35 62 ad 3d 18 e5 1b 3f
       0.026180467 -0.07965764 0.08465997 0.60896444
0002a0 ad e8 90 3d 04 e2 8e 3c 29 c6 37 be 8a 24 d2 bd
       0.070756294 0.017441757 -0.17946686 -0.102608755
0002b0 a2 e6 78 3f 0b 58 7b 3d ee c4 c3 3e 76 b3 c4 3e
       0.9722692 0.06136326 0.38236183 0.38418168
0002c0 8f 7e a5 bd a7 2e 43 3e 2e cb a1 bd 59 1c 7d be
       -0.0808078 0.19060765 -0.079000816 -0.24717845
0002d0 d2 70 29 3e 99 20 a6 bd a6 96 03 3d 7c f1 22 be
       0.16546944 -0.08111686 0.03212609 -0.15912431
0002e0 13 9b 04 3f 88 f7 af 3e 30 40 c0 3e 98 51 6a 3d
       0.51799124 0.3436854 0.3754897 0.05720672
0002f0 02 80 c2 bd e9 32 08 3f 8f b8 47 3d 4c ba 89 3e
       -0.09497072 0.5320268 0.048759993 0.26899946
000300 ab 18 18 3e 6f ae 49 bb cc b6 76 3c a4 8f 32 be
       0.1485316 -0.0030774137 0.015058231 -0.17437607
000310 df e3 f0 bd 6f 94 13 be f6 bf 9e 3e ba 84 8c be
       -0.11762213 -0.14412092 0.3100583 -0.27445012

lstm.bias_hh_l0 f4 [200]
000000 e3 86 4d 3e 0d 68 5f 3f 0c 34 b1 3d 87 5f 4b bd
       0.20070986 0.87268144 0.08652505 -0.04965165
000010 5f a1 d0 3d c3 58 38 3e 9a f6 8d be 8f f7 0d 3e
       0.10187029 0.1800261 -0.27727205 0.13863967
000020 07 5f fd 3c 0b 92 88 3f 4e f3 4f bd f3 e0 29 3e
       0.030929102 1.0669569 -0.050769143 0.16589718
000030 ca 2d 61 3d 07 22 63 3e 80 f4 bf 3d 69 94 83 3e
       0.05497531 0.22180949 0.093728065 0.25699165
000040 07 b8 4d bc e5 80 19 3f 64 48 de bd 31 00 f6 bd
       -0.012556083 0.599623 -0.10853651 -0.12011755
000050 68 b4 5f be 68 59 dd bc 22 42 8a 3f ef e9 90 3c
       -0.21846163 -0.027020171 1.0801432 0.017689673
000060 29 6f 34 3e 59 15 b8 3e e6 f4 a6 3d 5c 58 60 3d
       0.17620529 0.35953787 0.081521794 0.054771766
000070 ff ab 83 be 2a 02 f9 bd 9b e7 51 3e b0 7e 10 3a
       -0.2571716 -0.12158616 0.20498507 0.0005512042
000080 44 fe 3a 3e 8a 8e 69 bd 64 11 fe 3e aa 33 79 3e
       0.18261057 -0.0570207 0.49622643 0.24336115
000090 61 d3 09 3f b4 a5 14 3d 95 e8 b7 bd 59 71 39 3f
       0.53838164 0.03629084 -0.089799084 0.7243858
0000a0 9e 56 13 3e a2 4d fc 3e 73 8f ac 3d 14 0a d1 bd
       0.1438851 0.4927798 0.08425798 -0.102070004
0000b0 ff ac 71 3d 34 b2 a0 bd e4 05 3e be 5d 4e 96 bc
       0.059002873 -0.078464895 -0.18556935 -0.018347913
0000c0 68 c6 fb 3d b1 ba 13 be 53 63 bc bd 66 79 8f be
       0.12293702 -0.14426686 -0.09198632 -0.28022307
0000d0 e6 bb e6 be c5 3f b8 bd e6 15 1f be 02 ac 09 3e
       -0.4506523 -0.08996538 -0.15535697 0.13444522
0000e0 fe 28 76 3e 7a 58 25 bd 44 0f d9 bd 62 22 4e be
       0.24039075 -0.04036758 -0.10598615 -0.20130304
0000f0 8b 29 a6 be d2 ca ba 3c 7d 85 44 3e 01 42 14 bd
       -0.3245357 0.02280179 0.19191547 -0.03619576
000100 14 ed 96 3e 53 ea f3 bd fe f2 4a 3e 68 70 5f be
       0.2947775 -0.11909928 0.19819257 -0.21820223
000110 c8 7b 93 3d ee 41 13 3f b2 c5 26 3d 7b 72 e7 bd
       0.07201344 0.57522476 0.04071588 -0.11301132
000120 53 42 08 bf 9e ca 80 3e 96 1a 98 bc f8 5c 44 3e
       -0.532262 0.25154585 -0.018567365 0.1917609
000130 7f 21 8d be 8c 5e f7 bd 4c 7f ca 3b 87 b7 68 be
       -0.27564618 -0.1207858 0.0061797258 -0.2272626
000140 c2 37 51 3e de 69 a7 bd d8 87 24 be bd 74 28 bd
       0.20431426 -0.081744894 -0.16067445 -0.041126955
000150 94 7d 9c 3c ff cb 17 be ae b9 65 3e a1 b3 60 3e
       0.019102849 -0.14823912 0.22434112 0.21943523
000160 a5 f7 92 3c 36 7f 60 3c b3 69 20 be 30 2b 54 be
       0.017940352 0.013702204 -0.15665321 -0.207196
000170 9c 0f 03 bd 42 85 32 bd 91 15 43 3d 72 d3 09 3e
       -0.031997308 -0.043584116 0.04762799 0.13459566
000180 11 51 a7 bd 90 91 62 be 36 99 35 3e e9 db 27 bd
       -0.08169759 -0.2212584 0.17734227 -0.040981207
000190 e8 4f 5a be c7 94 84 bd b3 1b 92 3b 0d fb b9 bc
       -0.21319544 -0.064736895 0.0044588684 -0.022702718
0001a0 93 3d c2 bb 94 ec a4 3d 24 c4 a6 3d 6a 0a 8d 3d
       -0.0059277504 0.08052936 0.081428796 0.06886752
0001b0 de 9f 61 be 4c 84 94 bb 0a 26 b5 bd 49 9f a4 3d
       -0.2203364 -0.0045323726 -0.08845146 0.08038194
0001c0 e5 aa 00 3e 78 d7 50 39 e3 27 8f bd ad 2e ed bd
       0.12565191 0.00019916694 -0.0699003 -0.11581168
0001d0 09 45 0a be 87 0e dd 3d 03 10 51 bd 4e 07 e6 bc
       -0.13502897 0.107937865 -0.05104066 -0.028079655
0001e0 25 cd a5 bd 38 a1 26 3d b6 6a 63 3e 23 0b 23 3c
       -0.08095769 0.040681094 0.22208676 0.009951386
0001f0 d1 19 f8 bc 3f f4 bf 3d cf 50 20 be 5c 5f 85 3d
       -0.030285748 0.09372758 -0.15655826 0.06512329
000200 7e 7a 1c bc d5 9e 86 3d be dd 0a 3e 58 67 5d 3d
       -0.009550689 0.065732636 0.1356115 0.054053634
000210 9c 3f a8 bd a8 d4 18 bd bd 8f 25 3e 91 a2 bb 3d
       -0.082152575 -0.03731218 0.16168113 0.091618665
000220 79 30 2b bd b2 7b 3b 3d 44 6b 24 3b b7 6b e1 3c
       -0.041794274 0.045772262 0.002508835 0.027517183
000230 12 73 0e 3e c5 aa 8e bd eb cb 30 be 0f a3 eb bd
       0.13911083 -0.069661655 -0.17265289 -0.1150571
000240 c7 c0 7f bc cb 9d 9c bd 85 0e 1f 3e 44 88 24 bc
       -0.015609927 -0.07647284 0.15532883 -0.010042254
000250 14 07 0e 3d 1e 74 2d be 93 43 91 3e be 4e 1b 3f
       0.03467472 -0.16938826 0.28371868 0.60667026
000260 c4 f6 27 3e 04 de 8a be 52 3d 9f 3e 72 6d 0c bd
       0.16402727 -0.2712251 0.3110147 -0.034284063
000270 da 6e 70 3d d5 2b 8f 3d 5d 25 14 3e de 4c f4 3e
       0.058699466 0.06990782 0.14467378 0.47714895
000280 e6 99 72 bd 41 26 d1 3e 76 a2 17 3e ed c9 6c 3e
       -0.0592288 0.40849498 0.14808068 0.23123904
000290 25 fb 42 bd df 59 e6 bd d0 55 5b bc a7 ca e6 3e
       -0.04760279 -0.1124761 -0.0133871585 0.45076486
0002a0 d8 5f 27 3d b1 ef 59 3e 6b 9d 9a be c4 d1 e8 bd
       0.040862888 0.21282841 -0.30198225 -0.113681346
0002b0 62 4d 5e 3f a8 8c c4 bd fc 75 ae 3e 7e a8 07 3f
       0.86836827 -0.095971406 0.3407439 0.52991474
0002c0 46 89 64 bd 4e 65 8b 3d df 8b 27 3d 8f 35 9f bd
       -0.055794977 0.06806432 0.040904876 -0.07773887
0002d0 ac 29 93 3e 92 5b 14 be 3a a0 23 3e e6 f7 0a be
       0.2874273 -0.14488056 0.1597909 -0.13571128
0002e0 21 1c 10 3f 40 c6 a1 3e 74 6e 63 3e e4 bb 0a ba
       0.5629292 0.31596565 0.22210103 -0.000529228
0002f0 e2 0d ac bd 31 b9 08 3f b2 be c0 3d 4c de 93 3e
       -0.084010854 0.5340758 0.09411372 0.28880537
000300 ef 69 b0 3d b6 e3 1a be ef 46 5d 3e 2c fc 37 be
       0.08613955 -0.15125927 0.2160909 -0.1796729
000310 c2 92 82 be e8 03 9b be ea 8b 95 3e 59 46 ac be
       -0.25502592 -0.30276418 0.29208308 -0.3364742

linear.weight f4 [1, 50]
000000 00 59 ab be 39 74 fb bd 0b 11 27 be a5 cc 1f be
       -0.3346634 -0.12278027 -0.16315095 -0.1560541
000010 c0 c1 cb 3e 4d 5d 21 be b5 2c 15 3e 95 1f 87 3e
       0.39796257 -0.15758248 0.14567836 0.26391283
000020 99 2f 9f be 9a 2e e9 3e 78 ce a6 3e fd 30 4b be
       -0.31091002 0.45543367 0.32579398 -0.19842906
000030 71 d6 1b 3e c6 56 73 3c cb 5f ba 3d 3f d6 9f be
       0.15218522 0.014852231 0.09100302 -0.31218144
000040 01 d8 77 3e 4b 11 dd 3d 98 4e 94 bd 34 72 04 be
       0.24203493 0.10794314 -0.07241553 -0.1293419
000050 59 88 81 3d 43 56 5f be 36 05 da 3e 30 50 a3 3d
       0.063248344 -0.2181025 0.425821 0.07974279
000060 29 6f ae 3e 79 01 b3 bc 7e 1a 08 be d1 fe 12 be
       0.34069183 -0.021851288 -0.13291356 -0.14355017
000070 1c 1d 87 be 70 c4 33 be cd 88 ec bd 02 85 23 3e
       -0.26389396 -0.17555404 -0.1154953 0.15968707
000080 7d 01 71 be c0 66 21 be fa c8 bc bd ab 43 68 3e
       -0.23535724 -0.15761852 -0.09218021 0.22682063
000090 7d b7 b3 be b3 f7 53 3e 38 a8 2f 3e d5 80 07 3f
       -0.35100928 0.20699959 0.17154014 0.5293096
0000a0 21 8a 1a 3e c9 70 fa bc 94 da a1 be a9 63 84 be
       0.15091754 -0.030571358 -0.31612074 -0.25857285
0000b0 dd 1b 99 bc c3 3e 01 3e de 6d 01 3e 1a a5 2b 3d
       -0.018690044 0.12621598 0.12639567 0.0419055
0000c0 d5 ae 0a bf 16 f8 1d be
       -0.5417302 -0.15426669
