archive/lstm_FullData/trial7/lstm_model_epoch146.pth (torch, 51877 bytes, 6 tensors)

lstm.weight_ih_l0 f4 [200, 8]
0.17265011 -0.18730402 0.18100154 -0.4470905 -0.08171164 -0.047463253 0.00047770943 -0.37966415
-0.074102074 -0.41392797 0.23778751 -0.15636316 0.14699696 -0.034854863 -0.30126882 -0.2271618
0.12416389 -0.3746299 -0.14471014 -0.17173594 -0.093421005 0.24696527 -0.34976387 0.13146372
0.55052096 -0.6963829 -0.106923476 -0.5307384 0.41933843 0.18865736 0.4502378 -0.148027
0.24867064 -0.1930246 0.11864387 -0.16624312 0.124585025 0.08791398 -0.08530021 -0.130899
-0.16788521 0.10637156 -0.78844965 -0.21370107 -0.4250797 -0.32324755 -0.49584836 -0.8498411
0.5740873 0.120940804 0.0068108696 -0.5098057 -0.18702212 -0.019643627 0.076467514 -0.036087252
0.8784159 -1.00819 -0.107024625 -0.18742798 0.077641726 0.30104417 -0.11554664 -0.35194224
-0.1290461 -0.18990676 0.70799214 -0.1658459 0.012799847 -0.081129454 -0.27052248 0.18721275
0.9582895 -1.0124794 0.44379106 -0.120059006 0.20632595 -0.04268062 0.0063613546 0.107754774
0.41480175 -0.13858373 0.71828395 -0.4177588 0.12232365 -0.15579887 -0.058130875 0.025359742
0.052034877 -0.60684514 0.21798474 0.0891769 -0.15612747 0.182603 0.29570648 -0.32909656
0.9716724 -0.3524805 -0.09971692 -0.49817172 0.06386607 0.43931344 0.46784222 0.0383576
0.060103606 -0.41204104 0.28087798 -0.50551397 0.43391585 -0.3601537 0.40967447 -0.22827496
0.30366898 -0.17151801 0.65816075 -0.086933926 -0.01753895 0.12108722 -0.1443808 0.26476002
0.20803896 -0.0005252307 0.15265137 -0.72142154 -0.34355378 0.27043328 -0.069145896 0.09703435
-0.038091328 0.06889518 0.14236549 0.14019506 -0.08622038 -0.36193475 -0.30844796 0.25020185
-0.30565745 0.038002577 1.0125083 -1.2793728 0.2235762 -0.10762923 0.06704311 -0.03341802
0.12124648 -0.24924126 0.25114968 -0.25726652 -0.041850835 -0.08083198 0.038198 -0.22286862
0.20384096 0.27937585 0.117334455 -0.15438156 0.08974898 -0.09798343 -0.049166627 -0.6478038
0.0571572 -0.610129 -0.108598284 -0.19464219 0.6002837 -0.10053911 -0.054162525 0.09460843
-0.15393774 0.07653899 0.6701385 -0.68539375 -0.031716272 0.30953354 0.06047952 -0.086677864
-0.086188845 0.09553021 0.651904 0.054678965 -0.1718583 0.090599835 -0.20459825 -0.00071464863
-0.4360721 0.080318145 0.53123087 -0.87044966 0.05416493 -0.05606534 -0.082766734 -0.023920275
-0.3073016 -0.26924968 0.05531187 -0.61461335 -0.34733298 0.091964394 0.19576256 0.024540711
0.6213094 -0.43110222 0.13463058 -0.076837674 -0.05550467 0.29257506 0.09179632 -0.031707518
-0.17265946 -0.054068442 0.20946504 -0.13753642 -0.1377355 -0.10319468 -0.08503306 0.14131413
1.0528319 -0.4436633 -0.22642176 -0.7854289 0.34517118 -0.08562235 0.19123884 -0.12141004
-0.36771724 0.054133397 0.08160865 -0.332233 -0.061833393 -0.12456438 -0.13274379 0.15947226
0.07396192 -0.9222185 -0.27479166 -0.11293533 0.06348097 -0.45218912 -0.059281204 -0.04841887
0.3947474 -0.30987257 1.2005554 -0.7936724 0.31291148 -0.28061563 0.32280853 0.24251641
0.56142575 -0.47982022 0.40836978 -0.14134575 0.14349642 -0.013211269 -0.14896548 0.03465369
00000000: 31cb 303e a0cc 3fbe 7858 393e 0ce9 e4be
00000010: 6f58 a7bd d468 42bd 1375 fa39 5763 c2be
00000020: d4c2 97bd 5eee d3be 927e 733e aa1d 20be
00000030: 5f86 163e f9c3 0ebd e83f 9abe 1a9d 68be
00000040: a349 fe3d 7ecf bfbe e52e 14be 8cdb 2fbe
00000050: 8353 bfbd 77e4 7c3e 4014 b3be 6d9e 063e
00000060: f1ee 0c3f 2646 32bf b2fa dabd 79de 07bf
00000070: 87b3 d63e 652f 413e 9285 e63e 6494 17be
00000080: 84a3 7e3e 3ea8 45be 8ffb f23d a33b 2abe
00000090: 6f26 ff3d 3f0c b43d e0b1 aebd 630a 06be
000000a0: 1aea 2bbe 55d9 d93d d6d7 49bf 74d4 5abe
000000b0: 0ca4 d9be b480 a5be d6df fdbe 308f 59bf
000000c0: 63f7 123f d0af f73d b72d df3b a082 02bf
000000d0: ba82 3fbe aceb a0bc 009b 9c3d 3ad0 13bd
000000e0: dddf 603f 5f0c 81bf ba2f dbbd 1fed 3fbe
000000f0: a002 9f3d 7622 9a3e b7a3 ecbd c631 b4be
00000100: a924 04be eb76 42be f93e 353f 82d3 29be
00000110: 73b6 513c 3327 a6bd ec81 8abe b3b4 3f3e
00000120: 7652 753f ed98 81bf 9538 e33e 7fe1 f5bd
00000130: 1c47 533e e0d1 2ebd e972 d03b 89ae dc3d
00000140: e560 d43e e5e8 0dbe 75e1 373f 7be4 d5be
00000150: d284 fa3d bd89 1fbe a41a 6ebd 3cbf cf3c
00000160: 8622 553d 345a 1bbf 6437 5f3e 61a2 b63d
00000170: e1df 1fbe 48fc 3a3e d766 973e 587f a8be
00000180: 86bf 783f 5378 b4be 6238 ccbd 5d10 ffbe
00000190: 37cc 823d b1ed e03e 0489 ef3e dc1c 1d3d
000001a0: 332f 763d 0bf7 d2be 3dcf 8f3e 5d69 01bf
000001b0: 382a de3e 1166 b8be dac0 d13e e9c0 69be
000001c0: 807a 9b3e 6ba2 2fbe 397d 283f 6a0a b2bd
000001d0: d8ad 8fbc 94fc f73d 8fd8 13be a08e 873e
000001e0: 2a08 553e a3af 09ba a450 1c3e 15af 38bf
000001f0: 48e6 afbe 3b76 8a3e 5d9c 8dbd f2b9 c63d
00000200: a705 1cbd eb18 8d3d 42c8 113e 4b8f 0f3e
00000210: 5094 b0bd 834f b9be e4ec 9dbe 751a 803e
00000220: 227f 9cbe 97a8 1b3d df99 813f 7dc2 a3bf
00000230: 29f1 643e b76c dcbd e64d 893d 55e1 08bd
00000240: 1350 f83d 1a39 7fbe b196 803e 70b8 83be
00000250: c86b 2bbd 3d8b a5bd 8275 1c3d ac37 64be
00000260: afbb 503e 5a0a 8f3e 0c4d f03d 3316 1ebe
00000270: 50ce b73d 89ab c8bd f262 49bd 78d6 25bf
00000280: ab1d 6a3d 6a31 1cbf c768 debd 4850 47be
00000290: 31ac 193f 73e7 cdbd 86d9 5dbd 11c2 c13d
000002a0: dba1 1dbe 79c0 9c3d 328e 2b3f f775 2fbf
000002b0: ece8 01bd 2e7b 9e3e 60b9 773d 2a84 b1bd
000002c0: c783 b0bd 58a5 c33d 2ee3 263f 0df7 5f3d
000002d0: 9ffb 2fbe 688c b93d 3482 51be 4257 3bba
000002e0: d844 dfbe d77d a43d bffe 073f cad5 5ebf
000002f0: 0cdc 5d3d c5a4 65bd 9b81 a9bd 74f4 c3bc
00000300: a356 9dbe 18db 89be b38e 623d 4d57 1dbf
00000310: a1d5 b1be d457 bc3d fb75 483e 9a09 c93c
00000320: 220e 1f3f 6eb9 dcbe 99dc 093e 125d 9dbd
00000330: dd58 63bd 66cc 953e b6ff bb3d bedf 01bd
00000340: a4cd 30be df76 5dbd 017e 563e 59d6 0cbe
00000350: 890a 0dbe bb57 d3bd d025 aebd a7b4 103e
00000360: 32c3 863f d627 e3be 1bdb 67be de11 49bf
00000370: 47ba b03e c55a afbd 1dd4 433e d4a5 f8bd
00000380: 6f45 bcbe fbba 5d3d 7022 a73d 721a aabe
00000390: 0345 7dbd 9c1b ffbd fded 07be b24c 233e
000003a0: 5979 973d 8316 6cbf 7eb1 8cbe a34a e7bd
000003b0: 5002 823d 5585 e7be d9d0 72bd dd52 46bd
000003c0: 551c ca3e 9ea7 9ebe cdab 993f 1d2e 4bbf
000003d0: ef35 a03e daac 8fbe 2947 a53e 3956 783e
000003e0: 99b9 0f3f ffaa f5be d815 d13e f1bc 10be
000003f0: baf0 123e 1474 58bc 688a 18be 07f1 0d3d

lstm.weight_hh_l0 f4 [200, 50]
-0.027609974 -0.01855712 -0.12882344 0.005542204 -0.009474172 -0.14844222 0.106020704 -0.29180697
-0.029063944 -0.12855634 0.27922386 0.09622697 -0.045865357 0.09707703 -0.085600495 0.26724282
0.25415143 -0.058646567 0.06114398 0.06600551 0.004907748 -0.021761168 0.04089986 -0.12226078
0.1527449 -0.17830032 -0.16281858 -0.031924058 0.23448467 0.42999306 0.02490056 -0.09213069
0.018364156 -0.0131763825 -0.005190753 0.049853567 -0.24953607 0.32794926 0.1580393 0.049186952
0.16672325 -0.01094693 -0.33296242 -0.017202448 -0.030988198 -0.4155722 0.14025994 -0.020999126
-0.091151245 -0.12503485 0.03429784 0.078303285 -0.025104897 -0.11435869 -0.014121978 0.108267836
-0.02632269 0.08945031 -0.045031387 0.14730126 -0.20437075 -0.27032134 0.058405966 0.20445919
0.21079694 0.016749555 0.05900903 0.019156124 -0.007713204 -0.004683191 -0.10535266 -0.080958195
0.042458948 -0.07288137 0.46570036 0.10211292 0.047082204 -0.28793928 -0.0033008598 0.12376107
-0.18355727 -0.06501634 -0.15774092 -0.15214345 0.16846082 -0.069020666 -0.1504458 -0.1811211
-0.032586098 -0.11526639 -0.12461886 0.0018413338 0.18953541 0.06451829 0.023086311 0.20890222
-0.081256926 -0.115112215 0.029540613 -0.16794378 -0.23069185 -0.012559971 -0.25963387 0.11653115
-0.022957494 0.26660535 -0.052466262 -0.054208692 0.0059290333 -0.16475622 -0.051985037 0.11150454
0.06003444 -0.012158797 -0.009458502 -0.04340056 -0.3227563 -0.0395099 0.044728775 -0.050299697
-0.1324809 -0.32632452 0.035051633 -0.008020853 -0.13686804 0.15188824 -0.13917081 -0.0717493
0.0070874956 0.063490294 0.17491218 -0.16495831 -0.11478326 -0.12066755 -0.35944414 -0.047712505
0.08284596 -0.15200524 0.13791934 0.09423012 -0.026312653 -0.04339235 -0.029369872 -0.0648946
0.071109004 -0.007456135 -0.016744401 -0.081493475 -0.05278205 -0.004325961 0.07143541 0.22826923
0.2571835 0.053775463 0.18534544 -0.088126615 0.16114037 0.17539804 -0.056555428 0.012162289
-0.50423795 -0.1637893 0.25308067 0.1513077 0.16147801 0.18419749 -0.13802846 -0.1195805
-0.033109024 0.0077263596 0.16964698 0.07000552 -0.18445066 0.014727045 0.10299104 -0.28177541
-0.077195086 0.2540769 -0.072190836 -0.111212276 -0.1615222 0.33999303 -0.28906307 -0.11660248
-0.18568811 -0.24809377 0.2964619 -0.034871493 0.115153395 0.101869136 0.08789692 0.092432015
0.13141942 0.079898536 0.012239158 0.15092722 -0.24844064 0.24246824 0.20048864 -0.026437715
0.14506775 -0.09579704 -0.12974778 0.08832899 0.10761186 -0.1502631 -0.06681804 0.042573635
-0.07243845 0.03578569 0.17040603 0.07064425 -0.15468054 -0.2707785 0.24786258 -0.14867544
0.069132015 -0.1582597 0.21369493 0.017721942 0.07861035 -0.12895997 0.13853945 -0.08233228
-0.12514295 -0.10893267 0.16443345 -0.040695228 0.080242515 0.05634746 -0.22358711 0.07231731
0.017516488 -0.07106445 -0.061255477 -0.07587102 0.08199701 -0.015821245 0.44744182 0.056295168
0.07925362 0.14083141 -0.07093524 0.11473295 -0.18116848 -0.018551352 0.116548955 0.1014684
-0.15306541 0.15830022 0.2865676 -0.07396053 0.13249792 -0.14589474 0.31574106 -0.2670577
00000000: 502e e2bc 1a05 98bc 4bea 03be 609b b53b
00000010: 8f39 1bbc 3d01 18be 6221 d93d b967 95be
00000020: 8217 eebc 46a4 03be 6ef6 8e3e a512 c53d
00000030: 50dd 3bbd 52d0 c63d 504f afbd 0dd4 883e
00000040: 2320 823e 6237 70bd 1c72 7a3d e62d 873d
00000050: 2dd1 a03b 7a44 b2bc 9d86 273d dc63 fabd
00000060: 2969 1c3e 5c94 36be eab9 26be cdc2 02bd
00000070: c01c 703e 0d28 dc3e 42fc cb3c 04af bcbd
00000080: 6d70 963c c1e1 57bc 3117 aabb 4133 4c3d
00000090: 6286 7fbe f7e8 a73e 0ed5 213e 4278 493d
000000a0: 80b9 2a3e c15a 33bc 0d7a aabe 26ec 8cbc
000000b0: f6da fdbc e1c5 d4be 4da0 0f3e 5c06 acbc
000000c0: 81ad babd 2309 00be e47b 0c3d 795d a03d
000000d0: c9a8 cdbc e434 eabd de5f 67bc 87bb dd3d
000000e0: afa2 d7bc b931 b73d d572 38bd 24d6 163e
000000f0: 9146 51be 8f67 8abe 183b 6f3d c05d 513e
00000100: 27db 573e 5d36 893c 74b3 713d 4eed 9c3c
00000110: 0bbf fcbb 7475 99bb 23c3 d7bd 69cd a5bd
00000120: 6fe9 2d3d d442 95bd 4770 ee3e 9420 d13d
00000130: 45d9 403d c76c 93be 3d53 58bb 7276 fd3d
00000140: 70f6 3bbe 4927 85bd d686 21be 7ecb 1bbe
00000150: fe80 2c3e b55a 8dbd 770e 1abe cf77 39be
00000160: 0079 05bd c910 ecbd 2c38 ffbd e958 f13a
00000170: 9215 423e 2a22 843d 811f bd3c 77ea 553e
00000180: 086a a6bd f4bf ebbd 28ff f13c 74f9 2bbe
00000190: 7c3a 6cbe 56c8 4dbc bbee 84be e2a7 ee3d
000001a0: 5b11 bcbc 7f80 883e dde6 56bd ef09 5ebd
000001b0: 5648 c23b dbb5 28be 43ee 54bd 7e5c e43d
000001c0: ace6 753d b135 47bc d5f7 1abc c9c4 31bd
000001d0: 5040 a5be 22d5 21bd 8535 373d 0e07 4ebd
000001e0: 13a9 07be 0214 a7be 4d92 0f3d e569 03bc
000001f0: 2327 0cbe 9788 1b3e cb82 0ebe 4cf1 92bd
00000200: 393e e83b 3307 823d 2e1c 333e d5ea 28be
00000210: 7c13 ebbd 8c20 f7bd 1009 b8be 306e 43bd
00000220: 25ab a93d 43a7 1bbe ba3a 0d3e b9fb c03d
00000230: a28d d7bc 2dbc 31bd 1699 f0bc 76e7 84bd
00000240: 99a1 913d 9852 f4bb 8e2b 89bc 0de6 a6bd
00000250: fe31 58bd cbc0 8dbb ba4c 923d 69bf 693e
00000260: 8ead 833e a943 5c3d 32cb 3d3e ba7b b4bd
00000270: fb01 253e 8b9b 333e aaa6 67bd 5644 473c
00000280: bd15 01bf 62b8 27be ca93 813e 68f0 1a3e
00000290: 7e5a 253e 449e 3c3e 5557 0dbe 9fe6 f4bd
000002a0: 549d 07bd 672d fd3b f0b7 2d3e 0e5f 8f3d
000002b0: a2e0 3cbe b449 713c f7ec d23d de44 90be
000002c0: 7518 9ebd 5e16 823e cad8 93bd 43c3 e3bd
000002d0: 1366 25be 9113 ae3e 1300 94be 48cd eebd
000002e0: 0625 3ebe 4b0c 7ebe dbc9 973e 69d5 0ebd
000002f0: 8bd5 eb3d c4a0 d03d 4d03 b43d ff4c bd3d
00000300: d092 063e d8a1 a33d c086 483c aa8c 1a3e
00000310: 3967 7ebe 9849 783e e54c 4d3e e893 d8bc
00000320: a48c 143e 3d31 c4bd 9adc 04be d4e5 b43d
00000330: 9b63 dc3d 92de 19be e6d7 88bd b161 2e3d
00000340: 9c5a 94bd 0494 123d eb7e 2e3e efad 903d
00000350: 9364 1ebe 7ba3 8abe b0cf 7d3e 603e 18be
00000360: 1695 8d3d d50e 22be d8d2 5a3e 9b2d 913c
00000370: 77fe a03d 150e 04be 49dd 0d3e d49d a8bd
00000380: 7925 00be 1718 dfbd 3e61 283e 0ab0 26bd
00000390: 3056 a43d 98cc 663d 05f4 64be 191b 943d
000003a0: bd7e 8f3c 3d8a 91bd 06e7 7abd 4462 9bbd
000003b0: 0cee a73d 8e9b 81bc 1817 e53e c395 663d
000003c0: b94f a23d 1c36 103e 7f46 91bd 1cf9 ea3d
000003d0: 3b84 39be 01f9 97bc 38b1 ee3d aace cf3d
000003e0: 2ebd 1cbe 7419 223e fdb8 923e 9e78 97bd
000003f0: 89ad 073e 6e65 15be d0a8 a13e c9bb 88be

lstm.bias_ih_l0 f4 [200]
0.25063792 0.26342693 0.31457454 0.36008132 0.3512211 1.0031008 0.20761563 0.14849253
0.140034 0.14234973 0.41044018 0.27149314 0.44068882 0.295627 0.124275126 0.16098121
0.43381596 0.19371329 0.41429073 0.28927475 0.15199672 0.49575615 0.13905412 0.37427595
0.4177623 0.3123039 0.340531 0.55671996 0.14568295 0.3677825 0.15015544 0.4375992
0.25837934 0.0894735 0.38692984 0.062002685 -0.050500732 0.25512847 0.14859417 0.06607369
0.31223243 0.49791926 0.18235585 0.34116128 0.23115422 0.3529816 0.2505559 0.28953114
0.2591004 0.31642598 -0.09128217 -0.06752574 -0.09508472 -0.048108883 -0.03311345 0.05915291
0.09721705 0.0787677 -0.0056280345 0.12860325 -0.08219707 0.04667737 0.07058722 0.07631359
0.016092751 0.07678608 -0.1706726 -0.03486773 -0.0860118 -0.002705751 0.07025035 0.053542968
-0.015514812 -0.001687305 0.170297 -0.09219702 -0.0025855345 0.014705968 0.06600707 0.08833524
0.0031955556 0.018846804 -0.13072644 0.15534294 0.08036791 0.032987043 0.09117756 -0.011647719
-0.06323087 0.079026416 0.16492462 -0.16021812 0.05549448 0.03964758 0.11826131 0.058349524
0.11128765 -0.121906355 0.000790461 0.019515874 0.09952526 0.114972256 -0.036923088 -0.15194897
0.17446229 -0.05818164 0.07942721 -0.066197395 -0.0036934218 -0.037316516 0.121311136 0.0654399
-0.106533 -0.050894815 0.013329212 -0.0117335515 -0.12750578 0.040286392 0.20159413 -0.14502165
0.17138843 0.0069133174 -0.015846716 0.01823272 -0.03530372 0.024515755 -0.04398434 -0.021880815
-0.0025704387 0.07327122 0.19877441 -0.027749332 0.03548862 -0.01773243 0.1041655 0.14000484
-0.10070044 0.04133453 0.10082282 -0.113783404 -0.14531846 -0.15495116 0.009353171 -0.04765947
-0.013134171 0.031035254 -0.09509991 0.04537599 0.060379427 -0.077727616 0.3122275 0.22559386
0.29691288 0.20451628 0.3028493 0.33263946 0.43143892 0.16597658 0.21867974 0.20613861
0.30454233 0.25509247 0.24588503 0.15456747 0.17120555 0.2547617 0.15713647 0.063298374
0.38757667 0.45831728 0.121155046 0.22152126 0.049724653 0.26604247 0.16363136 0.4394136
0.17447284 0.17492497 0.22734323 0.41422758 0.14895271 0.22090563 0.26125073 0.24094483
0.3645331 0.23873359 0.29598746 0.40978232 0.30249768 0.19106866 0.113989316 0.5837334
0.14298142 0.42173082 0.115324 0.3109269 0.22378552 0.2909105 0.09186596 0.11970542
00000000: 9d53 803e e5df 863e ea0f a13e 945c b83e
00000010: 41d3 b33e 9b65 803f 3199 543e 6d0e 183e
00000020: 1365 0f3e 21c4 113e 3725 d23e 2601 8b3e
00000030: f7a1 e13e 6c5c 973e f583 fe3d 42d8 243e
00000040: 201d de3e c75c 463e ea1d d43e d21b 943e
00000050: 07a5 1b3e c0d3 fd3e 3464 0e3e 19a1 bf3e
00000060: f1e4 d53e 4ce6 9f3e 145a ae3e 3385 0e3f
00000070: e92d 153e fd4d bc3e 59c2 193e 010d e03e
00000080: 4c4a 843e e23d b73d ab1b c63e 87f6 7d3d
00000090: dbd9 4ebd 33a0 823e 1229 183e a551 873d
000000a0: eedc 9f3e 46ef fe3e 7ebb 3a3e b1ac ae3e
000000b0: b1b3 6c3e 01ba b43e dd48 803e 6d3d 943e
000000c0: cfa8 843e 9602 a23e 25f2 babd ef4a 8abd
000000d0: c7bb c2bd d20d 45bd f8a1 07bd 524a 723d
000000e0: bc19 c73d f650 a13d 606b b8bb 92b0 033e
000000f0: f056 a8bd c530 3f3d 0890 903d 4d4a 9c3d
00000100: f2d4 833c 0542 9d3d ccc4 2ebe 77d1 0ebd
00000110: f426 b0bd f852 31bb 6adf 8f3d df4f 5b3d
00000120: d731 7ebc 9028 ddba 5662 2e3e cbd1 bcbd
00000130: 1272 29bb 4df1 703c b72e 873d 1be9 b43d
00000140: 876c 513b 9d64 9a3c 27dd 05be 3812 1f3e
00000150: ee97 a43d 6c1d 073d 4dbb ba3d 13d6 3ebc
00000160: 307f 81bd 9ad8 a13d 00e2 283e 3810 24be
00000170: 2e4e 633d 8065 223d fc32 f23d e9ff 6e3d
00000180: c8ea e33d 0aaa f9bd f136 4f3a c1df 9f3c
00000190: e6d3 cb3d 9376 eb3d aa3c 17bd 8398 1bbe
000001a0: 3ea6 323e df4f 6ebd bcaa a23d 8092 87bd
000001b0: 560d 72bb 34d9 18bd f971 f83d 5b05 863d
000001c0: f92d dabd 1577 50bd c462 5a3c 153e 40bc
000001d0: e090 02be 5803 253d b16e 4e3e 8e80 14be
000001e0: 7380 2f3e 1c89 e23b f9d0 81bc c95c 953c
000001f0: a29a 10bd 44d5 c83c ec28 34bd 653f b3bc
00000200: ce74 28bb 390f 963d 858b 4b3e 9152 e3bc
00000210: 845c 113d 9a43 91bc b954 d53d 6e5d 0f3e
00000220: 083c cebd 654e 293d 327c ce3d 4607 e9bd
00000230: 5dce 14be 84ab 1ebe 0b3e 193c 9436 43bd
00000240: b530 57bc a53d fe3c bec3 c2bd 2ddc 393d
00000250: 6b50 773d a82f 9fbd 48dc 9f3e 1402 673e
00000260: f704 983e b76c 513e 100f 9b3e b84f aa3e
00000270: 90e5 dc3e c4f5 293e 95ed 5f3e 0016 533e
00000280: f9ec 9b3e 7b9b 823e 49c9 7b3e ef46 1e3e
00000290: 8250 2f3e 2070 823e 62e8 203e 94a2 813d
000002a0: 7370 c63e 90a8 ea3e 2320 f83d 78d6 623e
000002b0: 14ac 4b3d b836 883e fb8e 273e d2fa e03e
000002c0: 02a9 323e 881f 333e aacc 683e a315 d43e
000002d0: 0f87 183e 1635 623e a8c2 853e 3eba 763e
000002e0: 15a4 ba3e 9476 743e ab8b 973e fdce d13e
000002f0: fae0 9a3e 81a7 433e 3b73 e93d 8d6f 153f
00000300: b969 123e 1aed d73e fd2e ec3d d031 9f3e
00000310: 0828 653e 39f2 943e 3824 bc3d 1e28 f53d

lstm.bias_hh_l0 f4 [200]
0.096324846 0.1649175 0.13063204 0.2554531 0.32585964 0.8526809 0.2926188 0.23366295
0.18859287 -0.086024664 0.40682575 0.15993023 0.30415735 0.18740799 0.3889931 0.16118577
0.19253398 0.21857525 0.35222465 0.32516325 0.062594846 0.22333905 0.0988731 0.27632627
0.19496174 0.29204017 0.21205187 0.30830556 0.37368256 0.19749 0.1482292 0.2556108
0.10130275 0.24335264 0.40820232 0.15938282 0.19873358 0.17759651 0.1161976 0.040049072
0.3009267 0.49773872 0.3158676 0.4211088 0.27355877 0.34240845 0.15129402 0.28777638
0.2697015 0.11677199 -0.08652716 0.0334559 -0.12799615 -0.08133066 0.08445021 0.039743602
0.18180297 0.03180051 0.23061092 0.00650347 0.10365449 0.083020024 0.09355083 0.04354902
-0.0673685 -0.027611213 0.05902839 -0.06628456 -0.013292818 0.11409707 -0.124633595 0.058703456
-0.017464237 0.20659481 0.015645439 0.042738043 0.03352685 0.024596889 0.040546753 -0.00051537616
0.094452806 -0.08774831 -0.10920603 0.1247088 0.14348367 0.14895266 -0.13613807 0.059196085
-0.15745445 -0.0615289 -0.065251924 0.108250745 0.15539531 -0.02339166 0.10138948 0.14255045
0.13798702 0.020631624 0.17228925 0.01464622 0.16573939 0.00989718 0.20076422 -0.013549834
0.085553356 0.04185963 0.15184425 0.13745406 -0.033066336 0.042116374 -0.06643934 0.033354726
-0.09318472 0.12520869 0.09317738 -0.037786547 0.10223322 0.26631117 0.10553965 0.046530362
-0.050832726 0.109563485 0.053743318 0.06271052 4.081008e-05 0.06461688 0.19025175 -0.16657107
-0.1430977 0.036790505 0.12561463 -0.08826842 0.15817948 0.172938 -0.037863534 -0.105338514
-0.05777926 0.2769798 0.16809331 -0.07597691 -0.025289906 -0.091162786 0.06266222 0.010669327
0.09818844 -0.1995113 0.09876105 0.08455059 -0.04001313 0.0041411268 0.22493462 0.3382586
0.1211654 0.28967056 0.29896128 0.35830063 0.27028927 0.33490643 0.38391536 0.09003967
0.41948286 0.4050313 0.38780555 0.19844897 0.22402889 0.08551102 0.36541405 0.1903299
0.21181823 0.2045311 0.20833519 0.19905537 0.19735053 0.18050341 0.20303838 0.41269952
0.3365938 0.25188345 0.03652969 0.2787076 0.3480411 0.20691946 0.26652753 0.19161215
0.36836597 0.11602215 0.08350383 0.2050438 0.28225398 0.13376762 0.21144575 0.46285662
0.15897788 0.20024559 0.1735269 0.33119226 0.23841476 0.36033967 0.28404102 0.24324444
00000000: f645 c53d 22e0 283e 68c4 053e c0ca 823e
00000010: 13d7 a63e 4c49 5a3f 22d2 953e 5745 6f3e
00000020: 7d1e 413e b32d b0bd 774b d03e c0c4 233e
00000030: 83ba 9b3e e1e7 3f3e 1b2a c73e e20d 253e
00000040: a127 453e 31d2 5f3e ca56 b43e cc7b a63e
00000050: ba31 803d feb2 643e fb7d ca3d a37a 8d3e
00000060: 0da4 473e 4a86 953e 2024 593e 3ada 9d3e
00000070: 5253 bf3e d23a 4a3e 65c9 173e 6bdf 823e
00000080: d177 cf3d 6f31 793e e5ff d03e 4035 233e
00000090: d180 4b3e dcdb 353e 02f9 ed3d 7f0a 243d
000000a0: 1013 9a3e 9cd7 fe3e 66b9 a13e 939b d73e
000000b0: e50f 8c3e 2950 af3e d2ec 1a3e 6d57 933e
000000c0: 5116 8a3e 2726 ef3d 2735 b1bd 0e09 093d
000000d0: 6c11 03be b090 a6bd 3bf4 ac3d 30ca 223d
000000e0: 8f2a 3a3e 4041 023d 4525 6c3e 0f1b d53b
000000f0: ce48 d43d 6706 aa3d 9497 bf3d 7560 323d
00000100: 7ff8 89bd e930 e2bc c1c7 713d 33c0 87bd
00000110: 1fca 59bc baab e93d e63f ffbd 0973 703d
00000120: 2911 8fbc 978d 533e dd2a 803c 160e 2f3d
00000130: 7353 093d 6a7f c93c 5a14 263d 4f1a 07ba
00000140: 7970 c13d 63b5 b3bd 69a7 dfbd 5467 ff3d
00000150: 62ed 123e 0c87 183e c767 0bbe 9877 723d
00000160: bd3b 21be ba05 7cbd cda2 85bd 91b2 dd3d
00000170: f31f 1f3e de9f bfbc 4aa5 cf3d bff8 113e
00000180: 784c 0d3e a703 a93c 986c 303e b3f6 6f3c
00000190: 96b7 293e c827 223c 2395 4d3e 1f00 5ebc
000001a0: 9936 af3d 0175 2b3d 0f7d 1b3e c2c0 0c3e
000001b0: 9170 07bd 3882 2c3d 5911 88bd f79e 083d
000001c0: a1d7 bebd b536 003e c8d3 be3d 11c6 1abd
000001d0: a75f d13d f059 883e 2c25 d83d 9f96 3e3d
000001e0: fa35 50bd d262 e03d f421 5c3d 606e 803d
000001f0: 7d2b 2b38 db55 843d 5bd1 423e 9b91 2abe
00000200: 3488 12be a4b1 163d 1fa1 003e 13c6 b4bd
00000210: cdf9 213e a916 313e cb16 1bbd b8bb d7bd
00000220: f2a9 6cbd 4cd0 8d3e a720 2c3e c899 9bbd
00000230: c72c cfbc 8eb3 babd 0d55 803d 67ce 2e3c
00000240: 0517 c93d b14c 4cbe 3c43 ca3d dc28 ad3d
00000250: cfe4 23bd 4ab2 873b 4355 663e 3b30 ad3e
00000260: 9125 f83d b34f 943e 7411 993e 2e73 b73e
00000270: 5b63 8a3e db78 ab3e 8e90 c43e b866 b83d
00000280: 75c6 d63e 4360 cf3e 738e c63e 3536 4b3e
00000290: d467 653e 6720 af3d 8d17 bb3e d7e5 423e
000002a0: e1e6 583e 9a70 513e d255 553e 2cd5 4b3e
000002b0: 4216 4a3e e3d5 383e 4be9 4f3e 5a4d d33e
000002c0: 0656 ac3e def6 803e 28a0 153d c3b2 8e3e
000002d0: 7132 b23e b2e2 533e 4c76 883e fa35 443e
000002e0: 779a bc3e 059d ed3d 0e04 ab3d 00f7 513e
000002f0: 9883 903e 61fa 083e 3c85 583e 8bfb ec3e
00000300: 19cb 223e 2e0d 4d3e 09b1 313e 0892 a93e
00000310: 0023 743e 717e b83e d36d 913e 1215 793e

linear.weight f4 [4, 50]
0.06610339 0.22164458 0.045505073 -0.0015243606 -0.2241018 0.30291098 -0.043182846 -0.042189416
-0.22085944 -0.036566153 -0.08034101 -0.044767827 0.15495224 -0.11603742 -0.15076052 -0.15014075
-0.13655148 0.0011642186 -0.25139296 -0.17556682 -0.1247624 -0.21043004 0.10067968 0.2889131
-0.010569141 -0.015450932 0.10166746 0.05104575 0.21480484 0.09094442 -0.09694443 -0.121242695
-0.14769237 -0.06307664 -0.072400816 0.046808377 -0.23478715 0.14327456 -0.24700369 0.124522485
-0.039796572 0.2038717 0.19303195 0.03702653 0.25488073 0.11263111 0.09417327 -0.17546211
-0.052841526 0.31819037 -0.035089098 -0.13344282 0.034657534 0.17082052 0.01976607 0.2471831
0.12965086 0.034893893 0.22286719 0.062447883 0.10032437 -0.19849233 0.111912906 -0.1913056
0.11336917 0.0036762669 0.082936645 0.28986406 0.23466536 -0.25944883 -0.18083869 0.069294415
-0.19119395 -0.20960009 -0.36794 0.14169046 -0.012958324 0.107213095 0.37522486 -0.12082536
0.36156952 0.35756573 0.08986322 -0.16823444 -0.1054813 0.27238557 0.07762583 -0.037776057
0.3145137 -0.20669569 0.028678617 0.116438456 -0.23534565 -0.032974135 -0.015081572 0.1335701
0.09784609 0.10760348 -0.2012799 0.0966151 0.10159648 0.1651759 -0.28870556 0.08071927
-0.08003272 -0.10592133 0.23934218 -0.1383164 -0.2789372 -0.021135347 -0.17284343 0.10494779
0.11821788 -0.085852206 -0.05947701 -0.042349223 0.14251013 0.13345142 0.20947833 0.023223424
0.24056229 -0.19628507 -0.027629655 0.18304616 0.053609364 -0.32133618 -0.16241331 -0.19648248
0.11413878 0.1627927 0.0846587 -0.23836045 -0.02105765 -0.18469858 -0.11660866 -0.0990317
0.062012423 -0.14843784 0.124301456 0.059434842 0.28112438 0.13481225 0.063200854 -0.12393907
0.039539937 0.30062875 0.10520615 -0.16801845 0.022093657 0.051953297 -0.19691712 -0.25190055
0.23591112 -0.29087463 -0.24988687 -0.21924657 -0.04854368 0.2015962 -0.07548848 0.23242061
0.060144037 -0.2784753 -0.16358645 0.26966625 -0.1953625 0.19081105 0.26655743 -0.0033612764
-0.06016972 0.14060989 -0.2635848 0.1107537 0.22377472 -0.06507808 -0.03059235 0.16020598
0.106892906 -0.23318215 0.14875104 0.006480589 -0.06460641 0.040167622 0.3441966 -0.16954313
-0.052603193 0.14829312 -0.17678952 0.31946167 -0.1278342 0.024834149 0.116267316 0.32191524
0.2349728 0.2275969 -0.24452059 -0.25608823 0.14320625 -0.28955334 0.050181556 -0.056038663
00000000: 3761 873d ccf6 623e 8763 3a3d 0ecd c7ba
00000010: f17a 65be 2617 9b3e 7fe0 30bd cfce 2cbd
00000020: fa28 62be 64c6 15bd d489 a4bd 785e 37bd
00000030: cdab 1e3e 07a5 edbd f760 1abe 7fbe 19be
00000040: 27d4 0bbe b298 983a 94b6 80be cac7 33be
00000050: 6e83 ffbd f97a 57be 2631 ce3d 6bec 933e
00000060: 312a 2dbc e825 7dbc 0737 d03d 5915 513d
00000070: cdf5 5b3e 1141 ba3d cd8a c6bd 174e f8bd
00000080: ab3c 17be 532e 81bd e146 94bd 24ba 3f3d
00000090: 0b6c 70be 91b6 123e 89ee 7cbe a505 ff3d
000000a0: bb01 23bd bec3 503e 2baa 453e 21a9 173d
000000b0: ba7f 823e 24ab e63d eadd c03d 57ac 33be
000000c0: 5b70 58bd d9e9 a23e 96b9 0fbd 3ca5 08be
000000d0: 0ff5 0d3d 93eb 2e3e 74ec a13c 911d 7d3e
000000e0: 32c3 043e e6ec 0e3d 4c37 643e 5ac9 7f3d
000000f0: dd76 cd3d 9341 4bbe 9832 e53d 9de5 43be
00000100: 182e e83d 86ed 703b b0da a93d 1069 943e
00000110: 1e4c 703e 7ad6 84be c72d 39be 3bea 8d3d
00000120: 59c8 43be 68a1 56be a262 bcbe 4e17 113e
00000130: 264f 54bc 8a92 db3d 791d c03e 4973 f7bd
00000140: a41f b93e db12 b73e 350a b83d a645 2cbe
00000150: 9406 d8bd 1f76 8b3e 4bfa 9e3d 11bb 1abd
00000160: f107 a13e 09a8 53be 6bef ea3c 4977 ee3d
00000170: 73fe 70be e30f 07bd b318 77bc 9ac6 083e
00000180: 8863 c83d 375f dc3d 511c 4ebe 23de c53d
00000190: d111 d03d df23 293e 37d1 93be 2550 a53d
000001a0: 32e8 a3bd 48ed d8bd 1e16 753e d0a2 0dbe
000001b0: dbd0 8ebe 0924 adbc defd 30be deee d63d
000001c0: 371c f23d 48d3 afbd 2a9e 73bd 6176 2dbd
000001d0: 2dee 113e 7da7 083e 7d81 563e 0d3f be3c
000001e0: f655 763e f4fe 48be 9657 e2bc 7470 3b3e
000001f0: 7e95 5b3d 2d86 a4be ad4f 26be b432 49be
00000200: 98c1 e93d 21b3 263e 8a61 ad3d c314 74be
00000210: 1881 acbc a021 3dbe 85d0 eebd 22d1 cabd
00000220: bd00 7e3d 1700 18be c391 fe3d f371 733d
00000230: 89ef 8f3e 390c 0a3e 736f 813d c4d3 fdbd
00000240: a1f4 213d 03ec 993e 5276 d73d 070d 2cbe
00000250: c2fd b43c fbcc 543d a4a4 49be 1cf9 80be
00000260: af92 713e 85ed 94be 58e2 7fbe 2c82 60be
00000270: bdd5 46bd 3c6f 4e3e b499 9abd abff 6d3e
00000280: 9859 763d 5194 8ebe 3583 27be b211 8a3e
00000290: 1b0d 48be f963 433e 377a 883e dc48 5cbb
000002a0: 8674 76bd 0afc 0f3e 96f4 86be d6d2 e23d
000002b0: 3325 653e a847 85bd cf9c fabc 090d 243e
000002c0: abea da3d 4dc7 6ebe 3152 183e 1f5b d43b
000002d0: 5e50 84bd ce86 243d 893a b03e b79c 2dbe
000002e0: 7276 57bd 27da 173e 5008 35be 7b90 a33e
000002f0: f8e6 02be fc70 cb3c 8f1d ee3d 13d2 a43e
00000300: b69c 703e 290f 693e 9b63 7abe ff1d 83be
00000310: a9a4 123e 5640 94be 2d8b 4d3d cc88 65bd

linear.bias f4 [4]
0.06766878 -0.1606871 -0.03815322 -0.13304204
00000000: ee95 8a3d 298b 24be 8d46 1cbd 2c3c 08be
