lstm_FullData/trial10/jt4_vel/lstm_model_epoch147.pth (torch, 50829 bytes, 5 tensors)

lstm.weight_ih_l0 f4 [200, 8]
000000 36 e8 d5 be 11 31 f0 be 94 96 03 3f a9 02 74 be
       -0.41778725 -0.46912435 0.5140164 -0.2382914
000010 58 14 a5 3e 66 e2 c0 be bd 2a 6d be 93 d4 8b 3d
       0.32242084 -0.37672728 -0.23160835 0.06827655
000020 87 ae 16 bc e4 d7 2b be c6 e8 b8 3d e2 22 1e be
       -0.009196884 -0.16781574 0.09028773 -0.15442994
000030 cb 99 46 3e b1 ad 98 be db 0a 88 3b 8e 5e b4 bd
       0.19394605 -0.29820016 0.0041516847 -0.088070974
000040 4c 10 1a 3e 7d 86 b7 be 83 54 f3 3d 21 25 85 be
       0.1504528 -0.35844794 0.11881354 -0.2600489
000050 5c bd 83 bc 13 63 5c 3e 3c 85 0d bb 78 0f d4 bd
       -0.016081505 0.21522169 -0.0021594306 -0.10354513
000060 91 d1 84 3e 5e b3 ce be 64 0e 92 3d 31 c6 5d be
       0.25941136 -0.4037122 0.07131651 -0.21657635
000070 22 7a 23 3d 91 bb a9 3d 0e dd ec bd 66 e3 b0 be
       0.039911397 0.082877286 -0.115656 -0.3454849
000080 36 4d c0 3e 96 91 90 be 79 35 ba 3e 4b 5e 6e be
       0.37558907 -0.28236073 0.3636892 -0.23278157
000090 b0 21 59 3d 06 72 07 3e c2 cb 90 be ae 36 b4 3d
       0.053010643 0.1322709 -0.28280455 0.08799492
0000a0 83 32 65 3e 8e f8 46 bd dd fe 6e 3e ff d2 90 bd
       0.2238255 -0.048576884 0.2333941 -0.07071494
0000b0 e0 e5 07 3e 5c 30 03 3d 5b 90 54 be c9 99 8a 3a
       0.13271284 0.03202854 -0.20758192 0.0010574396
0000c0 05 e8 a0 3e 19 06 39 be 11 63 f3 3d b0 6b 31 be
       0.31427017 -0.18068732 0.1188413 -0.17326236
0000d0 0f d7 61 bd 41 88 10 3e 6a 19 10 3c 47 07 c7 3b
       -0.055136736 0.14114477 0.008795122 0.0060738656
0000e0 b0 62 e1 3d b5 ed 0e bf a2 c5 01 3e e2 29 9a be
       0.11005151 -0.5583146 0.12673047 -0.3011008
0000f0 a9 94 d1 3d 16 e2 37 3e 28 13 c6 bd c8 90 9c bd
       0.10233433 0.17957339 -0.096716225 -0.07644802
000100 a8 96 b1 3e 12 01 c0 be 55 84 b2 3d 02 50 81 be
       0.34685254 -0.37500817 0.087166466 -0.25256354
000110 d5 5b 21 3c a9 bf 18 3e 56 c8 2b 3c 29 13 8b 3d
       0.009848555 0.14916863 0.0104847755 0.06790764
000120 4e 8f b8 3e 6e cd 85 be 8c 7e b6 bd cc 03 15 be
       0.36046833 -0.26133293 -0.08910856 -0.1455223
000130 0a ee a7 bc 33 dc c5 3e a5 dd b9 3d 0f 0e 78 bd
       -0.020499248 0.3864456 0.090754785 -0.060560282
000140 60 17 01 3f f7 82 c0 be 5c 93 fb 3c 84 f0 a8 be
       0.5042629 -0.37599918 0.030709915 -0.32996
000150 d4 be 0d bd b9 dc 5b 3e 21 78 1e be f0 fb d6 bd
       -0.034605816 0.21470918 -0.15475513 -0.10497272
000160 8d 3b 72 3e 95 6f a8 be c6 07 f5 bd 52 1a 06 bf
       0.2365553 -0.3289763 -0.11964373 -0.5238391
000170 3a da 2f 3e 5a 53 2d bd 2a 7c f1 bd 7b 0a 8f 3e
       0.1717309 -0.04231582 -0.117912605 0.27937683
000180 c9 87 9b 3e 0b b9 e3 bd 63 cf a4 bd 56 1d 2d be
       0.30377033 -0.111192785 -0.080473684 -0.16905722
000190 84 d7 27 3e f2 9d 08 be fd 92 97 3c c1 2d 0f 3e
       0.16390806 -0.13341501 0.018502707 0.13982297
0001a0 a2 28 0a 3c 14 6a 06 bf db 3a ff 3e c2 de 6e be
       0.008432539 -0.5250561 0.4984959 -0.23327163
0001b0 07 b4 7d 3e e9 64 9d be ea 18 9b be f6 5a 5e 3e
       0.24775706 -0.3074105 -0.30292445 0.21714386
0001c0 51 c8 11 3f 31 95 cf be 0b ec 91 be fd ab 95 3b
       0.56946284 -0.40543512 -0.285004 0.0045676217
0001d0 e5 9d 96 bd 46 7c 7e 3a 62 31 77 3e 4a 42 d2 3d
       -0.07354335 0.0009707849 0.24139932 0.1026655
0001e0 3f 02 26 3e 44 d1 08 bf 07 88 dc bd 2a 23 e8 bd
       0.16211794 -0.53444314 -0.10768133 -0.11334832
0001f0 e8 89 cd 3d f3 b1 1b 3d 75 cd 85 3c 54 c1 91 be
       0.10036069 0.038011502 0.016333321 -0.2846781
000200 fb 02 36 be c1 83 a6 be ab dc 7f 3e b9 64 b0 3d
       -0.17774574 -0.32522395 0.24986522 0.08612961
000210 d5 56 2e 3e c4 a9 e2 bd 6d 07 d6 3c 7c 48 34 be
       0.17025311 -0.110675365 0.026126588 -0.17605776
000220 51 52 84 3e 8e 35 10 bf 35 7c ce bb c2 31 c2 be
       0.25844052 -0.5633172 -0.0063014277 -0.37928587
000230 98 48 39 3d 30 eb 0d bb 97 ed a4 be 5d 3a e7 3d
       0.045235246 -0.0021655075 -0.32212517 0.11290429
000240 d2 7e 0c be 62 76 fe bc 01 a0 7e 3e b2 61 52 be
       -0.13720253 -0.031062309 0.24865724 -0.2054508
000250 f6 2c e5 bd 52 45 0f 3d 89 a6 8f 3d 86 a9 62 3e
       -0.11190216 0.03497822 0.07014186 0.2213498
000260 f4 61 e2 3c 3e 12 60 be 4d 90 15 3d 85 72 0f 3d
       0.027634598 -0.21881959 0.03651457 0.035021324
000270 48 9b 1f 3d 76 ef 02 3e 0a 58 49 3d 3b 6c e3 bd
       0.038966447 0.1278666 0.049156226 -0.11104628
000280 b7 3e bc 3e 62 13 1e bf f9 7c 77 3e 7c 30 0e be
       0.36766598 -0.61748326 0.24168767 -0.13885683
000290 29 f5 0a 3e 27 3a 04 3b 0f c5 a5 bd 35 93 9f 3d
       0.13570084 0.0020176263 -0.080942266 0.077917494
0002a0 c1 42 8b 3d 13 5f 6e be 92 9f 4c be 71 59 0e be
       0.06799842 -0.23278455 -0.19982746 -0.13901307
0002b0 42 ff a3 3e 81 aa 79 be 52 91 be bc 2e fb cf 39
       0.32030684 -0.24381448 -0.023262653 0.0003966926
0002c0 a4 8d c0 3e a0 3c b0 bd 65 84 51 be 8f c0 17 be
       0.37608063 -0.08605313 -0.20460661 -0.14819549
0002d0 f4 a8 2a bc f3 4e fd bb 19 fa 35 3d ce 91 8f bd
       -0.010416258 -0.0077303587 0.044427965 -0.07010232
0002e0 ce 63 aa 3b 15 95 dc 3b a2 b6 e1 3e 96 33 29 be
       0.005199886 0.006731639 0.4408465 -0.16523585
0002f0 73 1f 73 bd 08 44 d2 be 38 6a 8e be 93 03 65 bd
       -0.059356164 -0.4106753 -0.27815413 -0.05591161
000300 a1 f0 0d 3e 28 33 12 be 9e d3 b2 bd a2 6f 29 3c
       0.13861324 -0.14277327 -0.08731769 0.010341557
000310 2d 54 06 be 28 9f 7c 3e 50 06 9a bd d0 5f 63 3e
       -0.13118048 0.24670088 -0.07520735 0.22204518
000320 f3 e1 92 3e c0 5e 8e be f5 19 ad 3d d8 99 39 be
       0.2868801 -0.27806664 0.084522165 -0.18125093
000330 46 0f 75 bc 1a 73 10 3e 39 f4 67 3d 74 51 82 be
       -0.014957255 0.14106408 0.056629393 -0.2545277
000340 d2 d4 1a be f4 1c df be e2 80 72 3d 3c 6b b5 3d
       -0.15120247 -0.43576777 0.059204943 0.08858344
000350 74 b9 7b 3e 35 2a db bd 9a dc f6 3b fc 54 40 3e
       0.24582464 -0.1070141 0.007533622 0.18782419
000360 6a 9e 85 be 4c 70 7f bd 8e 5d 03 3f c4 4b 93 be
       -0.26097423 -0.062362954 0.5131463 -0.28768742
000370 85 12 2d 3e f1 4b 6e be d7 d2 96 be 90 30 96 3e
       0.16901596 -0.23271157 -0.29457733 0.29333925
000380 10 cf 07 be 50 76 b7 bd a7 ae 46 3d 20 74 98 3c
       -0.13262582 -0.08958113 0.048506405 0.01861006
000390 9c b6 8a 3e e5 08 07 be 36 d1 4b be ed ac 4c 3d
       0.27092445 -0.13186987 -0.19904026 0.049969602
0003a0 1f 19 f9 3e bf f4 0d bf 61 68 a9 bd 3f a9 37 be
       0.48651978 -0.5545158 -0.08271862 -0.17935656
0003b0 6e 23 7a 3d 01 e9 67 3e 57 ac 92 3d 15 e7 16 be
       0.061068945 0.22647478 0.071617775 -0.14736588
0003c0 9c 4e e6 bd c3 44 6a be 32 ee c8 3c bf 99 95 be
       -0.11245462 -0.22877793 0.024527643 -0.2921886
0003d0 cb b8 d7 3d 47 e1 bb bd 16 27 df bd 66 c1 0d 3e
       0.10533293 -0.091738276 -0.10896127 0.13843307
0003e0 ce 45 4e 3e 8c 5e cb be 2b 0c d1 3e c7 be bd be
       0.20143816 -0.3972057 0.40829596 -0.37059614
0003f0 5c 1b 44 bd 0f 14 c6 bc 25 e9 9a be 7a 16 21 be
       -0.047877654 -0.024179487 -0.30256 -0.1573123

lstm.weight_hh_l0 f4 [200, 50]
000000 5d 89 34 3c 74 ee a0 3d eb 45 85 bd 4b a1 a8 bd
       0.011019078 0.07857981 -0.065074764 -0.08233889
000010 94 3e fd bd 2d d9 60 3c 72 2d 4b be c7 2e 29 be
       -0.123654515 0.013723654 -0.19841555 -0.1652175
000020 3f 60 0d 3d 8b 8f 2a 3e 6f c8 0c 3d b2 e0 2b ba
       0.034515616 0.1665632 0.034370836 -0.00065566145
000030 43 fe 4e bd cf 9e 5a bd 69 35 3a bd 8f 77 40 bb
       -0.05053545 -0.053374108 -0.045461092 -0.0029368137
000040 36 da be bd 25 fc 09 be 1d 2e 67 bd 12 6c 36 bd
       -0.09318964 -0.13475092 -0.05644046 -0.044536658
000050 19 ca 1b 3e 15 d7 3d be ac 2e 20 3b 73 ad 1a 3e
       0.15213813 -0.18539079 0.002444188 0.15105228
000060 54 4d b7 3d 63 6e 2d 3e dd bd 3c bc f7 74 0b 3e
       0.08950296 0.1693664 -0.011519876 0.13618837
000070 8b 71 6e bd 2d 88 b7 bd cf e4 a8 3d 01 3d bc bc
       -0.05821375 -0.0896152 0.08246767 -0.022978308
000080 cb 65 66 bd 39 36 1b bd 6a 44 db bd 2d af d2 3d
       -0.05624942 -0.037893508 -0.10706408 0.102873184
000090 ff ef 93 bd ba ab 99 3d 6c 7c c8 3c 66 e7 52 3b
       -0.0722351 0.07503457 0.024473391 0.0032181381
0000a0 dd ae c0 3d a6 c6 d3 bd 5d a7 47 3e 3c 6d 5b bc
       0.094083525 -0.103406236 0.19497438 -0.013392743
0000b0 6b 5c 70 3e 83 8f 71 be 8e c9 25 be 33 49 5f 3e
       0.23472755 -0.23589902 -0.16190168 0.21805267
0000c0 4b 8c ae bd 97 d6 b2 3c 11 57 51 3e 96 d0 0a 3d
       -0.085228525 0.02183084 0.2044337 0.03389033
0000d0 a6 52 2f bd 15 25 bd 3d 24 75 8e bd d5 6a e2 bd
       -0.04280343 0.092355885 -0.069559366 -0.11055533
0000e0 3f ca e6 bd e1 21 14 3e ec 8e aa bd 7d 85 a5 bc
       -0.11269044 0.14466049 -0.083280414 -0.020205254
0000f0 77 51 9b bd 79 91 8a bd 87 4d c2 3a 38 78 01 3d
       -0.075838976 -0.06766028 0.001482413 0.03160879
000100 26 0a a5 bc 76 bd ad bd 29 55 f0 3d 23 01 e3 bd
       -0.02014644 -0.084834024 0.11734993 -0.11084201
000110 cd cf 6e 3d fe eb 33 bd d5 6c c2 3c 04 01 a9 ba
       0.058303643 -0.04392623 0.023733536 -0.001289398
000120 78 6c cc 3d 7a e7 0b bc 5c 49 a8 3d 3a da 0f 3e
       0.09981626 -0.008539075 0.08217117 0.1404809
000130 a6 d7 2e 3d 9c fc 5d 3d 3d 92 8d bd 79 d5 de bc
       0.042686127 0.054195985 -0.06912658 -0.027201401
000140 db 0c c1 bd b6 85 c1 39 79 8e bb bd ae ba 1f 3e
       -0.0942628 0.0003691145 -0.09158034 0.15598556
000150 d2 c2 b8 bd f7 70 38 3d a4 a7 1f be c3 96 9f 3d
       -0.09021534 0.045029607 -0.15591294 0.077924274
000160 53 50 3d be ca 3a 11 3e 6e 34 33 3e 0d df c8 bc
       -0.18487673 0.14182582 0.17500469 -0.024520421
000170 04 62 e9 3d b2 27 26 3d e5 14 75 bd 3b 10 07 bd
       0.11395648 0.0405652 -0.05983438 -0.032974463
000180 0a ed 9d bc f9 4f 26 3e 82 a9 8f bd 63 b4 86 bc
       -0.019278068 0.16241445 -0.07014753 -0.016443437
000190 59 3f 85 3d ce 31 95 3d 18 89 af 3c a2 db a6 bb
       0.06506223 0.0728489 0.021427676 -0.0050921002
0001a0 f7 fd 67 3c a5 53 d7 3b 83 f4 90 3d 75 51 09 3e
       0.014159671 0.0065712505 0.07077887 0.1340998
0001b0 1c 26 40 bc 00 5d 08 3e 07 6a c8 bd 77 ce 4e 3d
       -0.011727836 0.13316727 -0.09785848 0.05048987
0001c0 52 db fe bc 69 55 db 3d 8d 49 fe 3d 15 bb 2a 3e
       -0.03111044 0.1070965 0.124163724 0.16672929
0001d0 4c 2a 40 bd 6e 23 10 3e 12 e3 dc bc 55 e1 56 bd
       -0.046915337 0.14076015 -0.026963744 -0.052460987
0001e0 8a a7 82 bd 30 37 52 bd a0 80 95 3c 83 77 a1 3c
       -0.06379612 -0.051322162 0.01824981 0.019710308
0001f0 f6 3d 72 bc 43 28 23 be 4d 30 d4 3d f7 cf 4e 3d
       -0.01478528 -0.15933327 0.10360775 0.0504913
000200 33 e3 ea 3d 15 54 a0 3d 5a 69 56 3e 2d cd 92 3d
       0.11469116 0.078285374 0.20938626 0.071680404
000210 11 07 1f 3e 63 a2 09 3d 3a 03 7e bd eb 9c 0f 3e
       0.1553004 0.03360213 -0.062014796 0.14024703
000220 41 14 ee 3c 5c 74 80 bd e8 96 3a 3c 70 89 f9 3d
       0.029062392 -0.06272194 0.011388518 0.12184417
000230 ab 81 01 3e 82 04 da bc f1 75 6f 3d 41 68 72 bd
       0.1264712 -0.026613478 0.058462087 -0.059181456
000240 53 58 58 3d c0 4b 84 3c 5a 31 51 3d 04 dd e5 bd
       0.052818608 0.016149402 0.051072456 -0.11223796
000250 49 3f 74 3d 9f 12 61 3d e3 0a 24 bd 84 cf c8 bc
       0.059630666 0.0549494 -0.040049445 -0.024513014
000260 22 fe 33 be 03 16 85 bd df 47 af 3d 8d e8 01 bd
       -0.17577413 -0.06498339 0.0855863 -0.03171592
000270 e7 09 81 3e 72 29 b0 3d e0 34 2c bc e1 93 6e 3e
       0.25202867 0.08601655 -0.010510653 0.23298599
000280 9e 9c 79 be 05 40 01 be 12 38 97 bc 30 0e 3e bd
       -0.24376151 -0.12622078 -0.018459354 -0.04640025
000290 a2 79 00 3c 62 76 70 3d 62 94 3e 3e 95 3e 09 3d
       0.0078414995 0.05870665 0.18611291 0.03350695
0002a0 ff 37 1a 3e f5 33 31 3c 0a f0 4f bd 98 c7 f5 3d
       0.15060423 0.01081561 -0.05076603 0.1200096
0002b0 9e 0e 1d 3d bb e0 84 3d f9 45 e4 bd 03 de 12 be
       0.03834402 0.064881764 -0.11146159 -0.14342503
0002c0 3f c7 b2 3d d3 a0 60 3d 49 9a 40 3e 2a 27 73 be
       0.087294094 0.054840874 0.18808855 -0.23745409
0002d0 dd 0c 02 3b b5 96 89 3c ad 5e 64 bd 6e 3e e6 3d
       0.0019844093 0.016795496 -0.055754352 0.11242376
0002e0 c9 8e 50 be 04 7c 57 3e ca 43 5d be 66 7c 97 3d
       -0.20366968 0.21043402 -0.2160789 0.07396774
0002f0 93 bb f0 bd 0e 35 1f be b7 01 c2 3c 10 3a 91 3c
       -0.11754527 -0.15547583 0.023682458 0.017727882
000300 cf 63 fd 3d 45 33 07 be aa 24 e6 3c f8 da db bb
       0.123725526 -0.13203152 0.028093655 -0.0067094527
000310 2c bd 62 be 5c dc d5 3d fe 0c 1a be 77 66 dd 3d
       -0.22142476 0.10442421 -0.15044019 0.10810559
000320 c7 5a 2f 3e c4 22 f9 bd 51 f0 d0 bd 49 de a3 bd
       0.17124473 -0.12164834 -0.10202087 -0.08001382
000330 ee ce 07 3d 9f f2 05 3b bc 67 c3 3d 7e 33 90 3d
       0.033156328 0.0020438803 0.0954127 0.07041071
000340 59 d0 10 3e f0 af f9 3d dd 0f 99 be 7d 7d e1 3c
       0.14141978 0.121917605 -0.29894915 0.027525658
000350 54 09 6e 3e fb 44 2b be de 8e a3 bc b0 ae 77 be
       0.23245746 -0.16725533 -0.019965585 -0.24187732
000360 3b 6a 0c 3e d7 41 31 3e 0c 19 bf bd 86 38 b6 3c
       0.13712399 0.17310272 -0.09330949 0.02224375
000370 05 c5 1f bd fc 31 a7 3d be b9 2e bd 5f 48 8e 3d
       -0.03900625 0.08163831 -0.042657606 0.069473974
000380 3e 3f 76 be 44 e1 8a bd 32 5e 91 3d b9 1e 4e ba
       -0.24047562 -0.06781247 0.070980445 -0.00078628544
000390 ec 59 92 3e bd 5f 8a be f3 0d 80 3e e7 64 47 bd
       0.2858423 -0.27026168 0.25010642 -0.048680212
0003a0 86 9a 8d bb 45 1a 2c bd d3 5d b8 bd 2d 2e 00 3e
       -0.004321399 -0.04201724 -0.090022705 0.12517615
0003b0 c2 5a 3b be 48 05 d8 3d a4 08 5c be 37 7c 3e 3d
       -0.1829634 0.10547882 -0.21487671 0.04650518
0003c0 31 fb 9c bd 2d c9 76 be 24 02 1f 3c 5a 1a 9c bc
       -0.076650985 -0.2410018 0.0097051 -0.019055534
0003d0 f8 b2 60 3e 60 7b c9 3d a4 22 9f be 84 eb 77 3d
       0.21943271 0.09837985 -0.31081116 0.06052734
0003e0 d0 7b fd bd e9 80 44 3e 05 67 ec bc 4f 09 e3 be
       -0.12377131 0.191898 -0.028857717 -0.4434304
0003f0 46 4d 07 bc 19 97 b7 bb c0 ee f5 bc 8c 58 22 3e
       -0.0082581695 -0.005602729 -0.030021071 0.1585409

lstm.bias_ih_l0 f4 [200]
000000 4b 09 58 3e a5 e5 2c 3e 0b 22 31 3d 84 39 c4 3e
       0.21097295 0.16884477 0.043245357 0.3832513
000010 ae ab 9d 3e e4 f1 70 3e 2d ea 95 3e 89 02 02 3e
       0.30795044 0.23529774 0.29280224 0.1269628
000020 43 66 34 3e 95 67 28 3e 99 88 cf 3e 55 7a c1 3e
       0.17617135 0.16445763 0.40533903 0.37788644
000030 dc 01 07 3e be 93 37 3e e8 60 9a 3e 1a e2 e9 3d
       0.13184303 0.17927453 0.3015206 0.114200786
000040 f1 d4 bf 3d 58 23 b4 3e 74 b7 31 3e eb 54 94 3d
       0.09366787 0.35183215 0.17355138 0.07242759
000050 9f d4 9b 3e df bc 2a 3e 89 ee 3e 3e eb 89 9f 3e
       0.30435655 0.16673611 0.18645681 0.3115991
000060 0d 2a 76 3e d9 0e 68 3e e7 79 11 3e f8 b7 6f 3e
       0.24039479 0.22661914 0.14206658 0.23410022
000070 42 60 98 3e 9b 60 90 3e b6 b5 5a 3e fc 89 ab 3e
       0.2976094 0.28198704 0.2135838 0.3350371
000080 50 fe 2b 3d c7 98 e1 3e 54 cd 5a 3e 5a 24 05 3f
       0.04199058 0.44061872 0.21367389 0.52008593
000090 14 20 0a 3e 54 b0 6e 3e 05 e2 13 3e d7 5b 06 3e
       0.134888 0.23309451 0.14441688 0.13120972
0000a0 e6 30 45 3e 28 5c 0c 3e eb 43 3c 3e a0 1b 07 3e
       0.19256935 0.1370703 0.18385284 0.13194132
0000b0 b0 39 6e bc 46 74 2c 3e 91 6b 23 3f b2 97 89 3e
       -0.014540121 0.1684123 0.6383601 0.26873547
0000c0 f7 70 8d 3e e3 7f 8d 3e 09 2e f5 3d e0 1d 2c 3c
       0.27625248 0.27636632 0.11971671 0.01050517
0000d0 a0 0b ea 3d 36 76 4a 3e 1e 58 78 bd 3f e8 4a 3e
       0.114279985 0.19771656 -0.06063091 0.19815157
0000e0 54 47 09 bd b3 ed 12 3e 39 c6 3a 3e 19 3a 1a 3e
       -0.03351529 0.14348488 0.18239678 0.15061225
0000f0 ca 8a 38 bd 39 a3 5c 3c 93 50 c0 3d 31 7f 2d 3d
       -0.045054235 0.01346665 0.09390368 0.042357627
000100 ec fd e4 3d a9 54 09 3e a5 19 0d bd 2d 81 c9 3d
       0.11181244 0.13411202 -0.034448285 0.098390914
000110 f1 e2 74 bd 9f 57 c0 3d ee 11 9d 3d dd 9a 31 3d
       -0.05978674 0.093917124 0.076694354 0.04336058
000120 92 2a 0c 3e 6c 8b 28 3d 76 98 b0 bd 7f 82 ca 3d
       0.13688114 0.041148588 -0.086228296 0.098881714
000130 14 55 50 bd 91 ba c2 3c 3e 33 a7 3d 1b 5f 5c 3d
       -0.050862387 0.023770602 0.081640705 0.053801637
000140 51 17 11 3c 67 82 67 bd aa 59 15 bc 11 8d 42 3c
       0.008855657 -0.056520846 -0.009115616 0.011874453
000150 a9 9d b1 3d 40 59 38 be cd db 4a 3d 1a 4e 1b 3d
       0.086726494 -0.18002796 0.049526025 0.03791628
000160 7a 56 26 3e 5d df 83 3b 06 51 98 bd 77 27 ab bd
       0.16243926 0.0040244297 -0.07437329 -0.08357137
000170 d3 7a 32 bc 53 d0 13 3e cc 84 b7 3d e5 b7 e0 3d
       -0.010893541 0.14434938 0.08960876 0.10972575
000180 48 ce 9c 3d 85 cc 21 3e 63 90 bf 3c 59 1b 53 3d
       0.076565325 0.15800674 0.023384279 0.051539753
000190 bc 4a b0 3d c6 8e 3c be 93 47 24 be 71 21 37 3d
       0.086080045 -0.18413839 -0.16042928 0.044709627
0001a0 cb 9d d7 3d fd 6c df 3d cf ff 7c bd 89 1a a6 3d
       0.105281435 0.1090946 -0.061767396 0.0811053
0001b0 42 94 18 3e da 2a ce bc 34 27 5e 3d b1 82 88 bd
       0.14900306 -0.025166918 0.054236606 -0.066655524
0001c0 c0 f6 ed 39 f6 eb 04 be b9 3a f3 bc 91 c1 06 3d
       0.00045388006 -0.12980637 -0.029691087 0.032899443
0001d0 6f a7 f1 3d 28 46 fc bc 25 ca 19 bd 9c 7d 82 3d
       0.117995135 -0.030795172 -0.037546296 0.06371614
0001e0 43 50 00 bd 11 1b 95 bc b3 c3 96 3c d4 d6 23 3e
       -0.031326544 -0.018201383 0.018403864 0.15999919
0001f0 0f c4 dd bd 69 96 73 3d 18 c7 9d bd f6 0d d3 3d
       -0.10828411 0.059469614 -0.0770399 0.10305397
000200 18 9a 7d 3d 86 92 e0 bd a8 99 27 3e c9 21 84 3d
       0.061914533 -0.10965447 0.16367209 0.064517565
000210 e0 03 f1 3c 18 ae be 3d 37 f4 00 bd 3b 78 e5 3d
       0.029420793 0.093105495 -0.0314829 0.11204573
000220 01 8d 40 be 87 ec 96 3d 64 08 85 ba 69 6e 09 3d
       -0.18803789 0.07369333 -0.0010149595 0.03355256
000230 7f 43 ba 3d fe 5f 8d bd 6c 9b a8 3d 54 9e ec 3c
       0.09094905 -0.06903075 0.08232769 0.02888409
000240 e7 13 c1 bd a3 72 b6 bd 7a fc 70 be 32 cb e9 bc
       -0.09427624 -0.08908584 -0.23533812 -0.028539274
000250 11 6e 4a bd 9b cd e3 bd 58 24 03 3e ec 8a 80 3e
       -0.049421374 -0.111232005 0.12806833 0.2510599
000260 87 65 32 3e 33 a0 7f 3e 7e 34 4e 3e 59 68 d3 3c
       0.17421542 0.24963455 0.20137212 0.025806593
000270 7f e5 4d 3e 4d b0 8f 3e 75 84 f0 3d a5 3e df 3d
       0.20107077 0.28064194 0.11744014 0.1090062
000280 97 1f 66 3e 9e 18 99 3e f4 be 27 3e 69 ac 00 3e
       0.22472988 0.29901594 0.16381437 0.1256577
000290 a4 c1 46 3e 02 7e 6c bc 82 9a 6b 3d 16 47 d9 3e
       0.19409806 -0.0144343395 0.057520397 0.42437047
0002a0 8b ec 03 3e 3b 04 53 3e 15 7f b2 3d 8b 72 1f 3e
       0.12883203 0.20607083 0.08715645 0.15571038
0002b0 ac 64 2b 3e b0 4f 1e 3e a1 2b 6d 3e 1e a1 5e 3e
       0.16737622 0.15460086 0.23161174 0.21741149
0002c0 f6 83 7b 3e c5 8a 7c 3e 88 54 ab bc 79 a8 82 3d
       0.24562058 0.24662311 -0.020914331 0.0637979
0002d0 3b 23 38 3e d1 84 a3 3e 4b 3a 54 3e 8c a3 87 3e
       0.1798219 0.31937268 0.20725362 0.26491964
0002e0 97 4d 38 bc bb 72 94 3e ff 2a 10 3e d4 c1 86 3e
       -0.011248968 0.28993782 0.14078902 0.26319754
0002f0 d4 3d 80 3e 3a f3 96 3c d4 26 76 3e 2a 58 65 3e
       0.2504717 0.018426526 0.24038249 0.22396913
000300 8c 4a 66 3e b9 cd 56 3e 28 06 6b 3e a6 ec 0d 3e
       0.22489375 0.20976914 0.22951567 0.13859805
000310 4c c6 e5 3e d1 71 96 3e 12 79 86 3d be ee d0 3c
       0.4487785 0.2938371 0.06566061 0.025504466

lstm.bias_hh_l0 f4 [200]
000000 a2 85 e5 3d 7b 85 1a 3c c3 d3 31 3e cb 0a 7b 3e
       0.11207129 0.009431238 0.17365937 0.24515836
000010 3c 6d 78 3e c2 4b c3 3e 03 98 d1 3d 58 da fb 3d
       0.2426042 0.38143736 0.10234072 0.12297505
000020 3c cf 85 3d b4 b5 31 3e 73 99 82 3e c9 e7 06 3f
       0.065336674 0.1735447 0.25507697 0.52697426
000030 bd 7e b4 bd c4 4b 4f 3e b2 9d ce 3e b0 7b 63 3e
       -0.08813236 0.20243746 0.40354687 0.22215152
000040 b7 99 d5 3d 5c 3f 23 3e 5d 30 71 3c e6 fd 04 3e
       0.104297094 0.15942138 0.014721003 0.1298748
000050 ba 7c 89 3e a5 0e a1 3e f1 2d c4 3d 51 56 88 3e
       0.2685297 0.31456485 0.09579075 0.26628354
000060 7f dd 45 3e 6e 85 c8 3e cd 33 8d 3d 92 5d 6a 3e
       0.19322775 0.391643 0.06894646 0.22887257
000070 ca 84 37 3e 8b 70 9c 3e de 1f 44 3e 68 19 cc 3e
       0.17921749 0.30554613 0.19152781 0.39863133
000080 9f e7 6b 3e c3 6f b1 3e d2 48 4c 3e dd 6a c9 3e
       0.23037575 0.3465558 0.19949654 0.39339343
000090 6e ef 2d 3e c6 62 d9 3e cc ae 97 3e 35 6c d8 3d
       0.16985866 0.4245817 0.29625547 0.10567514
0000a0 9e 26 7c 3e 5c 61 7f 3e ef 3c f9 3d 26 93 bd 3e
       0.24624106 0.24939483 0.12169825 0.37026328
0000b0 17 eb 24 3e 2d 6c 5d 3e 38 12 36 3f 11 f4 97 3e
       0.16105305 0.21623297 0.7112155 0.29678395
0000c0 60 de 9e 3e ae 7c 45 3e ca b3 91 bd d5 c9 8d 3d
       0.31029034 0.19285843 -0.0711437 0.06923262
0000d0 48 bc bb 3d a2 15 86 3d e2 16 bb bd 4a b4 85 3e
       0.09166771 0.06547095 -0.09135224 0.26114112
0000e0 41 35 34 3e 90 9e ff 3c f5 f1 97 3d 88 ff 85 3d
       0.1759844 0.031203538 0.074191965 0.06542879
0000f0 2e 95 54 bd 4e 15 a1 bd 60 bb 88 3d 2d dc 5c 3b
       -0.05190008 -0.07865392 0.06676364 0.003370057
000100 39 69 88 3b 05 e6 2a 3e cb 31 c1 bd 84 64 27 3d
       0.004162934 0.16689308 -0.094333254 0.040867344
000110 21 8a a5 3d 21 63 dd bc 19 6c c6 3d cd 23 37 3e
       0.080829866 -0.027024807 0.09688587 0.1788475
000120 de ef 0f bb 55 db 74 3d 6f ff b6 3c 5c a4 04 3e
       -0.002196304 0.059779484 0.022338597 0.12953323
000130 3f 5f c1 bc c9 50 90 3d 50 86 37 3e a5 9a 87 3d
       -0.023604987 0.070466585 0.1792233 0.06621293
000140 92 a4 0b 3d cf cb af 3d d8 92 0f 3e a2 bc 74 3d
       0.034092493 0.08583795 0.1402086 0.059750207
000150 43 47 8d 3d 0c 22 ae bd ac 47 31 3e 56 aa 1c 3d
       0.06898358 -0.08502588 0.17312497 0.038248383
000160 fd 7d b4 bd 41 d5 d1 3d 39 bd bb bd ce df 32 bd
       -0.08813093 0.10245753 -0.09166951 -0.043670468
000170 ba 22 51 3c 5d a2 32 3d 9f 8c 37 3d f7 ca 6b bc
       0.012764627 0.043611873 0.04481184 -0.014391652
000180 23 16 e1 3d 1c 92 ff 3c 23 14 f3 3c 1e 83 b3 3d
       0.1099055 0.0311976 0.029672688 0.08765243
000190 e7 5c 2b 3e c4 e3 3c be 58 ba d4 bd 60 08 43 bd
       0.16734658 -0.1844626 -0.10387105 -0.04761541
0001a0 5c 8b 31 3d 2e d6 2d 3e 96 45 1d 3d d5 d1 22 3e
       0.043345794 0.16976234 0.03839644 0.15900357
0001b0 0f 5b 14 3e 2f 40 14 3e 0f bf 16 be 1d bf cd 3d
       0.14487861 0.14477609 -0.1472132 0.100462176
0001c0 95 96 94 bc e2 30 0b be d6 2f 1d be 0d 47 c3 bd
       -0.01813821 -0.13592866 -0.15350279 -0.09535036
0001d0 9f 71 9c 3d 29 d8 d1 bd 3b 66 f9 3c 4d 3a 21 3e
       0.07638859 -0.102463074 0.030444255 0.15744896
0001e0 a3 a3 07 be 1c 01 5a bd 3d a6 43 bd 13 f8 ab 3e
       -0.13246016 -0.053223714 -0.04776596 0.33587703
0001f0 e7 11 fd bd 14 2b cf bd 3e 18 70 bd 7d 86 ba 3d
       -0.1235693 -0.101156384 -0.05861687 0.09107683
000200 a8 70 81 3e 4d 06 45 be 45 94 36 bc 2e 6f cc 3d
       0.25281262 -0.19240685 -0.011143749 0.09982143
000210 34 62 c7 3d 98 1f 98 bc 02 9e 9d bd 21 26 93 bd
       0.09735528 -0.018569753 -0.07696153 -0.07185007
000220 fa 70 fd bd 29 0a 15 3c a7 79 b5 3d 92 4e 0c bd
       -0.12375064 0.009096661 0.08861094 -0.034254618
000230 37 af b1 3c 5f 26 27 bd c8 cd a4 3d 45 e0 e0 bd
       0.021689994 -0.040808078 0.08047062 -0.10980276
000240 f2 82 05 3e a4 3f 14 3e 3a 2b ac be dd 41 25 3e
       0.13038233 0.14477402 -0.3362673 0.16138406
000250 82 d5 8e be e4 de 22 bc 5b 23 b0 3d 44 ba 9a 3e
       -0.2789727 -0.009940837 0.086004935 0.30220234
000260 a6 c6 73 3d 08 6d b5 3e eb 61 96 3e 9c 69 26 3e
       0.059515618 0.35434747 0.2937158 0.16251224
000270 eb d8 71 3e ef 3c f4 3d e0 6a 3a 3e 5b 2f b6 3d
       0.23617904 0.11925685 0.18204832 0.08895751
000280 5c 45 a7 3d fd a2 66 3e 48 ec 22 bd 5a 55 32 3e
       0.08167526 0.22523113 -0.039776117 0.17415372
000290 69 1f 29 3e 01 fd bd 3c 5c 2f 45 3e 98 70 69 3e
       0.16515888 0.02319193 0.19256347 0.22796857
0002a0 a5 5e 74 3d 71 54 39 3e 26 e0 cb 3d 6c a4 45 3e
       0.059660573 0.18098618 0.09954862 0.19301003
0002b0 03 c1 e2 3b e2 ae 59 3e c8 00 54 3e f2 96 fa 3d
       0.0069199814 0.21258119 0.20703423 0.12235822
0002c0 c3 e6 2a 3e 6b f6 14 3e d5 f7 7c 3e 81 94 09 3d
       0.16689591 0.14547126 0.24703915 0.03358889
0002d0 4d 85 3b 3e 67 47 c7 3e ae af 7e 3e eb 60 a0 3e
       0.18312569 0.38921663 0.24871704 0.31323943
0002e0 a6 2f 13 3e ce d6 a0 3e 13 f2 14 3d a8 1e 94 3e
       0.14373645 0.31413883 0.036363672 0.2892964
0002f0 82 81 a5 3e 75 b6 05 3e 6a c7 96 3e 11 cb 4b 3e
       0.3232537 0.13057883 0.29449016 0.19901682
000300 f0 91 92 3e 54 ac b2 3e 4c 8f 9c bc a3 f9 6c 3e
       0.28626966 0.348971 -0.019111298 0.23142104
000310 91 5c c7 3e 20 5f 00 3e 95 58 23 3e 90 29 a6 3d
       0.3893781 0.12536287 0.1595176 0.08113396

linear.weight f4 [1, 50]
000000 3b 97 85 be 6f 48 53 3e 6b f3 2d be 0e 69 a1 3e
       -0.26091942 0.206331 -0.16987388 0.31525463
000010 30 bf 58 3e 92 be 30 3d 68 75 80 3e c1 98 38 3e
       0.21166682 0.043150492 0.25089574 0.18027021
000020 2b a7 d2 3d 85 1e 71 3e 7e 23 2f be 57 7c 84 3e
       0.10285791 0.23546799 -0.17103383 0.25876114
000030 fa cb 12 3d 34 31 81 3e c5 bc 82 3e 4a ee 46 be
       0.03583906 0.25232852 0.25534645 -0.19426838
000040 ee cd 9e be cf e3 bd 3e c8 c4 c8 3d 68 56 b1 3e
       -0.31016487 0.37087867 0.09803158 0.34636235
000050 a1 79 f6 bd a7 c2 75 3e a1 f0 5a be bf bc ad bd
       -0.120349176 0.24000035 -0.21380855 -0.08483266
000060 b0 89 73 be 12 46 8c be 3b 50 14 3e bb 80 87 be
       -0.23782992 -0.2739721 0.1448373 -0.264654
000070 5c 8a e2 bd 2d 75 86 be ad 0f b6 bd 29 b9 b5 be
       -0.11061546 -0.26261273 -0.08889709 -0.35492828
000080 ff 53 77 3e c7 02 9c 3e 8a 1c 64 3e 31 9e 85 be
       0.24153136 0.3047087 0.22276512 -0.26097253
000090 9e be 1b bd af 84 b2 be ec 97 bb be ea 30 25 be
       -0.038023584 -0.34866855 -0.36639345 -0.1613194
0000a0 b2 5e 9d be 04 50 38 3e e9 ed 06 be ab 9c 8f be
       -0.3073631 0.17999274 -0.13176693 -0.28049216
0000b0 ff 89 0e 3e 1f fc 51 3e da e1 84 3e 85 9d 7b be
       0.13919829 0.20506333 0.2595356 -0.24571808
0000c0 52 0e 01 3e 25 f2 75 3e
       0.12603119 0.24018152
