archive/lstm_4to1/trial3/j3/lstm_model_epoch2.pth (torch, 49573 bytes, 7 tensors)

lstm.weight_ih_l0 f4 [200, 4]
00000000: 1f43 5e3d 3551 d63d ba06 483d 33ff b8bd
00000010: 812d 423b 2976 bbbd 2b8e 833d 2e28 bfbd
00000020: 27b0 b2bc 74a8 153e d9a8 023d b2a4 27bd
00000030: 4544 993e 7d43 88be 24ed debe 51ed c8be
00000040: 29f6 5ebe bdd5 393e 2d27 13be a878 023f
00000050: cb6e f13d 9852 60be 5d2b 0bbe 4f84 83bd
00000060: 1c2a 89bd ad2e 613d 29e9 8abe a058 343d
00000070: c5b5 e4be b678 2ebf 4da0 50be 7a50 23be
00000080: 46a1 94bd ba5f a63e 6b34 3fbe 3f12 3e3f
00000090: 55ab 06be 11be 433e 9b08 73bd 652b b43c
000000a0: 2002 02ba db63 853d 9381 4b3e ac6a 58bd
000000b0: ae29 813c 9c3c b63d 6cdc 82bd 1534 a73d
000000c0: e9fa 8ebe 8b5b 8f3e d5bf 2bbd 0e83 eb3d
000000d0: ff88 1f3e 97cb 513d ffaf 38be 3f12 793e
000000e0: 309f 4fbd a1d8 64be ccc8 dd3d 6a00 adbd
000000f0: a116 50bd 52f9 ac3e 5e18 4fbe 74c1 083f
00000100: 4cb3 173c 1aac 63bd b6b8 42be 5e4e 843e
00000110: c711 f8be 7772 87be d3f7 76bd 9f3e c23e
00000120: b876 a1bc 2207 1dbe cf96 3c3f deca e43c
00000130: 9ce6 b53d 8af4 b4bd 22c9 5cbe 1fe1 89bd
00000140: c7b1 ccbd e53a 4c3d 0081 113f a178 ffbe
00000150: ad68 8b3b 69f7 953d e61b 933d 72ff 343d
00000160: 3d66 adbd 1db2 4cbd 7970 7bbe e01a 413e
00000170: 4027 033e 4fec 60be 0f0c 10be e263 f13d
00000180: 5ec8 373c 7b6a fd3d c8d1 bdbc ec32 983e
00000190: 6681 323e eb40 1cbe 4d7d 513e 7d05 8e3d
000001a0: e959 f33c ad44 8a3d ccac d6bb f3f8 47be
000001b0: 2ca3 1f3e 54cb 81be 7d13 e53d a9c7 b3bd
000001c0: cff9 90be 3d69 ddbd a14c b43d 858c 07be
000001d0: 5c6c 0f3d 2d10 0fbf 0ebb eebd 8706 59be
000001e0: bc66 9e3e 4210 73bf 0be0 36be 080c 953d
000001f0: 01bd ebbe c5d6 433e 2d16 f03c 40b7 883e
00000200: 881a 8cbc cbfb 96be 1550 2e3e 0172 abbd
00000210: 6032 89bc 6404 023e 01b8 c8bc 9f8f c0bd
00000220: 5dbd 31bd f398 933d 45bc b9be 62c6 64bd
00000230: 8777 4b3e c0f7 babd 444e 183e 6021 b5b9
00000240: 52a3 b5bd 23c0 d0be ce81 fabe 1af6 c0bc
00000250: 4459 debe 7c6d e0be 704d cdbd e35d 6bbd
00000260: f60b d4bd 3ae7 fabd 3945 a1bd 6b32 923e
00000270: 35ba 16be 4f16 1b3e 9c28 34be 357f 0ebe
00000280: 011c 90be e62f 39bc 0b68 32be 5362 b8bc
00000290: b545 99bc db53 813e f60d 3f3e e0a8 4c3e
000002a0: 75c8 953d b7d2 e7bd 697f aa3e 2f66 3f3b
000002b0: 6859 0abf 0c24 763e c0e7 c7bc c871 4c3d
000002c0: cc8d 99bd 91bd 1b3e 3f0a c2bd cd68 e13c
000002d0: e1f4 7ebe eb08 643e 4c27 82bc 4651 fabd
000002e0: 1982 40be 1a40 d1bd ca1d f2be d315 003d
000002f0: a3fc bbbd ad53 39be e8e3 6cbe bf2b 213e
00000300: c025 06be 5989 2bbd 4998 21be 9584 53be
00000310: 6da4 813d 3c84 f7bc 674b 37be ec76 11bb
00000320: 58be 44bd 28cd d8bd 1883 863c f9e9 a4bc
00000330: e030 1fbe 69c7 193e 1f20 b33c 6cfa a23d
00000340: 52ae 003e 27a0 633e 8aee cc3d 7335 a6bd
00000350: 2ff2 233d c07c 6b3d 3d68 a2be 91b4 89be
00000360: 594e 4bbe c6ba 8f3e e20b 8ebe 817e 5e3f
00000370: 31b1 21bd 3207 c1bc 1fb1 45bd 114c 863d
00000380: 1a09 bc3d b685 74bd ac80 09be 2245 e33d
00000390: 5f89 69bb fd81 ac3d 29ae 3ebe a37e 193d
000003a0: e527 68bd 5a32 983e af38 ebbe 4e69 6e3f
000003b0: 2b3a e1bd a04d 053e afa1 6cbd abfe cc3d
000003c0: 1781 9e3d 8fb7 e63d 4e2f 71bd 147b 2bbe
000003d0: a28c 9dbd 3ffb 99bc dd89 c5bd 02da 35bd
000003e0: 04b0 0ebe 12ac 893e 5c78 283c b176 1c3e
000003f0: 2d1d 343d f318 d43c fadb 783b c313 5c3e
0.05426323 0.10464708 0.04883454 -0.090330504 0.0029629173 -0.09153397 0.06423601 -0.093338355
-0.021812512 0.14615041 0.031899307 -0.04092855 0.29934898 -0.2661399 -0.435403 -0.39243558
-0.2177359 0.18147941 -0.14370413 0.50965357 0.1178871 -0.21906507 -0.1359076 -0.0642172
-0.06697485 0.054976154 -0.27131012 0.044029832 -0.4466993 -0.6815294 -0.2037365 -0.15948668
-0.07257323 0.3249491 -0.1867234 0.7424659 -0.13151295 0.19115473 -0.05933438 0.021993348
-0.0004959423 0.065131865 0.19873647 -0.052836105 0.015766945 0.08898279 -0.063896984 0.08164231
-0.27925804 0.2799953 -0.041930992 0.11499606 0.15579604 0.05121955 -0.18035887 0.24323367
-0.050688922 -0.22348262 0.108293146 -0.084473446 -0.05080283 0.33783966 -0.20224139 0.53420186
0.009259056 -0.05558405 -0.19015774 0.2584104 -0.48451063 -0.26454517 -0.060294937 0.379384
-0.01970993 -0.15334752 0.73667616 0.027928766 0.08881876 -0.088357046 -0.21561101 -0.067323916
-0.09994846 0.049860854 0.56837463 -0.4989672 0.0042544217 0.0732258 0.071830556 0.044188924
-0.08466766 -0.04997455 -0.24554624 0.18857908 0.12807941 -0.21965145 -0.140671 0.11786629
0.011217205 0.12373825 -0.02317132 0.2972635 0.17432174 -0.15259139 0.20457955 0.069346406
0.029705958 0.0675138 -0.0065513607 -0.1952856 0.15589589 -0.2535044 0.11185358 -0.087783165
-0.2831559 -0.10811088 0.08803678 -0.13237198 0.03501545 -0.5588406 -0.116567716 -0.21193896
0.30937755 -0.9494668 -0.17858903 0.072776854 -0.46042636 0.19124897 0.02930745 0.2670231
-0.017102495 -0.29488978 0.17022736 -0.08371354 -0.016747653 0.12696987 -0.024501802 -0.094023935
-0.04339348 0.07206907 -0.3627645 -0.055853255 0.19869815 -0.09129286 0.14873606 -0.00034547877
-0.088690415 -0.4077159 -0.48927158 -0.02355485 -0.4342748 -0.4383353 -0.10024536 -0.057462584
-0.10353844 -0.12251134 -0.07874531 0.2855409 -0.1471947 0.15145229 -0.17593616 -0.13915713
-0.28146365 -0.011302924 -0.17422502 -0.022507822 -0.018709997 0.2525929 0.1865767 0.19986296
0.07313625 -0.113194875 0.3330033 0.0029205193 -0.54042673 0.24037188 -0.0244025 0.049913198
-0.07497749 0.15209033 -0.094746105 0.027515793 -0.24898101 0.22269027 -0.015887879 -0.12222533
-0.18799628 -0.102173045 -0.47288352 0.031270813 -0.09179046 -0.18098326 -0.23133814 0.15739344
-0.13100338 -0.04187903 -0.15780748 -0.20656045 0.0633019 -0.030214421 -0.17899857 -0.0022196127
-0.04803309 -0.105860054 0.016419932 -0.020131098 -0.15545988 0.15017475 0.021865902 0.079579204
0.12566498 0.22229062 0.10006435 -0.081156634 0.040025886 0.057492018 -0.31720152 -0.26895574
-0.19854106 0.28072184 -0.2774344 0.8691178 -0.039475624 -0.023563001 -0.04826462 0.06557477
0.091814235 -0.05969783 -0.1342799 0.110971704 -0.0035634858 0.08423231 -0.18621124 0.037474286
-0.05667867 0.29725915 -0.45941684 0.9312943 -0.10997423 0.13017893 -0.05777138 0.100095116
0.07739466 0.1126548 -0.058883004 -0.1674617 -0.07692839 -0.018796561 -0.09645436 -0.04439736
-0.13934332 0.26889092 0.010282602 0.15279652 0.043973137 0.025890803 0.0037972913 0.21491913

lstm.weight_hh_l0 f4 [200, 50]
00000000: d57e aebd cb6e e9bd c06f da3d 414b 623e
00000010: e9b0 25be 477a 963d 25d0 aabd c6c9 e1bd
00000020: ac1b 3c3c a2c7 1d3d 3952 b43d 6b48 ccbd
00000030: 0ae2 e6bd 5a29 bab9 1096 793e f06b 1ebe
00000040: 05ac 46bc e4e0 123a 7e36 abbd 007c a1bd
00000050: 57aa 37be dfb6 84be 200b 9ebd f477 0c3e
00000060: 9418 aa3d acfc 17be af0e a3bd 08a2 833d
00000070: be3a 9abd 38ab e83d ecf7 593c 5133 3cbd
00000080: b739 9a3c 7d18 5bbd c481 6cbe 0d5d f4bc
00000090: 3360 1cbe c897 3bbe d757 b2bd c43a 95ba
000000a0: 4d32 10be 3e84 24bd 50c7 5f3c 2a2a 5fbd
000000b0: 02ff 24be 153a 25bd 1715 b33d 2430 cb3d
000000c0: bb3e 343e 38de 273e a5e3 8cbb f4e3 adbd
000000d0: 989a e4be 2c07 e53d 19e7 06bd 2a45 883e
000000e0: 070f 293e 76a2 f7bd c281 843c dd02 8fbd
000000f0: 218a fdbc 4125 173d b02c abbd db03 13be
00000100: 27c6 71be 97a2 3d3d 5285 693e 31a6 0a3d
00000110: f821 22bd 6167 313e af93 4a3e 37eb 58bd
00000120: 6f49 c5bd 279f 69bc ddba ab3d 9fe0 a53d
00000130: 7494 293c 7462 7fbd 59b5 b33d a85e 0dbe
00000140: 2d7e 9bbe def8 01be 4656 28be 0421 223e
00000150: 3e8e 8a3c 6d5e af3c d8e2 57bd bf61 42be
00000160: ce82 9bbe ee64 5dbe 7530 3e3d 7128 953d
00000170: 9426 debd 2889 23bd d669 8ebd 4af5 d53d
00000180: 6d5c 3c3d 113a 3dbe ae74 c7bd 1825 88be
00000190: 2c8e e5bd 8eab 82be 7cdd 0b3e 95d3 90be
000001a0: 5538 213e ddc9 8ebc a934 993d 835c 533e
000001b0: e12b 04bf 3e25 553e 4c35 30ba 192f 2cbe
000001c0: d18e 013d 2040 34be e090 82bd 5bd9 8ebe
000001d0: 3ec6 3d3e dcf1 613d 27e8 b33e 87af 09be
000001e0: d6e9 0e3b d23b 163e e040 47bd aeaa 6cbe
000001f0: 8579 d8bd e004 9cbd a4ca b2bc 3de9 803e
00000200: 6f3a 55be 69c2 f73e f6c0 1a3e 0860 63be
00000210: 96fe 9b3e d19f b2bd 1a3a 8e3e eda3 f6bd
00000220: f576 ba3e 3772 e33e 906e 3a3e 9256 d03d
00000230: 2719 7abe 78bd 303e 19d0 453d 0fba b7bc
00000240: 12c3 5b3d 9739 56bd 024b 4bbe 91ee 113f
00000250: 5035 0c3e 92aa 4bbd c392 14bd ce37 953d
00000260: a109 73be f16a 373d 2896 0e3e df84 0e3e
00000270: c5db 103d 09fd c33c b75a 8fbe f8eb 793c
00000280: 0e09 2a3e 30ac b1bd 2e98 c5be 337d 02be
00000290: f4e3 a4be cc71 86be 8a74 8dbd 0c1c 473e
000002a0: bec1 10be c11b 1b3e b146 da3d d6d4 2cbe
000002b0: b976 66be f63e 8a3d a8e0 8bbd 4481 623e
000002c0: 5d95 a7bd 4131 f0bd 717b 423e 2cc0 aebe
000002d0: b1a8 a2be 5296 74be f0ac 05bf 056f 1abe
000002e0: 1fae e03c e7f9 91bc 331d 663d a04e c8bd
000002f0: 2a15 59bb 20de 8ebd 5730 183c 35a0 c5bc
00000300: 3aea 883d 339d 2fbe bd80 e43c 11af 883c
00000310: 8dee 02be 52cc 1dbd 6e8d 7c3d b767 b2bd
00000320: f813 c3bc ea13 27be f4fd 8ebe da06 8f3e
00000330: 8660 9abe 73fa 353e f7da 913d ff46 73bd
00000340: 3007 dc3e 1bc2 c6bd cf63 bd3c 3a14 cabd
00000350: 9fbe 213e e583 f7bd c4d4 213e 4449 c73e
00000360: 59ae 0f3e 6701 b03e 2fcf 033e e8bb 4f3e
00000370: 7f85 053e 3618 4f3e 9506 1d3d ed11 35bd
00000380: 7faa 49be 035f 3dbd a59f f73d 720b 86bd
00000390: 56fe 05be 775d 5c3d 1a4d 64be d18c 163d
000003a0: 34f1 593d 11eb 2a3e b97f 1e3d 8f21 2b3d
000003b0: 7cec 8cbe 49d3 9a3c 6843 8ebe 8637 05be
000003c0: 508a 9d3d e058 813d e4a1 a13d c095 b4bc
000003d0: 6fc3 02be 94ce 843e 6160 20be 1e31 12be
000003e0: c39a cd3d c100 00be 1c8f c7bd 0fb3 a93d
000003f0: d2d1 a4be 10fa 183e 08e6 aa3c 1d93 fe3c
-0.08520285 -0.11398085 0.10665846 0.2209902 -0.16180767 0.07347541 -0.08340482 -0.11024813
0.011481207 0.038520463 0.08804745 -0.0997475 -0.11273582 -0.00035507494 0.2437365 -0.15470862
-0.012125974 0.00056029693 -0.08360003 -0.07884979 -0.17936073 -0.2592077 -0.07716966 0.13717633
0.08305469 -0.1484248 -0.07961785 0.064273894 -0.075307354 0.113607824 0.013303738 -0.045947377
0.018826349 -0.05349015 -0.23096377 -0.029829526 -0.15271072 -0.18319619 -0.0870816 -0.0011385311
-0.14081688 -0.04016518 0.01365836 -0.05448357 -0.16112903 -0.040338594 0.08744257 0.099212915
0.17602055 0.16393363 -0.0042995983 -0.08490744 -0.44649196 0.111830086 -0.032935236 0.26615268
0.16509639 -0.12091534 0.016175155 -0.06982968 -0.030949654 0.036900762 -0.08358133 -0.1435694
-0.23610745 0.046297636 0.22804764 0.0338499 -0.039583176 0.17324592 0.197829 -0.052958693
-0.09633147 -0.014259136 0.08385251 0.08099484 0.010350335 -0.06234975 0.08774824 -0.1380564
-0.30369702 -0.12692592 -0.1643916 0.15832907 0.01691353 0.02140733 -0.05270657 -0.189826
-0.30373234 -0.21620533 0.04643293 0.07283104 -0.10847202 -0.039925724 -0.0695378 0.10447176
0.04598658 -0.18479182 -0.09739052 -0.265908 -0.11208758 -0.2552151 0.13658708 -0.28286424
0.15744145 -0.01743024 0.07480747 0.20640759 -0.51629454 0.20814988 -0.0006721809 -0.16814841
0.03163034 -0.17602587 -0.06375289 -0.27900204 0.18532655 0.055162296 0.35138056 -0.13445865
0.0021806858 0.14671257 -0.048645854 -0.23111984 -0.10570053 -0.07618117 -0.021825142 0.25177947
-0.20823072 0.4839051 0.15112671 -0.22204602 0.3046767 -0.08721889 0.27778703 -0.12042985
0.36418882 0.44423077 0.18206239 0.10172762 -0.24423657 0.17259777 0.04829416 -0.022427587
0.05365283 -0.052301016 -0.19852832 0.5700465 0.13692212 -0.049723215 -0.036272775 0.072860345
-0.23734142 0.04477972 0.13924468 0.13917874 0.03536584 0.023924368 -0.27998897 0.015254013
0.16605017 -0.0867542 -0.38592666 -0.12743072 -0.32205164 -0.26258695 -0.06906994 0.19444293
-0.14136407 0.15147306 0.106580146 -0.16878065 -0.22506227 0.0675029 -0.06829959 0.22119623
-0.08182786 -0.117281444 0.18992402 -0.3413099 -0.31769326 -0.23885468 -0.52217007 -0.15081413
0.027426777 -0.017819358 0.05618019 -0.097806215 -0.0033124187 -0.06975961 0.009288869 -0.024124244
0.066853 -0.1714981 0.027893418 0.01668504 -0.12786312 -0.038524933 0.061658315 -0.08711188
-0.023813233 -0.1631619 -0.27928126 0.27934915 -0.30151767 0.1777132 0.07121842 -0.05939388
0.42974234 -0.097049914 0.023118882 -0.09867139 0.15795372 -0.12085704 0.1580382 0.38923085
0.14031352 0.3437607 0.12872003 0.20286524 0.13039206 0.2022408 0.038336355 -0.04420655
-0.19693945 -0.04623319 0.12090997 -0.06545152 -0.13085303 0.053800073 -0.22295037 0.036755387
0.053208545 0.16691233 0.038696025 0.04178005 -0.27524173 0.018899577 -0.27785802 -0.13009462
0.07692397 0.0631578 0.07892206 -0.022044063 -0.12769864 0.25938857 -0.15661766 -0.14276549
0.10039284 -0.12500288 -0.09744093 0.08286106 -0.3219133 0.14939141 0.02086164 0.031076008

lstm.bias_ih_l0 f4 [200]
00000000: 45d4 573d dc54 393e 6bfb 133d 7e17 603e
00000010: 63be 9d3d 0fa5 153e 3147 163e 6ff5 d63e
00000020: 769d f83e 285a 843d b77a c03d 6c7f 0abe
00000030: c4ca 923e d13f 303e 36b2 7d3e 3227 483b
00000040: 475e b0bd 1539 b23d 1a9c 0b3e a9bc 5c3e
00000050: 7060 bc3e b31a 6b3e eb5d 163e 2c90 ce3d
00000060: 6d66 ffbd ff97 083d a516 723e c400 203e
00000070: 8462 283e 662f b33e 8e91 d83e 172b 193e
00000080: c9f9 6c3e 63d9 893d 46fa 253e 523a 533e
00000090: 5f74 eb3d ac2e 523e 4e80 6a3d 4eba 123c
000000a0: 5505 323e 6119 bebc d88d c03d 1e15 8e3c
000000b0: 8dd5 05bd 0ab8 2a3e 2432 24bc 4e74 e43d
000000c0: b5b3 ad3d 66c3 503e 9b09 2dbd cf90 ae3d
000000d0: 7f0f 853b f071 853d 7f58 4e3b 70e0 a0bb
000000e0: 142d b5bd e106 5bbe 94b9 8f3d 55b0 603b
000000f0: 9f09 263e 2e25 1ebe 05a1 e43d cb29 3fbe
00000100: d96e 263e d3bc c6bd ebfa 86bd b703 223d
00000110: 065d 133e 63cb 9ebd 883b 33be 9ed3 76be
00000120: c685 23be 04a7 40be 63bb e43d 33f2 92bd
00000130: bb3f 783d 9d32 403d 540c a43d 6a36 c33d
00000140: d004 77be 662b 87bd f593 d2bd fc15 f4bc
00000150: edb3 c3bc 4998 003d f43f d6bd 3a39 883d
00000160: fa46 a9bd 2877 ef3d 20fe c2bc d4b4 413d
00000170: 94bd 383e 7eb0 433c 5a43 d7bd 31a4 abbc
00000180: 0a1a f53c b160 64bd e8c5 033d b6c9 7dbc
00000190: 0d60 813d c6f8 bb3d 75d0 acbd f888 36bd
000001a0: b72b a4bd 846f 1cbd 4968 ee3d bac7 18be
000001b0: 429c 48bd 38f4 f2bc cdbb 623b 2a5f a03d
000001c0: 5a48 7abd f845 52bd 0448 24be a534 87bd
000001d0: c4fa 89bd 7186 883d ae51 e33d 9e9c 2c3d
000001e0: b220 2ebd 8fd0 433d 0011 fe3d d4e5 ecbc
000001f0: a5b0 e3bd e98d bfbd ef38 d83d 5ed0 30bd
00000200: 58f0 183c 035f f73b adef 57bd e4db aebd
00000210: 1447 1abd 17be 413d 91fe d73d 4339 dfbb
00000220: c678 c43d 23b1 c8bd b4c3 66bd 7345 913d
00000230: c698 0b3b f4fc 533d 2991 ebbc 9151 44bd
00000240: 3e66 ebbd 5fc5 10be b16c 44bd b64d 3b3c
00000250: 7e11 b53c 6d71 81bd ebb9 1fbe 9040 873c
00000260: eaa9 02be 4024 883e b406 9a3d 69dd e03d
00000270: 30d9 d73d eadd e63e 39cf 163e 5cf2 23be
00000280: c54d c3bd f4ea 56bc 485c 393e 2f0c 9c3c
00000290: 3bf6 3b3e 9a31 e93d a4ed d6bd 26ac c23d
000002a0: 2ca4 5f3d b2a3 143d 56b0 113f 4454 6b3d
000002b0: 8924 073d f2e7 e03d a2f4 85bd 1f07 f4bb
000002c0: 34c3 1a3e 8a82 273e b741 0d3e 151b cf3e
000002d0: 4204 363f 8bfe 0e3c 9cad 813e ffc1 e9bd
000002e0: bc96 0b3d 9923 363e 66c9 2b3e 7997 753e
000002f0: a2cd 68bd a119 833d ca62 d33d 8da0 7a3d
00000300: e405 2b3d cb1a a8bd a54d ce3c 8f97 ec3d
00000310: b607 c8bd f2ae 513b b866 d83b d90d a53d
0.05269267 0.18098778 0.036128443 0.21883962 0.07702329 0.14613746 0.14675595 0.41984126
0.48557633 0.064625084 0.09398406 -0.1352517 0.28670323 0.17211844 0.24775013 0.003054094
-0.08611732 0.08702294 0.13633767 0.21556343 0.36792326 0.22959404 0.14684264 0.10086092
-0.12470708 0.03334808 0.2364145 0.15625292 0.1644383 0.349971 0.4229855 0.14957844
0.2314216 0.06730916 0.16208753 0.20627716 0.114968054 0.20525616 0.057251267 0.008955551
0.17384847 -0.023205461 0.094020545 0.017344054 -0.03267436 0.16671768 -0.01002172 0.11154996
0.08481542 0.20387039 -0.04224549 0.08523714 0.004060685 0.065158725 0.0031485853 -0.0049095675
-0.088464886 -0.21389343 0.07017818 0.003428479 0.16214608 -0.1544387 0.111635245 -0.18668287
0.16253223 -0.09703984 -0.065908276 0.039554324 0.14390954 -0.07753637 -0.17503178 -0.24104163
-0.15969 -0.18813711 0.11168554 -0.07175102 0.060607653 0.04692327 0.08010164 0.09531863
-0.2412293 -0.066000745 -0.10282127 -0.02979564 -0.023889506 0.03139523 -0.10461417 0.0665154
-0.08265491 0.11692649 -0.023802817 0.04729159 0.18041068 0.0119439345 -0.10510893 -0.020952316
0.029919643 -0.055756275 0.03217116 -0.015489986 0.06317148 0.09178309 -0.084381975 -0.044564217
-0.080161504 -0.038192287 0.116409846 -0.1491994 -0.048977144 -0.029657468 0.0034596801 0.07830651
-0.061104156 -0.05133626 -0.16043097 -0.06601838 -0.06737283 0.06666268 0.110995635 0.04214155
-0.04251165 0.04780632 0.12405586 -0.028918184 -0.11117677 -0.09353239 0.10557734 -0.043167464
0.009334646 0.007549168 -0.052718807 -0.085380346 -0.03766544 0.047300424 0.105466016 -0.006812246
0.09593348 -0.09799411 -0.05633898 0.070933245 0.0021300777 0.051754907 -0.028755741 -0.04792935
-0.114941105 -0.14137791 -0.04795522 0.011432102 0.022103067 -0.063204624 -0.15598266 0.016510278
-0.1276013 0.26590157 0.0752081 0.10979731 0.10539472 0.45091182 0.14727487 -0.16010422
-0.09536318 -0.013117541 0.18101609 0.019048778 0.18355648 0.11386414 -0.10494545 0.09505491
0.054599926 0.036288925 0.5690969 0.05745341 0.032993827 0.1098174 -0.06540801 -0.007447138
0.15113527 0.1635839 0.137946 0.4045035 0.71100247 0.00872768 0.25327766 -0.11413955
0.0340793 0.17787017 0.16776046 0.23983563 -0.05683673 0.06401373 0.10321577 0.06118827
0.041753665 -0.08208235 0.025183508 0.11552345 -0.09767096 0.0031995145 0.006604042 0.08059282

lstm.bias_hh_l0 f4 [200]
00000000: 8816 df3d 4a73 273e 0c88 713c 6142 d93d
00000010: 2b6a c13c cc1e 9f3d ac44 84bd 9d35 d83e
00000020: d023 ea3e 2683 e8bc 27cb f13d 24be e9bd
00000030: c560 b73d 7ecd d23d 40fe 5a3e 5633 663d
00000040: e369 8c3d 9313 a73e 68e5 903c 580a 883b
00000050: 44f0 e53e 30d9 c83d 86f7 283c f829 073e
00000060: 9545 f1bd 1b4e 5abd 038d 043d c85c 343e
00000070: e2c9 913b be06 5e3e 980e 2b3f 608a a63c
00000080: 8149 713e dfb0 3a3d 93a4 7b3d 2b13 16bc
00000090: f214 783e 5005 2c3d 7361 eabd d743 923d
000000a0: 3353 473e 7764 c3bd 1565 8d3e fbba d7bd
000000b0: 87bf 373d 8d9d 0bbc 79d6 cdbd 0ac7 6c3d
000000c0: 72e9 383e e24a 53bd 0983 e3bd 01ff 133c
000000d0: a226 ea3d 70c7 b9bd 056a 19be 3ce9 053d
000000e0: 6262 d3bc f7f3 1abe bfc3 883e 94db efbd
000000f0: b7fa 233d 5a7c 50be 7d2d b7bd 527e 3e3d
00000100: 09e2 023e 9543 d6bc 487e a5bd 113f 1b3d
00000110: d309 cd3d c141 d73c 3b2d aabc 00f9 24be
00000120: 5edb 5bbe 130c 8e3b bfd1 eb3d ecfe 453c
00000130: 77b1 1a3e 6cb7 b8bd 99f8 10bd cb58 d4bc
00000140: e955 00be c0e2 01be 14cf 623d e984 96bd
00000150: 54c1 01be a033 d1bd ac13 d6bd 4ac5 1ebe
00000160: ac6d e6bc c449 013b 3329 ab3d 7aa3 843d
00000170: a155 24bd 965e d5ba 84ad b3bd e5d0 28bd
00000180: b284 9a3c d2cb 8abc 0d93 2bbe 9ab8 70be
00000190: b0bb 413d 7c17 0fbe d121 85bb 9484 503d
000001a0: e373 8d3d 0d08 d23d c41d 37bd 7ec3 e0bd
000001b0: 687e 563e 4ca9 d33c 557f babc 709c fd3c
000001c0: bba0 c03d fc2f 643d cb27 d83d 1f7f ab3d
000001d0: 9efe b33d 22a2 583d 6441 803c e983 be3d
000001e0: b73c b1bd e321 593d 1875 09bd ac9a 8cbd
000001f0: 1dad 913d 9d64 6fbd e29e 033d 34bc 5a3d
00000200: cbd8 873d 1de6 9c3c 8844 8a3d 0d71 9d3c
00000210: b9d4 843d edd5 d9bc 29bd babd 77b2 75bc
00000220: 267e f3bd fd1d 9c3d 20b4 b63d 7ca1 0bbe
00000230: f331 23be 4401 40bb 0d49 d5bc e9dc 45bd
00000240: 6137 613d a5f9 e33d aab0 dbbd 26f0 8abd
00000250: 213b 8e3d 4bd1 00bc 4edd 8abd 8130 753e
00000260: 22e7 963b 18e1 973e 8ec8 be3d 1eb0 583d
00000270: b12b 44bd 2e61 9c3e 636f 753e 0818 51bd
00000280: fba3 1ebd 4992 52be d9ce 9a3d 830c 253e
00000290: 7aff 953e 6c73 a83d 5f98 1a3e a31e ed3a
000002a0: 30a6 053e e951 413e 3b71 d83e 179f 123e
000002b0: 3519 e93d 870b f93c e0a7 c83d e4df 503e
000002c0: d65a 3a3e 86f0 1c3e 65a6 c4bd 390b ca3e
000002d0: 0588 f83e d97b d2bd aeb0 083e 9cf0 b4bc
000002e0: ba5e d93d 1c9c 89bd c078 743e f508 283e
000002f0: e302 293c 379e 643e fcab 593e 7ad9 073e
00000300: 0d3e 033e 25c1 573c e750 5bbd 454f 513e
00000310: efa8 d8bc b31c 883d 40b4 e63c fbef f5bc
0.10892969 0.16352573 0.014741909 0.10608364 0.023610195 0.07769546 -0.064584106 0.42228404
0.45730448 -0.028382849 0.11806326 -0.114132196 0.08954004 0.10293101 0.21386051 0.0562013
0.06856134 0.3263212 0.017687514 0.0041516237 0.4490987 0.0980705 0.01031292 0.13199604
-0.1178085 -0.053297143 0.03236104 0.17613518 0.004449115 0.2168226 0.66819143 0.020329654
0.23563196 0.045578834 0.061436247 -0.009159843 0.2422674 0.041997254 -0.11444368 0.07141846
0.19465332 -0.095406465 0.27616182 -0.105337106 0.04486039 -0.00852145 -0.10050673 0.057807006
0.18057802 -0.051585086 -0.11108977 0.009032966 0.1143315 -0.09071243 -0.1498185 0.032693133
-0.025803749 -0.15132128 0.26711842 -0.11711803 0.040034022 -0.20359936 -0.08944223 0.046507187
0.12781538 -0.026155272 -0.08080727 0.03790194 0.100116394 0.026276471 -0.02077352 -0.16110611
-0.214704 0.0043349355 0.11514615 0.012084704 0.1510676 -0.0901936 -0.03539333 -0.025921246
-0.12532772 -0.12684155 0.055373266 -0.07349569 -0.12671405 -0.10214925 -0.10452971 -0.15504947
-0.028128468 0.0019727806 0.083574675 0.06476493 -0.040120725 -0.0016278799 -0.0877333 -0.041214842
0.018862102 -0.016942892 -0.16755314 -0.2350792 0.047298133 -0.13973802 -0.004062869 0.050907686
0.06906869 0.10255442 -0.04470612 -0.10974787 0.20946658 0.025837563 -0.022765795 0.030958384
0.09405657 0.055709824 0.10554465 0.08373856 0.08788799 0.052888997 0.01565618 0.093025036
-0.086541586 0.053010833 -0.033558935 -0.06865439 0.07113097 -0.05844556 0.032133944 0.05340214
0.06633147 0.019152695 0.067513525 0.019218946 0.06485886 -0.026591266 -0.09118111 -0.014996163
-0.11889295 0.07622907 0.08921075 -0.1363582 -0.15937023 -0.002929763 -0.02603581 -0.04830638
0.054984454 0.111316 -0.10727055 -0.06784086 0.06944872 -0.007862399 -0.06780492 0.23944284
0.00460519 0.2966392 0.093155965 0.052902333 -0.04789323 0.30542892 0.23968272 -0.05104831
-0.038730603 -0.20563616 0.07558984 0.16118054 0.29296476 0.0822514 0.15097187 0.0018090795
0.13051677 0.18878902 0.42273888 0.143185 0.11381761 0.030401004 0.097976446 0.20397907
0.18198714 0.15326127 -0.0960205 0.39461687 0.48541275 -0.10277528 0.13348648 -0.022087388
0.10613771 -0.067192286 0.23874187 0.16409667 0.01031563 0.22325979 0.21257013 0.13266554
0.12816639 0.013168608 -0.05354395 0.20440395 -0.026447741 0.06646099 0.028162122 -0.030021658

linear.weight_mu f4 [1, 50]
00000000: c514 f33d 8b09 31be b3d6 c33c fff0 71be
00000010: d84b 9fbd 5a70 5ebe 8596 47bd 7c6f 883e
00000020: 1996 f63a 2713 4e3d 649a 39be 035d 653d
00000030: ef29 2b3e 1992 0c3e 0fb1 153e a6af 9a3d
00000040: 6c55 413d 94b8 c8bd 41f8 6bbd 6c0e 7abd
00000050: f4ad eb3d bbd0 4f3e 4ec2 9a3c 3bd9 6cbe
00000060: 7051 c7bc e77c 1abe 1ca4 86be ed00 923e
00000070: 8eca 3bbe 5257 913e 12f1 cf3e b2a7 253d
00000080: 5e9c 6e3e 7e89 18be 962a 733e 1347 423e
00000090: b1ca 693e 293c 2c3e caf7 a33d 7ada ff3d
000000a0: 5c3b f03d 1d50 a43b c836 e6bd 9621 593d
000000b0: c7b0 df3d 92c5 413e 5199 b6bb b654 3b3e
000000c0: 46a6 fdbd 2ccf 803d
0.11869196 -0.17288797 0.023906088 -0.23627089 -0.07778138 -0.21722546 -0.04872753 0.26647556
0.0018813043 0.050311234 -0.18125302 0.055996906 0.16715215 0.13727607 0.14618324 0.075530335
0.047200605 -0.098008305 -0.0576098 -0.06104891 0.11507788 0.20294468 0.01889148 -0.23129742
-0.024330825 -0.15086709 -0.2629708 0.2851633 -0.18338987 0.28386933 0.4061361 0.04044313
0.23301837 -0.14896199 0.23746714 0.18972425 0.22831227 0.16819824 0.080062464 0.12492843
0.11730072 0.005014433 -0.112409174 0.053010546 0.109223895 0.18923023 -0.005572476 0.18294033
-0.1238523 0.06289515

linear.weight_sigma f4 [1, 50]
00000000: 5a64 463d 056e e53d 6642 8bbd b96a 2d3e
00000010: 32ea 1ebe a9c4 c53d 0eb1 54bd 8e51 8d3e
00000020: b302 073d 14e6 92bd 55bd b23d 0324 313c
00000030: 93d4 983d 7f19 65bd 0749 24be 0f2a 193e
00000040: c621 fabc 40c4 b93d 458f 11bd a6ce b73d
00000050: b3ea f0bd 308f bebd 2900 e33d d50d a5bd
00000060: 7d13 9e3d 6c5d bf3d f920 ecbd c19d 17be
00000070: d32d 3abd a1ba 52be c5b8 ba3e e3b4 e03d
00000080: 0f31 043e 4258 8b3d 88c6 413e c4b6 d03d
00000090: 2279 893e 2cf5 0a3e 1042 d7bc 4188 f23d
000000a0: a417 1f3e 855d be3d d259 913d 3eeb 14bd
000000b0: cedb 0b3c 0545 e4bd d545 95bc b95b 32be
000000c0: 36b7 92bd cdf1 c63c
0.048435546 0.11202625 -0.06799774 0.16935243 -0.15519026 0.096566506 -0.051926665 0.27601284
0.03296156 -0.0717279 0.087275185 0.0108118085 0.0746242 -0.055932518 -0.16043483 0.1495745
-0.030533683 0.09070635 -0.035537023 0.08974962 -0.11763515 -0.093046546 0.11084015 -0.08059279
0.07718561 0.09343991 -0.115297265 -0.14806272 -0.045453858 -0.20579006 0.36469093 0.109720014
0.1290934 0.06803943 0.1892339 0.1019111 0.2685023 0.13570088 -0.026276618 0.118423946
0.15536362 0.09295181 0.0709721 -0.036357157 0.008536292 -0.11145977 -0.018221775 -0.17417802
-0.07163851 0.024285221

linear.weight_epsilon f4 [1, 50]
00000000: f50b 0c3f adb4 64be 5fb9 ef3d 8fcc 07bf
00000010: 01b8 e63d 45d7 dabd 08ea c23e efb6 cc3e
00000020: 14b2 8ebd f50c 4dbe 5df4 99be 6c77 adbe
00000030: 0495 953e f429 fbbe b3e9 c1be 8e63 f13d
00000040: ed63 dabe 6283 c4be 4a52 b53e 6f2f 9cbe
00000050: 4683 b5be b63a dbbe ffb3 96be b341 b73e
00000060: 0916 f63e ff0f 84be 7f79 6f3e 8eb7 f5bd
00000070: be68 ce3e d061 96be b064 493e 5aad a43e
00000080: d278 843e e170 74be d5d9 b03e 9476 cc3e
00000090: a2b9 483e f36b fc3e e345 ac3e aa5d 9d3d
000000a0: 2693 843e 8c2c d73e bd45 09bf 4dea cfbe
000000b0: 716e f33e c258 4bbe 44ab 283e bb51 b0be
000000c0: 2e00 d43e 7388 c83e
0.54705745 -0.22334547 0.117052786 -0.53046507 0.11265565 -0.10685591 0.38069177 0.39983317
-0.069675595 -0.20024474 -0.30069247 -0.33880174 0.29215252 -0.49055445 -0.3787361 0.11786567
-0.42654362 -0.38381487 0.35414344 -0.3050494 -0.35451716 -0.4281823 -0.294342 0.35792312
0.48063686 -0.25793454 0.23386191 -0.11997901 0.40314287 -0.293715 0.19667315 0.32163507
0.2587343 -0.23871185 0.34541193 0.39934218 0.19602063 0.4930111 0.3364707 0.076838806
0.25893515 0.42026174 -0.5362204 -0.40608445 0.47545198 -0.19858077 0.16471583 -0.34437355
0.41406387 0.39166602
