lstm_FullData/trial10/jt3_pos/lstm_model_epoch147.pth (torch, 50829 bytes, 5 tensors)

lstm.weight_ih_l0 f4 [200, 8]
0	0x3e2e9af4	0.17051297
1	0x3da2b19b	0.07944032
2	0xbe5e8132	-0.21728972
3	0xbdb750c4	-0.08950952
4	0x3d866a46	0.06563239
5	0xbdb1bf7d	-0.086791016
6	0xbe1f424b	-0.15552633
7	0xbd7afbec	-0.061275408
8	0xbdbc8564	-0.0920513
9	0xbe935b12	-0.2878042
10	0x3cd8fd49	0.026487963
11	0xbdee356e	-0.11631285
12	0x3dd02e38	0.101650655
13	0x3d25478a	0.040351428
14	0x3d59a4ea	0.05313579
15	0xbc0855bb	-0.008321221
16	0x3d42aa7b	0.047525864
17	0xbe5d6690	-0.21621156
18	0x3ddca227	0.107731156
19	0xbe0a5f5f	-0.13512944
20	0xbe140fb6	-0.14459118
21	0x3d7fdced	0.06246655
22	0xbbbd92ee	-0.0057853376
23	0x3e4289c3	0.18997864
24	0x3e3898ca	0.18027034
25	0xbe2bf46e	-0.16792461
26	0xbd95e774	-0.07319537
27	0x3d6b6769	0.057471666
28	0xbdf2848a	-0.11841686
29	0xbd19a863	-0.0375141
30	0xbe55a93c	-0.20865339
31	0xbdcf3673	-0.10117807
32	0x3e087b91	0.13328387
33	0xbe403dfc	-0.18773645
34	0x3b7ed085	0.0038881612
35	0xbc49da65	-0.012320136
36	0xbd1baf7a	-0.038009144
37	0xbde17bc0	-0.110099316
38	0xbe3641e0	-0.17798567
39	0x3e0aec20	0.13566637
40	0x3eece358	0.462672
41	0xbebe84e6	-0.37210768
42	0x3e3ba57b	0.18324845
43	0xbe3dc7b7	-0.18533216
44	0x3e07b8a4	0.13254029
45	0x3e3ff19d	0.18744512
46	0x3cfa597f	0.030560253
47	0xbba4badb	-0.0050271577
48	0xbd5b016e	-0.05346816
49	0xbd9f995a	-0.07792921
50	0xbd6e494e	-0.058175378
51	0xbe13d1e5	-0.14435537
52	0xbce418c9	-0.02784385
53	0x3e466312	0.1937373
54	0x3d61d682	0.05513621
55	0x3c095186	0.008381253
56	0x3e10dac5	0.14145954
57	0xbd67ecb1	-0.05662221
58	0xbd5d2923	-0.05399431
59	0xbdb26720	-0.08711076
60	0x3d68ac9b	0.056805234
61	0x3dd904e6	0.105966374
62	0xbe41225d	-0.18860765
63	0x3d8039b9	0.0626101
64	0x3dff1df5	0.12456886
65	0xbeaf7e44	-0.3427602
66	0x3e166b7c	0.1468944
67	0xbec12704	-0.3772508
68	0x3dbe0ee9	0.09280188
69	0x3d97fef0	0.07421672
70	0x3d9623ec	0.0733107
71	0xbd475384	-0.04866363
72	0x3e2b1ea9	0.16710915
73	0xbe31ff88	-0.17382634
74	0x3d9156e1	0.07096649
75	0xbddd84a8	-0.10816318
76	0x3eca539a	0.39516908
77	0xbd39688e	-0.045265727
78	0xbdd1764e	-0.10227643
79	0x3d2e9a4e	0.042627625
80	0x3d96f545	0.07371
81	0xbe21e53d	-0.15810104
82	0xbd0e0e21	-0.034681443
83	0xbe2bb25c	-0.16767257
84	0x3e068889	0.13138022
85	0x3d9dd4fa	0.07706638
86	0x3e498622	0.19680074
87	0x3de9ceb5	0.11416379
88	0xbdf5fb2e	-0.12010799
89	0x3e259b25	0.16172464
90	0x3e0cd62e	0.13753578
91	0x3d7b2e62	0.06132353
92	0x3dda880c	0.1067048
93	0x3e519db0	0.2047031
94	0xbd1961ba	-0.037446715
95	0xbd3df2bd	-0.04637407
96	0xbd83db6c	-0.06438336
97	0x3dd6baf0	0.10484874
98	0xbcc9cee5	-0.024634788
99	0x3e40f97f	0.18845175
100	0xbe11a895	-0.14224465
101	0xbd470749	-0.048590932
102	0xbd48779d	-0.048942197
103	0xbe0bf31a	-0.13666955
104	0xbdce4ab1	-0.1007284
105	0x3e85bd0a	0.26120788
106	0xbe2478d9	-0.16061725
107	0x3d511e80	0.051054478
108	0xbe0e23f6	-0.13880906
109	0xbc02df08	-0.007987745
110	0x3dd048b4	0.10170117
111	0x3dabf5de	0.08396505
112	0x3e28cf91	0.1648543
113	0xbdbd8913	-0.092546605
114	0xbe1ee521	-0.15517093
115	0x3d294b48	0.04133156
116	0x3db75dbf	0.089534275
117	0x3ad4a322	0.0016222934
118	0x3d1e7ab0	0.038691223
119	0xbd7abd15	-0.06121548
120	0x3d31bf26	0.043395184
121	0x3b12de56	0.0022410355
122	0x3e1531ac	0.1456973
123	0xbe79977c	-0.24374193
124	0xbd8575ea	-0.06516631
125	0xbdde016d	-0.10840116
126	0x3cf835f8	0.030299172
127	0x3d99a486	0.075020835
128	0x3e059f8a	0.1304914
129	0x3cd168d6	0.025562685
130	0xbd3e1ba8	-0.046413094
131	0x3e1ecb0e	0.15507147
132	0x3e4fbde9	0.20287289
133	0xbc6cd1df	-0.014454334
134	0x3e0ead46	0.13933286
135	0xbdada8e6	-0.084794804
136	0x3e0bca17	0.1365131
137	0xbe54f6b0	-0.20797229
138	0x3e54ac70	0.20768905
139	0xbb88cf01	-0.0041750674
140	0xbda42a7b	-0.08015915
141	0x3e0f4620	0.13991594
142	0x3d47e0de	0.048798434
143	0xbe02b373	-0.12763767
144	0xbd96aa89	-0.07356746
145	0xbe591b61	-0.2120185
146	0xbc4f1e22	-0.012641462
147	0xbe481d9b	-0.19542544
148	0x3d347c6d	0.044063974
149	0xbd6873bc	-0.056750998
150	0x3ce06eb0	0.02739653
151	0xbdada672	-0.084790125
152	0x3e6e2039	0.2325448
153	0xbe4dcef1	-0.20098473
154	0xbe1a263c	-0.15053648
155	0xbe48b3ef	-0.19599889
156	0xbd1ad2be	-0.037798636
157	0xbde019ba	-0.10942407
158	0xbdee1731	-0.11625517
159	0x3db4ae2c	0.08822283
160	0xbe4ae817	-0.19815098
161	0xbdce97b2	-0.10087527
162	0x3e1b4c33	0.15165786
163	0xbc75b244	-0.014996115
164	0x3e373113	0.17889814
165	0x3e5909dc	0.21195167
166	0x3da9cf62	0.08291508
167	0xbe176e79	-0.14788236
168	0x3dbaaa32	0.091144934
169	0xbe3aa89c	-0.18228382
170	0x3c8fba38	0.01754485
171	0x3dc733f3	0.097267054
172	0xbd6a3df7	-0.057188
173	0x3e1298ae	0.14316055
174	0xbe1ad647	-0.15120803
175	0x3d9b0ad3	0.07570424
176	0x3c33023e	0.010925828
177	0xbe8db97a	-0.2768057
178	0xbe875559	-0.26432303
179	0x3d487fe5	0.048950095
180	0x3dda509a	0.10659905
181	0xbd73f280	-0.059557438
182	0xbcd325f4	-0.025774933
183	0xbe07ee0a	-0.13274398
184	0xbdd42db4	-0.1036028
185	0x3d78da03	0.060754787
186	0xbe95ba94	-0.2924391
187	0xbc031287	-0.008000023
188	0xbe0c4d00	-0.13701248
189	0x3e500034	0.20312577
190	0xbced6827	-0.028980328
191	0xbb6bf2ae	-0.0036002803
192	0x3c2cc316	0.010544559
193	0x3e1bdbdd	0.1522059
194	0x3e1b21ae	0.15149567
195	0x3d67dc88	0.0566068
196	0xbd81a5bd	-0.0633044
197	0xbd910c2b	-0.07082399
198	0xbe0ebd43	-0.13939385
199	0xbdbedc26	-0.09319334
200	0x3e2676d7	0.16256271
201	0xbddda65b	-0.108227454
202	0x3d98e295	0.07465092
203	0xbcac80e8	-0.021057561
204	0x3e4ce02c	0.2000739
205	0xbddd467b	-0.10804459
206	0x3d6b4744	0.05744101
207	0x3d4e827d	0.050417412
208	0x3eba5ba8	0.36398053
209	0xb9465664	-0.00018914934
210	0xbe127c10	-0.14305139
211	0xbea2d291	-0.31801274
212	0xbd25cfed	-0.040481497
213	0xbd8e9c25	-0.06963376
214	0x3d5c8fdf	0.053848144
215	0xbda27533	-0.0793251
216	0x3e1d9236	0.15387806
217	0xbe181ddd	-0.14855142
218	0x3c1af209	0.00945712
219	0xbdb8b105	-0.09018139
220	0xbde58bd2	-0.11208309
221	0x3e2f5e94	0.17125922
222	0x3d216b14	0.03940876
223	0x3d7656a0	0.060141206
224	0x3b8d8fe6	0.0043201325
225	0x3c86dc0e	0.016462352
226	0xbc1a1c6e	-0.009406192
227	0x3cf183ef	0.029481856
228	0xbd4cd149	-0.050004277
229	0x3e5bd8db	0.21469443
230	0xbc9df5df	-0.01928228
231	0x3d1c770b	0.038199466
232	0x3defc33d	0.117071606
233	0xbb931b89	-0.0044893664
234	0xbe82474e	-0.25445026
235	0xbc0b44a9	-0.008500257
236	0xbc737df4	-0.0148615725
237	0xbe12bb3e	-0.1432924
238	0x3dcd079b	0.10011216
239	0x3d921d2e	0.07134472
240	0xbe27966a	-0.16365972
241	0xbdcb499c	-0.09926149
242	0x3d0a70f4	0.033799127
243	0x3d653e16	0.055967413
244	0x3e3a0aba	0.18168154
245	0xbd8f8bb7	-0.0700907
246	0x3da84075	0.08215419
247	0x3c825d79	0.015913712
248	0x3d8ffe81	0.07030965
249	0xbd34fc5f	-0.044185992
250	0xbe565822	-0.20932057
251	0xbe17c74a	-0.14822116
252	0xbe81f8e9	-0.25385216
253	0x3e499edb	0.19689505
254	0x3cc80fc4	0.02442158
255	0x3d3d4067	0.046203997

lstm.weight_hh_l0 f4 [200, 50]
0	0x3c8be93e	0.017078992
1	0x3db6788b	0.089097105
2	0x3df349f6	0.11879341
3	0xbd2eb469	-0.04265252
4	0x3d69dbd9	0.05709443
5	0xbdecc4f6	-0.11561005
6	0xbd0a06d8	-0.033697933
7	0xbd5fd24b	-0.05464391
8	0x3da30508	0.07959944
9	0x3d2050fc	0.039139733
10	0xbe2d0339	-0.1689576
11	0xba7c3788	-0.0009621312
12	0x3d68fa89	0.056879554
13	0xbd96c0b8	-0.07360977
14	0xbd941031	-0.07229651
15	0x3dc00b7b	0.0937719
16	0x3cda171a	0.026622344
17	0xbdb987cc	-0.09059104
18	0x3de1a77a	0.11018272
19	0xbdfc280a	-0.12312324
20	0xbdcbaa26	-0.099445626
21	0x3d88db18	0.06682414
22	0xbe16beea	-0.14721265
23	0x3e128d53	0.14311723
24	0xbcf736f5	-0.030177573
25	0xbc88ae53	-0.016684687
26	0x3e1e4a8a	0.15458122
27	0x3dafab3b	0.085775815
28	0x3bee0651	0.0072639366
29	0x3d84dff4	0.06488028
30	0x3d99838d	0.074957944
31	0x3d987ad1	0.074453
32	0xbe03d9e6	-0.1287609
33	0xbdcf9a65	-0.1013687
34	0x3d876d5b	0.06612655
35	0x3dd9bfad	0.106322624
36	0xbdd944d9	-0.10608835
37	0xbd2db949	-0.04241303
38	0xbd60b614	-0.054861143
39	0x3d9a545a	0.0753562
40	0xbde7198f	-0.11284172
41	0x3e15b40a	0.1461946
42	0x3d9e5cc5	0.07732538
43	0x3e11b9cc	0.14231032
44	0xbd9e3df9	-0.07726664
45	0x3e193420	0.1496129
46	0x3e1e5a54	0.15464145
47	0x3d781ba3	0.06057323
48	0xbd529f64	-0.051421538
49	0xbcbd8ff3	-0.02313993
50	0x3d071ae1	0.032984618
51	0xbc802356	-0.01564185
52	0xbd88f486	-0.06687264
53	0xbc9ed776	-0.01938985
54	0xbb7ce41c	-0.0038588112
55	0xbdfd0ccd	-0.12355957
56	0xbd993cd9	-0.07482309
57	0x3d21e765	0.039527316
58	0xbe10d644	-0.14144236
59	0xbe1ec584	-0.15505034
60	0xbad0a5b2	-0.0015918522
61	0xbd33ec47	-0.043926504
62	0x3d63edad	0.055646587
63	0xbd633fda	-0.055480815
64	0xbdaf4074	-0.08557215
65	0x3e2cb7a8	0.16866934
66	0xbc4f5c00	-0.012656212
67	0x3e6f5bd9	0.23374881
68	0xbd905f18	-0.07049388
69	0xbdbaa542	-0.09113552
70	0xbd8d344f	-0.06894743
71	0x3e0842cd	0.13306732
72	0x3d9cd2a9	0.07657368
73	0xbe86a8c8	-0.26300645
74	0x3e5e12e0	0.21686888
75	0x3e03a135	0.12854464
76	0x3db6cbcb	0.08925589
77	0x3e1dc6a5	0.15407808
78	0x3ae288bb	0.001728318
79	0x3d6c80e0	0.057740092
80	0x3de6a623	0.11262157
81	0xbe13e181	-0.14441492
82	0xbe0d631f	-0.13807343
83	0x3d917871	0.071030505
84	0xbe154ed7	-0.14580856
85	0xbddfaf50	-0.1092211
86	0xbe623a90	-0.22092652
87	0xbd82d169	-0.06387598
88	0xbcc4a205	-0.024003038
89	0x3d9afedd	0.075681426
90	0x3df787f3	0.12086477
91	0x3ba2ea40	0.0049717724
92	0xbd6d1d4e	-0.057889275
93	0xbda8aa43	-0.082356
94	0x3d0bd829	0.034141693
95	0x3e1bfa21	0.15232135
96	0xbe4670a8	-0.19378912
97	0xbde81ee2	-0.113340154
98	0x3d998c3a	0.07497449
99	0xbdb20ef5	-0.08694259
100	0xbc9da8a9	-0.019245462
101	0x3dd39952	0.10331978
102	0x3d28137d	0.04103421
103	0xbdf00f4e	-0.11721669
104	0xbd7f049f	-0.062260266
105	0xbd228e51	-0.039686505
106	0x3e1641f3	0.14673595
107	0xbe6873f9	-0.2270049
108	0xbd623103	-0.055222522
109	0xbd07a352	-0.03311474
110	0xbcca05a0	-0.024660885
111	0xbd340ba3	-0.04395641
112	0xbe487f6a	-0.19579855
113	0x3e226110	0.15857339
114	0x3d919242	0.071079746
115	0xbd2a682a	-0.041603245
116	0xbd817c3b	-0.06322523
117	0x3e1088da	0.14114705
118	0xbda831c9	-0.08212621
119	0xbdbd9f5b	-0.0925891
120	0xbcb2dd21	-0.021833958
121	0x3c57fc43	0.0131827025
122	0xbe1dee6a	-0.15422979
123	0xbe0919dd	-0.13388772
124	0x3db1546a	0.08658679
125	0xbcd38521	-0.025820317
126	0x3ea1d06d	0.3160433
127	0x3a21568c	0.0006154559
128	0x3d03773e	0.03209614
129	0x3dc4b838	0.096054494
130	0xbc067327	-0.008206165
131	0x3dcef235	0.10104791
132	0x3e214a46	0.1575099
133	0xbd6a8b9c	-0.057262048
134	0x3db58722	0.08863665
135	0x3cbed124	0.023293085
136	0xbe117846	-0.14206037
137	0xbb6d909f	-0.003624953
138	0xbdfc5b85	-0.123221435
139	0x3db32884	0.08747962
140	0xbeac2be4	-0.33627236
141	0x3d26111a	0.040543653
142	0xbd99589d	-0.07487605
143	0x3e0a49d7	0.1350473
144	0xbd86337a	-0.06552787
145	0x3de11799	0.10990829
146	0xbd083c17	-0.03326043
147	0xbdee90a9	-0.116486855
148	0xbdb747ad	-0.08949218
149	0xbd93d917	-0.07219141
150	0xbdaa3363	-0.083105825
151	0xbcee0839	-0.029056655
152	0xbd909c71	-0.07061089
153	0x3d9919e0	0.074756384
154	0x3e094a63	0.13407283
155	0xbe2d2492	-0.16908482
156	0x3d3fe237	0.046846595
157	0xbcd6fedc	-0.026244573
158	0x3d511825	0.051048417
159	0xbde96db4	-0.11397877
160	0x3db67f0c	0.08910951
161	0xbdce283d	-0.100662686
162	0xbe011864	-0.1260696
163	0x3e0613ab	0.1309344
164	0x3d2c7996	0.04210814
165	0xbd80ff32	-0.06298675
166	0x3c24d026	0.010059392
167	0x3d84d1f7	0.0648536
168	0x3e1c1078	0.15240657
169	0x3d7fa7c8	0.062415868
170	0x3dbf0d00	0.093286514
171	0x3cb473e7	0.022027923
172	0xbd6166d2	-0.055029698
173	0xbdf3d35e	-0.119055495
174	0xbdf9a3f1	-0.121894725
175	0x3dc56662	0.096386686
176	0x3dd07653	0.101788186
177	0x3db932be	0.090428814
178	0x3debe975	0.11519138
179	0x3b04f919	0.0020290075
180	0x3e53a866	0.20669708
181	0x3dd37241	0.103245266
182	0x3cbb6e9f	0.022879897
183	0x3de33f35	0.1109604
184	0xbe1bad8c	-0.15202922
185	0xbd8a9209	-0.06766135
186	0x3e120ae4	0.14261967
187	0x3e021402	0.12702945
188	0xbdb39520	-0.08768678
189	0xbdd143d4	-0.10218015
190	0xbdac5d37	-0.08416217
191	0x3b7cbdd9	0.0038565306
192	0xbdc7c3be	-0.09754132
193	0xbd2bbe3b	-0.041929465
194	0xbcb121f0	-0.021622628
195	0x3df9e7ce	0.12202416
196	0x3cd1bc89	0.025602596
197	0xbd4be81d	-0.049781907
198	0x3db8e5bb	0.090281926
199	0x3e0bc732	0.13650206
200	0x3e007ecb	0.12548368
201	0xbe20109e	-0.15631339
202	0xbd8afe77	-0.067868166
203	0x3c8576b9	0.016291963
204	0x3e323c9b	0.17405932
205	0xbe1e6b60	-0.15470648
206	0x3e139dc9	0.14415659
207	0x3dc8defa	0.098081544
208	0x3e0cf031	0.13763501
209	0x3de4603c	0.11151168
210	0x3d2e5883	0.04256488
211	0xbe2ca936	-0.16861424
212	0x3d7fdd5a	0.062466957
213	0xbd2fdb9a	-0.042934038
214	0xbe0bfcce	-0.13670656
215	0xbc9dbbde	-0.019254621
216	0x3baacca4	0.0052123833
217	0x3da78020	0.08178735
218	0xbd55b05e	-0.05217015
219	0xbe2c755b	-0.16841643
220	0xbdad3a33	-0.08458366
221	0x3c5e98d9	0.013586246
222	0xbd5560ab	-0.052094143
223	0x3daab746	0.08335738
224	0xbe0a69e6	-0.1351696
225	0xbda32be5	-0.079673566
226	0xbd93b43d	-0.07212112
227	0xbda10744	-0.07862714
228	0xbd578135	-0.052613456
229	0xbd09dfe4	-0.033660784
230	0x3e007f46	0.12548551
231	0x3e391755	0.18075307
232	0x3d7a475d	0.061103214
233	0x3e5459af	0.20737337
234	0x3cd9d7c4	0.026592143
235	0xbb4fbfb2	-0.0031699953
236	0xbc9bc748	-0.019015923
237	0xbd5da857	-0.05411562
238	0x3db4bf74	0.08825579
239	0xbc447dad	-0.011992854
240	0x3db2a0b8	0.08722061
241	0x3e16404d	0.14672966
242	0x3e2b68b1	0.16739155
243	0x3e152cb1	0.1456783
244	0xbe1f9244	-0.1558314
245	0x3dfb8cbb	0.122827016
246	0x3d9ff42e	0.078102455
247	0xbdf3946f	-0.11893546
248	0x3d42dc02	0.047573097
249	0xbd1301b4	-0.035890296
250	0x3d275ae2	0.040858157
251	0x3de19278	0.11014265
252	0x3da52c89	0.08065135
253	0x3d89df10	0.06731999
254	0x3e416abd	0.18888374
255	0xbc850324	-0.01623685

lstm.bias_ih_l0 f4 [200]
0	0x3e1ca3d1	0.15296866
1	0x3e3b01d5	0.18262418
2	0x3e9ee941	0.31037334
3	0x3e24d9b5	0.16098674
4	0xbd860701	-0.06544305
5	0x3e26f29a	0.16303483
6	0x3e8d0a0d	0.2754673
7	0x3d9efac2	0.07762672
8	0x3e96e940	0.2947483
9	0x3ed7889b	0.4209641
10	0x3dbeda58	0.093189895
11	0x3db6d0b2	0.08926524
12	0x3e507c69	0.20359959
13	0xbdeb5ba1	-0.11492086
14	0x3e0ed391	0.13947894
15	0xbc3a34f2	-0.011365162
16	0x3dcc3c4c	0.09972438
17	0x3e611b6a	0.21983114
18	0x3d6dc87e	0.058052532
19	0x3df781fb	0.12085339
20	0x3dc0ac7b	0.09407898
21	0x3daa6a15	0.08321015
22	0x3e8518f0	0.25995588
23	0xbcdfc3cc	-0.027315043
24	0x3e4168a6	0.18887576
25	0x3e387242	0.18012336
26	0x3e8668e2	0.26251894
27	0x3e262e87	0.16228686
28	0x3e118188	0.14209569
29	0xbd81159b	-0.06302949
30	0x3db1e50a	0.08686264
31	0x3de44e52	0.11147751
32	0x3d1d5cdd	0.03841864
33	0x3cc1d860	0.023662746
34	0x3d820e2e	0.06350361
35	0x3f067d72	0.52535164
36	0x3e718c76	0.23588738
37	0x3dac0433	0.083992384
38	0x3e0c5fdd	0.13708444
39	0x3e573aa8	0.2101847
40	0x3e244269	0.16040958
41	0x3e80da8b	0.25166735
42	0x3e1a60fa	0.15076056
43	0x3c94314b	0.018089911
44	0x3a5b5ef1	0.00083683344
45	0x3ea5b5bb	0.32365212
46	0xbd2509d6	-0.040292583
47	0x3e26a688	0.16274464
48	0x3d9c031f	0.07617783
49	0x3d55a285	0.052156944
50	0x3cf84739	0.0303074
51	0x3e03486e	0.12820598
52	0xbcd0fab9	-0.025510179
53	0x3d138cea	0.036023058
54	0xbdeacf36	-0.114653036
55	0x3b3aeb91	0.0028521756
56	0x3df27c60	0.11840129
57	0x3d459026	0.048233174
58	0xbdfe88b0	-0.12428415
59	0x3dbad125	0.091219224
60	0x3ddd522f	0.10806691
61	0x3dc6c5d6	0.09705703
62	0x3e0420d5	0.1290315
63	0x3d3fa531	0.0467884
64	0x3d360242	0.044435747
65	0xbd9f7725	-0.07786397
66	0x3c86cd88	0.016455427
67	0xbd9770e4	-0.07394579
68	0x3de4f9b0	0.111804366
69	0xbdb3f2f5	-0.08786575
70	0xbdee3a67	-0.11632233
71	0x3dd95fb3	0.10613956
72	0xbdb04923	-0.086077
73	0x3d45f506	0.048329376
74	0x3e3054b8	0.17219818
75	0xbe2e3ea9	-0.1701609
76	0xbcd50ec6	-0.026008021
77	0xbcff85e7	-0.03119178
78	0x3d97b9a9	0.07408459
79	0x3c92c693	0.017916953
80	0xbb7477b6	-0.0037302799
81	0xbca6792b	-0.02032145
82	0x3d110737	0.03540727
83	0xbd4fc23f	-0.050722357
84	0x3d983201	0.074314125
85	0xbd623f3d	-0.05523609
86	0xbdd3a978	-0.10335058
87	0x3e0a4638	0.13503349
88	0xbd543065	-0.051803965
89	0xbda05db9	-0.07830376
90	0x3dac1db6	0.084041044
91	0x3e464ff5	0.19366439
92	0x3b8d3194	0.0043088887
93	0x3dafcf3f	0.08584451
94	0xbdbe79d0	-0.09300578
95	0x3d337651	0.043814007
96	0xbdba2986	-0.09089951
97	0xbd46f476	-0.04857298
98	0x3e2d5ca1	0.16929866
99	0xbe26feb6	-0.16308102
100	0xbdc467e8	-0.09590131
101	0xbe190085	-0.14941604
102	0x3c6a5362	0.014302107
103	0x3da7f897	0.082017116
104	0x3d54ad33	0.05192299
105	0xbddf4999	-0.109027095
106	0x3ca4cae8	0.020116284
107	0xbd2ac88e	-0.04169517
108	0x3e31a2ce	0.17347261
109	0x3dab4fe4	0.08364847
110	0xbc32f43a	-0.010922486
111	0xbd98ceb7	-0.07461303
112	0xbd437f3e	-0.04772877
113	0x3e1bc44b	0.15211599
114	0xbd6b3143	-0.057420027
115	0x3b8d8638	0.0043189786
116	0xbddf2687	-0.108960204
117	0xbdf1b129	-0.11801369
118	0x3e051e76	0.12999901
119	0xbce72ee7	-0.028220607
120	0xbe15f915	-0.14645799
121	0x3dd0f86b	0.10203632
122	0x3ddf1a33	0.10893669
123	0xbd2b7c9e	-0.04186689
124	0x3dc0e94d	0.094194986
125	0x3d06e588	0.03293374
126	0x3d08c4f3	0.03339095
127	0x3d5d508d	0.054031897
128	0x3e05a1bd	0.1304998
129	0xbcc5ea8f	-0.024159698
130	0xbd7774b9	-0.06041405
131	0xbd86882f	-0.06568944
132	0xbe0a0004	-0.13476568
133	0xbd9b232b	-0.07575067
134	0xbe170e51	-0.14751555
135	0x3a25bcf6	0.0006322408
136	0x3b8e9320	0.0043510348
137	0x3b2be933	0.0026231527
138	0xbd4b5d60	-0.049649596
139	0x3ca92924	0.0206495
140	0xbd45db0f	-0.048304614
141	0xbe3296ff	-0.17440413
142	0x3def1612	0.116741315
143	0x3df93aca	0.12169416
144	0xbe100871	-0.1406572
145	0xbe1ec17e	-0.15503499
146	0xbd8bdbe7	-0.068290524
147	0xbdbc1a68	-0.09184724
148	0x3dfac7e7	0.122451596
149	0xbd2a2544	-0.041539446
150	0x3dd68171	0.10473908
151	0x3e61599b	0.22006838
152	0x3d3cacd6	0.046063267
153	0x3ce87eb1	0.028380724
154	0x3df84c38	0.121239126
155	0x3e7e139e	0.24812171
156	0x3e2a8e81	0.16655923
157	0xbcfdb46e	-0.030969825
158	0x3e551b37	0.20811163
159	0x3e9ca3d8	0.30593753
160	0x3e0dd913	0.13852338
161	0xbd3d293f	-0.046181913
162	0x3dc2b9e3	0.09508111
163	0xbb5f5159	-0.0034075587
164	0x3e3cd36c	0.18440026
165	0x3d9767bc	0.07392833
166	0xbdbdecac	-0.09273657
167	0xbcb5f1ff	-0.02221012
168	0x3e396aba	0.18107119
169	0x3d8d509e	0.06900142
170	0x3d0617b5	0.032737453
171	0x3d672060	0.05642736
172	0x3e9eaa31	0.3098922
173	0xbb929922	-0.0044738213
174	0x3d5f0bc6	0.054454587
175	0x3e6c4259	0.23072185
176	0x3d49a804	0.049232498
177	0x3df40c5a	0.119164184
178	0x3de9d06d	0.11416707
179	0xbd5aa6cc	-0.053381726
180	0x3d131265	0.035906214
181	0xbd20fe80	-0.03930521
182	0x3e18bf6f	0.14916776
183	0xbdeb8ef0	-0.115018725
184	0x3e0b53fd	0.13606258
185	0x3e8a0f67	0.26964876
186	0x3e34802a	0.17627016
187	0x3e0d5f88	0.13805974
188	0x3db45331	0.0880493
189	0x3e27bd83	0.16380887
190	0x3e1ebc8d	0.15501614
191	0x3e1d9e1a	0.15392342
192	0x3e502c56	0.20329413
193	0x3d915e21	0.07098032
194	0x3e2e469b	0.17019121
195	0x3e9255ae	0.28580993
196	0xbd066ad6	-0.03281673
197	0x3d978857	0.07399052
198	0x3c121ed2	0.008918481
199	0x3e07e7df	0.13272046

lstm.bias_hh_l0 f4 [200]
0	0x3dfb45cb	0.12269171
1	0x3e6ae204	0.2293778
2	0x3e30762a	0.17232576
3	0xba0ff0ef	-0.0005490919
4	0x3d56ab38	0.05240938
5	0x3e9f41ad	0.31104794
6	0x3e5ad5bf	0.213706
7	0x3c2f1681	0.010686518
8	0x3e7aaa90	0.24479127
9	0x3e6f0681	0.23342325
10	0x3e4680f4	0.19385129
11	0x3da01032	0.07815589
12	0x3e64c29c	0.22339863
13	0xbdaa23af	-0.08307587
14	0x3e169ed8	0.14709032
15	0x3d8ab850	0.06773436
16	0xbd8c81d6	-0.06860702
17	0x3e40e746	0.18838224
18	0x3d9d76ef	0.076887004
19	0x3e1dd22e	0.15412208
20	0x3d9d2038	0.07672161
21	0xbc987ccc	-0.018614195
22	0x3e42dac0	0.19028759
23	0x3e0622d6	0.13099226
24	0x3e4f66b4	0.20254022
25	0x3e07fa60	0.13279104
26	0x3eb0ed90	0.34556246
27	0x3d4fe527	0.050755646
28	0x3e8ca070	0.27466154
29	0xbda2eeb5	-0.07955686
30	0x3e096786	0.13418397
31	0x3c78b166	0.015179014
32	0x3b6de476	0.0036299503
33	0x3cdf071e	0.027225073
34	0x3db5c61c	0.08875677
35	0x3f0871af	0.5329847
36	0x3de9ea4a	0.1142164
37	0xbcaad0b6	-0.020851474
38	0x3dcfb478	0.101418436
39	0x3e30c438	0.17262352
40	0xbc030179	-0.007995957
41	0x3e4eb10a	0.20184723
42	0x3e149b35	0.14512332
43	0x3e75cc50	0.2400372
44	0xbd417eb1	-0.047239963
45	0x3e60448b	0.21901147
46	0x3e4fb86d	0.20285197
47	0x3dbd000f	0.09228527
48	0x3e43af97	0.19109951
49	0x3e809dff	0.2512054
50	0xbd90f209	-0.070774145
51	0x3e310790	0.17288041
52	0x3c5f3938	0.013624482
53	0x3cf1c4a5	0.029512713
54	0x3daec672	0.08533944
55	0x3e28dfe6	0.1649166
56	0x3db43db4	0.088008314
57	0xbced3fa1	-0.028961005
58	0xbde81751	-0.11332572
59	0x3d06bd89	0.0328956
60	0xbd004ee5	-0.03132524
61	0x3d18cfdd	0.03730761
62	0xbd53af6c	-0.051680967
63	0xbd825c28	-0.06365234
64	0x3c99aab3	0.018758154
65	0x3dcda582	0.10041334
66	0xbcba1a7c	-0.022717707
67	0xbe121018	-0.14263952
68	0xbc014774	-0.007890571
69	0xbdddd0ff	-0.108308785
70	0xbd44eb15	-0.048075754
71	0x3e40104c	0.18756217
72	0xbd0aaead	-0.03385799
73	0xbe0ff4c8	-0.1405822
74	0xbd5352b9	-0.051592562
75	0x3c336328	0.010948934
76	0x3e3e386d	0.18576212
77	0xbddbe9c2	-0.10737945
78	0x3dff32b1	0.124608405
79	0xbda06df3	-0.07833471
80	0x3df5a4f5	0.11994354
81	0xbde6b503	-0.11264994
82	0xbc0c3711	-0.008558051
83	0xbcc28253	-0.023743784
84	0x3e1c3401	0.15254213
85	0xbd3d9d94	-0.046292856
86	0xbe356fa4	-0.17718369
87	0x3d671436	0.05641576
88	0x3a391c17	0.00070613757
89	0xbc6bf682	-0.014402034
90	0x3d5b582e	0.05355089
91	0xbd26c11b	-0.040711503
92	0x3e359a8b	0.17734735
93	0x3e40f6f1	0.188442
94	0xbdac10b5	-0.08401624
95	0x3e0e2493	0.1388114
96	0xbcdeeaa2	-0.027211491
97	0x3d31b9a0	0.043389916
98	0x3ce58b5b	0.028020551
99	0xbdc9a814	-0.098465115
100	0x3e1bc33e	0.15211198
101	0x3d436c8c	0.04771094
102	0x3cfcebde	0.030874189
103	0x3d104cdb	0.035229545
104	0x3da9f217	0.08298128
105	0xbd8ab464	-0.06772688
106	0x3d99e0f1	0.07513607
107	0xbe35c084	-0.1774922
108	0x3d72139d	0.059100736
109	0xbd31d14e	-0.0434125
110	0xbe01c58b	-0.12673013
111	0xbdd92cd8	-0.106042564
112	0xbda4a348	-0.08038956
113	0xbd3c66fe	-0.04599666
114	0xbd3a6a4c	-0.04551153
115	0xbc68b6c8	-0.014203735
116	0x3df5b887	0.119980864
117	0x3dea58ec	0.11442742
118	0x3e08b25d	0.1334929
119	0xbd8dc31d	-0.069219805
120	0xbe1a063f	-0.15041445
121	0x3de65160	0.1124599
122	0xbd5abc20	-0.053402066
123	0xbe2bcd46	-0.16777524
124	0x3d295381	0.0413394
125	0xbd35abf8	-0.044353455
126	0x3cd8d9cb	0.02647104
127	0xbd5a4ccd	-0.0532959
128	0x3c88095c	0.016606025
129	0x3d94fbe8	0.0727461
130	0x3d64249f	0.055698987
131	0xbd6b2df3	-0.057416867
132	0x3da12382	0.07868101
133	0xbe00b8b0	-0.12570453
134	0x3d08bb0a	0.0333815
135	0x3dc43d0e	0.09581958
136	0xbd8400e2	-0.06445481
137	0x3dce59b7	0.100757055
138	0xbdce9f3e	-0.10088967
139	0xbc08b7da	-0.008344615
140	0xbe228688	-0.15871632
141	0xbe158dab	-0.14604823
142	0xbd5b6fbe	-0.053573363
143	0xbc76986b	-0.015050988
144	0xbcba9a89	-0.022778766
145	0xbd09fbb9	-0.033687327
146	0xbd821d7f	-0.06353282
147	0x3e058185	0.13037689
148	0xbd5119f8	-0.051050156
149	0xbe117ea9	-0.14208473
150	0x3d1511fb	0.0363941
151	0x3e217d52	0.15770462
152	0x3d41f752	0.047355004
153	0x3ba7a8ac	0.005116543
154	0xbcbe8fdd	-0.023261959
155	0x3e4ca4a9	0.19984688
156	0x3e4e66ec	0.20156449
157	0x3e289001	0.16461183
158	0x3e617ea0	0.2202096
159	0x3e88ada7	0.26694986
160	0x3c4544df	0.012040346
161	0x3e44621a	0.19178048
162	0x3c911cbe	0.0177139
163	0x3e0a573c	0.1350984
164	0x3bb6d748	0.0055798627
165	0x3e18d7d1	0.14926077
166	0xbdaedf66	-0.085387036
167	0x3dc5b827	0.09654265
168	0x3e2becff	0.16789626
169	0x3dbbac27	0.09163695
170	0x3e33bd9f	0.17552803
171	0x3d6b359f	0.057424184
172	0x3e6db5c0	0.23213863
173	0xbd80d60b	-0.062908255
174	0x3dc3616e	0.095400676
175	0x3dec55c1	0.11539794
176	0x3ea0f326	0.31435508
177	0x3e3b8f40	0.18316364
178	0x3e55b569	0.20869984
179	0x3d01aa4e	0.031656556
180	0xbccb8f4a	-0.024848599
181	0x3d5e2f8a	0.054244556
182	0x3d9ee86e	0.07759176
183	0x3da1e6f0	0.07905376
184	0x3dacb533	0.084329985
185	0x3eb7dedb	0.35912213
186	0x3e7cdaf7	0.24692903
187	0xba20b44c	-0.0006130382
188	0xbdafea74	-0.0858964
189	0x3dc78109	0.097414084
190	0x3d9dd13e	0.077059254
191	0x3e247cbe	0.1606321
192	0xbc1a5159	-0.009418809
193	0x3e62d11d	0.22150083
194	0x3e174468	0.14772189
195	0x3e8dfe94	0.2773329
196	0x3e60d724	0.2195707
197	0x3e0ba9de	0.13639018
198	0x3e441035	0.19146807
199	0x3c6988ab	0.014253776

linear.weight f4 [1, 50]
0	0x3e3bf511	0.18355204
1	0x3e07e291	0.13270022
2	0xbe77ffe3	-0.24218707
3	0x3e54870b	0.2075464
4	0x3da27103	0.079317115
5	0xbdfbe456	-0.12299411
6	0xbd928608	-0.07154471
7	0x3ad61e2c	0.0016335896
8	0xbe12a900	-0.14322281
9	0xbe5ae737	-0.21377264
10	0xbdccea83	-0.10005667
11	0x3dc1fe8f	0.09472381
12	0x3de4fbc0	0.1118083
13	0xbcec7ba3	-0.028867548
14	0xbe5ada91	-0.21372439
15	0x3df36b1f	0.11885666
16	0x3d90fd44	0.070795566
17	0x3e6637a0	0.22482157
18	0xbe2a314a	-0.16620365
19	0xbe51360f	-0.20430778
20	0x3e3a0b06	0.18168268
21	0x3d83214a	0.06402834
22	0xbe4e0f5a	-0.20123044
23	0x3cf717dc	0.030162744
24	0xbe1d4a5a	-0.15360394
25	0x3e5a89ad	0.21341582
26	0x3db05447	0.08609825
27	0x3e18a25d	0.14905687
28	0xbe752ab3	-0.2394207
29	0x3d204c06	0.039135
30	0xbbd1e83b	-0.006405858
31	0xbd01486c	-0.031563208
32	0xbd879bf3	-0.06621542
33	0x3e0eb65c	0.13936752
34	0xbe4e6c61	-0.20158531
35	0xbe0c6c29	-0.13713135
36	0xbe188378	-0.14893901
37	0xbe11e7af	-0.14248537
38	0xbd15a392	-0.036532946
39	0x3e22eb7e	0.15910146
40	0x3d59ba46	0.05315616
41	0x3db40af9	0.08791155
42	0x3e6375a4	0.22212845
43	0x3e63bd9a	0.22240296
44	0xbe6d9113	-0.23199873
45	0x3dc4ba19	0.09605808
46	0xbe536259	-0.20642985
47	0xbd7437fc	-0.059623703
48	0xbe113b19	-0.141827
49	0xbdcbbe9a	-0.09948464
