archive/lstm_4to1/trial2/j2/lstm_model_epoch7.pth (torch, 48077 bytes, 5 tensors)

lstm.weight_ih_l0 f4 [200, 4]
0.22722001 -0.051146045 0.21816352 -0.07396402 0.13833836 0.272039 0.15174207 0.16642219
0.00015203959 0.1770799 -0.17321028 0.19644563 0.2886606 0.07843427 0.14868025 -0.12980832
-0.049155418 0.69138926 -0.41007403 -0.82302046 1.1927897 0.22133599 -0.67733014 -0.44176275
0.30034345 -0.46234986 0.32660615 -0.101749785 0.01981033 -0.15927163 0.13911785 -1.1859565
0.15727217 -0.42947623 -0.30964634 0.21330892 -0.25337434 0.10157251 -0.10517888 0.14356148
-0.22916716 1.0535011 0.21770905 0.18267944 -0.13693333 0.25580096 0.21037367 0.29261267
0.067445196 -0.14200352 -0.37285733 0.02739423 -0.027804937 0.7341593 0.7812604 0.0833213
-0.3970722 0.4239111 0.06489551 0.061306357 0.26312274 -0.71831745 -0.22673152 -0.25876018
0.08457209 -0.013206195 -0.1914379 0.36386728 0.9162149 0.112323165 -0.228423 0.053579424
-0.032949034 0.17600209 -0.040922828 0.48869875 0.749326 0.11274347 0.042608436 -0.50953484
-0.076591715 -0.16958454 -0.02471704 -0.188484 0.6399712 -0.12937242 0.21128003 -0.40188602
-0.9039951 0.2803229 -0.4090547 -0.37275285 0.6235987 -0.3109949 -0.011655215 -1.0334327
0.013028862 0.5880333 0.38492993 0.23476677 -0.4892815 0.38646728 -0.25134024 -0.1897038
0.10734403 0.08775314 -0.07283263 -0.45162627 -0.19226664 0.1457145 -0.5526276 0.24891742
-0.024190756 0.23660195 -0.06937158 0.34098443 -0.07029062 -0.1369845 -0.19799179 0.29858077
-0.13227005 0.27244636 -0.2422192 0.09238113 0.3421271 0.26746956 0.51576555 0.111064695
-0.3474328 -0.06946095 0.20949417 -0.21727179 -0.9004678 0.263967 0.23905964 0.23323476
-0.40774515 0.17525631 -0.24496979 0.029219266 -0.1407939 -0.12553559 -0.3836697 0.025167545
-1.3641407 0.13015287 -0.36984795 -0.04833259 -1.3680574 -0.2655661 -0.18598337 -0.38356495
-0.15083778 0.44538242 0.41054067 -0.08024686 0.13743085 0.36529526 -0.065160416 -0.369055
0.5090622 -0.12535064 -0.63118976 -0.26850894 0.11796735 0.08801847 0.027277755 0.08482759
0.56392765 0.88704103 0.5665379 -0.106081024 -0.0028945769 -0.14663944 -0.6175743 0.15152256
-0.08326166 0.14218248 -0.6780261 -0.23552054 -0.15874253 0.37364495 -0.4234279 0.37383774
0.20960262 0.3591401 0.28437978 0.2753026 1.1280817 0.36453715 -0.26199096 -0.029527744
0.10576431 -0.03031615 -0.2209141 0.26309732 -0.50721806 0.34241953 -0.1047817 0.09020673
0.14518873 0.14474541 0.07617229 0.029015558 0.092958495 0.46149322 -0.41291636 0.5924765
-0.17091142 0.255648 -0.2895734 0.26470128 0.27360553 0.10481089 0.1928495 -0.25342315
-0.2666295 0.39856574 -0.22820754 -0.11941936 0.0052754367 0.21175142 -0.72441906 -0.022499887
0.4064021 -0.027490275 0.5292003 0.08799807 -0.08979736 0.12196405 -0.20342828 0.0789591
0.08008357 -0.3415896 0.026008677 -0.17234963 -0.20643002 -0.10829757 0.27479035 -0.12928429
-0.5221223 0.9967437 0.17967811 -0.22932938 -0.20286956 0.3129837 0.21907566 0.20694898
0.26678005 -0.16898388 -0.3928907 0.20987007 -0.3758018 0.6267148 0.33197066 -0.21953139
00000000: 5dac 683e 847e 51bd 4266 5f3e 737a 97bd
00000010: 92a8 0d3e b248 8b3e 4662 1b3e 946a 2a3e
00000020: d16c 1f39 6f54 353e 095e 31be 0b29 493e
00000030: 52cb 933e 26a2 a03d a33f 183e 79ec 04be
00000040: 3157 49bd e3fe 303f 39f5 d1be 78b1 52bf
00000050: 55ad 983f e7a5 623e 8265 2dbf ba2e e2be
00000060: 9ec6 993e 1fb9 ecbe ec38 a73e 3162 d0bd
00000070: 4649 a23c 1a18 23be e974 0e3e 6ccd 97bf
00000080: f50b 213e 4fe4 dbbe f789 9ebe a76d 5a3e
00000090: 48ba 81be 4005 d03d 0668 d7bd c801 133e
000000a0: ccaa 6abe 20d9 863f 1fef 5e3e 5210 3b3e
000000b0: 4038 0cbe 58f8 823e 326c 573e 54d1 953e
000000c0: b520 8a3d 5f69 11be 28e7 bebe dd69 e03c
000000d0: 2ec7 e3bc ddf1 3b3f ae00 483f 5ca4 aa3d
000000e0: 0c4d cbbe e00a d93e f0e7 843d 601c 7b3d
000000f0: 06b8 863e a7e3 37bf 4f2c 68be 377c 84be
00000100: 2234 ad3d cc5e 58bc 4c08 44be d04c ba3e
00000110: 0f8d 6a3f b009 e63d b8e7 69be 1976 5b3d
00000120: 91f5 06bd e439 343e b29e 27bd b936 fa3e
00000130: d4d3 3f3f 0ce6 e63d 2f86 2e3d e070 02bf
00000140: 1edc 9cbd 92a7 2dbe 647b cabc f301 41be
00000150: 27d5 233f 347a 04be cb59 583e 01c4 cdbe
00000160: 396c 67bf 7c86 8f3e 9e6f d1be 76d9 bebe
00000170: 2aa4 1f3f b93a 9fbe 84f5 3ebc 8647 84bf
00000180: 0277 553c 5a89 163f 8915 c53e b366 703e
00000190: 1b83 fabe 0adf c53e abaf 80be b741 42be
000001a0: 30d7 db3d ebb7 b33d 4629 95bd 8f3b e7be
000001b0: 8ce1 44be 2f36 153e 0179 0dbf 35e4 7e3e
000001c0: b12b c6bc c847 723e b012 8ebd 8395 ae3e
000001d0: 87f4 8fbd aa45 0cbe 5cbe 4abe 94df 983e
000001e0: cd71 07be 177e 8b3e 4f08 78be 5132 bd3d
000001f0: 492b af3e c5f1 883e 3609 043f e375 e33d
00000200: b6e2 b1be 8b41 8ebd a485 563e 7f7c 5ebe
00000210: 0f85 66bf af26 873e 0dcc 743e 18d5 6e3e
00000220: f9c3 d0be 6476 333e 5cd9 7abe 3e5d ef3c
00000230: 472c 10be 678c 00be 5b70 c4be 2b2c ce3c
00000240: 2a9c aebf cb46 053e b65c bdbe 65f8 45bd
00000250: 811c afbf 48f8 87be 6d72 3ebe a062 c4be
00000260: 3875 1abe 2a09 e43e 6332 d23e 7758 a4bd
00000270: acba 0c3e fb07 bb3e d372 85bd c7f4 bcbe
00000280: e651 023f eb5b 00be a795 21bf 017a 89be
00000290: de98 f13d 0743 b43d 9975 df3c 16ba ad3d
000002a0: 905d 103f 1f15 633f a108 113f 0241 d9bd
000002b0: f1b2 3dbb a628 16be 5919 1ebf bb28 1b3e
000002c0: 1785 aabd 4998 113e 1e93 2dbf 4c2c 71be
000002d0: 678d 22be 644e bf3e 8bcb d8be a967 bf3e
000002e0: 12a2 563e 36e1 b73e 3a9a 913e 76f4 8c3e
000002f0: fb64 903f 9da4 ba3e ae23 86be 2be4 f1bc
00000300: f59a d83d 9359 f8bc 4e37 62be b1b4 863e
00000310: 0bd9 01bf 9d51 af3e ca97 d6bd 4ebe b83d
00000320: 5bac 143e 2438 143e 3800 9c3d 09b2 ed3c
00000330: 0661 be3d d748 ec3e c669 d3be 8aac 173f
00000340: 6703 2fbe 4be4 823e f742 94be ed86 873e
00000350: 0616 8c3e 18a7 d63d 577a 453e aec0 81be
00000360: a983 88be cf10 cc3e 3daf 69be 2392 f4bd
00000370: 92dd ac3b 5dd5 583e 8773 39bf af51 b8bc
00000380: f013 d03e 4933 e1bc ac79 073f 5538 b43d
00000390: aee7 b7bd 4ac8 f93d 814f 50be 4fb5 a13d
000003a0: db02 a43d d5e4 aebe 2610 d53c 6c7c 30be
000003b0: 6462 53be 1ecb ddbd 52b1 8c3e 1a63 04be
000003c0: cfa9 05bf 982a 7f3f 8afd 373e 52d5 6abe
000003d0: 0abd 4fbe 663f a03e 5f55 603e 6fea 533e
000003e0: 6597 883e 1c0a 2dbe f828 c9be 2ee8 563e
000003f0: 1869 c0be 6270 203f 0ff8 a93e d6cc 60be

lstm.weight_hh_l0 f4 [200, 50]
0.07313713 0.10890283 0.11041546 -0.29141864 -0.26117298 0.10297435 0.11417017 -0.023696383
-0.20192887 -0.32890493 0.47595906 0.024485659 -0.066075295 -0.35654283 -0.25777388 0.0031652502
-0.22941698 0.36161032 -0.08450669 0.011726169 0.16124968 0.15555502 -0.08867515 -0.17309035
-0.051374923 0.37303737 -0.23389247 0.0767909 0.25039256 0.25287896 -0.23059861 0.18902151
-0.32315227 -0.28591636 0.13252771 0.34369588 -0.05639227 0.48550963 0.06238763 -0.38064355
0.14179203 0.03970723 0.13585901 0.06652933 -0.10818271 -0.34069178 -0.2298062 0.32676804
0.09623651 0.28042215 0.008401523 -0.43964356 0.7434626 0.18008474 -0.15082479 0.15087411
-0.26863256 0.09153296 0.3198056 0.091876835 -0.06526231 -0.24156517 -0.18109757 0.07146954
0.54679245 0.45968086 -0.15406708 -0.51543254 0.2433391 0.20513937 0.14833696 0.10485285
0.38259867 0.4527339 0.21328932 0.3593831 0.18677281 -0.22196755 0.082590155 -0.3498969
-0.15904114 0.15549213 0.036388118 0.1273065 -0.576363 -0.17348255 -0.052188016 0.4356227
-0.1513483 0.23122828 -0.012318049 -0.08704373 -0.13304806 -0.50681216 0.567185 -0.8502031
0.18487573 0.24614877 -0.022419268 -0.18409884 0.05737993 -0.08161477 0.2609518 0.21852235
0.023124421 0.1280695 -0.0831314 -0.14015704 0.23739043 0.11277454 -0.13982454 -0.33407614
-0.21775153 -0.044777777 0.099764265 0.34162036 0.18751456 -0.7651426 0.11478532 0.20883612
0.1948959 -0.22310503 0.24574037 0.09199732 0.049369577 0.07175203 0.02385456 -0.02356959
-0.10924542 -0.27145517 -0.12043897 0.19608398 0.1278129 0.18531577 -0.09933296 -0.38572606
-0.18972576 -0.30247122 -0.07248788 0.16326106 -0.025982803 -0.1445735 0.17882633 -0.04685196
-0.02635504 -0.23181532 0.20528236 -0.3381189 -0.119835675 -0.18062404 0.01728784 0.09970331
-0.44792154 -0.103808306 0.18308686 -0.2723637 0.2509183 0.23001768 -0.7284442 0.24069414
-0.10434366 -0.23974246 -0.350414 -0.12817988 -0.04005275 -0.057095826 0.04537085 0.38141137
-0.40077838 0.027542876 -0.09370912 0.085458785 -0.3634038 -0.104899324 0.18969125 -0.12381114
0.091281764 0.042084802 0.2153978 0.11730265 0.022736505 -0.22080223 -0.110295326 0.022515906
0.094478935 -0.017901521 0.24966677 0.4405495 0.05622683 -0.032170165 0.24808106 0.12555175
-0.07240889 -0.10660969 -0.11953281 -0.03211972 -0.31762034 0.24753898 -0.16025391 0.15792903
0.19285801 -0.33249637 0.15912914 -0.019424766 0.1733713 0.004092125 -0.16765606 0.7476511
-0.6395191 0.0039899265 0.028999344 0.29776195 -0.45001695 0.017715173 -0.112683475 -0.1028828
0.13738728 -0.39967373 -0.36562392 -0.13093121 0.16863333 -0.23703304 -0.50123054 -0.12925103
0.073148295 0.07687496 -0.0064228154 -0.032777436 0.18308671 -0.2905212 -0.0969708 0.38403767
-0.15753673 0.045422863 -0.18110713 -0.128984 0.54683346 1.0941489 -0.32836613 -0.14574847
-0.08251691 0.17033318 0.47966835 -0.5150293 -0.38413212 0.074495 0.19285564 -0.7670061
0.09298679 0.08406248 -0.2634091 0.50738686 0.05809912 0.12540232 0.81886643 -0.096011326
00000000: ebc8 953d 7208 df3d 8021 e23d d334 95be
00000010: 77b8 85be 37e4 d23d 0dd2 e93d eb1e c2bc
00000020: 71c6 4ebe 3a66 a8be e8b0 f33e 2696 c83c
00000030: 7c52 87bd c88c b6be f0fa 83be 1670 4f3b
00000040: 49ec 6abe fd24 b93e d811 adbd 1e1f 403c
00000050: a31e 253e d149 1f3e 519b b5bd 993e 31be
00000060: 836e 52bd c1fe be3e 8281 6fbe 8c44 9d3d
00000070: 7433 803e 5a79 813e 0b22 6cbe db8e 413e
00000080: 3774 a5be a163 92be 58b5 073e e8f8 af3e
00000090: 95fb 66bd b894 f83e 2c8a 7f3d b6e3 c2be
000000a0: ee31 113e 0ca4 223d a01e 0b3e 8840 883d
000000b0: e68e ddbd 276f aebe 5152 6bbe 244e a73e
000000c0: a617 c53d 7e93 8f3e 8ba6 093c f618 e1be
000000d0: 9153 3e3f 2268 383e d071 1abe be7e 1a3e
000000e0: 358a 89be a275 bb3d 8fbd a33e ec29 bc3d
000000f0: 3fa8 85bd dc5c 77be a471 39be 9f5e 923d
00000100: 97fa 0b3f 4a5b eb3e c3c3 1dbe 63f3 03bf
00000110: e32d 793e 0e10 523e a5e5 173e 17bd d63d
00000120: f9e3 c33e bdcc e73e 8468 5a3e 1001 b83e
00000130: 5f41 3f3e 764b 63be 0725 a93d b025 b3be
00000140: aedb 22be 5439 1f3e b50b 153d a35c 023e
00000150: 878c 13bf 69a5 31be 1ac3 55bd f009 df3e
00000160: 0cfb 1abe 1bc7 6c3e a4d1 49bc fc43 b2bd
00000170: c03d 08be 71be 01bf 0933 113f e9a6 59bf
00000180: 1050 3d3e 6c0e 7c3e 9da8 b7bc 6884 3cbe
00000190: 3807 6b3d a525 a7bd 799b 853e 53c4 5f3e
000001a0: 6d6f bd3c a724 033e cc40 aabd 5485 0fbe
000001b0: 7a16 733e 57f6 e63d 2a2e 0fbe 070c abbe
000001c0: 42fa 5ebe e768 37bd 3551 cc3d dde8 ae3e
000001d0: d103 403e 63e0 43bf 9114 eb3d 23d9 553e
000001e0: ca92 473e a575 64be 5da3 7b3e 1769 bc3d
000001f0: c137 4a3d baf2 923d a36a c33c 0315 c1bc
00000200: 10bc dfbd 2cfc 8abe b5a8 f6bd 3dca 483e
00000210: 63e1 023e 6bc3 3d3e 146f cbbd e37d c5be
00000220: 7847 42be 82dd 9abe 8774 94bd e82d 273e
00000230: e3d9 d4bc 130b 14be 401e 373e d7e7 3fbd
00000240: 86e6 d7bc ff60 6dbe 8a35 523e ec1d adbe
00000250: 686c f5bd 82f5 38be 3a9f 8d3c 4031 cc3d
00000260: f955 e5be 7399 d4bd 1f7b 3b3e 4173 8bbe
00000270: 5d78 803e c189 6b3e 527b 3abf 8678 763e
00000280: 21b2 d5bd 0c7f 75be 7769 b3be 9641 03be
00000290: 5a0e 24bd 50dd 69bd c9d6 393d 5a48 c33e
000002a0: d332 cdbe 99a1 e13c 91ea bfbd 0405 af3d
000002b0: 1010 babe 75d5 d6bd 6c3e 423e b290 fdbd
000002c0: eff1 ba3d 1d61 2c3d 3e91 5c3e 5f3c f03d
000002d0: e841 ba3c fb19 62be 84e2 e1bd 4773 b83c
000002e0: 2c7e c13d 36a6 92bc a5a8 7f3e b48f e13e
000002f0: 1b4e 663d ddc4 03bd f608 7e3e a390 003e
00000300: 1d4b 94bd 2e56 dabd 9ecd f4bd f88f 03bd
00000310: 229f a2be dc7a 7d3e 9a19 24be 26b8 213e
00000320: 927c 453e f73c aabe c0f2 223e b020 9fbc
00000330: 3f88 313e 3c17 863b 08ae 2bbe 1066 3f3f
00000340: 86b7 23bf eebd 823b 0890 ed3c 4174 983e
00000350: 9f68 e6be 691f 913c 98c6 e6bd 38b4 d2bd
00000360: 40af 0c3e 09a2 ccbe 0f33 bbbe d512 06be
00000370: 37ae 2c3e cab8 72be a550 00bf 625a 04be
00000380: c6ce 953d 9e70 9d3d 7b76 d2bb a241 06bd
00000390: 157b 3b3e 32bf 94be a098 c6bd 96a0 c43e
000003a0: 4f51 21be 530d 3a3d 2674 39be 6214 04be
000003b0: 47fd 0b3f 120d 8c3f 9b1f a8be 163f 15be
000003c0: a0fe a8bd d26b 2e3e 1797 f53e f6d8 03bf
000003d0: f7ac c4be d690 983d f37b 453e 835a 44bf
000003e0: dc6f be3d f328 ac3d 8fdd 86be 1be4 013f
000003f0: 58f9 6d3d 7769 003e 3ba1 513f 96a1 c4bd

lstm.bias_ih_l0 f4 [200]
0.19642742 -0.11884891 0.11903563 0.0060556848 0.2625442 0.44114533 0.027848298 0.8212653
0.21970151 -0.09363366 0.19954808 0.061986614 -0.05735725 0.057231672 -0.022291617 0.50730425
0.15061878 0.25887322 0.250404 0.18863802 0.06854904 0.42288026 0.5016742 0.71635836
-0.08493821 0.17812645 -0.16747364 0.16931446 0.10278445 0.017973846 0.084094495 0.06257873
0.3655134 0.21564886 0.48914242 0.12557024 0.28649604 0.2926754 -0.052656166 0.22914504
0.39374477 0.47179416 0.35580537 -0.22491927 0.0997793 0.09654784 -0.1910179 0.1796738
-0.049006846 -0.03440988 0.23739886 -0.14256549 -0.044449918 0.029923394 -0.17935067 0.17615128
0.014692488 -0.38355985 0.3400466 0.31826514 -0.1180512 0.09606965 -0.010481536 0.08322679
0.10987482 -0.030665075 -0.035080913 -0.096196115 -0.061545238 -0.086451255 -0.3257917 0.105968095
0.14345957 0.057591747 -0.14756088 0.0049053086 -0.04202062 0.006513794 -0.0063153813 -0.093421265
-0.19907993 0.079787195 -0.0577574 -0.1601099 -0.08666844 -0.1719677 -0.19682927 0.03214629
0.33989608 -0.05114382 0.1197529 0.08092503 -0.012361808 0.0012308352 0.20394604 -0.0037883138
0.07405627 -0.11217798 -0.076728635 -0.17004928 0.01779056 -0.0548656 0.1562327 -0.038127165
-0.1504711 0.09799592 -0.020626955 -0.06523803 -0.101775944 0.05754326 -0.16042754 -0.056986466
0.0036411174 0.042635433 0.007699649 0.085409045 0.1505591 -0.1495681 0.08260536 -0.14422256
0.016752427 -0.08441243 0.15427223 -0.014181681 0.07742141 0.14333376 -0.043006327 0.0051922877
-0.08453891 0.010336528 -0.00981794 -0.1287179 -0.04889806 0.13422105 -0.08646904 0.044479307
-0.14919612 -0.10147833 0.105032526 0.0039258916 -0.014725052 0.002137075 0.10158478 -0.08804131
-0.049694207 -0.08796647 -0.021040365 0.039447367 -0.038242374 -0.050897036 0.13417691 -0.015927274
0.19699386 0.08500904 0.4866921 0.23658657 -0.027599359 0.637886 0.14155881 0.015565714
0.1212438 0.094027795 0.039502572 0.14438733 0.019432716 0.23241195 0.23303466 0.2556676
0.040536426 0.27830982 0.011785792 0.29307744 0.2461617 0.31604198 -0.033053458 0.052265752
0.08655283 0.018392593 0.16523963 -0.01324717 0.04616023 0.025244012 0.20124152 -0.00020196373
0.3546641 0.1432307 0.24235645 0.185231 0.092231266 0.06494287 0.20696782 0.21604092
0.21285744 -0.21577366 -0.042985555 0.07168288 -0.00514922 0.16636893 0.12577276 -0.13462998
00000000: 4524 493e 0f67 f3bd f4c8 f33d c46e c63b
00000010: 326c 863e cddd e13e 1d22 e43c 713e 523f
00000020: 6ff9 603e 01c3 bfbd 5556 4c3e ade5 7d3d
00000030: 70ef 6abd c26b 6a3d e99c b6bc b1de 013f
00000040: cf3b 1a3e 088b 843e f434 803e 532a 413e
00000050: 7063 8c3d c383 d83e b86d 003f 4363 373f
00000060: 16f4 adbd c866 363e 367e 2bbe c560 2d3e
00000070: a780 d23d e33d 933c bc39 ac3d 4729 803d
00000080: 9324 bb3e 0ed3 5c3e e070 fa3e 7c95 003e
00000090: 9caf 923e 8dd9 953e fead 57bd ffa4 6a3e
000000a0: ea98 c93e 018f f13e 1f2c b63e 3d51 66be
000000b0: 1759 cc3d e0ba c53d 329a 43be 69fc 373e
000000c0: 67bb 48bd 60f1 0cbd b018 733e b0fc 11be
000000d0: 1e11 36bd e821 f53c b4a7 37be 0061 343e
000000e0: c3b8 703c f561 c4be 971a ae3e a6f3 a23e
000000f0: d4c4 f1bd 2ac0 c43d c0ba 2bbc cf72 aa3d
00000100: 0d06 e13d 5335 fbbc 01b1 0fbd 7802 c5bd
00000110: dc16 7cbd 5b0d b1bd 2bce a6be cd05 d93d
00000120: 11e7 123e 53e5 6b3d 331a 17be b6bc a03b
00000130: d01d 2cbd aa71 d53b 42f1 cebb a653 bfbd
00000140: 9cdb 4bbe 7867 a33d 0693 6cbd daf3 23be
00000150: 397f b1bd 4d18 30be 9d8d 49be d4ab 033d
00000160: dc06 ae3e 2f7c 51bd 0241 f53d 06bc a53d
00000170: 2e89 4abc fa53 a13a 3bd7 503e 5c45 78bb
00000180: d0aa 973d 92bd e5bd e723 9dbd 6621 2ebe
00000190: 82bd 913c c0ba 60bd 77fb 1f3e 3b2b 1cbd
000001a0: 1915 1abe 16b2 c83d dcf9 a8bc 849b 85bd
000001b0: e86f d0bd 7bb2 6b3d 1e47 24be a46a 69bd
000001c0: d09f 6e3b 7ea2 2e3d 564d fc3b f0ea ae3d
000001d0: 2a2c 1a3e 6128 19be 002d a93d 14af 13be
000001e0: 633c 893c 6de0 acbd 8af9 1d3e 485a 68bc
000001f0: 1e8f 9e3d 16c6 123e 6727 30bd 1124 aa3b
00000200: bc22 adbd 8a5a 293c 6ddb 20bc a0ce 03be
00000210: 5549 48bd 3e71 093e ae16 b1bd ef2f 363d
00000220: dec6 18be dfd3 cfbd 4b1b d73d c4a4 803b
00000230: 5841 71bc 2b0e 0c3b ae0b d03d 014f b4bd
00000240: 278c 4bbd c427 b4bd d85c acbc 9093 213d
00000250: 09a4 1cbd 6979 50bd ac65 093e ea79 82bc
00000260: c2b8 493e 3819 ae3d b52f f93e c043 723e
00000270: 0d18 e2bc 7f4c 233f cbf4 103e 5607 7f3c
00000280: ab4e f83d a591 c03d 73cd 213d 46da 133e
00000290: 5c31 9f3c 66fd 6d3e a3a0 6e3e dde6 823e
000002a0: 8609 263d a07e 8e3e 3219 413c 3f0e 963e
000002b0: d011 7c3e 41d0 a13e 1063 07bd 9d14 563d
000002c0: 9c42 b13d 10ac 963c 9434 293e a80a 59bc
000002d0: 8212 3d3d 88cc ce3c 4212 4e3e 3ac6 53b9
000002e0: 8896 b53e 12ab 123e 4a2c 783e 32ad 3d3e
000002f0: bfe3 bc3d c400 853d 5fef 533e d539 5d3e
00000300: 4df7 593e c5f3 5cbe 9f11 30bd 79ce 923d
00000310: caba a8bb 9e5c 2a3e 93ca 003e 71dc 09be

lstm.bias_hh_l0 f4 [200]
0.17375456 -0.05127635 0.04090949 0.114267536 0.4373119 0.40191147 0.056174584 0.6616942
0.25590125 -0.046410732 0.1418358 0.01834749 -0.05538641 0.15020876 0.19292927 0.5019431
0.14259534 0.35593826 0.23123616 0.38805607 -0.080456495 0.42981365 0.30703232 0.85242146
0.05868163 0.25261676 -0.15030497 -0.042001754 0.3385278 -0.054899804 -0.010205609 0.23475365
0.3562232 0.004575789 0.34050155 0.056111082 0.24121325 0.104554236 -0.06404214 0.33359712
0.26248658 0.44144943 0.28315002 -0.16966374 0.0057892324 -0.048924554 -0.24559215 0.06547567
0.10414223 -0.1171932 0.099896215 0.015556811 -0.09612747 0.23250814 -0.0515617 -0.07172187
-0.14063378 -0.53513354 0.42109528 0.3062443 0.061208393 0.10029411 -0.052973405 0.24512483
-0.011874907 0.08196133 -0.27421322 -0.07905258 0.063753866 0.028005429 -0.15095043 0.04432828
0.06390549 0.0362881 -0.15685175 0.10542717 -0.16924617 0.112312526 0.020978063 -0.16427676
-0.21927682 -0.09828548 -0.018809993 -0.21031809 0.15324445 -0.02585352 -0.22886069 0.21071881
0.08287148 -0.09731768 0.08708253 0.112996295 0.06084241 0.08751942 0.2062528 -0.07456838
0.019719413 -0.110683605 -0.040729377 -0.118706554 0.057611886 -0.021918412 -0.0334472 -0.0023104448
0.00016839041 0.050777994 0.03351958 0.0068183606 -0.09499514 -0.05805168 -0.017992718 -0.09110626
0.05736934 0.072742015 0.0020535917 0.06578018 0.0010308332 -0.029089589 -0.0029732198 0.02257015
0.023618042 0.057013024 0.11475689 -0.008963907 0.07208595 -0.06514915 -0.01908751 -0.13399808
-0.046777062 -0.04941731 -0.14911644 0.0038620941 0.13708507 0.01886115 -0.1692236 -0.16989401
-0.14086416 0.03968811 0.105068706 0.0350415 -0.04522451 -0.017879277 -0.10417773 -0.057130013
0.1135836 -0.1639446 0.066388465 0.010220927 0.09516071 0.056722347 0.31626797 -0.15833537
0.11725108 -0.044710647 0.43608022 0.23746571 0.019017348 0.724153 0.16950892 -0.022680754
-0.025406752 0.045171842 -0.107096225 0.14480421 0.107344136 0.23352471 0.077776425 0.20604183
0.15659177 0.25653636 0.06804611 0.15683548 0.28202078 0.4129227 -0.06646866 0.023774676
-0.119886845 0.07580177 0.16271776 -0.15274458 -0.13311683 0.28489834 0.3101918 0.12320205
0.42798966 -0.09116379 0.14052722 0.13997608 -0.07347407 0.061490778 0.28780422 0.21130301
0.21626122 -0.25911272 0.1031518 -0.13068521 0.08792297 0.15964526 0.07554924 -0.009114281
00000000: b7ec 313e 2607 52bd b690 273d 1905 ea3d
00000010: 58e7 df3e 57c7 cd3e 5217 663d cb64 293f
00000020: 7d05 833e 2e19 3ebd 673d 113e 7a4d 963c
00000030: dcdc 62bd 53d0 193e 408f 453e 587f 003f
00000040: 8304 123e 8a3d b63e 2cc9 6c3e 49af c63e
00000050: 60c6 a4bd 8910 dc3e 5733 9d3e 4b38 5a3f
00000060: 265c 703d fc56 813e 8ce9 19be 080a 2cbd
00000070: 8453 ad3e 9ede 60bd 6d35 27bc 4363 703e
00000080: e362 b63e 80f0 953b 3856 ae3e bcd4 653d
00000090: 9b00 773e 8820 d63d 8728 83bd 3ecd aa3e
000000a0: a464 863e a905 e23e 0af9 903e 55bc 2dbe
000000b0: 9ab3 bd3b 1d65 48bd 827c 7bbe 1c18 863d
000000c0: 8548 d53d fd02 f0bd 6396 cc3d ffe1 7e3c
000000d0: 7bde c4bd 9d16 6e3e 5c32 53bd eae2 92bd
000000e0: 4d02 10be 83fe 08bf cd99 d73e 0ecc 9c3e
000000f0: a7b5 7a3d 0067 cd3d a4fa 58bd 0102 7b3e
00000100: f88e 42bc 57db a73d ad65 8cbe 52e6 a1bd
00000110: 6391 823d a46b e53c c092 1abe 9291 353d
00000120: e2e0 823d d5a2 143d bf9d 20be 33ea d73d
00000130: de4e 2dbe 1c04 e63d 30da ab3c 2b38 28be
00000140: 1a8a 60be e649 c9bd 6a17 9abc a05d 57be
00000150: 1dec 1c3e c3ca d3bc 755a 6abe acc6 573e
00000160: 86b8 a93d 7e4e c7bd 5358 b23d 9a6a e73d
00000170: e435 793d 623d b33d ef33 533e 4fb7 98bd
00000180: 9b8a a13c 16ae e2bd d9d3 26bd 6c1c f3bd
00000190: 71fa 6b3d 3e8e b3bc eeff 08bd d56a 17bb
000001a0: f591 3039 96fc 4f3d d44b 093d 8e6c df3b
000001b0: d08c c2bd 99c7 6dbd 7765 93bc eb95 babd
000001c0: 1dfc 6a3d c4f9 943d 8d95 063b c2b7 863d
000001d0: 061d 873a 4a4d eebc 5ada 42bb 09e5 b83c
000001e0: a07a c13c 7d86 693d a905 eb3d 5add 12bc
000001f0: cca1 933d eb6c 85bd 695d 9cbc cb36 09be
00000200: 4e99 3fbd ce69 4abd fbb1 18be 301b 7d3b
00000210: 0760 0c3e b382 9a3c f448 2dbe b2f8 2dbe
00000220: b23e 10be 0090 223d 432e d73d ad87 0f3d
00000230: 563d 39bd 9077 92bc 225b d5bd 2901 6abd
00000240: 859e e83d 18e1 27be adf6 873d ad75 273c
00000250: 9ee3 c23d b155 683d e0ed a13e ab22 22be
00000260: 5621 f03d 8322 37bd e845 df3e 362a 733e
00000270: 45ca 9b3c 1762 393f bf93 2d3e fdcc b9bc
00000280: d221 d0bc 1c06 393d 4455 dbbd 8e47 143e
00000290: 3ed7 db3d 1a21 6f3e 3f49 9f3d a1fc 523e
000002a0: 9859 203e bc58 833e c25b 8b3d 7b99 203e
000002b0: 0765 903e 9b6a d33e b920 88bd 1cc3 c23c
000002c0: 3c87 f5bd f53d 9b3d 7c9f 263e 1369 1cbe
000002d0: c74f 08be 32de 913e 76d1 9e3e 5b51 fc3d
000002e0: 7621 db3e 15b4 babd 5ee6 0f3e e455 0f3e
000002f0: 9379 96bd c1dd 7b3d 135b 933e d15f 583e
00000300: 9573 5d3e 6caa 84be 4041 d33d 58d2 05be
00000310: f510 b43d 0c7a 233e 8fb9 9a3d 1154 15bc

linear.weight f4 [1, 50]
0.14428465 -0.005981562 -0.1561756 0.25883073 -0.3900826 0.20234443 -0.118652046 -0.63099945
0.0010478857 -0.0035621666 0.18106207 0.091154374 0.06223751 0.22291432 -0.1954187 0.36982727
-0.11622527 0.14314385 -0.15288958 0.3108349 0.06611157 0.27694896 0.3743514 0.31256264
-0.032477073 -0.20186228 -0.037074417 0.1690216 -0.0049146325 -0.043809403 0.16614492 -0.13159107
0.23473261 -0.17895728 0.11341834 0.21219392 -0.19728537 0.0097887125 -0.069130994 0.28593072
-0.15480335 0.14425902 -0.1621947 0.04463378 0.14462258 0.23502672 -0.054308746 0.15974554
0.028253755 -0.08323027
00000000: 5bbf 133e fb00 c4bb 7fec 1fbe 7685 843e
00000010: e8b8 c7be 6133 4f3e d8ff f2bd 2e89 21bf
00000020: 3659 893a 3d73 69bb 5668 393e 25af ba3d
00000030: c2ec 7e3d a743 643e d71b 48be 005a bd3e
00000040: 8407 eebd 4d94 123e 168f 1cbe c125 9f3e
00000050: 8165 873d 41cc 8d3e fdaa bf3e 3608 a03e
00000060: ae06 05bd fcb4 4ebe 58db 17bd 0014 2d3e
00000070: ed0a a1bb 7d71 33bd e521 2a3e cfbf 06be
00000080: bf5d 703e 9440 37be e047 e83d 5d49 593e
00000090: 2d05 4abe d660 203c 8d94 8dbd 8365 923e
000000a0: c584 1ebe a3b8 133e 5e16 26be e9d1 363d
000000b0: f117 143e d8aa 703e d972 5ebd 5694 233e
000000c0: 6b74 e73c a274 aabd
