archive/lstm_4to1/trial3/j1/lstm_model_epoch33.pth (torch, 49589 bytes, 7 tensors)

lstm.weight_ih_l0 f4 [200, 4]
000000 92 d6 69 bd 5b d7 08 3f a9 52 17 bf 10 9f 96 be
       -0.057089396 0.53453606 -0.59110504 -0.2941823
000010 26 e9 0a bf 59 d9 59 be 81 19 f6 3e 7c 9d fb be
       -0.54262006 -0.21274318 0.48066333 -0.4914359
000020 ae c5 ba bf d0 52 bf 3e ea 1e ce 3e 53 7f a8 3e
       -1.4591577 0.37367868 0.4025796 0.3290964
000030 bc 10 a1 bf 5a 72 c9 3d 58 c8 01 bf d1 02 d4 bd
       -1.2583232 0.09836264 -0.50696325 -0.103521
000040 0b 25 c5 be 9c 69 d9 3e d3 0d c0 be 75 d5 42 3f
       -0.38504824 0.42463386 -0.37510547 0.7610696
000050 cb 24 f9 be 7c 3b 85 3f 51 78 94 3e 7d db 67 3a
       -0.48660883 1.0408778 0.28998044 0.0008844657
000060 02 f8 b8 be b0 13 ae 3e 60 8a 24 3f ea 4b 3d be
       -0.36126715 0.33999395 0.64273643 -0.1848599
000070 ae 0a 18 bf cd 13 79 be d5 d3 22 bf a8 7d 76 3e
       -0.59391296 -0.2432396 -0.6360448 0.24071372
000080 3c 31 5e 3e db d8 1c 3f 25 c8 a2 3e f1 7f 43 bf
       0.21698469 0.61268395 0.31793323 -0.763671
000090 7d 2d d6 3f 52 c6 f1 bc 6d bb 2e bd ef 83 e6 3e
       1.6732632 -0.029513512 -0.042659212 0.45022532
0000a0 14 db 86 be cc 4c 71 bd 9b f0 77 3f 5d d7 17 3e
       -0.26339018 -0.05891113 0.9685151 0.14828248
0000b0 ba 1e 9c bf e7 83 c5 3d 86 03 84 3f 13 fc 6c bf
       -1.2196877 0.09644299 1.0313575 -0.92572135
0000c0 60 f0 35 3f 9d c9 49 3f ef 3c be 3d 7e 72 eb 3e
       0.7106991 0.7882326 0.09288966 0.45985788
0000d0 13 70 c1 bf fc 51 4a 3f 54 39 6f 3e 6d 04 9a 3e
       -1.5112327 0.7903135 0.23361713 0.30081502
0000e0 5a 92 58 3f e8 de ea 3e ca d4 fd be 40 ca e5 3e
       0.84598315 0.4587319 -0.49576408 0.44880867
0000f0 de 5c 92 bf ae 84 03 bd 3a 6f d5 3e b6 81 af bd
       -1.1434591 -0.032108955 0.41686422 -0.08569662
000100 ff 7d 9c 3f 16 79 47 3e 14 52 e8 3d 86 54 03 be
       1.2225951 0.19479784 0.1134378 -0.12825212
000110 b8 f6 be bf 9f ff 67 3f 38 f7 bd be d5 ab bd 3d
       -1.4919043 0.9062442 -0.37102675 0.0926129
000120 34 db ca bf 39 5c 35 be d7 aa 5b 3f d0 04 d3 bd
       -1.5848145 -0.17710961 0.85807556 -0.10303652
000130 1f 1e 7d bf 94 44 cf 3d 29 e5 8b 3e bc 14 8e 3f
       -0.98874086 0.10120502 0.27323273 1.1100078
000140 cd e9 c4 bd 0c 5a af be dc 08 a2 be a3 bd 19 3f
       -0.096149065 -0.34248388 -0.31647384 0.6005499
000150 a5 9d 42 bf cd 21 0c 3f 9f 50 bc 3f 84 ff fc 3b
       -0.76021796 0.54739076 1.4712104 0.0077208895
000160 d0 e9 6f bf e0 7a a6 bd f4 10 24 bf 2c 1d 08 3f
       -0.93716145 -0.08128905 -0.6408837 0.5316951
000170 27 6c 1d bf 33 05 58 3c ff 1b 92 3f ae 78 a7 3e
       -0.6149315 0.013184833 1.1414794 0.3270926
000180 01 b8 a0 bf fa 84 1c 3e e8 1d 63 bc cf 87 86 3d
       -1.2556154 0.15285102 -0.013862111 0.06568872
000190 9c 66 0e be d6 57 e2 3e 90 a6 3a bd bf 74 36 3f
       -0.1390633 0.44207639 -0.045569003 0.7127189
0001a0 16 a7 c1 bf e6 ab 3b 3f 6e ac d8 3e 76 51 0f 3f
       -1.5129116 0.7330917 0.42319053 0.55983675
0001b0 87 6a 20 be 7e be 82 3e a4 38 18 3f 0a d2 08 bf
       -0.15665637 0.2553596 0.59461427 -0.53445494
0001c0 74 91 b3 bf 46 ab 5d 3e e0 01 db 3e 89 f1 29 3e
       -1.4028764 0.21647367 0.42774868 0.16596045
0001d0 60 24 cf 3e 95 c3 f4 3e d0 41 2f 3e 02 c4 ba 3e
       0.4045744 0.47805467 0.17114949 0.36477667
0001e0 7f f0 8c bf 32 1c d1 3e 86 0d ba 3e 8e 6b c5 3e
       -1.1010894 0.40841824 0.36338443 0.3855862
0001f0 fa e3 2c bf 83 38 50 3f df 8a eb be a2 86 89 bf
       -0.67535365 0.8133623 -0.46004388 -1.0744212
000200 6a ff 52 bf 90 10 ad be 84 eb 4b 3e d8 75 b0 be
       -0.8242098 -0.338017 0.19914061 -0.34464908
000210 bb 71 4b be f8 51 71 3f b8 99 4d be 48 be 2f 3e
       -0.19867603 0.942657 -0.2007817 0.1716243
000220 3f 4f f1 be 68 e3 bc 3f a8 87 8a 3e 82 84 85 3e
       -0.47130772 1.4756899 0.27056623 0.26077658
000230 1b fd 4b bf d8 e0 f4 3e 61 0f 2d bf b6 50 9c 3e
       -0.79683083 0.47827792 -0.6760159 0.30530328
000240 45 36 51 bf 42 e5 c6 3e 59 cd 79 3e 5c 8c ae bf
       -0.81723434 0.38846785 0.2439474 -1.3636584
000250 0a c6 ab 3e aa 7d 59 be 08 16 65 3e 33 7a 08 3f
       0.3354953 -0.21239343 0.22371686 0.5331146
000260 13 63 08 3f 89 9c 5a bf 1f a3 b6 3e 19 a7 c2 be
       0.53276175 -0.85395104 0.35671327 -0.3801811
000270 09 6c 0b 3e 8c 1d 84 3e 93 ab 2c 3e 1c f2 eb 3e
       0.13615431 0.25803792 0.16862325 0.46083152
000280 61 74 ea be 9b 4a da 3e f3 54 1e bc 00 c9 b1 3f
       -0.45791915 0.42635044 -0.009663808 1.3889465
000290 a4 b5 8a bf 97 e1 15 3f 25 11 41 bf 38 00 e3 ba
       -1.0836682 0.5854735 -0.75416785 -0.0017318791
0002a0 01 7e 9c be 63 97 74 3f f3 79 07 bf a3 7f 91 3e
       -0.30564883 0.955435 -0.52920455 0.28417692
0002b0 93 28 81 3e d9 28 ad 3e 59 dc 03 bf 81 9c 6e 3f
       0.25226268 0.33820227 -0.515081 0.93207556
0002c0 71 e5 03 3f 76 ef d7 3d bb fb 27 bf d6 51 70 3d
       0.51521975 0.105437204 -0.65618485 0.058671795
0002d0 7b 6f b9 bf 15 d4 3f 3e b2 c7 71 be fa 57 f7 3d
       -1.4487146 0.18733247 -0.23611334 0.12077327
0002e0 99 5f 46 be 28 09 80 3e ba 44 0c bf 59 64 06 3e
       -0.19372405 0.25006986 -0.5479237 0.13124217
0002f0 30 7d 1a c0 ad e0 85 3f 50 26 86 3e 8b b8 51 3f
       -2.4138908 1.0459191 0.26201105 0.81922215
000300 60 61 2a 3f 22 fd c2 3d a8 b7 b3 be b1 7f a4 be
       0.6655483 0.095209375 -0.35101056 -0.3212867
000310 de 2d 47 bf 88 0c 22 3f ce a3 61 3e 89 4e 32 3f
       -0.7780436 0.6330037 0.22035143 0.69651085
000320 04 03 b6 3e 6d 03 c5 3e 5f 62 de be 6d 68 61 3d
       0.35549176 0.38479176 -0.43434426 0.05503123
000330 a4 9b 63 be d0 69 ee bd 65 9d e8 3d 05 13 12 3d
       -0.22227341 -0.11641276 0.113581456 0.03566267
000340 ca c6 ad bf 2d 41 04 be 58 43 62 3e fa 12 9d 3d
       -1.3576291 -0.12915488 0.22096002 0.07669635
000350 e9 12 77 bf c2 e2 3a be 88 ed 21 3e 46 ee a6 3d
       -0.9651323 -0.18250564 0.15813267 0.08150916
000360 dc bf 28 3f c4 30 ba bd ee aa 0e bf 45 6c 95 3e
       0.65917754 -0.090913326 -0.5572957 0.29184166
000370 48 81 98 bd 13 4a b1 3f ee 24 4c bd bd 11 12 3e
       -0.074465334 1.3850731 -0.049839906 0.14264579
000380 10 b0 b5 be 89 c5 d9 3d 38 d9 1a 3f 5e b9 8b be
       -0.35485888 0.1063338 0.604877 -0.2728986
000390 cf 40 a0 be 1d 88 0a bf 03 10 26 bf ac 23 b0 bd
       -0.31299445 -0.5411394 -0.6486818 -0.08600554
0003a0 95 1c b9 3e 2c 59 9d 3f 88 5c 20 3e e1 b7 08 be
       0.3615462 1.2292838 0.15660298 -0.13351394
0003b0 48 7d 28 3f a1 0d 08 3f d5 77 4d be ca 68 16 3f
       0.65816164 0.53145796 -0.20065244 0.58753645
0003c0 5b 75 d8 bd 78 c3 13 3e 65 1e c6 3e b4 86 ac 3e
       -0.10569259 0.14430034 0.38695064 0.3369652
0003d0 e2 07 71 bf 9a bf c5 3c 40 cc 8e 3c e1 71 97 be
       -0.94152653 0.024139214 0.017431378 -0.2957907
0003e0 c5 7c f8 bd 0e 93 20 3f 1d 21 aa be ad 45 e0 3e
       -0.12133173 0.6272439 -0.33228388 0.43803158
0003f0 88 04 05 bf a7 bb 47 3f e0 9b ce be e3 b8 6d 3d
       -0.5196004 0.7802071 -0.40353298 0.05803765

lstm.weight_hh_l0 f4 [200, 50]
000000 48 4d 4c 3f e9 56 c2 3f cb b3 2b be cc 4c 40 3f
       0.7980542 1.5182773 -0.16767804 0.7511718
000010 73 c4 d8 bc 7c 31 77 bf 40 26 8f bf 7d 0e 33 c0
       -0.026460862 -0.9655988 -1.1183548 -2.7977593
000020 89 cb a5 3f 87 b7 26 3f 75 7d 97 be d0 6d 4d 3f
       1.2952739 0.6512379 -0.29587904 0.80245686
000030 7f c6 b3 bf 48 d1 4f be fc 33 fd 3e 0c d4 d0 3e
       -1.4044951 -0.20294678 0.49453723 0.4078678
000040 82 47 22 3f 86 eb 8a bf a5 71 b3 bf 77 90 dd be
       0.6339036 -1.0853126 -1.4019057 -0.4327428
000050 0a a4 67 be 00 0b 8e 3f d5 63 4a bf 0f 92 d7 be
       -0.2262117 1.1097107 -0.7905858 -0.4210362
000060 3f d4 ac 3e 57 1e c1 bd 6f 30 6d bf d0 74 02 bf
       0.3375568 -0.09429615 -0.9265203 -0.5095949
000070 5c e2 11 3e d1 18 e7 3e fa 5a 51 bf 7c 6d 8c bf
       0.14246505 0.4513612 -0.81779444 -1.0970912
000080 c5 a5 8e 3e b9 42 4e 3d 8f ca b2 3e 75 16 00 40
       0.27860847 0.0503566 0.34920165 2.0013707
000090 b9 23 23 be 37 a5 2b bf 9f 9b ff be 15 75 3b bd
       -0.15931596 -0.6704897 -0.49923417 -0.045765955
0000a0 bb 05 6d 3e 6d cb 80 be e6 89 96 be ca 3e 01 c0
       0.23146717 -0.25155202 -0.29402083 -2.0194573
0000b0 fe c4 26 c0 ce ec 0c 3f d1 66 96 be c3 30 1b bf
       -2.6057734 0.55048835 -0.29375318 -0.6062128
0000c0 72 42 3a bf 77 36 c1 3e 17 59 b5 be c4 be 0c bf
       -0.7275764 0.37736866 -0.35419533 -0.54978585
0000d0 16 3b 34 3f c6 a1 be 3e f6 a6 3a be 86 29 f0 3b
       0.7040266 0.37232798 -0.18227753 0.0073291687
0000e0 d4 2f e5 3e be 92 a8 be b6 ed 82 be 8c cb bb be
       0.44763052 -0.32924455 -0.25571984 -0.3667873
0000f0 a0 66 19 3c 1c 9f 96 bf 74 87 57 bf 6f 4f a1 3e
       0.009362847 -1.1767306 -0.8419106 0.31505916
000100 9e bd 25 3c 88 7d ea 3e 9a 9f 1d bf 95 34 10 3f
       0.010116009 0.45798898 -0.6157166 0.56330234
000110 ab e8 6c 3e cb 94 b7 3e 21 f0 af be 84 16 c4 be
       0.23135631 0.35855708 -0.3436289 -0.38298428
000120 eb 7a ed 3e be c4 5d 3e 0d 49 5e bf 8f ce 0b 3e
       0.4638284 0.21657082 -0.86830217 0.13653015
000130 f7 d1 02 be 1d ed 03 bf a8 28 87 be cf e1 4b be
       -0.12775408 -0.5153368 -0.26398206 -0.19910358
000140 55 ff 95 be fe 2f ed 3e 99 be 2f 3e e6 59 6a 3e
       -0.29296365 0.46325678 0.17162551 0.22885856
000150 77 31 71 bf e5 79 98 bc 16 00 0c bd 15 bf ed 3e
       -0.942161 -0.018612811 -0.03417977 0.46434847
000160 dc 71 02 bf 87 af f1 3d 6f 98 dc bf 4d a2 38 3e
       -0.50954986 0.11801057 -1.7234019 0.18030663
000170 7b 95 d9 3e 37 8c 31 3f 55 0f 81 3e 8e 71 2a be
       0.42496857 0.69354576 0.2520701 -0.1664488
000180 22 8b cd bd 5c 97 3b 3f f7 20 ec be 0c 8d 7c bf
       -0.10036303 0.7327783 -0.461189 -0.9865272
000190 11 ba d5 be 66 5d 78 be e0 1a 38 3d a0 5f c3 bf
       -0.4174352 -0.24254379 0.044947505 -1.5263557
0001a0 19 55 80 3f a8 b2 ba 3e 1b 63 4d be c9 4f 7e be
       1.002597 0.3646443 -0.20057337 -0.24835123
0001b0 85 d8 82 3f 4c 2f 96 3d 59 a9 0f bf d4 12 f3 3d
       1.0222327 0.0733324 -0.5611778 0.118688256
0001c0 9b 66 82 bf 0c c1 3b bf 2c c3 5c 3f b2 d0 28 be
       -1.0187563 -0.7334144 0.8623531 -0.16485861
0001d0 b0 f8 ad 3e c5 ab 5a bf 59 4d d9 bd 85 44 c0 be
       0.33978796 -0.8541835 -0.10610456 -0.37552276
0001e0 af b6 2a 3f 61 c7 c4 3e e8 ac 06 c0 72 6d 85 be
       0.66685003 0.38433364 -2.1043034 -0.26060063
0001f0 aa 23 1c 3e 5a 4c ca bf 20 64 4a 3f fc 36 a0 3f
       0.1524798 -1.5804551 0.7905903 1.251678
000200 dd 9f 12 bd ba 5a 2e be ad 91 22 3e c7 87 85 bf
       -0.03579699 -0.17026797 0.15875883 -1.0432061
000210 13 85 8e 3e 7d 95 26 be 4e 25 bd bf b7 39 67 bc
       0.27835903 -0.16267963 -1.477701 -0.014112881
000220 7a 66 1d 3d 39 17 ba 3d c6 25 99 3d 99 47 87 3e
       0.038427807 0.090864606 0.07477908 0.26421812
000230 ee b7 28 bf de 5a 26 3f c8 52 d8 3f eb e0 98 bf
       -0.65905654 0.649824 1.6900263 -1.194364
000240 6d a9 90 bf 63 20 0f 40 b9 a7 49 bf 31 0f 0b be
       -1.1301705 2.2363517 -0.7877155 -0.13580014
000250 d1 57 1a bf c9 ef 25 be 70 0c af bf 5b 25 1b bd
       -0.6029025 -0.16204752 -1.3675671 -0.03787742
000260 b9 cd 9c be 00 6f a8 be 89 0e ba 3f 70 d2 3b 3f
       -0.30625704 -0.32897186 1.4535686 0.7336798
000270 9c 81 00 bf 5d 56 86 be 3e 1c 20 40 b5 14 1a be
       -0.5019777 -0.26237765 2.5017238 -0.15046962
000280 b9 fb d1 3e 44 db 93 be ca bf 90 bf 05 56 21 3f
       0.41012362 -0.28878224 -1.1308529 0.6302188
000290 e5 b0 3d 3e 37 c4 9b bd ea f4 e6 bd 32 14 92 be
       0.18524511 -0.076057844 -0.112771824 -0.28531033
0002a0 96 6c 2c bf 7e 76 1d bf 49 f2 92 3e ed d8 91 bf
       -0.6735319 -0.6150893 0.28700474 -1.1394325
0002b0 b9 73 52 bf 41 b4 84 be b5 dc ad be a1 06 ea bf
       -0.8220783 -0.25918773 -0.3395745 -1.8283273
0002c0 a2 e3 0b 3f f0 70 11 3b d6 51 44 bf d7 e8 26 c0
       0.54644215 0.002219256 -0.7668737 -2.6079614
0002d0 81 6a 01 3f f8 98 73 3f c4 47 2b be 5e cf 17 bf
       0.5055314 0.95155287 -0.16726595 -0.5930079
0002e0 6f 6a 0f bf 8c 92 1b 3f f8 15 21 3e 19 24 56 3e
       -0.5602178 0.6077049 0.15731037 0.20912208
0002f0 60 d3 a6 bf c8 34 b6 bf 20 fb aa 3e f8 e3 0a 3f
       -1.3033257 -1.4234858 0.33394718 0.542541
000300 11 b8 0e 3f 46 c5 2a 3f eb 06 cc be 31 53 e4 3f
       0.55749613 0.66707265 -0.39849028 1.7837888
000310 12 09 9d 3c af b8 65 3f 3e 1a b1 3e 62 08 d1 bf
       0.019169364 0.8973493 0.34590334 -1.6330683
000320 ac 8b 06 3e f5 cd 3b be 62 10 25 bf 40 24 9b 3f
       0.13139218 -0.18340285 -0.64478123 1.2120438
000330 a5 a6 8e bd 41 fe 5c be 20 55 10 3f 32 7b 00 be
       -0.06965379 -0.21581365 0.5637989 -0.12546995
000340 76 cf 2b be 95 3d 61 bd e6 28 c5 3e 74 c9 a1 3e
       -0.16778359 -0.05499037 0.38507766 0.3159901
000350 d4 73 cf 3e 37 8b 4e be f1 32 be 3c 3d c2 25 be
       0.40518057 -0.20170294 0.02321765 -0.16187377
000360 3c 83 27 3f ea 1f 8a 3f 36 72 06 bf e1 64 92 bf
       0.6543462 1.0790989 -0.5251802 -1.1437036
000370 fa b0 cf 3e 7f 77 41 3e 71 e8 2b be 78 9b 86 be
       0.4056471 0.1889324 -0.16787888 -0.26290488
000380 76 12 81 3d 6a ec 21 3f 00 af 97 3e 35 0d 0e bf
       0.06302349 0.63251364 0.29625702 -0.554889
000390 06 e9 f4 bd 36 32 85 3f 83 ec 3d bf b6 f3 eb bd
       -0.11958508 1.0405948 -0.74189013 -0.115210935
0003a0 51 58 80 3f 33 d7 3a 3f 23 cc ad be aa 5a 68 3e
       1.0026952 0.7298462 -0.33944806 0.22690836
0003b0 83 eb 2f 3e a7 f0 8c bf 33 a6 8c bf a6 8e 20 3e
       0.17179684 -1.1010941 -1.098822 0.15679416
0003c0 1a 3d 48 bf 99 c1 de bd 42 fa 00 3f 71 5c 9a be
       -0.78218234 -0.108767696 0.50381863 -0.30148652
0003d0 27 22 0e bf 06 3d d8 be f2 fe 90 3f 45 d2 11 bf
       -0.5552086 -0.42234057 1.1327803 -0.5696147
0003e0 1c 00 48 bf 40 77 9f 3e c7 20 f3 bf 49 e7 e3 be
       -0.78125167 0.31145668 -1.8994378 -0.44512394
0003f0 b5 76 86 bd 88 c5 3d be 51 bb 77 3f f1 2a 51 bf
       -0.0656561 -0.18532383 0.967702 -0.8170615

lstm.bias_ih_l0 f4 [200]
000000 a8 ec b5 3d f2 25 33 3c e8 1b 2e b9 55 2d 13 3e
       0.08883029 0.01093434 -0.00016604329 0.14372762
000010 11 e9 bc be 8a 23 0e 3d 4f 85 98 be 13 2c fb 3e
       -0.36896566 0.03470186 -0.29789206 0.49057063
000020 fd 67 7b be 64 54 bb be f0 34 29 be 5d 59 06 3e
       -0.24551387 -0.36587822 -0.165241 0.13120027
000030 3f 6d c5 3e 11 b9 4f bc 57 3e bf be 91 bb 71 bd
       0.3855991 -0.012678401 -0.3735225 -0.059016768
000040 75 1c b4 be 04 1a d9 be c1 6b e7 3e fb 9b 86 be
       -0.3517796 -0.4240266 0.45199397 -0.2629088
000050 9b a8 ea bd fd 84 d5 bd 84 f3 04 3f 39 b7 9e bd
       -0.1145794 -0.10425756 0.51934075 -0.07749791
000060 4e 77 0d 3e 1f 4c 46 bd db 72 a6 3d 1f 47 fa bd
       0.13815042 -0.04841244 0.08127376 -0.122205965
000070 05 42 c2 bc cc 93 f9 be 78 df 2b 3e e3 a4 09 40
       -0.023713121 -0.48745573 0.16784465 2.150689
000080 63 ca 9a bc 1e 36 39 bf 5f b8 12 bd 10 44 78 3e
       -0.018895334 -0.723482 -0.03582036 0.24244714
000090 08 71 a1 3e 11 9a ff bd 6d e9 3f be 47 da 98 bd
       0.31531549 -0.12480558 -0.18741389 -0.07463508
0000a0 71 3a a9 be ee f7 57 3e 0f 7c 5a be 8b c7 97 3e
       -0.330524 0.21090671 -0.21336387 0.29644427
0000b0 3e 2b 19 3e ee 9a 18 3f 31 31 e8 be d3 1e 02 bd
       0.14957902 0.59611404 -0.4535003 -0.031767678
0000c0 da 7d 43 be 7c 70 fd be 30 d3 d0 be 73 9f ac be
       -0.19090977 -0.4949988 -0.40786123 -0.337154
0000d0 52 67 5f bd 30 e1 fb bd 27 e4 2b 3e c1 b3 61 3e
       -0.054541893 -0.122988105 0.16786252 0.22041227
0000e0 4c 37 90 3d b0 9a ff bc e9 3b 86 be f2 0d 17 be
       0.07041797 -0.03120169 -0.26217583 -0.14751413
0000f0 31 13 9a 3e 7b a8 f1 be 7e 5b 05 3e f1 6b 9b be
       0.30092767 -0.47198853 0.13023183 -0.3035579
000100 e3 73 d3 3e a3 a1 95 be f0 be 67 3e 65 61 59 3d
       0.41299352 -0.29224882 0.2263143 0.0530714
000110 66 02 97 3d d2 4c b9 3e 15 2b 3b 3e 1a 01 14 3e
       0.07373504 0.36191422 0.18278153 0.14453545
000120 26 6a 03 bf 16 ec 72 be 11 29 be 3c 84 37 8f 3a
       -0.51333845 -0.23722872 0.023212941 0.0010926579
000130 e0 e6 db be 86 a9 e5 be ab 94 17 3d 42 91 e8 3e
       -0.4294958 -0.448559 0.037007015 0.45423323
000140 fe 62 8d 3d 32 98 69 be f4 6b ce be ae d6 ee 3e
       0.06903647 -0.22811964 -0.40316737 0.46648163
000150 f4 43 27 3f e9 e6 3e 3e d8 4d 50 be cd a0 03 3f
       0.65338063 0.18642773 -0.20342195 0.5141724
000160 59 85 85 be fa 93 dd bd 2d 29 1a bc 51 4e bb bd
       -0.260783 -0.1081924 -0.009409231 -0.09145797
000170 78 3c 59 3f f8 14 4b be 8c ca 29 3f 55 8a 68 be
       0.84857893 -0.19832218 0.66324687 -0.2270902
000180 f3 c4 f2 3e ad b9 c1 be c4 b1 4b 3e a3 85 8c 3d
       0.47415885 -0.37836972 0.19892031 0.06861427
000190 02 d7 87 be a3 d7 1c 3e 77 ad 44 be af 11 a6 bd
       -0.26531225 0.15316634 -0.19206797 -0.08108842
0001a0 02 41 88 bd d8 96 1d bd 5b 39 23 be 15 ad 21 be
       -0.06653024 -0.038473934 -0.15939848 -0.15788682
0001b0 3c 5d ca 3d fb 37 4f 3d be 0e 4c 3d ae f7 55 3e
       0.09881064 0.050590497 0.049818747 0.20895264
0001c0 fa f2 7e 3e 6c a6 0a be 33 a9 19 3d b6 8c c0 bd
       0.24897376 -0.13540047 0.037514877 -0.094018385
0001d0 de 25 ed 3d fb 09 1f bd 85 39 b8 3d 75 41 10 3d
       0.11579488 -0.038827877 0.08995346 0.035218675
0001e0 56 3a 40 bd c4 b2 a5 3d 8f f8 24 be 72 05 f2 3c
       -0.046930633 0.080907375 -0.16110443 0.029543612
0001f0 bc cd 83 3e 41 52 d5 3d d4 5e a5 3d 2b 3a c5 3d
       0.257429 0.10416079 0.08074728 0.09630235
000200 08 cc c7 3d 15 6f ca 3c 8f d2 ab bc 0b 28 ba bb
       0.09755713 0.024711171 -0.020974426 -0.005681043
000210 e1 fc db bc e6 3d 99 bd 03 bd 25 3e 23 b6 55 3e
       -0.02685398 -0.07482509 0.16185383 0.20870261
000220 10 57 fe 3d 0a 55 f5 3d 40 77 72 3c 8a 9b ac 3c
       0.124189496 0.119791105 0.014798939 0.02107026
000230 a7 7e 3c 3e cb 5c fd bd 36 c7 bd bd 54 17 4f be
       0.18407689 -0.123712145 -0.09266512 -0.20223743
000240 8c 01 1f be 74 c6 45 bd 87 1e 5c be 4f fa 70 be
       -0.15527934 -0.048284963 -0.2149602 -0.23532985
000250 f4 bf dc bc b7 46 4e bd 4f 8e 28 3e 7c f5 41 bd
       -0.026947 -0.050360408 0.16460536 -0.047353253
000260 21 15 17 3d 14 3b 10 3c e9 a1 58 be 01 c2 d1 3d
       0.036885384 0.008803148 -0.21155514 0.102420814
000270 3b f4 76 be 8b 73 71 3e 4d 4a 94 be 3c 9f af be
       -0.24116604 0.23579232 -0.28962937 -0.34301174
000280 b1 7a 5b bd cf 97 f4 3c 73 27 3a 3e 28 92 96 3d
       -0.053583805 0.029857544 0.18179111 0.07352096
000290 d5 19 81 be 6d e6 36 bc ad df 0b be 02 e0 03 bf
       -0.2521502 -0.011163336 -0.13659544 -0.51513684
0002a0 1a 6a cc 3e e5 fc 85 be dc 83 05 bd dd 12 4d 3d
       0.399247 -0.26169506 -0.032596454 0.050066818
0002b0 f7 e9 af 3e a6 02 81 be b6 c9 b3 bd 94 b9 4c be
       0.3435819 -0.25197333 -0.08778708 -0.19992667
0002c0 85 2c 5c 3b 1e a2 9f be 25 f3 68 be 14 5f a7 be
       0.0033595872 -0.31178373 -0.22749002 -0.32689726
0002d0 34 ac 72 3e fd 33 d0 3f fc d4 4c bd 2a 9d 8c be
       0.23698503 1.6265866 -0.050007805 -0.27463657
0002e0 c3 02 8c 3c a7 e5 77 bd c7 e0 ce 3d 20 b2 73 be
       0.01709116 -0.060521748 0.101014666 -0.23798418
0002f0 35 fa c7 be 9c ff 23 be cb 07 a0 be f3 5b dd 3c
       -0.3905808 -0.16015476 -0.31255946 0.027021384
000300 01 75 be 3d 2e 44 2c 3e 35 c2 be 3d de fb 01 3f
       0.092996605 0.16822883 0.09314386 0.50774944
000310 da 51 1b 3e cf ee 25 3e 67 3b d7 be 63 cf dd be
       0.15167943 0.1620438 -0.42037508 -0.43322286

lstm.bias_hh_l0 f4 [200]
000000 e2 67 b0 3d 8d f0 1d be 5e c0 1b 3d 4f 78 2f 3e
       0.08613564 -0.15423794 0.038025253 0.17135738
000010 cc cf 43 be 89 f4 a0 3d a3 f6 fc be 45 af 91 3e
       -0.19122237 0.078591414 -0.4940692 0.28454033
000020 c2 8e 99 be 1e 4f 97 be ec 60 64 be 43 a2 ae bd
       -0.29991728 -0.2955255 -0.22302598 -0.08527043
000030 d1 2a ad 3e c0 fd 08 3d 75 43 eb be 06 a9 0a 3d
       0.3382173 0.03344512 -0.45949903 0.0338526
000040 49 22 cc be 14 a3 f8 be b9 e2 91 3e 9b cd 85 be
       -0.39869907 -0.4856192 0.28493288 -0.26133427
000050 0b d0 f5 bd 4f fb 82 be 3c d5 bd 3e e9 ba 59 be
       -0.12002572 -0.25582358 0.37076747 -0.21262707
000060 a8 eb cf 3d 74 2e 1f be 3d 9e ab 3d 5a 87 ad be
       0.1015237 -0.15545064 0.08379791 -0.33892328
000070 92 5a bb bd 85 ab 05 bf 72 a3 2c 3e 6b 9b f2 3f
       -0.09148134 -0.52214843 0.16859224 1.895368
000080 d7 0d 62 be 5a 8b 14 bf 52 28 08 be 5d 87 b0 3d
       -0.22075592 -0.58025134 -0.13296631 0.086195685
000090 52 3a 3c 3e 7a 02 e3 bd 23 2e bf be e9 99 e6 bc
       0.18381622 -0.11084457 -0.37339887 -0.028149562
0000a0 fd 86 a5 be c2 10 96 3e 25 90 9b bb fd f3 99 3e
       -0.3232955 0.2930966 -0.004747408 0.3006896
0000b0 ad b3 01 3d a6 d9 13 3f d4 2c 01 bf da 6f e0 bc
       0.031665493 0.5775398 -0.5045903 -0.027397085
0000c0 93 e7 82 be e5 38 d7 be 0e a4 d9 be 3b a7 69 be
       -0.25567302 -0.42035595 -0.42507976 -0.228177
0000d0 be 96 66 bd ea c5 f7 3c e1 f3 76 3e 23 81 1a 3e
       -0.056296103 0.03024574 0.2411647 0.15088324
0000e0 d9 7b 08 bc 13 85 f0 bb 91 bf c4 be 18 07 f1 bd
       -0.008330309 -0.0073400824 -0.38427404 -0.11768931
0000f0 f7 33 99 3e 7f 0f 02 bf c6 af 5d bb 70 9f 70 be
       0.2992246 -0.50804895 -0.0033826693 -0.2349832
000100 a7 81 92 3e f6 2c 7e be e6 ed 0b 3e f2 7b 8f bd
       0.28614542 -0.24821839 0.1366497 -0.070060626
000110 d6 fd 41 bd 6d c9 77 3e 9e 0f b4 3e 53 4c b0 3d
       -0.047361217 0.24197932 0.35168165 0.08608308
000120 5c c0 38 bf ba 29 50 be b7 b3 ab bd 0f 5e 2c bc
       -0.7216852 -0.20328417 -0.08383887 -0.010520472
000130 f5 46 03 bf 2f f6 00 bf 4f 8f 4e 3d 80 b2 09 3f
       -0.51280147 -0.50375646 0.05042964 0.53787994
000140 80 1d 1f 3e b4 34 81 be 32 11 d2 be 8a c4 0b 3f
       0.15538597 -0.25235522 -0.41028744 0.5459677
000150 de fe 0f 3f 35 01 ee 3d 16 47 b5 be f1 3f 37 3f
       0.5624827 0.11621324 -0.35405797 0.7158194
000160 47 da 5c be 9a 76 8c bd 69 02 8b bd ef a2 06 be
       -0.21567641 -0.06858559 -0.06787569 -0.13148092
000170 a2 94 66 3f 77 46 65 bd dc 88 08 3f 6a 23 46 bd
       0.90070546 -0.055975404 0.5333383 -0.048373617
000180 03 80 b8 3e f3 99 ba be 16 6e 6d 3e d9 c2 f0 3c
       0.36035165 -0.3644558 0.23186526 0.029389786
000190 78 ff 8f bd 57 51 27 3e 71 26 3c be 6e 2e 51 bb
       -0.07031149 0.16339622 -0.18374039 -0.0031918543
0001a0 34 8c b9 3c 1f e8 39 be 0f b4 17 be 83 e5 07 be
       0.022649862 -0.18154953 -0.1481478 -0.13271146
0001b0 b4 5d db 3d 9d 19 4c 3d 6d e1 0c 3e 7c 81 7d 3e
       0.10711232 0.049829114 0.13757868 0.24756426
0001c0 fe 04 64 3d 70 ff 31 be 63 60 5a 3d 02 52 cd 3d
       0.055668823 -0.17382598 0.053314578 0.100254074
0001d0 86 bd 99 3d 6f 14 58 bd a3 cf 1b be 12 4f 2d be
       0.07506852 -0.052753862 -0.15215926 -0.16924694
0001e0 a5 5d b6 3c f2 ec ba 3d 1b e0 c8 bd 7a 67 b7 3d
       0.02226145 0.09127225 -0.0980837 0.089552835
0001f0 12 55 ee 3d 3f c1 03 bd 0e 59 f1 bc 72 1a 90 3e
       0.116373196 -0.032166716 -0.02946141 0.28145176
000200 55 78 46 3b 28 ab 1c be af bd 43 bd 8c 7f e4 bd
       0.0030284126 -0.15299666 -0.04778832 -0.1115714
000210 50 ee ed bd 2c f1 2a be 33 99 35 3e 30 a6 ab 3d
       -0.1161772 -0.16693562 0.17734222 0.08381307
000220 cf 1c ec 3d a1 a8 0d be 60 dd 1c 3c 17 e9 25 3d
       0.11528932 -0.13833858 0.009574264 0.040505495
000230 20 59 98 3d 7e d3 6f 3b a1 6c 9d 3c d4 be 13 be
       0.07438874 0.0036594565 0.019216837 -0.14428264
000240 26 30 e7 bd 71 62 ff bc 78 46 9f bd 74 3e df bd
       -0.112884805 -0.03117487 -0.07777113 -0.10900584
000250 47 0d cb 3d ff 9b 68 bd 75 11 df bc b2 e9 93 bd
       0.09914642 -0.056789394 -0.027230004 -0.07222308
000260 95 db 1d 3e 6c 75 b6 bd 95 5b c5 be 7d 3d 3c bd
       0.15415795 -0.08909115 -0.38546434 -0.045957077
000270 83 94 41 be 00 0c 40 3d 80 e4 4b be ca a7 ab be
       -0.18904309 0.046886444 -0.19911385 -0.3352645
000280 82 9d cc 3c 34 65 80 3d 71 5e 19 3e 38 7d 83 3d
       0.02497745 0.06269303 0.14977433 0.06420368
000290 30 ce 7b be 49 1e 1f 3d f3 48 17 be 3a ee ef be
       -0.24590373 0.03884724 -0.14773922 -0.4686144
0002a0 74 10 b2 3e 2c b5 12 be 95 03 dd bd c8 e3 cb bd
       0.34778178 -0.14326924 -0.10791699 -0.09955555
0002b0 e6 c0 13 3f b6 f9 00 be 5e 2c 2b be ea df 0f be
       0.57716215 -0.12595257 -0.16716143 -0.1405026
0002c0 4c c0 26 3d dd b4 56 be d3 62 4b be 46 2e 01 be
       0.040710732 -0.20967431 -0.19861917 -0.12615308
0002d0 a2 b4 0b 3e 2d ef d8 3f 87 af f7 bd 7e d4 e6 bd
       0.13643125 1.6947991 -0.12094026 -0.112709984
0002e0 23 05 f3 3c cb 96 5a bd 58 95 43 3e 75 84 d9 bd
       0.029665535 -0.053366464 0.19099939 -0.10620967
0002f0 86 58 49 be 3e e2 0b bc a2 f3 85 be 08 44 70 3e
       -0.19662675 -0.008537827 -0.2616244 0.23463452
000300 b6 ad 1a be 5a 86 23 3e 07 fa 01 3e c0 ed 96 3e
       -0.15105328 0.1596922 0.12693034 0.29478264
000310 d9 89 56 3b 80 37 c6 3d d5 65 e5 be 7b 7c bc be
       0.0032735972 0.096785545 -0.44804254 -0.3681372

linear.weight_mu f4 [1, 50]
000000 39 81 c0 3d 58 1f ab be 32 44 03 3c bf 97 0b bd
       0.09399647 -0.3342235 0.0080118645 -0.034080263
000010 12 12 bc 3c 2a 96 d1 bd 38 64 45 3e 08 8c 24 3e
       0.022957835 -0.1023372 0.19276512 0.16069043
000020 ec 8c 32 be 69 5c c9 bd e9 cf 95 be d5 16 10 3d
       -0.1743657 -0.09832079 -0.29260185 0.035178024
000030 a4 42 34 3e a7 58 90 be 4c 43 2d 3e 67 bc 9c be
       0.17603546 -0.28192636 0.16920203 -0.3061249
000040 1e c1 17 bd a6 30 33 3e 56 80 20 3e d7 40 9f 3d
       -0.037049405 0.17499027 0.15673956 0.07776039
000050 86 81 56 3e 2d 68 81 3e c4 22 ac bd b2 93 3e 3d
       0.20947847 0.25274792 -0.084050685 0.046527572
000060 8f 2e cd 3d 88 1e 96 be 02 c1 46 3e 3e 6a 5d 3d
       0.10018646 -0.29320168 0.19409564 0.0540564
000070 f9 8a a5 3e fd 84 b1 bd 59 32 0d 3d c3 fa 0e be
       0.3233259 -0.086679436 0.034471843 -0.13962846
000080 be 43 8a 3e c8 c1 51 3e 34 9b 0e 3d 45 a9 ca 3d
       0.27004808 0.20484078 0.034815982 0.09895567
000090 b4 7d 9f be 3c 8e 49 bd 12 64 43 be 04 ea 12 3e
       -0.3115059 -0.04920791 -0.19081143 0.14347082
0000a0 ed ba c2 bd 00 37 66 bd 75 20 d7 3d 22 9b 41 be
       -0.095083095 -0.056204796 0.105042376 -0.18906835
0000b0 84 3c 83 3d 62 88 ae 3d 7a f4 f5 3d 59 80 88 be
       0.06408027 0.08522107 0.12009521 -0.26660421
0000c0 0f 6e 7b be 41 cc 3b bd
       -0.24553703 -0.04584909

linear.weight_sigma f4 [1, 50]
000000 0e 56 cb 3c f9 30 67 3e 04 61 1f 3c d0 8a 03 bd
       0.024821308 0.22577275 0.00972772 -0.032114804
000010 98 32 e1 bd a0 d3 20 3d e7 86 09 be 76 d7 ab bc
       -0.10995978 0.03926432 -0.13430367 -0.020976763
000020 55 a9 41 be da 25 86 bd 58 af 2d be 4c 05 f9 3c
       -0.18912251 -0.06550188 -0.1696142 0.030398034
000030 42 1b 0e bd 92 c5 29 be ad 51 f2 3d 2c cd 60 3e
       -0.034693964 -0.16579273 0.11831985 0.21953267
000040 94 44 9f bd 12 66 88 3e 66 ed 18 3e bb 52 16 3d
       -0.07776752 0.26640373 0.1493431 0.03669999
000050 43 c0 06 3e 56 a5 10 3e 7e ee c8 3d cf 63 23 3d
       0.1315928 0.1412557 0.09811114 0.039890107
000060 38 83 91 3d 3d c9 8f be 1d a4 c7 3d 82 82 6b bd
       0.07105106 -0.2808322 0.09748099 -0.05749751
000070 9c 02 5f 3e 69 78 15 bd 12 e9 33 bd eb 95 0b be
       0.21778339 -0.036491785 -0.043923445 -0.13631408
000080 d9 b1 34 3e 25 9d f0 bd 03 38 45 bd 33 19 04 3e
       0.17645968 -0.11748723 -0.04814912 0.12900238
000090 21 ff 84 be f1 6c 40 3d 84 c0 69 bd 2e 29 ed bc
       -0.25975898 0.046978895 -0.057068363 -0.0289503
0000a0 42 5c a0 bd d2 08 f6 3c b3 7e 31 bd b1 60 6e be
       -0.07830097 0.030033503 -0.04333372 -0.23279072
0000b0 fb 57 78 bd 8f 12 43 3e cd 8c 83 3d 61 24 08 be
       -0.06063078 0.19050048 0.0642334 -0.13295127
0000c0 38 92 2f 3e f3 c8 b4 bd
       0.17145622 -0.088273905

linear.weight_epsilon f4 [1, 50]
000000 7b 91 13 bf be e4 a3 bf 9a d0 24 bf 1f f1 20 bf
       -0.5764386 -1.2804182 -0.643808 -0.6286792
000010 77 c4 ec be a2 0b 56 bf 6e dc 9f bf fa f6 f2 be
       -0.4624364 -0.836115 -1.2489145 -0.47454053
000020 1b 9f 62 3f 26 28 83 3f c6 ab 2b 3f e9 cd 45 bf
       0.88524026 1.0246627 0.6705898 -0.7726732
000030 2b 0d 54 bf 2b 47 27 3f c8 08 63 3f cb 2b 03 bf
       -0.8283259 0.6534297 0.88685274 -0.512387
000040 9e 9a 4d 3f b2 0d 6e 3f 82 08 01 3f d8 d9 83 3e
       0.8031405 0.9298965 0.50403607 0.2575214
000050 5d 78 bd 3e 75 75 7e 3f 21 8b df be 24 f0 29 bf
       0.37005892 0.99397975 -0.43660834 -0.6638205
000060 44 00 32 3f 26 43 5e 3e 14 64 12 3f b3 9a 83 bf
       0.69531655 0.21705303 0.5718396 -1.0281585
000070 12 a7 60 3f 74 39 ff 3e 5f 81 61 be a5 2d 2b 3f
       0.8775493 0.4984852 -0.22022007 0.66866523
000080 6c ee 35 3f 84 4b da be bc b5 a1 3e 50 d4 c7 3e
       0.7106693 -0.4263574 0.31583965 0.3902917
000090 d1 6d 9b 3e ed 0a 91 3f cc ac 04 3f d0 bf f7 be
       0.3035722 1.1331459 0.5182617 -0.4838853
0000a0 bb a7 54 3f fc 52 2e bf a2 29 83 bf 1c f5 69 3f
       0.83068436 -0.68095374 -1.024708 0.9138963
0000b0 c9 bf 24 3e 96 98 40 3f f8 d9 2b 3f 99 af 9c 3f
       0.16088785 0.7523283 0.6712947 1.2241088
0000c0 b0 5e 4f bf 59 0e 9b 3f
       -0.81003857 1.2113754
