archive/lstm_singleJoint/trial2/lstm_model2.pth (torch, 21113 bytes, 5 tensors)

lstm.weight_ih_l0 f4 [128, 1]
-0.071967535 0.5242358 0.044380043 0.086038224 -0.11317773 -0.15627056 0.12067947 0.17279764
0.12882544 -0.005237277 -0.23179717 -0.3351464 0.28825068 0.09062166 0.1717783 0.06527209
0.34825546 0.28122115 -0.27213517 -0.44476423 -0.22805803 0.2690283 -0.1899643 0.34635064
0.17312212 0.8456042 -0.31960705 0.12967084 -0.4060881 -0.066902064 0.1733104 0.5522422
-0.25974044 0.322479 0.36678484 -0.021888262 0.10086999 -0.07452866 0.103365324 0.14459404
-0.06144314 -0.09996806 -0.2595554 -0.20320001 -0.08272087 -0.056943018 -0.011342929 -0.0978589
0.33199668 0.14766048 -0.21824686 -0.045772355 0.008251285 0.091512226 -0.06978913 0.11114062
-0.029550068 -0.027879402 -0.39453354 0.054055274 -0.24355198 -0.24286059 0.36518168 0.3578411
0.4291929 -0.33051986 -0.0040536327 -0.30576605 -0.34910277 -0.4232352 -0.5647663 -0.30767432
0.27309594 0.100227855 0.14647765 0.20467596 -0.5121039 0.30092826 0.40299094 0.16874006
0.39206198 0.23027943 -0.4999148 0.3275911 0.27998236 0.2863133 0.29584736 -0.39692777
0.30352107 0.5944004 -0.8216825 -0.4262564 -0.2450107 0.0474543 0.45639488 -0.35474125
0.031684816 0.25499427 0.07660804 0.016895624 -0.16250515 -0.28639185 -0.16634291 -0.0025893063
0.019320883 -0.12908682 -0.15311435 -0.09970912 0.044166926 0.12323891 0.23680289 0.14016286
0.21446909 0.44722658 0.13591336 -0.57848656 -0.10347216 0.15733398 -0.17075251 -0.18911783
0.33065477 0.2679988 -0.05484142 0.28164968 -0.48320827 -0.00995051 0.14389993 0.5199551
00000000: b763 93bd 5134 063f d9c7 353d cf34 b03d
00000010: bac9 e7bd 6405 20be cc26 f73d ddf1 303e
00000020: d1ea 033e 779d abbb 3d5c 6dbe 4f98 abbe
00000030: 9895 933e d997 b93d a7e6 2f3e 60ad 853d
00000040: 8a4e b23e 38fc 8f3e 4d55 8bbe 23b8 e3be
00000050: 0b88 69be 14be 893e 0086 42be df54 b13e
00000060: ed46 313e 8479 583f 89a3 a3be 6fc8 043e
00000070: c8ea cfbe f303 89bd 4878 313e bf5f 0d3f
00000080: b3fc 84be f81b a53e 39cb bb3e 034f b3bc
00000090: ed94 ce3d 7ba2 98bd 33b1 d33d 7610 143e
000000a0: cdab 7bbd 0ebc ccbd 72e4 84be aa13 50be
000000b0: 8f69 a9bd 153d 69bd b1d7 39bc 3f6a c8bd
000000c0: 78fb a93e 4f34 173e 1b7c 5fbe cb7b 3bbd
000000d0: 6630 073c c36a bb3d 9aed 8ebd b29d e33d
000000e0: fc12 f2bc 5863 e4bc 4d00 cabe 1069 5d3d
000000f0: b165 79be 72b0 78be 18f9 ba3e f336 b73e
00000100: 2cbf db3e e639 a9be 56d4 84bb 5e8d 9cbe
00000110: 99bd b2be 49b2 d8be 8694 10bf 7d87 9dbe
00000120: 3bd3 8b3e 4344 cd3d 3dfe 153e 9396 513e
00000130: 3e19 03bf 4513 9a3e d454 ce3e 32ca 2c3e
00000140: 59bc c83e 5fce 6b3e d5f4 ffbe 05ba a73e
00000150: d959 8f3e a897 923e 4e79 973e 1e3a cbbe
00000160: 1d67 9b3e a02a 183f c959 52bf 473e dabe
00000170: 16e4 7abe 715f 423d 97ac e93e a5a0 b5be
00000180: f0c7 013d 9c8e 823e ade4 9c3d b168 8a3c
00000190: c067 26be f4a1 92be cc55 2abe 5ab1 29bb
000001a0: d446 9e3c 562f 04be 02ca 1cbe 4c34 ccbd
000001b0: 61e8 343d af64 fc3d 757c 723e da86 0f3e
000001c0: c99d 5b3e e2fa e43e df2c 0b3e b217 14bf
000001d0: 36e9 d3bd 291c 213e bfd9 2ebe 1ba8 41be
000001e0: 954b a93e 2437 893e 66a1 60bd 6334 903e
000001f0: 1367 f7be 7707 23bc 815a 133e c71b 053f

lstm.weight_hh_l0 f4 [128, 32]
-0.18864313 -0.032733187 0.17819367 -0.22871225 0.14996035 0.22634558 -0.027227512 -0.23453848
-0.09765166 -0.10644455 -0.21123901 0.050690155 -0.17672206 -0.28279188 -0.115905836 0.0468774
-0.034035254 0.025528774 -0.056748312 0.06696841 0.0084423125 -0.039530646 -0.13647962 -0.16725639
0.07580954 0.1936659 0.22108679 -0.21914293 0.06739485 -0.013165167 0.0053584646 0.0031524117
0.022943547 -0.24113493 -0.16343956 -0.1720104 -0.06848271 0.12206413 -0.037481554 0.1019622
-0.1510975 -0.07748751 -0.13290912 -0.14064434 -0.30365863 0.06026414 -0.04518232 -0.06370729
0.12530512 -0.021717515 0.22520076 0.18056881 0.0463277 -0.003932059 -0.04232382 -0.019202791
-0.06346847 -0.062376928 -0.11203246 -0.2103371 -0.2049877 -0.017618084 0.09172822 0.049651306
-0.27726966 -0.27494508 0.17347424 -0.23515177 0.25073838 0.32944378 -0.09710587 -0.031953704
-0.15369119 -0.06218396 -0.10016672 -0.18423684 -0.14032932 -0.19639476 -0.1515063 0.016812889
0.033465456 0.25732872 0.05853217 0.3510805 -0.09135821 0.15853548 -0.26155978 0.08232538
0.23520428 -0.20345108 0.0643038 -0.03729104 -0.6785117 -0.13054869 0.23981112 0.07444158
0.13295643 -0.2777694 0.24459481 0.0024335615 0.02375538 0.2208353 0.14312358 -0.010425919
-0.10042544 0.066598766 -0.26909995 -0.23740049 -0.18020603 0.14475174 0.124136694 0.16366807
0.23761226 0.043840297 -0.018903373 0.15817222 -0.08321189 0.18992338 -0.123942405 -0.06872766
0.074224986 -0.062163778 -0.1270886 -0.058848295 -0.3448744 0.028181981 0.06885768 0.07043984
-0.15158346 -0.0952308 0.14926827 -0.113485485 0.049158614 0.019589761 -0.03944201 0.0002604105
-0.15793492 -0.10633119 0.0719283 -0.11720778 -0.10170474 -0.13123529 0.11558392 0.019632319
0.037700504 0.1663685 -0.04732206 -0.11685781 -0.16688988 0.0676356 -0.181008 -0.21852647
0.17489824 0.15936758 -0.048492365 -0.07240158 -0.23214452 0.09579843 0.30438814 -0.03448487
-0.09607886 -0.091128975 -0.035931204 -0.098478846 0.22671704 -0.10250744 0.14887384 -0.1949824
0.0445494 -0.00962721 -0.1943879 0.047416806 0.17867783 -0.17407753 -0.17662077 -0.14910096
-0.057417214 0.18572022 -0.096680276 0.15663409 -0.04002748 0.19208287 -0.13123347 -0.09924585
0.15207088 -0.014641057 -0.004797794 -0.082596004 -0.0712021 -0.10913852 0.10220835 0.19340251
-0.0700553 -0.17146495 0.20108615 -0.27649042 0.10804694 0.1699828 -0.1665372 0.035710305
-0.16194654 0.12180067 -0.15092036 -0.12481755 -0.19481552 -0.12200876 0.26879448 -0.028243275
0.30520916 0.2814165 0.07407295 0.21817255 0.027708206 0.10380563 -0.08152735 -0.062326662
0.1921856 0.2562264 -0.05607228 -0.18735501 -0.18973407 -0.2314596 0.24834085 0.19114403
0.051163133 -0.22422217 0.028940922 -0.29038927 0.18729147 0.26830703 0.120763786 -0.01559094
-0.28573716 -0.15237309 -0.04874146 -0.25420567 0.078922935 -0.26262262 0.1254102 0.32329324
0.14256653 0.23002492 0.08813295 0.13953502 0.058147095 0.31257185 -0.029601192 0.07582109
0.014414414 -0.04443925 0.026542291 -0.23141617 -0.23998699 -0.24514109 0.02580247 0.11485668
00000000: aa2b 41be 3c13 06bd 6778 363e 8b33 6abe
00000010: 358f 193e 23c7 673e 3b0c dfbc db2a 70be
00000020: 98fd c7bd 9aff d9bd 0a4f 58be 7ba0 4f3d
00000030: a1f6 34be 19ca 90be 0a60 edbd 8402 403d
00000040: 8d68 0bbd b821 d13c eb70 68bd bc26 893d
00000050: a051 0a3c e3ea 21bd 50c1 0bbe 4245 2bbe
00000060: 0842 9b3d 5b50 463e 9364 623e 0167 60be
00000070: 5006 8a3d b6b2 57bc 0f96 af3b b198 4e3b
00000080: 1bf4 bb3c 13ec 76be b35c 27be 7f23 30be
00000090: aa40 8cbd c2fc f93d 4286 19bd 8fd1 d03d
000000a0: 4eb9 1abe c6b1 9ebd 5419 08be 1205 10be
000000b0: 2579 9bbe 88d7 763d 1911 39bd f878 82bd
000000c0: fc4f 003e eee8 b1bc 079b 663e 08e7 383e
000000d0: 1dc2 3d3d 80d8 80bb be5b 2dbd 2c4f 9dbc
000000e0: c2fb 81bd f37e 7fbd 4671 e5bd 9c62 57be
000000f0: 4ce8 51be cd53 90bc 01dc bb3d 2b5f 4b3d
00000100: 4af6 8dbe 9ac5 8cbe 3ba3 313e a0cb 70be
00000110: c860 803e dbac a83e 71df c6bd e3e1 02bd
00000120: 3961 1dbe 9cb4 7ebd 3624 cdbd 95a8 3cbe
00000130: 7db2 0fbe b51b 49be 7824 1bbe 2fbb 893c
00000140: 1313 093d 97c0 833e 6ebf 6f3d d3c0 b33e
00000150: 031a bbbd 2057 223e 2aeb 85be 359a a83d
00000160: 64d9 703e 7b55 50be b6b1 833d 7dbe 18bd
00000170: f1b2 2dbf 8eae 05be 0c91 753e d474 983d
00000180: bb25 083e ca37 8ebe 1077 7a3e 637c 1f3b
00000190: a59a c23c a622 623e fd8e 123e 79d1 2abc
000001a0: daab cdbd ef64 883d 78c7 89be 1d19 73be
000001b0: ee87 38be cd39 143e 613b fe3d 9a98 273e
000001c0: a150 733e e291 333d 3fdb 9abc e6f7 213e
000001d0: ff6a aabd 467b 423e 84d5 fdbd 16c1 8cbd
000001e0: 4503 983d 729f 7ebd 8423 02be e90a 71bd
000001f0: 6193 b0be e6dd e63c 4105 8d3d c342 903d
00000200: b238 1bbe 5e08 c3bd c8d9 183e 146b e8bd
00000210: 8b5a 493d b57a a03c f28d 21bd b587 8839
00000220: b1b9 21be 2bc4 d9bd 254f 933d a20a f0bd
00000230: 934a d0bd 8b62 06be 43b7 ec3d f5d3 a03c
00000240: d86b 1a3d 815c 2a3e c7d4 41bd 2653 efbd
00000250: 2ee5 2abe 8984 8a3d 295a 39be 67c5 5fbe
00000260: 8618 333e 4131 233e ee9f 46bd 4847 94bd
00000270: 4bb7 6dbe f831 c43d c3d8 9b3e 0240 0dbd
00000280: fec4 c4bd d4a1 babd 992c 13bd 47af c9bd
00000290: 8328 683e 6cef d1bd 6272 183e 77a9 47be
000002a0: 6f79 363d 72bb 1dbc 9f0d 47be 2038 423d
000002b0: 52f7 363e 6141 32be 13dc 34be ecad 18be
000002c0: 502e 6bbd 712d 3e3e 4f00 c6bd b064 203e
000002d0: dbf3 23bd 5fb1 443e 1162 06be 6941 cbbd
000002e0: 78b8 1b3e 0be1 6fbc d036 9dbb 1828 a9bd
000002f0: 68d2 91bd 0484 dfbd 9d52 d13d 4f0b 463e
00000300: 2779 8fbd 8294 2fbe 87e9 4d3e 2790 8dbe
00000310: b747 dd3d f90f 2e3e ba88 2abe f844 123d
00000320: 50d5 25be a172 f93d de8a 1abe 58a0 ffbd
00000330: b87d 47be bbdf f9bd 6e9f 893e 715e e7bc
00000340: 6044 9c3e d315 903e 8fb3 973d a068 5f3e
00000350: 52fc e23c 0c98 d43d d0f7 a6bd 3e4a 7fbd
00000360: 4dcc 443e 1b30 833e 0cac 65bd fed9 3fbe
00000370: a649 42be bf03 6dbe 104d 7e3e 43bb 433e
00000380: 6f90 513d 7f9a 65be 8315 ed3c e7ad 94be
00000390: 56c9 3f3e 8a5f 893e 0153 f73d 2471 7fbc
000003a0: 244c 92be b107 1cbe 20a5 47bd 3f27 82be
000003b0: 59a2 a13d 7976 86be 886b 003e b186 a53e
000003c0: f6fc 113e a78b 6b3e 0c7f b43d 45e2 0e3e
000003d0: a62b 6e3d 6b09 a03e 337e f2bc 1648 9b3d
000003e0: 6f2a 6c3c ee05 36bd 386f d93c 5cf8 6cbe
000003f0: 26bf 75be 4406 7bbe b45f d33c fb39 eb3d

lstm.bias_ih_l0 f4 [128]
0.016129268 0.029793954 0.2301795 0.12058501 0.016051035 -0.044379264 0.2710385 0.1479744
0.29957527 -0.021933012 0.17589152 0.04216201 0.0016500839 -0.015555948 0.1884682 0.14416474
0.18033858 0.26732907 0.29359087 0.46078354 0.28062162 0.13260688 0.11954754 0.37141222
0.09211288 0.57674366 0.6106018 0.19662765 0.41390905 0.206945 0.26484782 0.17227127
-0.06890597 0.1363333 0.20942043 0.25597638 0.00076723855 -0.0252903 0.07239881 0.04864427
0.0031305554 0.008178872 0.21496947 0.20950116 0.16529994 -0.013180201 0.2531968 -0.043813474
-0.06076212 0.15154848 0.1377491 0.11349372 0.0046880213 0.15943325 -0.0072723273 0.23065104
0.0029354454 0.111111596 0.009587592 0.2048011 0.3117054 0.011822936 0.17894368 0.03380253
-0.20212336 -0.0009880149 0.12786727 0.03659394 0.04199365 0.23521787 0.14672177 -0.2238411
-0.2409961 -0.11483683 -0.031630903 -0.07486579 0.14648438 0.047147088 0.16680312 -0.03479693
0.16179885 0.18781185 0.08574083 0.092108555 -0.029330071 0.012885456 -0.23962383 0.15050213
-0.044561807 -0.028343212 -0.06381657 -0.002991541 -0.1991222 -0.2368059 0.060579564 0.024211377
-0.062309254 0.048746243 0.265311 0.06402404 0.10880584 0.11560597 0.10762566 0.08471386
-0.020084325 0.10325267 0.2754435 -0.04578673 0.2791217 -0.030954486 0.22693573 -0.0803581
0.2849814 0.041659616 0.27787754 0.23804134 0.23607159 0.15895502 -0.017359676 0.2000467
0.19645935 0.22897217 0.025176426 0.10318312 0.40694252 -0.022073304 0.32834965 0.07289139
00000000: 8721 843c 7312 f43c 2db4 6b3e 46f5 f63d
00000010: 767d 833c 08c7 35bd 8fc5 8a3e 9a86 173e
00000020: ee61 993e dcac b3bc e81c 343e 12b2 2c3d
00000030: a147 d83a 60de 7ebc cffd 403e ec9f 133e
00000040: adaa 383e 5bdf 883e 8b51 963e d2eb eb3e
00000050: a3ad 8f3e 19ca 073e 57d5 f43d be29 be3e
00000060: ada5 bc3d 79a5 133f 6650 1c3f c258 493e
00000070: e3eb d33e 64e9 533e 229a 873e e167 303e
00000080: 931e 8dbd f59a 0b3e 4f72 563e 560f 833e
00000090: 8220 493a 9a2d cfbc d445 943d 373f 473d
000000a0: 012a 4d3b ad00 063c f520 5c3e 7987 563e
000000b0: 6344 293e c5f1 57bc 03a3 813e c275 33bd
000000c0: b3e1 78bd 862f 1b3e 1a0e 0d3e 656f e83d
000000d0: f99d 993b 7842 233e b44c eebb c92f 6c3e
000000e0: 9a60 403b 7a8e e33d 4715 1d3c 61b7 513e
000000f0: da97 9f3e fdb4 413c 033d 373e 8674 0a3d
00000100: 6df9 4ebe 4780 81ba a3ef 023e 87e3 153d
00000110: 8901 2c3d f4dc 703e 3b3e 163e 9a36 65be
00000120: aec7 76be 922f ebbd 688f 01bd 3c53 99bd
00000130: 0000 163e 4e1d 413d 70ce 2a3e 3a87 0ebd
00000140: 99ae 253e c051 403e e398 af3d 69a3 bc3d
00000150: 9e45 f0bc 851d 533c f35f 75be 3b1d 1a3e
00000160: 7186 36bd 0630 e8bc 43b2 82bd bb0d 44bb
00000170: b1e6 4bbe 3f7d 72be 4722 783d f056 c63c
00000180: fd37 7fbd 24aa 473d d8d6 873e 091f 833d
00000190: 99d5 de3d d3c2 ec3d d86a dc3d 767e ad3d
000001a0: e287 a4bc 2376 d33d ee06 8d3e de8a 3bbd
000001b0: 0ae9 8e3e 4394 fdbc d761 683e ca92 a4bd
000001c0: 15e9 913e 46a3 2a3d f745 8e3e 1cc1 733e
000001d0: c0bc 713e 1bc5 223e e135 8ebc 0bd9 4c3e
000001e0: a42c 493e ae77 6a3e cb3e ce3c ac51 d33d
000001f0: c55a d03e 13d3 b4bc 721d a83e 1548 953d

lstm.bias_hh_l0 f4 [128]
0.11014359 -0.044244274 0.18125634 0.16041972 0.13499466 0.17154507 0.35027692 0.24463084
0.31882873 0.22501934 0.23645756 0.20030333 0.015924202 0.25969416 0.28906918 -0.01883386
0.33158112 0.2775258 0.16822825 0.3277741 0.13997914 -0.12408628 0.0013444616 0.32648355
-0.013806609 0.40280026 0.7376216 -0.040053688 0.25214326 0.111041 0.12299298 0.22583733
0.092287175 -0.0332679 0.23522584 -0.004267297 -0.029523725 -0.05021097 -0.033187322 0.17834513
0.072570466 0.12897545 0.08254299 0.1292379 0.026363445 0.03403683 0.009350211 -0.04806921
0.108867586 0.1447528 0.26421797 0.22977646 0.08314064 0.05579375 0.21256188 0.26069087
-0.039271217 0.1613855 0.1905489 0.17525668 0.33868968 0.20826642 -0.014158909 0.091251306
-0.17381434 -0.1755006 0.011799415 -0.03633899 0.10295765 0.18143758 -0.10847619 -0.3029401
-0.27044183 -0.056491405 -0.23888649 -0.1127079 -0.051579244 -0.11550013 -0.14670491 0.15608978
-0.07482565 0.16310585 0.08052989 -0.037334844 -0.15257582 0.14646794 -0.026567444 -0.12658583
0.00662396 0.08975602 0.18607968 -0.16999063 0.029585535 -0.18852748 0.012817718 0.15594359
-0.0077032414 0.15051518 0.22732063 0.04813242 0.035261307 0.19729239 0.18550238 -0.019637447
0.015436732 -0.070126794 0.07381506 -0.11269437 0.31734124 -0.0018556507 0.24585272 0.039324015
0.1672792 0.11785935 0.048617095 0.24621162 0.26718944 0.105226256 -0.04721178 0.12145627
0.15912294 0.23487568 0.18064743 0.2593662 0.3985633 -0.0062130652 0.13080065 0.09782065
00000000: f692 e13d 7c39 35bd 439b 393e 1145 243e
00000010: 0a3c 0a3e 83a9 2f3e 7f57 b33e 8280 7a3e
00000020: 853d a33e 786b 663e ee21 723e 511c 4d3e
00000030: 7973 823c a2f6 843e e000 943e 7849 9abc
00000040: 00c5 a93e dd17 8e3e 0744 2c3e 02d2 a73e
00000050: b156 0f3e f320 febd a538 b03a da28 a73e
00000060: 1e35 62bc d63b ce3e c5d4 3c3f 560f 24bd
00000070: ec18 813e 7769 e33d bee3 fb3d e741 673e
00000080: 0f01 bd3d ec43 08bd 0bdf 703e afd4 8bbb
00000090: bddb f1bc 05aa 4dbd 6eef 07bd 1ba0 363e
000000a0: d39f 943d 2412 043e 4d0c a93d f156 043e
000000b0: 27f8 d73c 346a 0b3d a131 193c 38e4 44bd
000000c0: f8f5 de3d 143a 143e 9447 873e 854a 6b3e
000000d0: a445 aa3d fd87 643d d2a9 593e 4679 853e
000000e0: dbda 20bd 3e42 253e 401f 433e 7d76 333e
000000f0: bc68 ad3e cb43 553e c5fa 67bc f7e1 ba3d
00000100: 63fc 31be 6eb6 33be 5552 413c 31d8 14bd
00000110: 76db d23d c6ca 393e c428 debd f71a 9bbe
00000120: 5a77 8abe 8863 67bd a99e 74be 66d3 e6bd
00000130: c244 53bd 558b ecbd d039 16be 00d6 1f3e
00000140: 313e 99bd 3805 273e dbec a43d 6cec 18bd
00000150: d63c 1cbe b1fb 153e f8a3 d9bc b79f 01be
00000160: ce0d d93b 01d2 b73d ac8b 3e3e 0612 2ebe
00000170: 5d5d f23c 590d 41be 6801 523c adaf 1f3e
00000180: 796b fcbb a720 1a3e bdc6 683e 8026 453d
00000190: 296e 103d 0407 4a3e 56f4 3d3e b6de a0bc
000001a0: 59ea 7c3c a39e 8fbd 5a2c 973d 4ecc e6bd
000001b0: 8d7a a23e 4e39 f3ba d1c0 7b3e 3812 213d
000001c0: 3d4b 2b3e 3e60 f13d b822 473d e61e 7c3e
000001d0: 0ecd 883e dd80 d73d 2461 41bd 11be f83d
000001e0: 20f1 223e 4083 703e a4fb 383e a6cb 843e
000001f0: 7d10 cc3e f896 cbbb 9bf0 053e 3156 c83d

linear.weight f4 [1, 32]
0.03485433 0.033783853 0.062267993 -0.06970402 -0.15014684 0.0538415 0.23690441 0.087142624
0.21108077 -0.1435482 0.22340044 -0.050166134 0.23547445 0.16093525 0.19143076 -0.18745689
-0.19154544 0.18303257 0.053476166 0.4653379 -0.026797805 -0.07132024 -0.05251054 0.103150085
0.2128842 -0.19181006 0.35465598 -0.013157202 -0.20124589 -0.07451711 -0.1718647 -0.16533265
00000000: 6ac3 0e3d f060 0a3d b90c 7f3d fbc0 8ebd
00000010: 18c0 19be e888 5c3d 1297 723e d577 b23d
00000020: 8f25 583e 4dfe 12be 16c3 643e 017b 4dbd
00000030: 3720 713e 36cc 243e 6d06 443e b3f4 3fbe
00000040: 7d24 44be e46c 3b3e d309 5b3d c540 ee3e
00000050: 1287 dbbc 5910 92bd 4b15 57bd 5a40 d33d
00000060: 51fe 593e db69 44be 7895 b53e 4e91 57bc
00000070: 6713 4ebe 6d9c 98bd 4dfd 2fbe f64c 29be
