archive/lstm_singleJoint/trial5/j24/lstm_model_epoch139.pth (torch, 45669 bytes, 5 tensors)

lstm.weight_ih_l0 f4 [200, 1]
-0.18048576 0.47723523 0.37431687 -0.0013599157 -0.38783318 -0.81477803 -0.0132660745 -0.3801531
-0.6007555 0.19391176 0.9803081 -0.58492595 -0.067852646 -0.6467409 0.91755575 -0.6085543
-0.8161143 0.36004907 0.6329786 0.5312501 0.41602644 0.43924567 -0.26610905 -0.6585775
-1.2598704 -0.4775925 0.6746444 -0.6307556 0.20341022 0.089405164 -0.9393621 1.1167704
-0.0057074875 1.0196363 0.49037352 -0.87219185 0.08018977 0.81166774 -0.5754673 0.097342
0.07403641 0.024503268 -0.7002292 0.07449764 -0.31586152 -0.27921697 0.1042231 -0.9023626
0.498406 -0.1297379 1.4974256 -0.37601584 -1.5388734 -1.0603514 -0.3212997 -0.2785321
0.9816513 -0.6275788 0.6380359 -0.28843135 0.40180787 -0.44722062 -2.4545493 -0.2007991
0.074606955 -0.02776955 -0.38886923 -0.53087777 0.5651365 -0.38338092 -0.54595554 -0.5493371
-0.4826149 0.41293636 -0.09852513 -0.10639883 -0.45637283 0.80060524 0.33490035 -1.4013453
0.6927172 1.2785957 -0.68030363 0.80189574 0.71237 -1.0494555 0.07799415 -0.09736623
0.31982812 -0.029186329 0.5709461 -0.43740278 1.3304746 -0.5723406 -0.8526617 0.44417253
-0.9227188 2.414095 0.905681 0.36220363 1.9016545 0.49520132 2.1748254 -1.5365549
0.7294296 1.1946502 1.7714349 -0.45395565 -1.765079 0.0006500195 -0.6311719 -0.5311371
1.6551855 -0.23114848 -0.5452442 -0.53432673 -0.5085704 -0.19649729 1.5228256 -0.20934592
1.0666425 1.4008553 -0.358611 1.3319855 -0.7440168 0.59690756 -2.405301 -0.7391599
-0.3639149 -2.2676775 -0.17224103 0.6846152 0.45136786 0.024797162 0.11951131 -1.8517433
-0.38868022 0.16874303 0.44035065 0.050429884 0.2523408 1.2147183 0.64067864 -0.56036234
0.39945325 1.9546341 2.467211 -0.6462373 3.1356187 0.3648721 -0.28829092 0.34581316
0.19966269 -0.44587982 -0.6408984 -1.0007538 0.8348132 -0.40507072 -0.79640454 -0.7166532
0.5710331 -0.35578334 0.041158743 -0.59309006 0.47539058 -0.4528894 -0.07644226 0.05242215
0.3865187 -0.5473632 0.42621732 0.19309227 -0.78749967 0.12114121 -1.2605485 -0.65612084
-0.42177334 -0.673676 0.14415829 -0.879547 -0.5976983 1.476085 -1.5366007 1.1640258
1.7549013 -1.1030382 -0.18437257 1.3228796 -0.56054896 0.123741046 0.07794783 -0.36318818
-0.6915472 -0.37728032 -0.41599503 -0.43805265 -0.09553939 -0.8375438 0.28602764 -0.04587409
00000000: 42d1 38be 2d58 f43e 76a6 bf3e 333f b2ba
00000010: 1292 c6be 4b95 50bf f359 59bc 6da3 c2be
00000020: 1dcb 19bf ce90 463e 79f5 7a3f b5bd 15bf
00000030: 54f6 8abd d090 25bf efe4 6a3f 37ca 1bbf
00000040: deec 50bf 5a58 b83e e30a 223f 0200 083f
00000050: 6b01 d53e cfe4 e03e 723f 88be 8998 28bf
00000060: 6f43 a1bf 0187 f4be 7fb5 2c3f 3379 21bf
00000070: c54a 503e 0e1a b73d 097a 70bf 55f2 8e3f
00000080: e005 bbbb 7183 823f 3d12 fb3e f747 5fbf
00000090: 893a a43d 75c9 4f3f d351 13bf 3e5b c73d
000000a0: 67a0 973d 14bb c83c 3942 33bf 3892 983d
000000b0: 9ab8 a1be 87f5 8ebe ec72 d53d 3c01 67bf
000000c0: 122f ff3e 03da 04be a4ab bf3f 2685 c0be
000000d0: cef9 c4bf 98b9 87bf 6581 a4be c29b 8ebe
000000e0: 804d 7b3f 01a9 20bf 5256 233f 46ad 93be
000000f0: c3b9 cd3e 1afa e4be 5617 1dc0 479e 4dbe
00000100: 88cb 983d f87c e3bc de19 c7be 9be7 07bf
00000110: c9ac 103f 814a c4be bec3 0bbf 5ba1 0cbf
00000120: 4d19 f7be 656c d33e 8bc7 c9bd a1e7 d9bd
00000130: b3a9 e9be 77f4 4c3f 0f78 ab3e 485f b3bf
00000140: ea55 313f 06a9 a33f 6128 2ebf 0a49 4d3f
00000150: e15d 363f 8f54 86bf 66bb 9f3d f267 c7bd
00000160: 83c0 a33e 2b18 efbc 8629 123f 42f3 dfbe
00000170: fe4c aa3f ea84 12bf 0a48 5abf 956a e33e
00000180: 4d37 6cbf 8880 1a40 b6da 673f c172 b93e
00000190: 6a69 f33f 078b fd3e 5730 0b40 d5ad c4bf
000001a0: e6bb 3a3f 4cea 983f 61be e23f e06c e8be
000001b0: 1cee e1bf 1266 2a3a 7b94 21bf 9af8 07bf
000001c0: 1edd d33f 30b2 6cbe 2095 0bbf a3c9 08bf
000001d0: ab31 02bf 9636 49be f3eb c23f c75e 56be
000001e0: be87 883f 3a4f b33f dc9b b7be 807e aa3f
000001f0: e377 3ebf efce 183f 74f0 19c0 9539 3dbf
00000200: 0e53 babe a121 11c0 f45f 30be f142 2f3f
00000210: b019 e73e 6b23 cb3c 58c2 f43d ed05 edbf
00000220: 1801 c7be f9ca 2c3e a475 e13e 918f 4e3d
00000230: d032 813e e47b 9b3f 8403 243f e873 0fbf
00000240: 2385 cc3e 7331 fa3f c9e6 1d40 cf6f 25bf
00000250: faad 4840 84d0 ba3e de9a 93be 6c0e b13e
00000260: 6074 4c3e 5c4a e4be eb11 24bf b318 80bf
00000270: 51b6 553f 6e65 cfbe 2be1 4bbf 9676 37bf
00000280: 3a2f 123f 3c29 b6be 1296 283d c0d4 17bf
00000290: 6566 f33e 1fe1 e7be c28d 9cbd 9cb8 563d
000002a0: c7e5 c53e ff1f 0cbf 2839 da3e fbb9 453e
000002b0: 9499 49bf e218 f83d a759 a1bf 89f7 27bf
000002c0: adf2 d7be 0876 2cbf 3b9e 133e fe29 61bf
000002d0: c102 19bf 5af0 bc3f 55af c4bf ccfe 943f
000002e0: 9ba0 e03f 5b30 8dbf 2acc 3cbe 1e54 a93f
000002f0: 2380 0fbf f26b fd3d 1da3 9f3d cdf3 b9be
00000300: 3d09 31bf e32a c1be 4dfd d4be 7048 e0be
00000310: 28aa c3bd 4569 56bf 3772 923e 78e6 3bbd

lstm.weight_hh_l0 f4 [200, 50]
-2.3016376 -1.7637818 -2.259802 1.2515341 -0.9767832 -0.5769006 -2.6335413 0.7735463
1.1349446 -0.13458993 1.5421244 -1.4384373 -4.1535525 -0.018222094 0.9512327 -0.057964005
-1.3987714 0.18313704 -0.97752357 1.3397826 -0.47837514 -1.9035397 1.5837047 -1.7310392
-0.27817744 -2.0047343 1.4420466 -0.4800177 1.2418535 3.4223177 -0.26955342 0.74222004
0.9232078 -1.4493864 -1.505347 1.167955 0.3756248 -1.27205 0.24911973 1.1661805
0.69452536 -1.0863998 0.086908385 0.7583981 -0.005087762 -1.8873146 -2.3558402 -0.5175423
-2.9487038 -0.5348459 0.062048476 -0.82164454 2.146062 -0.70598936 0.37742212 0.42845112
-0.101600625 0.41377705 0.09832876 -0.2181773 -1.0380535 0.2674826 -1.1573228 -0.015481141
1.4153321 -0.9136128 -0.25216717 0.32613972 0.47757182 -0.17140786 0.8005482 2.879279
-0.32409135 1.148482 1.3954039 0.33671805 -0.8317881 0.5249206 0.2198071 -0.046531703
-0.47489017 0.48785082 0.13318087 0.33915138 0.60250854 -1.5400769 0.42123252 0.41961697
-1.1004972 -1.8783937 -0.029943468 -0.6886714 0.2348698 0.025147721 -1.4903738 -0.40084088
-0.38800982 0.16563979 -2.455093 -0.6105852 -0.60754704 0.3373502 -0.3398476 1.6231637
-1.2544197 -0.5894177 -1.7391552 -0.07937007 1.3409202 0.49916008 4.375176 -0.10235626
-3.1128452 0.5167704 1.6958506 -0.037810113 -1.068472 -0.6150901 0.23963973 0.8825019
0.41045937 -1.1203405 -0.019935032 -0.7903695 -0.1776595 -1.9336877 -0.17908451 0.47664478
0.8402696 1.0736319 0.6986156 1.8929738 0.9438811 0.507174 -0.70985514 0.46446985
0.041418664 -0.5834749 1.038735 1.0979352 -0.40503922 0.08281705 -1.4782318 0.2795371
0.1858808 -2.2455995 -1.1115608 -1.3909676 -2.6883152 -1.502485 0.15485388 -0.34278023
0.19312939 0.22504748 -1.1316044 1.2734542 -0.642236 -0.5253991 0.093339555 0.18706834
2.696256 -0.63802695 -0.61762345 0.21692279 1.7738786 -1.5966119 -0.9599125 0.02695157
-0.20315276 0.02098577 0.08127372 -1.2599301 1.2802048 -0.22832663 -0.7985677 -0.8402193
0.13818638 -0.77025473 0.9978773 0.8516716 -0.21847548 1.2314509 0.45253345 -1.2650589
-0.6871063 -0.39241144 -0.69890416 -0.052103512 1.0423217 -0.4313568 0.5231501 -0.4185529
0.7533678 -0.035394114 0.12369002 -0.9248358 -0.9641274 -1.302261 -1.8044561 -0.54187024
1.168799 0.6837595 -1.5853517 2.1166594 0.23106666 1.3298997 0.94686186 -0.44199717
0.26299557 0.3536462 0.6279784 0.34949607 0.26786852 -0.08134269 -0.010270476 -1.8409026
-0.6346252 0.7529785 -0.3377243 0.17264059 0.029354097 0.745067 -0.61712766 0.6516507
-1.4294989 0.38895154 0.3623271 0.5217497 -0.25474733 -0.78776044 0.07235372 -0.012877902
-0.7088466 -0.82225525 0.44368187 1.7325158 -0.6534107 0.61513406 0.036608785 -0.4217682
0.06794753 0.8984675 -0.06300758 -0.22314836 1.1244147 1.0993086 0.62227094 -1.2390946
2.126311 -0.4119128 -1.6529851 -0.6764516 -3.5894275 3.1147072 -2.2223053 -2.6881514
00000000: 084e 13c0 9ac3 e1bf 99a0 10c0 4532 a03f
00000010: 770e 7abf c2af 13bf f18b 28c0 2107 463f
00000020: dd45 913f f1d1 09be 5564 c53f b71e b8bf
00000030: e7e9 84c0 8046 95bc fc83 733f aa6b 6dbd
00000040: f10a b3bf 4788 3b3e fc3e 7abf ff7d ab3f
00000050: 96ed f4be 30a7 f3bf d6b6 ca3f b192 ddbf
00000060: 466d 8ebe 914d 00c0 fc94 b83f e1c4 f5be
00000070: 0ef5 9e3f 4107 5b40 e802 8abe 2202 3e3f
00000080: 5957 6c3f 7e85 b9bf 36af c0bf 8d7f 953f
00000090: e551 c03e 89d2 a2bf 3e19 7f3e 6745 953f
000000a0: 6acc 313f 260f 8bbf 06fd b13d 6126 423f
000000b0: 3eb7 a6bb 8693 f1bf 16c6 16c0 a77d 04bf
000000c0: 90b7 3cc0 a9eb 08bf 8b26 7e3d 4c57 52bf
000000d0: 1459 0940 b8bb 34bf 793d c13e f25d db3e
000000e0: fd13 d0bd 96da d33e 9760 c93d df69 5fbe
000000f0: f0de 84bf 7bf3 883e 2723 94bf 9da4 7dbc
00000100: 9a29 b53f 87e2 69bf 0e1c 81be c9fb a63e
00000110: 4b84 f43e 8b85 2fbe baf0 4c3f 1b46 3840
00000120: 4def a5be 7501 933f 989c b23f 4f66 ac3e
00000130: 11f0 54bf 3261 063f 1d15 613e 0798 3ebd
00000140: ce24 f3be 95c7 f93e 9160 083e 40a5 ad3e
00000150: 003e 1a3f 3d21 c5bf caab d73e 09d8 d63e
00000160: 18dd 8cbf 346f f0bf 014c f5bc c54c 30bf
00000170: b581 703e 9802 ce3c 92c4 bebf 043b cdbe
00000180: 39a9 c6be 7a9d 293e 3e20 1dc0 504f 1cbf
00000190: 3488 1bbf 2ab9 ac3e 8100 aebe d4c3 cf3f
000001a0: d390 a0bf 14e4 16bf a39c debf c68c a2bd
000001b0: 46a3 ab3f e991 ff3e 7101 8c40 29a0 d1bd
000001c0: db38 47c0 114b 043f a211 d93f c7de 1abd
000001d0: b1c3 88bf 8b76 1dbf 1e64 753e a5eb 613f
000001e0: bb27 d23e 5167 8fbf cb4e a3bc a855 4abf
000001f0: 5fec 35be 1483 f7bf ee61 37be c90a f43e
00000200: e91b 573f c56c 893f 79d8 323f f74c f23f
00000210: 31a2 713f 28d6 013f 11b9 35bf fece ed3e
00000220: 9ea6 293d 9c5e 15bf 45f5 843f 2489 8c3f
00000230: 4d61 cfbe fc9b a93d b336 bdbf 7d1f 8f3e
00000240: 8957 3e3e e7b7 0fc0 a047 8ebf 3a0b b2bf
00000250: 5b0d 2cc0 6e51 c0bf 0492 1e3e e480 afbe
00000260: b6c3 453e d972 663e 6ad8 90bf 8c00 a33f
00000270: 9469 24bf 8e80 06bf cf28 bf3d d88e 3f3e
00000280: 758f 2c40 bc55 23bf 921c 1ebf 0221 5e3e
00000290: 740e e33f c75d ccbf d3bc 75bf 8ac9 dc3c
000002a0: 4707 50be 59ea ab3c d672 a63d 6445 a1bf
000002b0: c0dd a33f 75ce 69be ef6e 4cbf 9d18 57bf
000002c0: bb80 0d3e 6a2f 45bf e374 7f3f 2607 5a3f
000002d0: 09b8 5fbe 2fa0 9d3f 77b2 e73e 73ed a1bf
000002e0: 33e6 2fbf 27ea c8be 62eb 32bf 7e6a 55bd
000002f0: cc6a 853f ccda dcbe 2aed 053f 914c d6be
00000300: b6dc 403f 6bf9 10bd 3151 fd3d 0ac2 6cbf
00000310: 0ed1 76bf 7db0 a6bf 6bf8 e6bf 02b8 0abf
00000320: 359b 953f dd0a 2f3f ceec cabf 5977 0740
00000330: bd9c 6c3e 273a aa3f 8a65 723f 744d e2be
00000340: 5ba7 863e 1d11 b53e 31c3 203f 26f1 b23e
00000350: 1026 893e ff96 a6bd 8045 28bc b2a2 ebbf
00000360: cc76 22bf 33c3 403f 33ea acbe b2c8 303e
00000370: 0178 f03c b6bc 3e3f 14fc 1dbf 95d2 263f
00000380: d2f9 b6bf a824 c73e f082 b93e 6391 053f
00000390: 3e6e 82be abaa 49bf 302e 943d d6fd 52bc
000003a0: f976 35bf 527f 52bf 452a e33e 14c3 dd3f
000003b0: ec45 27bf 6d79 1d3f 18f3 153d 00f2 d7be
000003c0: 1328 8b3d f701 663f 1e0a 81bd 0181 64be
000003d0: d2ec 8f3f 25b6 8c3f 264d 1f3f a79a 9ebf
000003e0: 7b15 0840 3ce6 d2be 0495 d3bf ef2b 2dbf
000003f0: 2eb9 65c0 5d57 4740 403a 0ec0 ac0a 2cc0

lstm.bias_ih_l0 f4 [200]
0.99608856 -0.12314884 -0.5768664 -0.09629115 -0.6109626 -0.4498519 0.78212595 -0.48364225
0.21280989 -0.33204237 0.40397242 0.4610597 -0.29665545 -0.36695388 -0.36682564 -0.33565557
-0.010413318 0.24938796 -0.044531703 -0.5880529 -0.3251059 0.08186412 -0.58310914 0.31978846
0.16020004 -0.008721601 0.12417849 -0.20255052 -0.42477146 -0.5852977 0.2744233 0.00019812926
0.20470707 0.6508039 -0.04712382 -0.6213838 -0.5076977 -0.2968503 -0.31771356 -0.74822223
-0.26134846 -0.36246222 0.23471598 -0.26998377 -0.5049541 0.35695305 -0.04065621 0.018716706
0.34767044 0.63503736 -0.7608503 0.68747354 -0.526142 0.029898068 0.31208336 -0.727311
-0.41481864 0.4961041 -0.36762124 0.654267 -0.09505909 0.3134693 -0.8248362 0.26003435
-0.08437801 0.54289865 0.41821644 0.054346163 -0.36761662 0.4804057 -0.036205888 -0.24396321
-0.009370528 -0.22614998 -0.33122233 0.0076324507 0.10048482 -0.42347196 -0.5422867 -0.024011217
-0.4905563 0.06497577 0.68986803 -0.35030088 0.42363945 -0.58547467 -0.0051840465 0.50097686
-0.23846316 0.23259482 -0.2195869 -0.37427458 -0.4904104 0.6521534 0.5807344 -0.4162123
-0.59148246 0.0363627 -0.33038896 -0.3826837 0.31630468 -0.08236306 0.38199303 -0.16754137
0.09455696 0.4640637 0.3417924 -0.09707677 -0.32538047 0.07038783 0.044137985 -0.39594272
0.12070084 0.07824021 0.18041791 -0.14581627 -0.18494847 -0.26620996 0.19902362 0.16079693
0.030109879 0.08026162 -0.05513658 0.23727539 -0.48708814 0.048588973 -0.27598175 -0.32795888
0.14857452 -0.11178392 0.09755301 0.29786807 0.23612054 0.11563985 -0.3571651 -0.65343195
-0.03891694 -0.2918085 0.1745495 -0.1497562 0.21389945 0.049119692 0.17564887 -0.06435497
0.095776044 0.14319648 0.19644493 -0.33758578 0.3010662 -0.14747147 0.71973574 -0.46003652
-0.5591871 -0.21847288 -0.49034432 -0.35713685 0.5047848 -0.0153075615 0.1275423 0.027273249
0.58564126 0.25439477 -0.51980716 -0.034371894 0.06208314 -0.07054716 0.0972507 0.1721277
-0.059724994 -0.26721272 -0.1015339 0.20830064 -0.66540575 0.14040866 0.04246373 0.47359675
0.019637266 -0.055108394 -0.100651026 -0.4451743 0.10316335 -0.201771 0.40083507 0.22114193
0.1038407 -0.56706417 -0.31628978 -0.41258487 -0.18198703 -0.29996705 -0.25740534 -0.19427127
0.49385738 0.5960457 -0.25732517 0.22279592 -0.07152448 0.09164496 0.45328358 0.37251878
00000000: a9ff 7e3f 7635 fcbd 84ad 13bf 4b34 c5bd
00000010: 0c68 1cbf fd52 e6be 6839 483f f59f f7be
00000020: d6ea 593e 7501 aabe 79d5 ce3e 0410 ec3e
00000030: 39e3 97be 61e1 bbbe 92d0 bbbe 0cdb abbe
00000040: 9f9c 2abc 8f5f 7f3e e066 36bd a38a 16bf
00000050: 4874 a6be 60a8 a73d a446 15bf 50bb a33e
00000060: 7b0b 243e 0ce5 0ebc 4b51 fe3d 6769 4fbe
00000070: a57b d9be 12d6 15bf 3681 8c3e ebc0 4f39
00000080: bb9e 513e 169b 263f e804 41bd 0213 1fbf
00000090: 7af8 01bf c3fc 97be 5aab a2be 7e8b 3fbf
000000a0: 77cf 85be a694 b9be 6359 703e 503b 8abe
000000b0: ac44 01bf 8dc2 b63e 2087 26bd c753 993c
000000c0: dc01 b23e cf91 223f 16c7 42bf 44fe 2f3f
000000d0: 3eb1 06bf cbec f43c 64c9 9f3e 0e31 3abf
000000e0: 1c63 d4be 5b01 fe3e da38 bcbe 0b7e 273f
000000f0: 57ae c2bd 0c7f a03e 7728 53bf 3923 853e
00000100: 61ce acbd 68fb 0a3f 7720 d63e 159a 5e3d
00000110: 3f38 bcbe bcf7 f53e a04c 14bd 7ed1 79be
00000120: d886 19bc dc93 67be f995 a9be a319 fa3b
00000130: fcca cd3d 51d1 d8be 4dd3 0abf 2cb3 c4bc
00000140: 322a fbbe 0412 853d 319b 303f a35a b3be
00000150: 45e7 d83e abe1 15bf efde a9bb 0540 003f
00000160: b02f 74be 562d 6e3e 63db 60be eba0 bfbe
00000170: 1217 fbbe 86f3 263f 02ab 143f c719 d5be
00000180: 656b 17bf 0ef1 143d be28 a9be 1eef c3be
00000190: b0f2 a13e f7ad a8bd 9794 c33e f78f 2bbe
000001a0: 14a7 c13d c299 ed3e 6aff ae3e 30d0 c6bd
000001b0: 4598 a6be 7f27 903d 08ca 343d 01b9 cabe
000001c0: 0132 f73d 673c a03d 79bf 383e dc50 15be
000001d0: 2263 3dbe ac4c 88be d9cc 4b3e f3a7 243e
000001e0: fea8 f63c 3460 a43d e5d6 61bd 52f8 723e
000001f0: 9e63 f9be 3b05 473d 7b4d 8dbe 3aea a7be
00000200: eb23 183e f8ee e4bd dfc9 c73d 2a82 983e
00000210: 95c9 713e 96d4 ec3d 58de b6be 5147 27bf
00000220: 5f67 1fbd ec67 95be 1bbd 323e b059 19be
00000230: 7508 5b3e bb31 493d 4cdd 333e 8acc 83bd
00000240: 3b26 c43d 19a2 123e dc28 493e 0bd8 acbe
00000250: 5925 9a3e c302 17be 9a40 383f e889 ebbe
00000260: e326 0fbf 5bb7 5fbe 690e fbbe a4da b6be
00000270: 9439 013f 91cc 7abc 739a 023e 266c df3c
00000280: 96ec 153f 0840 823e 1512 05bf 8bc9 0cbd
00000290: e44a 7e3d 087b 90bd 602b c73d 3e42 303e
000002a0: 32a2 74bd 1bd0 88be 01f1 cfbd c34c 553e
000002b0: 0858 2abf 4ac7 0f3e 73ee 2d3d 467b f23e
000002c0: 55de a03c 57b9 61bd 2022 cebd e3ed e3be
000002d0: 4e47 d33d 0f9d 4ebe 413a cd3e 0873 623e
000002e0: 6faa d43d 1e2b 11bf bcf0 a1be 533e d3be
000002f0: cf5a 3abe 4895 99be a2ca 83be 0cef 46be
00000300: e0da fc3e 7396 183f 20c0 83be 9d24 643e
00000310: 6d7b 92bd 5ab0 bb3d c914 e83e c8ba be3e

lstm.bias_hh_l0 f4 [200]
0.8501827 -0.22245543 -0.4686459 -0.23271956 -0.464087 -0.24569555 0.78519285 -0.4039903
0.176884 -0.44112983 0.4002047 0.3807487 -0.29723582 -0.4762225 -0.30016047 -0.43921733
-0.0678857 0.2953194 -0.09439087 -0.46995786 -0.44216824 0.058037188 -0.56283474 0.28923488
0.06395533 -0.06938551 0.14128986 -0.2196682 -0.24243693 -0.6009985 0.2615013 0.07279123
0.02578995 0.67300045 0.20472313 -0.49673423 -0.5334785 -0.27034175 -0.23261781 -0.59354067
-0.3749514 -0.20403574 0.37986258 -0.19714655 -0.4508619 0.36796483 -0.060159005 0.047113806
0.48472333 0.8149995 -0.8508874 0.625615 -0.6522144 -0.05648264 0.50686014 -0.76417685
-0.57669014 0.5282942 -0.33463162 0.6648169 -0.1357044 0.396523 -0.91986805 0.12006628
-0.13993499 0.5553732 0.36824396 -0.13486388 -0.50264585 0.5269326 -0.05520152 -0.21026468
0.03172992 -0.17758033 -0.2862045 -0.086092494 0.13704096 -0.46246973 -0.46222398 -0.067274235
-0.5916895 -0.11503942 0.648506 -0.2787942 0.28542712 -0.5281761 -0.078877136 0.5177451
-0.23525867 0.23128346 -0.22591697 -0.5361576 -0.32481688 0.7830627 0.56086016 -0.3925244
-0.6341223 0.11023933 -0.3117305 -0.17477271 0.13749665 -0.10027724 0.26688007 -0.20400403
0.068644 0.4751836 0.36664277 -0.02878737 -0.4416813 0.051099524 -0.055997677 -0.30261603
0.17830557 0.18596034 0.10185561 -0.14522779 -0.17068699 -0.24099416 0.17177321 0.2653984
0.16014695 0.03792262 -0.038405415 0.028289381 -0.48970103 0.26451793 -0.092421345 -0.40098965
0.065341376 -0.21819453 0.23275405 0.25408956 0.23378702 0.05500382 -0.4857362 -0.66796
-0.04675568 -0.22851656 0.12874432 -0.004027341 0.005371013 0.13509075 -0.0071227537 0.05207376
-0.015020615 0.010950936 0.14570937 -0.38681337 0.1386732 -0.22137322 0.6090888 -0.56952375
-0.5684549 -0.15487827 -0.3365368 -0.16481684 0.53769445 -0.052625548 0.33456507 0.14055121
0.59125614 0.103918985 -0.53817576 0.06462311 -0.05524061 -0.14970495 -0.10182512 0.18276066
-0.06561073 -0.1469249 -0.2221912 0.02804078 -0.60531354 0.094592646 -0.023936497 0.6649065
0.15630072 -0.07836599 -0.24454111 -0.66244787 0.20623367 -0.15522654 0.1876115 0.15697187
-0.027333103 -0.5529331 -0.28533554 -0.47094044 -0.31283075 -0.39730042 -0.35292554 -0.3016858
0.5528266 0.4316164 -0.36661813 -0.0013578569 -0.054938477 -0.04752931 0.24326895 0.3136497
00000000: 93a5 593f 5bcb 63be 5bf2 efbe 094e 6ebe
00000010: d09c edbe 9d97 7bbe 6602 493f d1d7 cebe
00000020: 1421 353e c5db e1be a1e7 cc3e 7ef1 c23e
00000030: 4b2f 98be 6fd3 f3be a2ae 99be 18e1 e0be
00000040: a807 8bbd 1b34 973e 0050 c1bd 519e f0be
00000050: e063 e2be 67b8 6d3d f015 10bf 9816 943e
00000060: 03fb 823d fe19 8ebd 4aae 103e b3f0 60be
00000070: 6341 78be 0adb 19bf 80e3 853e 9213 953d
00000080: 7245 d33c c249 2c3f f1a2 513e f353 febe
00000090: 0c92 08bf 3c6a 8abe 5d33 6ebe 48f2 17bf
000000a0: a1f9 bfbe bfee 50be 597d c23e c9e0 49be
000000b0: 5fd7 e6be e365 bc3e 4a69 76bd 68fa 403d
000000c0: a82d f83e cfa3 503f c2d3 59bf 4e28 203f
000000d0: 86f7 26bf 575a 67bd 96c1 013f 18a1 43bf
000000e0: f7a1 13bf 4a3e 073f d654 abbe 7131 2a3f
000000f0: 18f6 0abe 1005 cb3e 797c 6bbf 4fe5 f53d
00000100: 1e4b 0fbe f02c 0e3f 798a bc3e c219 0abe
00000110: 66ad 00bf 0ee5 063f fd1a 62bd a04f 57be
00000120: 3cf7 013d 9ed7 35be 6589 92be 4351 b0bd
00000130: 7754 0c3e d5c8 ecbe 9fa8 ecbe 13c7 89bd
00000140: f778 17bf ca99 ebbd 7d04 263f 1dbe 8ebe
00000150: 8123 923e 8d36 07bf 568a a1bd f18a 043f
00000160: a6e7 70be 92d5 6c3e c756 67be a041 09bf
00000170: 664e a6be cc76 483f 8894 0f3f f5f8 c8be
00000180: d755 22bf 28c5 e13d 249b 9fbe 9ef7 32be
00000190: eccb 0c3e 275e cdbd 81a4 883e 6fe6 50be
000001a0: 3a95 8c3d 444b f33e 9ab8 bb3e 7ed3 ebbc
000001b0: 0d24 e2be bc4d 513d d25d 65bd 7df0 9abe
000001c0: bc95 363e 636c 3e3e ad99 d03d 98b6 14be
000001d0: 92c8 2ebe 2cc7 76be 51e5 2f3e 4de2 873e
000001e0: 90fd 233e c054 1b3d ff4e 1dbd 22bf e73c
000001f0: 18ba fabe e56e 873e 6747 bdbd 844e cdbe
00000200: b3d1 853d 636e 5fbe 1457 6e3e 0718 823e
00000210: dd65 6f3e b04b 613d 6ab2 f8be 6dff 2abf
00000220: e282 3fbd 3f00 6abe 8dd5 033e c9f7 83bb
00000230: 53ff af3b 3b55 0a3e fd65 e9bb 4c4b 553d
00000240: 0719 76bc 8e6b 333c d634 153e 670c c6be
00000250: 5900 0e3e a9af 62be 3eed 1b3f 4fcc 11bf
00000260: 4386 11bf 6998 1ebe 8d4e acbe bfc5 28be
00000270: 58a6 093f e38d 57bd 1d4c ab3e a8ec 0f3e
00000280: 905c 173f 7ad3 d43d e3c5 09bf 1f59 843d
00000290: fa43 62bd 414c 19be b089 d0bd 9c25 3b3e
000002a0: eb5e 86bd 7b73 16be 1786 63be c7b5 e53c
000002b0: d4f5 1abf cab9 c13d 7916 c4bc 5037 2a3f
000002c0: 4c0d 203e 597e a0bd fc68 7abe 2f96 29bf
000002d0: eb2e 533e b5f3 1ebe 3b1d 403e 3cbd 203e
000002e0: ace9 dfbc 068d 0dbf 8017 92be 1b1f f1be
000002f0: 5a2b a0be f66a cbbe a8b2 b4be 9076 9abe
00000300: 0b86 0d3f d3fc dc3e 5fb5 bbbe 1efa b1ba
00000310: 2b07 61bd 18ae 42bd 7f1b 793e b296 a03e

linear.weight f4 [1, 50]
0.798834 0.15043555 1.3799131 -0.41309896 0.05969538 0.48395374 -0.93217665 -0.25800377
0.043902952 -0.04098621 0.12784718 0.012596461 4.728235 0.1995522 -0.2359092 -0.106488064
0.11699273 0.23976815 0.53788775 -0.009423671 0.33857584 0.26887983 -0.11653651 -0.02942416
-0.24625169 -0.35239258 -0.39019397 -0.20828253 -0.041279312 -0.6263875 0.3248149 -0.27378616
-0.017859476 -0.4133706 0.14013492 -0.7446979 -0.27242553 0.11338264 0.0052136597 0.019590314
0.029205117 0.14084217 -0.054537404 -0.023050904 0.21481349 0.028315594 0.285746 -0.34130776
-0.099884585 0.0957929
00000000: 6380 4c3f c70b 1a3e fea0 b03f b581 d3be
00000010: 2583 743d c9c8 f73e 21a3 6ebf 1219 84be
00000020: 95d3 333d 28e1 27bd 5fea 023e 6361 4e3c
00000030: b34d 9740 6957 4c3e 2e92 71be 6a16 dabd
00000040: e299 ef3d c885 753e 03b3 093f be65 1abc
00000050: d059 ad3e 9eaa 893e b2aa eebd f00a f1bc
00000060: 6729 7cbe cd6c b4be 81c7 c7be 0448 55be
00000070: 7f14 29bd ee5a 20bf 234e a63e b32d 8cbe
00000080: 094e 92bc 50a5 d3be 877f 0f3e 86a4 3ebf
00000090: 5c7b 8bbe 2835 e83d 59d7 aa3b de7b a03c
000000a0: 923f ef3c ee38 103e 9d62 5fbd 40d5 bcbc
000000b0: 11f8 5b3e 1bf6 e73c 4d4d 923e e4bf aebe
000000c0: 4a90 ccbd 112f c43d
