lstm_FullData/trial10/jt2_vel/lstm_model_epoch149.pth (torch, 50829 bytes, 5 tensors)

lstm.weight_ih_l0 f4 [200, 8]
0.3238266 -0.10918658 -0.25345105 -0.39328623 0.06165751 -0.101226926 0.04036669 -0.36035052
-0.16492262 0.015550706 -0.0840512 -0.2544405 -0.009598048 -0.11005552 0.14491545 -0.22339654
0.31024566 0.13680246 -0.28273574 -0.3616505 -0.02261384 0.078459345 -0.03424995 -0.16628394
0.2083312 -0.12037894 0.24267544 -0.24388865 -0.18963219 -0.045835394 0.08694153 0.18807124
0.1723368 -0.33869088 0.30763307 -0.4615835 -0.20712642 -0.17897555 0.069523335 -0.15158524
-0.27332446 0.1027497 -0.07290156 -0.13362515 0.08590504 0.1850107 -0.017548228 0.069348745
0.024258558 -0.049604166 0.05891993 -0.039128017 -0.006860638 0.017267777 -0.19131997 0.08182001
0.2201038 0.18718798 0.25022137 -0.22927926 -0.14978525 -0.08290951 -0.011432893 0.21948472
-0.2540117 -0.2931159 0.05673721 -0.29476047 -0.21286379 0.35887605 0.10647392 0.1201699
0.026754523 -0.092731245 0.29772604 -0.2898299 0.12211147 -0.15729713 -0.07043747 0.3164546
-0.15689188 -0.15351386 0.28190157 -0.08248361 -0.18424462 -0.05285165 0.020345965 -0.042249333
-0.054933146 -0.22256085 0.14821224 -0.053290647 0.036675874 -0.034827556 -0.16553976 0.0315599
0.23609541 -0.5107919 0.45341384 -0.5655185 -0.083549775 -0.08800343 0.24916662 -0.13880657
-0.24618459 0.072020195 0.3656624 -0.32103518 -0.2970261 0.07354568 -0.028165292 0.064720154
-0.29989752 0.06245584 0.18921143 -0.012832385 0.0684736 -0.027853845 0.13435258 -0.22001341
0.13743262 -0.29552978 -0.016518148 -0.2005383 -0.25881508 -0.07088586 0.19803427 -0.4061892
0.12446624 -0.50650686 0.36109385 -0.27882844 -0.30824584 0.046085846 0.12640293 -0.01931491
-0.16456588 -0.0635626 0.24605234 -0.17522034 0.084637925 -0.105285816 0.074691765 -0.009610858
0.55884 -0.15287295 -0.1318868 -0.22198886 -0.1460983 0.32775822 -0.08360951 0.054654967
0.13548326 -0.35252067 0.37754223 -0.19479226 -0.07323561 0.2716488 -0.08184029 0.27534956
-0.046823286 -0.28023642 0.0062772566 -0.2314715 0.07883343 0.21572891 0.14407381 -0.0405419
-0.13308327 0.13215576 0.05762726 -0.26571858 0.07848238 0.07694123 0.013132916 -0.39530382
0.37510905 -0.30051962 0.104664594 -0.3399692 0.015341744 0.112451956 -0.041275695 0.044825137
0.11197415 -0.20220959 0.27309918 -0.069105886 -0.03514378 -0.11079204 -0.2735188 0.12572348
0.2234223 -0.240559 0.19942501 -0.27452287 0.038503315 -0.022176005 -0.103647776 0.14311849
0.15910824 -0.31026623 0.038717862 -0.032540567 -0.098525226 -0.13650587 0.12657768 0.12201797
0.2975586 -0.35928246 -0.4020913 -0.03586761 0.05344041 0.027478777 0.13790803 -0.0970059
-0.22956625 -0.052478924 0.2708298 -0.016047841 0.019217853 -0.07817592 0.037597958 0.13099997
-0.09987401 -0.073669076 0.03705422 0.0004206645 0.054793485 0.051987894 0.0832433 -0.051322743
0.12428476 -0.48766634 -0.009245837 -0.27789056 -0.062978365 0.077550426 0.0039937287 -0.07179501
0.022263922 -0.22994798 0.069141634 -0.08456551 -0.12210935 0.027567428 0.053943887 0.2722788
0.08001383 -0.35229456 0.32870796 -0.49307796 -0.28103548 -0.03090025 0.20945086 -0.40780824
00000000: 9acc a53e 379d dfbd 56c4 81be d05c c9be
00000010: 968c 7c3d 1050 cfbd 8b57 253d dd7f b8be
00000020: 7ae1 28be 63c8 7e3c 0923 acbd 0646 82be
00000030: 2241 1dbc ca64 e1bd b764 143e 10c2 64be
00000040: 85d8 9e3e f215 0c3e bdc2 90be 412a b9be
00000050: a940 b9bc 4baf a03d ad49 0cbd 5646 2abe
00000060: c654 553e 3c89 f6bd e97f 783e f2bd 79be
00000070: f12e 42be e5bd 3bbd 670e b23d bf95 403e
00000080: 0f79 303e e468 adbe 1582 9d3e ac54 ecbe
00000090: f318 54be 5e45 37be 4062 8e3d 2939 1bbe
000000a0: 2ff1 8bbe 6f6e d23d 6a4d 95bd 08d5 08be
000000b0: fbee af3d 7273 3d3e 4dc1 8fbc b706 8e3d
000000c0: e2b9 c63c bd2d 4bbd 0656 713d b344 20bd
000000d0: 34cf e0bb 2775 8d3c 62e9 43be 4091 a73d
000000e0: e462 613e 35ae 3f3e 041d 803e 2fc8 6abe
000000f0: 4e61 19be 76cc a9bd 0751 3bbc 9ac0 603e
00000100: d20d 82be 4a13 96be 4765 683d d8ea 96be
00000110: f7f8 59be 9abe b73e 000f da3d a31b f63d
00000120: 4d2c db3c e1e9 bdbd 8c6f 983e 9664 94be
00000130: 9415 fa3d 8012 21be 8541 90bd 5606 a23e
00000140: 44a8 20be bd32 1dbe 6755 903e 2bed a8bd
00000150: 9faa 3cbe f97a 58bd 95ac a63c a30d 2dbd
00000160: 9401 61bd fee6 63be f3c4 173e 4b47 5abd
00000170: 7139 163d 57a7 0ebd 4183 29be f444 013d
00000180: ffc2 713e 42c3 02bf dc25 e83e d2c5 10bf
00000190: 251c abbd 243b b4bd 8925 7f3e 4f23 0ebe
000001a0: d017 7cbe 537f 933d 1a38 bb3e b95e a4be
000001b0: ce13 98be 1e9f 963d e6ba e6bc 008c 843d
000001c0: 2b8c 99be b2d1 7f3d a4c0 413e ec3e 52bc
000001d0: e33b 8c3d bf2d e4bc b993 093e 324b 61be
000001e0: 23bb 0c3e ae4f 97be 1151 87bc ea59 4dbe
000001f0: 6983 84be 9b2c 91bd 7fc9 4a3e 08f8 cfbe
00000200: 28e8 fe3d 6faa 01bf 4be1 b83e 9ac2 8ebe
00000210: 66d2 9dbe 83c4 3c3d c56f 013e 4d3a 9ebc
00000220: f583 28be 1c2d 82bd 25f5 7b3e f66c 33be
00000230: a656 ad3d 17a0 d7bd fff7 983d dc76 1dbc
00000240: 2310 0f3f ba8a 1cbe 550d 07be 0c51 63be
00000250: cb9a 15be edcf a73e 763b abbd e3dd 5f3d
00000260: 20bc 0a3e 977d b4be 374d c13e 9f77 47be
00000270: 8dfc 95bd 8d15 8b3e e29b a7bd 9efa 8c3e
00000280: c6c9 3fbd 267b 8fbe 72b1 cd3b dd06 6dbe
00000290: 6c73 a13d 0ae8 5c3e 1688 133e 430f 26bd
000002a0: fb46 08be d753 073e 900a 6c3d 440c 88be
000002b0: 5fbb a03d 5d93 9d3d 712b 573c 4365 cabe
000002c0: 4b0e c03e b5dd 99be 645a d63d 7110 aebe
000002d0: f05b 7b3c 364d e63d b410 29bd 909a 373d
000002e0: b452 e53d 0810 4fbe a8d3 8b3e 6387 8dbd
000002f0: edf2 0fbd f0e6 e2bd a80a 8cbe a8bd 003e
00000300: d1c8 643e 1955 76be 1236 4c3e 438e 8cbe
00000310: a7b5 1d3d 74aa b5bc 4945 d4bd a78d 123e
00000320: 45ed 223e 37db 9ebe 9f96 1e3d 4249 05bd
00000330: 98c7 c9bd 32c8 0bbe 949d 013e 8fe4 f93d
00000340: 9a59 983e dff3 b7be e9de cdbe eae9 12bd
00000350: 55e4 5a3d 2c1b e13c c337 0d3e 08ab c6bd
00000360: 6a13 6bbe 24f4 56bd 34aa 8a3e c376 83bc
00000370: c26e 9d3c b21a a0bd 5100 1a3d db24 063e
00000380: bf8a ccbd d0df 96bd 2ac6 173d a28c dc39
00000390: 226f 603d 42f1 543d 777b aa3d cc37 52bd
000003a0: 0289 fe3d 67af f9be da7b 17bc ac47 8ebe
000003b0: cdfa 80bd c2d2 9e3d d3dd 823b 4309 93bd
000003c0: d462 b63c 7c77 6bbe 219a 8d3d af30 adbd
000003d0: 7814 fabd 16d5 e13c 44f4 5c3d 2068 8b3e
000003e0: 4ade a33d f45f b4be 694c a83e b774 fcbe
000003f0: e2e3 8fbe 8522 fdbc 497a 563e 3ecc d0be

lstm.weight_hh_l0 f4 [200, 50]
0.34110337 -0.09367042 0.23045567 -0.061435495 -0.17879298 -0.10161357 0.11897128 -0.108133346
-0.02131215 0.13756913 0.018761631 0.05992513 -0.08991426 0.039152488 0.051348303 0.3129419
-0.08358285 0.036766607 -0.083902605 0.10644455 0.1557983 0.25424093 -0.19325548 -0.23692329
-0.18400376 -0.051406834 0.34830746 0.021764008 -0.25843954 0.18386954 -0.002481487 -0.08009676
0.23687075 -0.14077803 0.20312579 0.06311019 -0.020929575 -0.0080959685 -0.0009811078 -0.021070646
0.23615144 -0.113676816 -0.16416316 0.08645152 -0.09993575 0.07894894 0.14193211 0.011985353
0.06896194 0.13584387 0.07553305 0.07934859 0.13751392 -0.1675652 -0.07728195 0.0055429894
-0.1572787 0.255763 0.03729888 0.08864948 0.121615954 -0.03205392 -0.19300796 -0.26080066
0.08825153 0.13558963 -0.20416827 -0.21638697 -0.15755896 -0.061244883 -0.17955689 -0.052195318
0.017189538 -0.10031315 0.06465114 0.08032394 0.14732507 -0.03643702 0.10747233 0.05120997
-0.10727159 -0.18650253 0.12238605 -0.059956565 -0.14792593 -0.053990822 0.0022771615 -0.082041614
0.010073855 0.104401655 0.08091347 -0.20681433 0.061274625 0.045571472 0.051901087 0.033399943
-0.011188797 0.059328824 -0.02263598 0.19123061 0.23801962 0.0013619061 0.13160847 -0.1307729
-0.1564771 -0.17347868 -0.21386798 -0.02197329 0.13721395 0.03450192 -0.21585411 0.016882593
-0.1782634 -0.07565041 0.12182547 0.17482816 -0.11135597 -0.19839472 -0.12803648 0.044036835
-0.20945612 0.23719202 -0.12832054 0.09571636 -0.14972913 0.26334757 0.061994977 0.14587897
-0.002462537 0.26025426 -0.044923622 -0.24327824 0.05570089 -0.005815747 -0.056494698 0.2722238
-0.20554072 0.042288713 -0.03743383 -0.18729907 0.14059815 -0.18021287 -0.03781656 0.23767388
-0.08840199 -0.0018380259 0.09169848 -0.13714887 -0.030471481 0.29043642 0.07392262 -0.14009301
0.010883936 0.14237447 0.019621754 0.057288438 0.07715418 -0.1375317 0.109871104 -0.11226768
-0.24141984 -0.10312333 -0.1028928 -0.053669162 0.055880018 0.20875819 -0.11594702 -0.081239164
-0.058275193 0.058546413 0.08760086 0.08235587 -0.1613037 -0.20285128 0.13405187 -0.023323087
0.016711244 0.052447636 -0.0019082087 -0.13356827 -0.009646034 -0.13481808 0.032112475 -0.18734655
-0.110836305 0.08540242 0.04906985 0.019659769 -0.0320644 -0.005273228 -0.079941 0.015787162
-0.028598122 -0.07029104 -0.016081136 -0.035843063 0.073801786 -0.13973916 0.12347973 -0.09597158
0.105360486 0.03346872 -0.01219793 0.13211447 -0.082313985 -0.11883181 0.22961679 -0.14517787
-0.23069969 0.017385436 -0.10430175 -0.18114102 -0.034020193 0.08031176 -0.074773125 0.042506833
0.033829004 0.14172775 -0.09756611 0.3172334 0.021726327 0.17218773 -0.20967059 -0.058420297
0.06050921 -0.050339676 0.20144393 -0.16126744 -0.03878051 -0.13866295 0.06865717 0.07915788
2.738301e-05 0.043932673 0.114366814 0.037442006 0.040775236 0.13875242 -0.08576174 -0.18658163
0.08530117 0.03322243 0.0373364 0.22212242 -0.020499593 0.18745963 0.060799886 0.11928189
0.18998939 0.12793116 0.07084598 -0.17707852 0.005896735 -0.09365059 -0.001161731 0.01962614
00000000: 1aa5 ae3e 47d6 bfbd 92fc 6b3e c9a3 7bbd
00000010: 8215 37be c61a d0bd 37a7 f33d 0475 ddbd
00000020: d196 aebc ecde 0c3e feb1 993c 0e74 753d
00000030: f824 b8bd 5c5e 203d 9952 523d ec39 a03e
00000040: 7c2d abbd 9598 163d 21d5 abbd 9aff d93d
00000050: 9789 1f3e de2b 823e c4e4 45be 059c 72be
00000060: 7b6b 3cbe f98f 52bd 5b55 b23e 6f4a b23c
00000070: 3052 84be 4c48 3c3e 72a0 22bb c509 a4bd
00000080: 3f8e 723e 1e28 10be 3500 503e ea3f 813d
00000090: 8074 abbc f4a4 04bc 8498 80ba 599c acbc
000000a0: afd1 713e 64cf e8bd 631a 28be 7f0d b13d
000000b0: 1dab ccbd fbaf a13d a756 113e 375e 443c
000000c0: eb3b 8d3d a81a 0b3e 12b1 9a3d 8381 a23d
000000d0: 73d0 0c3e 3696 2bbe 0046 9ebd f7a1 b53b
000000e0: ab0d 21be 5ef3 823e b6c6 183d dc8d b53d
000000f0: c911 f93d f94a 03bd e1a3 45be aa87 85be
00000100: 38bd b43d 02d8 0a3e 7d11 51be 8c94 5dbe
00000110: 2357 21be eadb 7abd c3dd 37be c2ca 55bd
00000120: 13d1 8c3c fb70 cdbd d167 843d e180 a43d
00000130: 62dc 163e fc3e 15bd 741a dc3d 8cc1 513d
00000140: 35b1 dbbd 85fa 3ebe 8aa5 fa3d 0495 75bd
00000150: e579 17be 7b25 5dbd 6e3c 153b 6f05 a8bd
00000160: cf0c 253c 89d0 d53d f6b5 a53d 23c7 53be
00000170: 1afb 7a3d 27a9 3a3d 3c96 543d 61ce 083d
00000180: 3751 37bc c802 733d 176f b9bc f5d1 433e
00000190: 6abb 733e fc81 b23a 5fc4 063e 55e9 05be
000001a0: 883b 20be 65a4 31be 3500 5bbe 5401 b4bc
000001b0: d081 0c3e e351 0d3d dc08 5dbe 5d4d 8a3c
000001c0: ae8a 36be 9aee 9abd a27f f93d 2706 333e
000001d0: 990e e4bd fc27 4bbe ff1b 03be f85f 343d
000001e0: aa7b 56be 77e2 723e 7666 03be f006 c43d
000001f0: 9852 19be 7ed5 863e 72ee 7d3d 4c61 153e
00000200: 8462 21bb 0c40 853e d501 38bd ee1d 79be
00000210: 9e26 643d 0692 bebb fc66 67bd eb60 8b3e
00000220: 4479 52be ee36 2d3d 3754 19bd 54cb 3fbe
00000230: f6f8 0f3e b989 38be 8ae5 1abd c860 733e
00000240: 1a0c b5bd eae9 f0ba 6acc bb3d c170 0cbe
00000250: 549f f9bc 15b4 943e be64 973d 8b74 0fbe
00000260: 8952 323c 9dca 113e cdbd a03c 48a7 6a3d
00000270: 0303 9e3d 1cd5 0cbe 1a04 e13d 99ec e5bd
00000280: c336 77be 5332 d3bd 76b9 d2bd 32d4 5bbd
00000290: 72e2 643d b5c4 553e a275 edbd b860 a6bd
000002a0: f8b1 6ebd 5dce 6f3d 1468 b33d 32aa a83d
000002b0: cc2c 25be 3fb8 4fbe e544 093e 0f10 bfbc
000002c0: 05e6 883c 55d3 563d dc1c faba 1fc6 08be
000002d0: 660a 1ebc c00d 0abe 5f88 033d c6d7 3fbe
000002e0: 25fe e2bd 77e7 ae3d 78fd 483d 860d a13c
000002f0: f655 03bd 0bcb acbb 1bb8 a3bd 1454 813c
00000300: 9c46 eabc c0f4 8fbd 96bc 83bc 2dd0 12bd
00000310: 6425 973d c817 0fbe f1e2 fc3d bf8c c4bd
00000320: 3dc7 d73d 7f16 093d d4d9 47bc 0449 073e
00000330: 3c94 a8bd 185e f3bd aa20 6b3e 82a9 14be
00000340: 8a3c 6cbe e76b 8e3c 289c d5bd 087d 39be
00000350: c258 0bbd 7e7a a43d a722 99bd a51b 2e3d
00000360: 4890 0a3d 1421 113e bed0 c7bd 6b6c a23e
00000370: 69fb b13c fb51 303e e3b3 56be 1f4a 6fbd
00000380: 81d8 773d fa30 4ebd 5147 4e3e 4b23 25be
00000390: 50d8 1ebd a9fd 0dbe 219c 8c3d 871d a23d
000003a0: 91b4 e537 bff2 333d 2639 ea3d ca5c 193d
000003b0: ef03 273d 1d15 0e3e daa3 afbd 410f 3fbe
000003c0: 61b2 ae3d 3e14 083d 0eee 183d 0f74 633e
000003d0: c3ee a7bc 6bf5 3f3e 4d09 793d 104a f43d
000003e0: 948c 423e 6300 033e b217 913d 1254 35be
000003f0: 6639 c13b e1cb bfbd 3945 98ba 00c7 a03c

lstm.bias_ih_l0 f4 [200]
0.29650143 0.008279189 0.08261113 0.052673668 0.34613752 0.22457999 0.07321001 0.091009535
0.09771869 0.102134906 0.14852616 0.26258585 0.2329419 0.28377098 0.12903063 0.39896062
0.29758132 0.17219706 0.03492958 0.103703655 0.3104536 0.12867914 0.101735264 0.10974373
0.017758435 0.20719062 0.2885204 0.08400468 0.023303403 0.34442663 0.00507165 0.18968041
0.48107198 0.34754136 0.22525921 0.46173078 0.22779518 0.41085213 0.35960898 0.109172374
0.27252436 0.14117223 0.33897927 0.42969903 0.16415446 0.27265185 0.20305973 -0.024454221
0.3851729 0.32122356 0.086620346 -0.07682402 0.15021159 0.1675668 -0.03935982 0.20171732
0.05032341 0.15142967 0.078439906 -0.1023604 -0.074159876 -0.05026076 0.060485344 0.18623887
0.101801634 0.21199782 0.008652784 0.17468068 -0.026698833 0.08046073 0.20662314 -0.059792165
0.18702522 0.15355998 0.008209411 0.1659312 0.11916352 0.027121946 0.070081174 0.04003892
0.16636455 0.042682867 -0.028471049 0.11201121 -0.057991285 -0.0984007 0.14039968 0.009649633
-0.0043553854 0.12854919 0.0011911968 -0.0042662728 -0.0020904962 -0.02140526 0.06877664 -0.11373349
0.051548626 0.16170935 0.008404574 -0.034010414 0.08444034 -0.19520696 0.1135816 0.07860344
-0.1984728 -0.20554164 0.14958467 -0.017388642 0.074147575 -0.008311533 0.013093976 -0.08444262
-0.022034708 -0.08105011 0.22636619 0.18509181 0.024459805 -0.059595022 -0.01401129 0.18297303
-0.021765947 0.03244352 -0.061817765 -0.009360849 -0.06832334 -0.005110822 0.12393535 -0.10262786
-0.19830316 0.0028978558 -0.11967168 -0.1295054 -0.04836842 0.021819366 0.0067341016 0.020022396
-0.07917852 0.05476235 0.16327116 -0.098051846 0.18907583 0.052383285 -0.19321522 0.03191108
0.115916654 0.108806185 0.041615803 0.004980203 -0.12225572 -0.05896023 0.18237272 -0.06318891
0.09720144 0.19074804 0.35145462 0.23366718 0.08868997 0.061508086 0.03142898 0.13280664
0.24974054 0.1018829 0.21665695 0.0542411 0.25630295 0.35651374 0.24067211 0.17534941
0.21721566 0.3368386 0.22921227 -0.0136843445 0.16785382 0.19230439 0.086066015 0.19250588
0.061433967 0.28552598 -0.037248876 0.31181994 0.1021112 0.15789667 0.4909106 0.09070806
0.121176 0.41983613 0.16381061 0.15294589 0.1733485 0.061579544 0.046343934 0.12858087
0.29476672 0.22217627 0.28916848 0.40752968 0.10219717 0.1730317 0.3550968 0.2590174
00000000: 09cf 973e 6fa5 073c 0630 a93d 58c0 573d
00000010: f038 b13e 4cf8 653e 21ef 953d 3563 ba3d
00000020: bd20 c83d 1b2c d13d 3e17 183e a771 863e
00000030: 5288 6e3e 6e4a 913e 9b20 043e 9144 cc3e
00000040: 945c 983e 6d54 303e 5212 0f3d 9562 d43d
00000050: c6f3 9e3e 77c4 033e 945a d03d 52c1 e03d
00000060: 237a 913c c729 543e f2b8 933e a50a ac3d
00000070: c7e6 be3c b058 b03e 1530 a63b 953b 423e
00000080: 114f f63e f1f0 b13e 5aaa 663e fa67 ec3e
00000090: 2443 693e 365b d23e ab1e b83e c495 df3d
000000a0: 5088 8b3e 748f 103e b18e ad3e 8301 dc3e
000000b0: 1b18 283e 0699 8b3e e4ee 4f3e 3854 c8bc
000000c0: 6235 c53e 6a77 a43e 0266 b13d e955 9dbd
000000d0: 11d1 193e a296 2b3e c337 21bd fc8e 4e3e
000000e0: ec1f 4e3d 6110 1b3e 1aa5 a03d 54a2 d1bd
000000f0: 22e1 97bd 3ade 4dbd 7bbf 773d 67b5 3e3e
00000100: 607d d03d f515 593e 68c4 0d3c 7edf 323e
00000110: 83b7 dabc 98c8 a43d 0495 533e a1e8 74bd
00000120: 8a83 3f3e d43e 1d3e c480 063c dee9 293e
00000130: 010c f43d d82e de3c b886 8f3d daff 233d
00000140: 785b 2a3e 3bd4 2e3d 1e3c e9bc 2266 e53d
00000150: 4588 6dbd 4e86 c9bd efc4 0f3e 7f19 1e3c
00000160: 9fb7 8ebb 66a2 033e ef21 9c3a 17cc 8bbb
00000170: b500 09bb 155a afbc c4da 8c3d 1bed e8bd
00000180: a724 533d 2397 253e 57b3 093c 814e 0bbd
00000190: 0fef ac3d 55e4 47be 789d e83d d7fa a03d
000001a0: 743c 4bbe 8279 52be b92c 193e a072 8ebc
000001b0: afda 973d 192d 08bc 1e88 563c 41f0 acbd
000001c0: 2282 b4bc 9afd a5bd 8acc 673e b588 3d3e
000001d0: ee5f c83c e919 74bd 9c8f 65bc 485d 3b3e
000001e0: 804e b2bc 7fe3 043d a034 7dbd 3f5e 19bc
000001f0: 1bed 8bbd af78 a7bb d1d1 fd3d 8e2e d2bd
00000200: fc0f 4bbe f4e9 3d3b 6d16 f5bd 109d 04be
00000210: f71d 46bd 87be b23c bda9 dc3b 0206 a43c
00000220: 5928 a2bd 7c4e 603d 8e30 273e 68cf c8bd
00000230: 189d 413e db8f 563d 36da 45be 31b5 023d
00000240: b665 ed3d c7d5 de3d 5575 2a3d f930 a33b
00000250: 3561 fabd 4880 71bd eabf 3a3e 3069 81bd
00000260: 8c11 c73d 7453 433e dcf1 b33e 7346 6f3e
00000270: 16a3 b53d e7ef 7b3d adbb 003d 77fe 073e
00000280: fcbb 7f3e fba7 d03d 52db 5d3e ea2b 5e3d
00000290: 243a 833e f888 b63e c072 763e cc8e 333e
000002a0: c86d 5e3e 1c76 ac3e 9fb6 6a3e 4d34 60bc
000002b0: dfe1 2b3e 71eb 443e 6143 b03d 4320 453e
000002c0: 2fa2 7b3d 7630 923e 4792 18bd dda6 9f3e
000002d0: ad1f d13d aaaf 213e a258 fb3e 26c5 b93d
000002e0: 1f2b f83d c3f4 d63e f8bd 273e d99d 1c3e
000002f0: 4582 313e d53a 7c3d 23d3 3d3d b4aa 033e
00000300: aaeb 963e 2d82 633e e40d 943e bba7 d03e
00000310: c04c d13d 392f 313e 3fcf b53e ee9d 843e

lstm.bias_hh_l0 f4 [200]
0.321539 0.008955875 -0.0048298263 0.24335729 0.27988505 0.25221473 0.1329574 0.25411975
0.17543946 0.2185277 0.27066448 0.0911237 0.28773275 0.3249225 0.101234965 0.34900844
0.23589402 0.11249184 0.20932652 0.20375502 0.2161869 0.15728037 0.18265557 0.0270864
0.1927174 0.14060256 0.31071204 0.25346565 -0.064173296 0.23940904 0.16922164 0.38650098
0.4761555 0.46040058 0.13900362 0.36087295 0.24439107 0.4050085 0.35508078 0.08503767
0.016647596 0.32746184 0.32185167 0.2837482 0.16976202 0.22044556 0.1453052 0.016659528
0.18825535 0.30177218 0.103539586 -0.119186476 0.17013913 -0.024655087 -0.055646103 -0.0067152586
0.077016585 -0.06885712 0.0058978945 -0.13994923 0.16197908 0.006556781 0.13623896 0.12106994
0.057471722 0.038589485 0.045794487 0.2095422 0.043890942 -0.019667055 0.044164255 0.1405149
0.06090087 0.03379885 -0.0016576488 0.12391459 0.1426691 0.014716637 0.054804042 -0.08572761
0.16460536 -0.1931517 -0.19025376 0.049627095 0.020253384 0.11277689 0.0553805 -0.05501681
0.009544897 0.15900715 -0.03175666 0.042633947 0.08837633 -0.07019895 -0.05560396 0.029771574
0.12401985 -0.08165497 -0.01827844 0.14917253 0.11956139 -0.115025975 -0.008490036 -0.0555563
-0.1191062 -0.07343982 0.122769274 0.057421792 -0.09980499 0.024761481 0.020572305 0.045970593
0.12788926 0.038305104 0.118361995 0.33124337 -0.043851793 -0.019753644 -0.028877141 0.09127285
0.027912965 0.09464958 -0.094877005 -0.05008909 -0.010475355 0.01914165 -0.017873907 -0.089495376
-0.15583529 0.044892073 0.0536737 0.0727513 0.10360785 0.010647929 0.13493878 -0.06765135
-0.08625473 0.04409604 0.04637035 0.010490482 0.20859842 -0.045925103 -0.15156218 0.03644205
0.1382691 0.0074090464 0.028931953 -0.10004849 0.1126508 -0.044829246 0.2035254 0.10529844
0.0778708 0.11957531 0.36160845 0.08704948 0.18261978 -0.022641955 0.12955935 0.1299741
0.09906349 0.02228541 0.25284827 0.088426396 0.048103068 0.13728791 0.2765035 0.2784853
0.202018 0.2637351 0.29126954 0.013757884 0.10536039 0.1048418 0.21909809 0.10480124
0.005079643 0.10371372 0.16906163 0.10915695 0.17985423 0.15922056 0.588754 0.10592748
0.16319638 0.17747816 0.15479055 0.38631228 0.32573926 0.22107269 0.06143536 0.24847382
0.2538851 0.24450785 0.066748686 0.189635 0.10217982 0.09446514 0.17264757 0.3283036
00000000: c3a0 a43e aabb 123c 8543 9ebb a732 793e
00000010: 184d 8f3e 4a22 813e fc25 083e fc1b 823e
00000020: 67a6 333e bac5 5f3e 8994 8a3e 109f ba3d
00000030: b551 933e 3e5c a63e 4754 cf3d 3cb1 b23e
00000040: 348e 713e 1f62 e63d b159 563e 28a5 503e
00000050: 1960 5d3e 1b0e 213e 100a 3b3e 4ce4 dd3c
00000060: b657 453e 1efa 0f3e a615 9f3e 40c6 813e
00000070: 4a6d 83bd a527 753e 7048 2d3e 75e3 c53e
00000080: a7ca f33e a0b9 eb3e f756 0e3e 57c4 b83e
00000090: a741 7a3e 465d cf3e 26cd b53e 3b28 ae3d
000000a0: 8a60 883c 14a9 a73e bec9 a43e 7247 913e
000000b0: 18d6 2d3e 7bbc 613e e3ca 143e 9079 883c
000000c0: 03c6 403e e281 9a3e 900c d43d 0a18 f4bd
000000d0: f438 2e3e 77f9 c9bc 2bed 63bd ac0b dcbb
000000e0: dfba 9d3d f604 8dbd 2043 c13b da4e 0fbe
000000f0: d8dd 253e 44da d63b 3a82 0b3e 84f3 f73d
00000100: 7867 6b3d 0210 1e3d 0093 3b3d 3b92 563e
00000110: fdc6 333d ce1c a1bc 94e5 343d 23e3 0f3e
00000120: 3173 793d aa70 0a3d 7745 d9ba efc6 fd3d
00000130: d917 123e 0d1e 713c 347a 603d f591 afbd
00000140: 4f8e 283e 8fc9 45be e2d1 42be c845 4b3d
00000150: 6dea a53c 92f7 e63d aad6 623d 4e59 61bd
00000160: 3362 1c3c c5d2 223e 4613 02bd efa0 2e3d
00000170: a6fe b43d 78c4 8fbd fac0 63bd 84e3 f33c
00000180: 1efe fd3d b93a a7bd abbc 95bc afc0 183e
00000190: 9adc f43d bd92 ebbd cb19 0bbc 018f 63bd
000001a0: f4ed f3bd 9e67 96bd 756e fb3d 1d33 6b3d
000001b0: 8f66 ccbd 97d8 ca3c 4087 a83c a94b 3c3d
000001c0: 67f5 023e d0e5 1c3d c667 f23d bb98 a93e
000001d0: f09d 33bd 65d2 a1bc c18f ecbc 43ed ba3d
000001e0: bba9 e43c a4d7 c13d e04e c2bd 382a 4dbd
000001f0: d3a0 2bbc f3ce 9c3c 4d6c 92bc 5a49 b7bd
00000200: 4993 1fbe c0e0 373d f4d8 5b3d a2fe 943d
00000210: 5a30 d43d a774 2e3c 642d 0a3e ca8c 8abd
00000220: 52a6 b0bd 0d9e 343d d6ee 3d3d 45e0 2b3c
00000230: d39a 553e f61b 3cbd 1e33 1bbe 4244 153d
00000240: 6a96 0d3e 96c7 f23b b402 ed3c 39e6 ccbd
00000250: 76b5 e63d df9e 37bd f668 503e b5a6 d73d
00000260: ba7a 9f3d e6e3 f43d be24 b93e ff46 b23d
00000270: ae00 3b3e 9f7b b9bc 35ab 043e ee17 053e
00000280: cde1 ca3d e48f b63c 5475 813e e618 b53d
00000290: b907 453d 3495 0c3e de91 8d3e a095 8e3e
000002a0: cedd 4e3e 4908 873e 4821 953e bf68 613c
000002b0: 30c7 d73d 4cb7 d63d 405b 603e 08a2 d63d
000002c0: 2273 a63b dc67 d43d 7e1e 2d3e ae8d df3d
000002d0: b52b 383e b70a 233e 95b8 163f 82f0 d83d
000002e0: f41c 273e d6bc 353e 6a81 1e3e b9ca c53e
000002f0: 4cc7 a63e e160 623e a5a3 7b3d ec6f 7e3e
00000300: 3afd 813e 4460 7a3e 89b3 883d ad2f 423e
00000310: a743 d13d f076 c13d 86ca 303e 6917 a83e

linear.weight f4 [1, 50]
-0.20705256 0.15685089 -0.19992247 0.30018026 0.2037488 -0.113825046 0.21335198 -0.24811825
-0.21077605 0.24657361 -0.31474286 0.024488835 0.18192585 0.27161208 -0.12558933 -0.16132362
0.055479687 0.16574956 0.12332964 0.11872815 0.29310232 -0.2247482 -0.22561115 -0.15728877
0.29094824 -0.18278924 -0.21937762 -0.34194627 0.04387463 -0.2525449 0.033185307 0.39616483
-0.36760503 -0.31807405 0.17427796 -0.30798548 0.1779355 0.35507092 -0.27427387 0.08508258
0.0038337016 0.32293633 0.30573118 -0.28805223 -0.38222867 0.39894447 0.10144875 0.05184021
0.2327641 -0.2743132
00000000: 9605 54be 859d 203e 7ab8 4cbe 3ab1 993e
00000010: 87a3 503e 1b1d e9bd f178 5a3e b612 7ebe
00000020: add5 57be cb7d 7c3e fa25 a1be cf9c c83c
00000030: c54a 3a3e bd10 8b3e 7d9a 00be 0532 25be
00000040: ab3e 633d 41ba 293e 4094 fc3d bf27 f33d
00000050: 8211 963e 6424 66be 9c06 67be 4f10 21be
00000060: 2bf7 943e 1a2d 3bbe 87a4 60be 9513 afbe
00000070: e2b5 333d 914d 81be 51ed 073d 1ed6 ca3e
00000080: ba36 bcbe 9ada a2be ec75 323e 46b0 9dbe
00000090: b934 363e dbcb b53e a06d 8cbe c73f ae3d
000000a0: d73e 7b3b e957 a53e cc88 9c3e 957b 93be
000000b0: 7ab3 c3be 7342 cc3e 5dc4 cf3d 6656 543d
000000c0: b659 6e3e c872 8cbe
