lstm_BigData/trial10/jt4_pos/lstm_model_epoch148.pth (torch, 50829 bytes, 5 tensors)

lstm.weight_ih_l0 f4 [200, 8]
0.25375727 -0.26227424 0.36451378 -0.112364545 0.12391732 -0.058714014 -0.041748866 0.18333094
0.15816699 -0.18061058 -0.09930211 -0.05017535 -0.03690562 0.018632969 -0.22232929 0.11644207
0.09925633 0.013972669 0.10566077 -0.13293152 0.116957195 0.14667208 -0.10952309 0.07077706
0.11583969 0.0033370769 0.0051032784 0.06350168 -0.103979774 0.06921996 0.09477983 0.08869501
0.34580183 -0.37531167 0.31303206 -0.07858291 -0.0018879031 0.29207778 0.10021516 -0.15392834
0.15448236 -0.29634136 -0.10547384 -0.03753696 -0.07811313 -0.015618693 0.14903124 -0.03401732
-0.08688473 -0.2783695 0.06361536 -0.0032992968 0.17156404 -0.12446584 -0.24609536 -0.1897204
0.37242013 -0.41670215 -0.01342133 0.057696637 0.019152408 0.03063808 -0.13232447 -0.10243922
-0.10077832 -0.31591508 0.013551374 0.036185317 0.28125682 -0.082586944 -0.1829674 0.017714411
0.1263663 -0.21304572 0.056805376 0.055814683 -0.09295053 0.013644527 -0.06515072 0.018445615
0.2736186 -0.07434374 0.25691605 -0.27734008 -0.1739544 0.4137846 0.13901526 0.006766813
-0.07079231 0.15433773 -0.024147013 -0.017887771 -0.17409466 -0.09037971 -0.061358605 -0.15414365
0.08891833 -0.27335402 -0.3589084 0.1801446 -0.049562935 0.12502919 -0.1405678 0.026158601
0.06183287 0.109970644 0.13489178 0.12747742 0.05688952 -0.14928952 0.10994996 0.16774239
0.16992024 -0.2017914 -0.118487746 0.050399855 0.15602858 -0.051614247 -0.14765614 0.003098642
0.09453996 -0.08669482 -0.216544 -0.033849083 0.034257665 0.16615395 0.09615284 -0.08395548
0.30902937 -0.21583457 -0.12836614 0.23284984 -0.051057223 0.067252964 0.25850463 -0.21729413
0.38189763 -0.39752603 -0.33552107 0.037266824 0.09812767 -0.0011413131 -0.025098568 -0.18446857
0.2014577 -0.24699634 -0.021615386 0.074781254 0.0054359264 -0.011928866 0.020125424 0.012562218
0.098701924 -0.3781909 -0.06061743 -0.064211726 0.05864782 -0.022423435 -0.11426872 0.030053696
-0.1895711 0.058428105 0.21861304 0.06086422 -0.028903177 -0.24334683 -0.054722667 -0.011848828
0.08202207 -0.11220766 0.011910702 0.018463673 0.14891085 -0.0017051128 -0.013861776 0.18109511
0.39679128 -0.35210967 0.025040425 0.03559852 0.035664883 0.24001296 -0.1010687 -0.15742718
0.14635205 -0.20682792 0.015829263 0.04989033 -0.10691806 0.12566647 0.030739978 0.014665317
0.1660925 -0.082389176 -0.10749704 -0.10749141 0.35180658 -0.21497282 -0.2117894 0.26484254
0.078782424 -0.22714822 0.03795896 -0.2822798 0.16165584 0.063103884 0.13877107 0.11455063
0.43982485 -0.3757652 0.014566783 0.22390708 0.03669661 -0.01860951 0.14257196 -0.15073435
-0.050480146 -0.14368989 -0.18771444 0.091613516 0.022522906 -0.22556031 -0.16043495 0.122516245
0.10844599 -0.15375312 -0.06322268 -0.0010472679 0.23413846 -0.24677232 -0.2188936 0.07463182
0.15851815 -0.20750853 -0.29923582 0.21816619 -0.014775229 0.05860622 0.13281985 -0.069445185
0.27851525 -0.30641833 0.08122479 -0.06658144 0.089263044 -0.12783313 0.0371951 -0.22187133
-0.14818797 0.043148454 0.37645862 -0.02454566 0.033567935 -0.044506665 -0.15867154 0.11212529
00000000: 79ec 813e cf48 86be 8da1 ba3e 621f e6bd
00000010: 5dc8 fd3d 1b7e 70bd dc00 2bbd 1bbb 3b3e
00000020: 87f6 213e fbf1 38be e85e cbbd ab84 4dbd
00000030: 592a 17bd 2ba4 983c 4aaa 63be 2e79 ee3d
00000040: e746 cb3d 9fed 643c ac64 d83d 331f 08be
00000050: 4187 ef3d 3531 163e a44d e0bd 90f3 903d
00000060: 5c3d ed3d dcb2 5a3b 6739 a73b 2b0d 823d
00000070: 59f3 d4bd 32c3 8d3d ed1b c23d bba5 b53d
00000080: f00c b13e da28 c0be bd45 a03e 14f0 a0bd
00000090: 8473 f7ba 388b 953e 9b3d cd3d 649f 1dbe
000000a0: a030 1e3e 0eba 97be ab02 d8bd 5bc0 19bd
000000b0: c7f9 9fbd 8ce5 7fbc a59b 183e bf55 0bbd
000000c0: 9ff0 b1bd 7286 8ebe c548 823d 0439 58bb
000000d0: 7cae 2f3e f2e7 febd 6c00 7cbe 1146 42be
000000e0: daad be3e fc59 d5be 23e5 5bbc 4f53 6c3d
000000f0: 83e5 9c3c b6fc fa3c 1180 07be a7cb d1bd
00000100: dd64 cebd 9fbf a1be 9506 5e3c 0e37 143d
00000110: e500 903e 5823 a9bd ce5b 3bbe d01d 913c
00000120: 2b66 013e a828 5abe c1ac 683d f09d 643d
00000130: d95c bebd 4b8d 5f3c be6d 85bd 421b 973c
00000140: bd17 8c3e 8841 98bd 808a 833e 85ff 8dbe
00000150: 1a21 32be 93db d33e 045a 0e3e 24bc dd3b
00000160: 8ffb 90bd b60a 1e3e f5cf c5bc 6089 92bc
00000170: df45 32be ff18 b9bd 2953 7bbd d5d7 1dbe
00000180: d01a b63d 0ff5 8bbe d8c2 b7be d377 383e
00000190: 8102 4bbd a707 003e 01f1 0fbe 904a d63c
000001a0: 7744 7d3d 4a38 e13d 1221 0a3e 7189 023e
000001b0: fc04 693d 5adf 18be 722d e13d a9c4 2b3e
000001c0: 92ff 2d3e 68a2 4ebe b4a9 f2bd 1470 4e3d
000001d0: f5c5 1f3e 7669 53bd 2c33 17be 9612 4b3b
000001e0: 2b9e c13d 0e8d b1bd b6bd 5dbe 56a5 0abd
000001f0: c451 0c3d 4324 2a3e c8eb c43d daf0 abbd
00000200: 1939 9e3e bd03 5dbe 6a72 03be 3070 6e3e
00000210: 6121 51bd ecbb 893d b85a 843e 5a82 5ebe
00000220: 1688 c33e 8888 cbbe 6bc9 abbe 19a5 183d
00000230: 29f7 c83d 1d98 95ba 839b cdbc 54e5 3cbe
00000240: ed4a 4e3e 9cec 7cbe c012 b1bc ea26 993d
00000250: db1f b23b 4a71 43bc 13de a43c c3d1 4d3c
00000260: 3c24 ca3d 3da2 c1be fb49 78bd 7081 83bd
00000270: b238 703d 5ab1 b7bc b805 eabd 2b33 f63c
00000280: ed1e 42be 4f52 6f3d 19dc 5f3e c34c 793d
00000290: 5bc6 ecbc e92f 79be e024 60bd 9621 42bc
000002a0: 30fb a73d 21cd e5bd 1b25 433c 2141 973c
000002b0: 167c 183e 177e dfba 811c 63bc ff70 393e
000002c0: 3a28 cb3e b847 b4be 9421 cd3c c1cf 113d
000002d0: 5715 123d f5c5 753e 1bfd cebd 9734 21be
000002e0: 50dd 153e b3ca 53be 5fac 813c cd59 4c3d
000002f0: dbf7 dabd b6ae 003e 68d2 fb3c cc46 703c
00000300: 2714 2a3e a8bb a8bd 6827 dcbd 7524 dcbd
00000310: fe1f b43e d621 5cbe 52df 58be 7199 873e
00000320: ae58 a13d 8b99 68be db7a 1b3d fa86 90be
00000330: 1c89 253e 9c3c 813d 011a 0e3e 8599 ea3d
00000340: b930 e13e 4c64 c0be 84a9 6e3c e647 653e
00000350: 2f4f 163d f972 98bc 62fe 113e 1b5a 1abe
00000360: 45c4 4ebd 7123 13be 3738 40be de9f bb3d
00000370: f581 b83c 48f9 66be 0f49 24be cce9 fa3d
00000380: ee18 de3d 7571 1dbe e47a 81bd 7b44 89ba
00000390: fec1 6f3e e2b1 7cbe a525 60be 91d8 983d
000003a0: 9552 223e 1e7d 54be 7035 99be f566 5f3e
000003b0: cd13 72bc 130d 703d ed01 083e 4739 8ebd
000003c0: 8d99 8e3e dde2 9cbe 2f59 a63d da5b 88bd
000003d0: 8bcf b63d b0e6 02be e459 183d 3d32 63be
000003e0: 96be 17be 6fbc 303d 2fbf c03e fb13 c9bc
000003f0: 887e 093d 9f4c 36bd cb7a 22be f2a1 e53d

lstm.weight_hh_l0 f4 [200, 50]
0.1978821 0.006971077 0.0035104593 -0.21359976 -0.15117614 0.04623949 -0.0029001248 0.16704956
0.0750644 0.031149734 -0.053124562 -0.07411198 0.1716913 -0.10138814 -0.12712009 -0.120928064
0.1075273 -0.071075544 0.09141833 0.040274892 0.20314202 -0.1405818 0.057460163 0.14643218
0.12699279 0.08890932 -0.010671326 0.1812133 -0.018507829 0.06663276 0.08977648 0.08049271
-0.044299703 -0.030395273 -0.0062288377 0.083936855 0.16974708 0.038603306 0.011501431 0.12549914
0.09309361 0.111162655 -0.12470552 0.14426826 0.15599473 0.14161393 0.060709286 0.016427439
0.101704836 0.18050706 0.15337016 -0.11820955 0.020410843 -0.06491441 0.13365772 0.08897516
0.040988296 0.12497471 -0.11030534 -0.03823711 -0.12191269 0.06964487 0.09612586 0.11529109
0.10702089 0.08111062 -0.16081157 0.01332086 0.18393852 0.064954996 0.012668321 -0.016248228
-0.041037604 0.015525314 -0.029632196 0.048567038 0.072854914 0.09627882 0.13898209 0.14754157
-0.06870676 -0.049490906 -0.14283593 0.06501626 0.010459756 -0.062520504 0.01210043 -0.092036344
-0.079585865 -0.011678021 -0.038812064 -0.11220992 -0.008624788 0.059394814 0.08700815 -0.10507078
0.13050926 0.045003034 -0.025871782 -0.105849355 0.095161095 -1.0319116e-05 0.04252909 0.10931423
-0.15962121 0.15840112 0.18750013 -0.2233053 -0.1034183 0.087099686 0.14155646 0.06734742
-0.0088735055 0.06432767 0.15425654 0.043183934 -0.09158379 0.17693828 0.12437941 -0.096068084
-0.067801364 -0.01070498 -0.1429309 0.023327896 0.112358265 -0.02794843 -0.082691155 -0.039671857
-0.13374381 -0.002955735 0.12379364 0.066512085 -0.14716983 0.026166728 -0.12089515 -0.12686281
-0.12926811 0.0058942824 0.022723624 0.15163893 -0.034913804 0.07848247 -0.017113892 -0.015622439
0.06131526 -0.10347363 -0.07204567 0.05397465 -0.064900845 0.11973309 -0.04043584 0.0890239
-0.12359762 -0.05612842 -0.098798774 -0.09689111 -0.060266603 -0.16408646 -0.16384983 -0.060156938
-0.033097006 0.043987244 -0.07928666 0.03832413 -0.12926976 -0.1546731 -0.03559238 0.05393703
-0.08117855 0.0910962 0.0142917875 0.022421667 0.117432974 0.02288785 0.17285466 -0.04839659
0.0104300445 -0.13314906 -0.0014301725 0.09458184 0.08946252 0.09134848 0.025394568 0.009221481
-0.016333269 0.097868375 -0.09698982 0.10625752 -0.12992996 -0.03810529 0.013730819 -0.05888623
-0.07248727 -0.00917714 -0.0647461 0.03358804 -0.12226125 0.03947473 0.071842134 -0.048136126
-0.0006009255 0.09163237 -0.065899946 -0.0025998566 -0.07549342 0.1893832 0.0021386237 -0.14157408
-0.1620956 0.14703093 0.020281013 0.18671563 0.15225409 0.05042313 -0.01087958 -0.12346771
0.0608289 0.17973246 0.039432373 -0.19339338 0.08415178 -0.13830405 -0.11538255 0.034802973
0.016897887 -0.04978598 -0.04030727 -0.040828194 -0.17957675 0.12715042 0.0192831 0.11056173
-0.12119008 0.1074088 -0.06283413 -0.15648186 0.14149684 0.04267266 -0.062142484 0.21678108
-0.08131044 0.17746189 -0.006996019 -0.010232992 0.016144963 0.14922239 -0.019849055 0.14690976
0.18314411 -0.087554276 0.026396299 0.09791131 -0.023490822 0.012304435 0.08075093 0.1421344
00000000: 9ba1 4a3e a26d e43b bc0f 663b e5b9 5abe
00000010: ebcd 1abe 9f65 3d3d 0510 3ebb 0a0f 2b3e
00000020: 5dbb 993d ba2d ff3c 2499 59bd 06c8 97bd
00000030: d8cf 2f3e 96a4 cfbd c52b 02be 22a9 f7bd
00000040: 4637 dc3d 0e90 91bd 8939 bb3d 49f7 243d
00000050: 7604 503e adf4 0fbe 595b 6b3d 51f2 153e
00000060: 660a 023e 1716 b63d c9d6 2ebc fb8f 393e
00000070: bb9d 97bc c276 883d bbdc b73d 5dd9 a43d
00000080: 9b73 35bd 82ff f8bc 471b ccbb 16e7 ab3d
00000090: 2ed2 2d3e 801e 1e3d 8070 3c3c d982 003e
000000a0: dda7 be3d 3fa9 e33d 9c65 ffbd 0fbb 133e
000000b0: 15bd 1f3e 3e03 113e 4daa 783d d692 863c
000000c0: a04a d03d d8d6 383e 110d 1d3e d917 f2bd
000000d0: a434 a73c d9f1 84bd 92dd 083e 9c38 b63d
000000e0: 58e3 273d bef2 ff3d c4e7 e1bd 849e 1cbd
000000f0: 5cad f9bd f8a1 8e3d a3dd c43d bc1d ec3d
00000100: c52d db3d 531d a63d caab 24be bd3f 5a3c
00000110: 615a 3c3e 2007 853d ca8e 4f3c 011b 85bc
00000120: 0c17 28bd e35d 7e3c 38bf f2bc 3bee 463d
00000130: f534 953d d42d c53d 5251 0e3e 2315 173e
00000140: 21b6 8cbd fab6 4abd 9543 12be 3f27 853d
00000150: 655f 2b3c c00a 80bd e240 463c 8d7d bcbd
00000160: eafd a2bd 2c55 3fbc 66f9 1ebd 51ce e5bd
00000170: fc4e 0dbc fa47 733d 5431 b23d 592f d7bd
00000180: 38a4 053e 1a55 383d 0ff1 d3bc 8cc7 d8bd
00000190: d2e3 c23d 4420 2db7 fc32 2e3d 24e0 df3d
000001a0: be73 23be e733 223e 0900 403e 25aa 64be
000001b0: f9cc d3bd 5261 b23d 2df4 103e 72ed 893d
000001c0: 2e62 11bc 3abe 833d 6df5 1d3e a3e1 303d
000001d0: 4890 bbbd 4f2f 353e a2ba fe3d 58bf c4bd
000001e0: 71db 8abd f163 2fbc 7a5c 12be 251a bf3c
000001f0: 171c e63d 1bf4 e4bc fb59 a9bd f57e 22bd
00000200: 23f4 08be 01b5 41bb 8587 fd3d 7d37 883d
00000210: b0b3 16be 9b5b d63c e097 f7bd 53e8 01be
00000220: dc5e 04be d324 c13b e526 ba3c 3c47 1b3e
00000230: c701 0fbd 6bbb a03d 6f32 8cbc 42f5 7fbc
00000240: b625 7b3d fce9 d3bd ae8c 93bd 8614 5d3d
00000250: bcea 84bd 9f36 f53d 0da0 25bd 2a52 b63d
00000260: c020 fdbd eae6 65bd 0357 cabd d96e c6bd
00000270: 1dda 76bd 4806 28be 40c8 27be 1f67 76bd
00000280: ba90 07bd f82b 343d 0b61 a2bd c3f9 1c3d
00000290: 4b5f 04be a062 1ebe 51c9 11bd 13ed 5c3d
000002a0: f140 a6bd a590 ba3d 1a28 6a3c a5ad b73c
000002b0: b380 f03d 4d7f bb3c d000 313e 813b 46bd
000002c0: c7e2 2a3c 3a58 08be a074 bbba 20b4 c13d
000002d0: 2038 b73d e914 bb3d 4508 d03c b215 173c
000002e0: 59cd 85bc 376f c83d 99a2 c6bd 8b9d d93d
000002f0: 5c0c 05be 4b14 1cbd 3bf7 603c b032 71bd
00000300: 3574 94bd b75b 16bc 9a99 84bd 9d93 093d
00000310: 1b64 fabd 41b0 213d f821 933d 632a 45bd
00000320: 6d87 1dba c1a9 bb3d 8df6 86bd 5b62 2abb
00000330: 4b9c 9abd abed 413e 2728 0c3b ccf8 10be
00000340: 64fc 25be 478f 163e 5e24 a63c 6232 3f3e
00000350: 7fe8 1b3e 7c88 4e3d 4440 32bc a4dc fcbd
00000360: ba27 793d c90b 383e d783 213d ea08 46be
00000370: c557 ac3d 949f 0dbe b04d ecbd 908d 0e3d
00000380: 706d 8a3c 62ec 4bbd 3c19 25bd 773b 27bd
00000390: f8e2 37be b833 023e 97f7 9d3c 306e e23d
000003a0: 8132 f8bd 25f9 db3d 2eaf 80bd c83c 20be
000003b0: 8ce4 103e 87c9 2e3d 1e89 7ebd dcfb 5d3e
000003c0: 1786 a6bd 92b8 353e dc3e e5bb 47a8 27bc
000003d0: 7142 843c c1cd 183e 7c9a a2bc 836f 163e
000003e0: 218a 3b3e a84f b3bd 0d3d d83c ba85 c83d
000003f0: d36f c0bc 8a98 493c be60 a53d ae8b 113e

lstm.bias_ih_l0 f4 [200]
0.32393292 0.010361895 0.044906482 0.13497941 0.24273646 0.28135645 0.26933986 0.24741565
0.15948421 -0.02859484 0.12921931 0.15095326 0.20160183 0.10670904 0.007764453 0.2874696
0.1107574 0.42609814 0.177823 0.22461665 0.16677123 0.16767906 0.23918632 0.13157536
0.1375939 0.21037984 0.14618243 0.23768665 0.36452523 0.077230416 0.15639299 0.0072812433
0.1805137 0.15441592 0.18104699 0.08789871 0.42125365 0.26848805 0.17737186 0.3321865
0.17768025 0.2435727 0.082141474 0.27092475 -0.043788176 0.21628156 0.19167405 0.18274936
0.20056579 0.11643849 -0.022155277 -0.055088792 0.0010828992 0.10601229 0.008196188 0.10134667
-0.064073 0.0070230667 0.06049219 -0.024843212 0.123011485 0.13744982 0.08030121 -0.02342479
-0.0027450698 -0.037306827 0.17551254 -0.010431417 0.05001607 -0.046021976 -0.016611174 -0.09041644
0.12587693 -0.07382034 -0.07011498 0.09931684 -0.056854706 -0.0011384841 0.012015391 0.13997898
-0.07083991 0.057264153 -0.00049914495 -0.1437114 0.054025263 -0.0718229 -0.09231449 0.040934183
-0.07216057 -0.09126513 0.063933775 -0.039974444 -0.07353309 0.10391505 -0.06982718 0.13914035
0.008718368 0.14085002 0.056822546 -0.068603285 -0.03841361 0.0762674 -0.0404458 -0.06326382
-0.10990001 0.08311265 0.038821585 0.0636375 0.051143285 -0.0028259691 -0.1765925 -0.089772776
0.08617013 -0.106275566 0.03838385 -0.07336089 0.059162483 -0.08475002 -0.05470584 0.014088876
0.08699861 -0.081138 -0.0791304 0.13268644 -0.06042172 0.0030813601 0.07227791 -0.0708506
0.008603116 0.049393196 -0.067843616 -0.029780637 -0.16828309 0.07004598 0.021792281 -0.020927759
-0.10338057 0.023149472 0.09072835 -0.10502846 -0.13847242 0.056651827 0.0047122655 -0.036874145
-0.004444122 -0.060569 0.05883924 0.055928506 0.084389195 0.1740035 0.3468841 0.1938709
0.15146112 0.061486337 0.27938837 0.08443252 0.24376653 0.25233456 0.17126936 0.15369289
0.25787535 -0.02342566 0.07671071 -0.029059475 0.13224307 0.075404726 0.14289956 0.15810679
-0.048035454 0.32030007 0.06841805 0.09106947 0.054856244 0.10021507 0.29109332 0.140907
0.018330507 0.30586553 0.31875128 0.020880064 0.21222611 -0.0010105609 0.21179338 0.13653052
0.057905573 0.10493495 0.34872466 0.1492472 0.11067799 0.29943004 0.05337913 0.07287264
0.23591419 0.17875867 0.12677288 0.11952555 -0.06889397 0.20877258 0.015211987 0.013379376
00000000: 89da a53e f0c4 293c dcef 373d 0b38 0a3e
00000010: e88f 783e f40d 903e eae6 893e 875a 7d3e
00000020: d44f 233e ba3f eabc 1152 043e 7e93 1a3e
00000030: b670 4e3e 458a da3d f46c fe3b 372f 933e
00000040: c7d4 e23d 8929 da3e 3c17 363e e801 663e
00000050: 14c6 2a3e 0fb4 2b3e 42ed 743e b1bb 063e
00000060: 6ae5 0c3e d06d 573e d9b0 153e 2164 733e
00000070: 0da3 ba3e fb2a 9e3d 7c25 203e 7f97 ee3b
00000080: 95d8 383e 351f 1e3e 6264 393e 3d04 b43d
00000090: 8fae d73e 4477 893e f8a0 353e 5914 aa3e
000000a0: d0f1 353e 1f6b 793e ca39 a83d a6b6 8a3e
000000b0: 3b5b 33bd ea78 5d3e 3446 443e a622 3b3e
000000c0: 1e61 4d3e 4e77 ee3d fc7e b5bc c9a4 61bd
000000d0: 11f0 8d3a f91c d93d 4e49 063c d88e cf3d
000000e0: b438 83bd c121 e63b a9c6 773d fe83 cbbc
000000f0: 72ed fb3d a5bf 0c3e f674 a43d 58e5 bfbc
00000100: a1e6 33bb 0bcf 18bd 8fb9 333e 89e8 2abc
00000110: a7dd 4c3d 8a81 3cbd 2814 88bc 412c b9bd
00000120: e2e5 003e 1e2f 97bd 7198 8fbd a166 cb3d
00000130: 7be0 68bd 3039 95ba 34dc 443c a656 0f3e
00000140: 8414 91bd d18d 6a3d 0dd9 02ba 1529 13be
00000150: 9849 5d3d e217 93bd 610f bdbd 9aaa 273d
00000160: ecc8 93bd 36e9 babd b6ef 823d 3ebc 23bd
00000170: 8498 96bd 6ad1 d43d 8d01 8fbd cf7a 0e3e
00000180: 7cd7 0e3c fd3a 103e c2be 683d e17f 8cbd
00000190: 9757 1dbd 1532 9c3d 7faa 25bd 7690 81bd
000001a0: 4213 e1bd f736 aa3d 6203 1f3d 6154 823d
000001b0: 9f7b 513d e533 39bb aad4 34be cada b7bd
000001c0: f779 b03d 01a7 d9bd 6238 1d3d 3c3e 96bd
000001d0: 5c54 723d 6b91 adbd 3b13 60bd 07d5 663c
000001e0: 542c b23d ae2b a6bd 1f0f a2bd f4de 073e
000001f0: c47c 77bd a5f0 493b 7106 943d 1f1a 91bd
00000200: 15f4 0c3c 8550 4a3d 98f1 8abd 86f6 f3bc
00000210: 6752 2cbe 4474 8f3d ba85 b23c b170 abbc
00000220: 31b9 d3bd f6a3 bd3c c9cf b93d 2919 d7bd
00000230: b7cb 0dbe bf0b 683d 5969 9a3b 5809 17bd
00000240: ff9f 91bb 3317 78bd 6a01 713d 4a15 653d
00000250: 3ed4 ac3d f92d 323e cb9a b13e 1886 463e
00000260: a018 1b3e 19d9 7b3d fe0b 8f3e f5ea ac3d
00000270: ef9d 793e ff31 813e 3c61 2f3e ab61 1d3e
00000280: 3d08 843e 2be7 bfbc 811a 9d3d 230e eebc
00000290: ba6a 073e cb6d 9a3d 4354 123e bfe6 213e
000002a0: d3c0 44bd 5ffe a33e c31e 8c3d a182 ba3d
000002b0: f1b0 603d 8f3d cd3d 2f0a 953e ed49 103e
000002c0: dc29 963c 689a 9c3e 5e33 a33e ab0c ab3c
000002d0: cd51 593e cc74 84ba 5de0 583e a8ce 0b3e
000002e0: 652e 6d3d 23e8 d63d 0a8c b23e 42d4 183e
000002f0: 24ab e23d e54e 993e 13a4 5a3d 403e 953d
00000300: 7d93 713e 830c 373e c0d0 013e d0c9 f43d
00000310: 4818 8dbd 7bc8 553e b33b 793c 2c35 5b3c

lstm.bias_hh_l0 f4 [200]
0.2059751 0.11021277 0.0063115596 -0.0261744 0.28601304 0.07433562 0.17514116 0.22470874
0.20762846 0.15608291 0.2399181 0.012514817 0.19670846 -0.109023534 -0.041816954 0.06978929
0.19139032 0.35191718 0.17790693 0.2813443 0.16911227 0.031820133 0.071936615 0.11831112
0.2649444 0.16142957 0.26373783 0.16552155 0.2956972 0.039519187 0.118430905 0.16590592
0.075577244 0.0055194423 0.13252288 0.17705533 0.35958487 0.26876786 0.13573524 0.22888063
0.048334107 0.045266856 0.04619972 0.1431652 -0.02193071 0.22527207 0.19134176 0.23104264
0.309655 0.24309309 -0.1003226 0.015920263 -0.010050043 -0.09713907 -0.08016244 -0.037161052
-0.007940092 -0.016419802 0.18762363 0.17340346 0.09863649 0.07904798 -0.083491474 -0.09997206
0.03103263 0.022764988 0.013262092 0.10192125 0.021676453 0.01839237 -0.04002138 0.15444237
0.06431447 -0.070109494 0.06487864 0.14771596 0.1047529 -0.0039646765 -0.11548297 0.14419098
0.097891934 0.15454917 0.025048817 0.014725534 0.17677648 -0.04838283 0.0069489507 -0.054179233
-0.044777755 -0.049695525 0.17793342 -0.07196144 -0.0060125925 0.09683218 0.16260353 0.14889991
0.13283388 0.07967111 0.1358033 0.19128476 0.08323965 -0.0006670022 -0.07374342 0.007688407
-0.04369912 -0.06622684 0.06751095 0.041264646 -0.11640506 0.0946872 -0.109035425 -0.028857084
0.10962412 0.05091891 0.020525966 -0.08187137 0.17628796 0.0383958 -0.055479515 -0.12703387
0.09277066 -0.07744734 0.025599224 0.12542054 0.052269205 0.078835286 0.063192226 0.03877046
-0.07936685 -0.009761372 0.051072016 0.035836924 -0.09649123 -0.10160799 -0.122668006 -0.109306104
-0.045173593 0.07099471 -0.086532705 0.006824809 0.07307491 -0.100620374 0.022415733 0.08549693
-0.027997943 -0.12742694 0.042436592 -0.1234083 0.030337451 -0.040551253 0.28289613 0.08268128
0.14864664 0.10484126 0.14238742 -0.06215785 0.25529963 0.19545485 0.15694281 -0.01864789
0.19847552 0.119786225 0.05316553 0.148649 0.14412703 0.22685358 0.097471215 0.25106928
0.0629257 0.1586004 0.021709 -0.027874105 0.1576906 0.15520115 0.14900577 0.012434709
0.25512186 0.28923059 0.19188502 0.18598364 0.12101202 0.18307701 0.08210913 0.018585613
0.09526053 0.19776735 0.41858783 0.2481158 0.09226387 0.29660523 0.10731362 0.17540379
0.09142664 0.19641496 0.045917027 0.052110646 0.011277365 0.25223792 0.25373596 0.15984407
00000000: 23eb 523e 3cb7 e13d 33d1 ce3b b26b d6bc
00000010: 4d70 923e 463d 983d 3458 333e 0c1a 663e
00000020: 8e9c 543e 33d4 1f3e 17ad 753e f20a 4d3c
00000030: f16d 493e bb47 dfbd 4148 2bbd b0ed 8e3d
00000040: d3fb 433e 7d2e b43e 3c2d 363e 5c0c 903e
00000050: c42b 2d3e d455 023d 8153 933d 1a4d f23d
00000060: cba6 873e cb4d 253e a508 873e 7b7e 293e
00000070: a065 973e dfde 213d e78b f23d 3ee3 293e
00000080: 3ec8 9a3d 70dc b43b 14b4 073e fe4d 353e
00000090: 821b b83e f19b 893e 2efe 0a3e af5f 6a3e
000000a0: fcf9 453d bd69 393d eb3b 3d3d e699 123e
000000b0: 08a8 b3bc b9ad 663e 18ef 433e 7196 6c3e
000000c0: 1a8b 9e3e 65ed 783e ef75 cdbd 366b 823c
000000d0: f0a8 24bc d9f0 c6bd 352c a4bd 3036 18bd
000000e0: 2917 02bc d282 86bc 6920 403e ad90 313e
000000f0: ee01 ca3d e8e3 a13d 94fd aabd 27be ccbd
00000100: 2438 fe3c a47d ba3c 3f49 593c 17bc d03d
00000110: d192 b13c 98ab 963c 75ed 23bd 2426 1e3e
00000120: 4eb7 833d 9195 8fbd 18df 843d da42 173e
00000130: b088 d63d 1eea 81bb 5682 ecbd cda6 133e
00000140: 917b c83d 2342 1e3e 2d33 cd3c 5e43 713c
00000150: e504 353e 132d 46bd 06b4 e33b 0beb 5dbd
00000160: e168 37bd 898d 4bbd 2e34 363e 8560 93bd
00000170: 4805 c5bb f34f c63d 8a81 263e 3879 183e
00000180: 9b05 083e 9b2a a33d 0510 0b3e 27e0 433e
00000190: 8d79 aa3d c3d9 2eba ca06 97bd 08ef fb3b
000001a0: d9fd 32bd f0a1 87bd 2e43 8a3d 1e05 293d
000001b0: c765 eebd 5deb c13d f74d dfbd b165 ecbc
000001c0: 9c82 e03d 5990 503d 1226 a83c 2dac a7bd
000001d0: d584 343e ea44 1d3d 7d3e 63bd 2b15 02be
000001e0: 8bfe bd3d b69c 9ebd 77b5 d13c 3e6e 003e
000001f0: 3c18 563d 6574 a13d ed6a 813d c6cd 1e3d
00000200: 168b a2bd 29ee 1fbc e430 513d bdc9 123d
00000210: 329d c5bd da17 d0bd 5d39 fbbd e1db dfbd
00000220: f207 39bd ad65 913d 0f38 b1bd a6a2 df3b
00000230: 4ca8 953d 0e12 cebd 33a1 b73c 0419 af3d
00000240: f15b e5bc 357c 02be fed1 2d3d 7ebd fcbd
00000250: 3f86 f83c 1219 26bd c3d7 903e ce54 a93d
00000260: d336 183e 04b7 d63d 02ce 113e 3b99 7ebd
00000270: a2b6 823e 5125 483e 9eb5 203e 76c3 98bc
00000280: 2b3d 4b3e 7b52 f53d 19c4 593d 7237 183e
00000290: 0996 133e 4e4c 683e fd9e c73d 278c 803e
000002a0: 30df 803d 2568 223e 13d7 b13c 3c58 e4bc
000002b0: a579 213e 0ded 1e3e f894 183e f3ba 4b3c
000002c0: 559f 823e 0816 943e 827d 443e 7f72 3e3e
000002d0: 26d5 f73d 8a78 3b3e d528 a83d db40 983c
000002e0: f417 c33d 8683 4a3e 2551 d63e 1112 7e3e
000002f0: d7f4 bc3d a4dc 973e 3ec7 db3d 0d9d 333e
00000300: e43d bb3d 0121 493e 7e13 3c3d f971 553d
00000310: b2c4 383c 5425 813e aee9 813e 2aae 233e

linear.weight f4 [1, 50]
-0.24148464 0.040012576 -0.09446024 -0.028495844 0.2231527 -0.09034255 -0.08678479 0.22223708
0.19327448 -0.063797824 0.14238907 -0.119046785 -0.21591632 0.01995349 -0.09366645 0.24553302
-0.11130837 -0.19125453 0.17209175 0.19695622 -0.25543502 0.084669456 0.2191695 -0.08618895
-0.06760898 0.116675645 -0.11503531 0.22342198 0.2452581 -0.22846775 -0.2793044 -0.03478424
0.1679174 -0.203852 0.1605525 0.090869166 0.31344557 -0.13757367 -0.2123872 -0.2804887
-0.16313021 0.22149628 -0.11728471 0.11898727 0.037978403 -0.13359925 -0.052848693 -0.21518314
-0.07794427 -0.22650747
00000000: c047 77be 3ae4 233d 5f74 c1bd 1e70 e9bc
00000010: 2482 643e 8405 b9bd 39bc b1bd 1e92 633e
00000020: bfe9 453e 6fa8 82bd 71ce 113e cdce f3bd
00000030: 2b19 5dbe 8075 a33c 32d4 bfbd 026d 7b3e
00000040: a5f5 e3bd 3ad8 43be d238 303e e4ae 493e
00000050: 61c8 82be 2e67 ad3d f86d 603e d583 b0bd
00000060: 9476 8abd a4f3 ee3d a297 ebbd bbc8 643e
00000070: f024 7b3e 73f3 69be fc00 8fbe eb79 0ebd
00000080: 8af2 2b3e 94be 50be e067 243e 9d19 ba3d
00000090: f07b a03e 1de0 0cbe 087c 59be 379c 8fbe
000000a0: 9b0b 27be eccf 623e f732 f0bd 99af f33d
000000b0: 3e8f 1b3d 3ece 08be df77 58bd f858 5cbe
000000c0: 3fa1 9fbd 93f1 67be
