archive/lstm_singleJoint/trial5/j31/lstm_model_epoch189.pth (torch, 45669 bytes, 5 tensors)

lstm.weight_ih_l0 f4 [200, 1]
000000 28 e9 f1 3f bc 57 05 bf 94 8c 04 3e 3c 44 85 c0
       1.8899279 -0.52087 0.12944251 -4.1645794
000010 a5 42 c7 3e 57 63 ed bf db d8 38 bf 85 36 79 3e
       0.38918033 -1.8545941 -0.72205895 0.24337204
000020 65 2d 2d 3f b2 94 b2 3f 4a 3e 7e bf 45 e9 9e bf
       0.6764739 1.3951628 -0.99313796 -1.2414938
000030 71 07 95 3f fc ef 79 3e 8d 0b 91 be 8e 67 80 3e
       1.1642896 0.24407953 -0.28329125 0.25079006
000040 bf b1 8a bf 52 af 3d 3e c6 46 33 3f 9e b8 31 c0
       -1.0835494 0.1852391 0.70029867 -2.7768931
000050 86 06 ba 3f 65 51 11 3f d0 a5 99 3f 7a d2 d0 40
       1.4533241 0.56764823 1.2003727 6.525693
000060 bd 4f 3a c0 ce 37 4a c0 f6 4e e6 bf 0b 81 a9 3f
       -2.9111168 -3.159656 -1.7992847 1.3242506
000070 95 8f 75 3f 67 63 64 3f ef 14 7b 3f 47 e5 19 3d
       0.95922214 0.89214176 0.9807882 0.03757217
000080 3f e9 f7 bf 04 19 61 3f b7 29 bb 3f 68 ca 04 c0
       -1.9368056 0.87928796 1.4622105 -2.074854
000090 fb f4 a7 be 98 ae 3a 3f b5 8c 9d bf b9 6d 5d 3e
       -0.32804093 0.7292266 -1.2308565 0.21623887
0000a0 41 d0 c4 3f 6f 9f 84 3c 54 30 85 3e 19 3c ba 3f
       1.5376054 0.016189305 0.26013434 1.454959
0000b0 3c f0 5b 3f d1 5d 92 be 7c 2f 19 c0 bf fa 98 bf
       0.85913444 -0.285872 -2.3935232 -1.1951522
0000c0 7e 14 9d bd ad 66 f3 3f 09 9a 22 3f 60 7f a5 bf
       -0.07669924 1.9015709 0.6351629 -1.2929497
0000d0 d9 3f 0b 3f e8 4b b0 bf 41 d8 81 3f 87 d8 81 be
       0.543943 -1.3773165 1.014412 -0.2536051
0000e0 55 85 88 be 0e b5 4c bf 8a 67 19 be fd 95 a3 be
       -0.26664224 -0.7996377 -0.14980903 -0.3195037
0000f0 53 28 0b c0 c2 78 8b 3e 5d e6 46 40 e8 78 63 3f
       -2.1743362 0.27240568 3.1078103 0.88856363
000100 74 99 66 bf 4e 4c 08 bd fe b3 66 bf 3b 70 e7 3e
       -0.900779 -0.033275895 -0.90118396 0.45202813
000110 86 c4 8a 3f 6f ea 62 c0 3b 87 ad 3f 7a 0e 9b 3f
       1.0841224 -3.5455587 1.3556894 1.2113793
000120 42 48 a7 bf 78 0a 92 40 08 df 82 bf 04 a8 87 bf
       -1.3068926 4.563778 -1.0224314 -1.0598149
000130 9a 15 f4 bf 4e f8 da 3f 12 61 43 be 7d 77 78 bf
       -1.9069092 1.7107027 -0.19079998 -0.97057325
000140 35 78 dd 3e 29 63 37 bf 50 4e 74 c0 4b f9 eb 3d
       0.43255773 -0.7163568 -3.8172798 0.11522158
000150 8b 26 81 3e f6 74 b0 bf 8c ec 11 be 7c 5d cb 3e
       0.25224718 -1.3785694 -0.14250392 0.3971976
000160 d7 3c 0f 3f d9 fc 0e 3f a5 5b a1 3f 1a 1c 13 3e
       0.5595221 0.55854565 1.2606093 0.14366189
000170 78 38 d0 3e 92 b4 40 3f 55 41 c5 ba a0 62 86 bf
       0.40668082 0.7527553 -0.0015049378 -1.0498848
000180 e2 c6 be c0 d8 9a 94 bf 80 31 01 be 96 db 7f bf
       -5.9617777 -1.1609755 -0.12616539 -0.99944437
000190 88 00 ea bf 55 03 8f be d0 5d 47 3f 91 89 14 40
       -1.8281412 -0.2793223 0.7787752 2.3208964
0001a0 f9 ab 27 3f cb a7 7a 3f 8d 56 3d c0 9a e5 ed bf
       0.65496784 0.9791228 -2.9584076 -1.8585694
0001b0 0e d5 1a 3f 18 83 d3 bf 81 c9 49 3e 2a 77 fe 3e
       0.60481346 -1.6524382 0.19705774 0.4970029
0001c0 f3 b9 73 40 a8 59 a7 bf 3d 23 ee 3f 17 08 a5 bf
       3.8082244 -1.3074236 1.8604504 -1.2893094
0001d0 57 48 00 bf ba 1d b8 bf e8 f0 cb 3e 8b f2 38 bd
       -0.5011038 -1.4384072 0.39832234 -0.045153182
0001e0 56 eb a0 bd 0c da 3b 3f 4b 6c b1 3f 77 87 78 bf
       -0.07857387 0.7337959 1.3861173 -0.970817
0001f0 cc 27 a0 3f 5a c3 e8 be af 07 cb bf 39 31 6d 3f
       1.2512145 -0.4546154 -1.586172 0.9265323
000200 f8 5a cc 3f f1 1c 0e 3f a8 50 4c 40 f5 2c 95 bf
       1.5965261 0.5551291 3.1924229 -1.1654345
000210 1c 68 ce bf 2f f6 22 3f d5 7a 46 c0 20 c6 f8 be
       -1.6125522 0.63656896 -3.101247 -0.48588657
000220 98 a6 9d bf e5 b2 c9 bf b4 b2 18 c0 56 18 09 bf
       -1.2316465 -1.5757719 -2.3859072 -0.5355276
000230 ab 02 7c bf c7 e8 8f bf 3c 48 01 bf 02 5d 06 bf
       -0.9844157 -1.1242913 -0.50500846 -0.5248567
000240 a9 a8 ac 3f ac 47 b6 3d dd b7 4d 40 85 1c 0b be
       1.3488971 0.08900389 3.2143471 -0.13585098
000250 81 a9 63 3e b6 79 f3 3e 6d 6a 82 bf fa d5 18 bf
       0.2223263 0.47553796 -1.0188729 -0.597015
000260 e0 00 cf 3f a9 20 75 c0 67 5a 29 40 d5 fc d4 bf
       1.6172142 -3.8301184 2.6461427 -1.6639658
000270 80 29 f5 be ca 84 ba be 14 55 d2 be 5a 71 29 be
       -0.47883224 -0.36429435 -0.41080534 -0.16547146
000280 58 3b 0e bf 18 d9 96 bf b0 83 aa 3f ad 46 46 bf
       -0.555593 -1.1785002 1.3321438 -0.7745159
000290 1a 5d 44 be 2e ce 9a be 5d 59 85 bf 8e 17 10 3f
       -0.1917614 -0.30235428 -1.0417897 0.5628594
0002a0 4b ac 16 3f fb db 5b c0 0d 3b bf 3f 34 aa 94 3f
       0.5885665 -3.4353015 1.4939896 1.1614442
0002b0 b9 06 4f 3f bd 78 f0 40 54 ce 28 c0 2c b6 50 c0
       0.8086963 7.5147386 -2.6375933 -3.261119
0002c0 01 45 0e c0 6c e6 20 bf cc c0 5e 3f be 92 32 3f
       -2.2229617 -0.62851596 0.87012935 0.6975516
0002d0 0d 81 d1 3f 82 1d 84 be ef c6 35 c0 7f 93 80 3f
       1.6367508 -0.25803763 -2.840267 1.0045012
0002e0 d7 c3 b2 bf a6 d4 15 c0 e6 e8 7c bf bc 04 83 3f
       -1.3966016 -2.341104 -0.98792875 1.023582
0002f0 db a6 11 be cd 21 05 3f 5e 95 3f 40 eb 88 8a be
       -0.14223807 0.520047 2.9934916 -0.27057585
000300 03 31 5c be f8 f7 63 40 d6 75 07 3c 5b c5 ca bd
       -0.21503071 3.5620098 0.00826784 -0.09900924
000310 26 53 e0 bf 5c db c4 bf 21 6f 94 bf 44 ef 49 40
       -1.7525375 -1.5379443 -1.1596414 3.1552286

lstm.weight_hh_l0 f4 [200, 50]
000000 cd 37 94 bf 95 f4 34 3f 5a 0d df 3f 37 0d 0b 3e
       -1.1579529 0.706857 1.742595 0.1357926
000010 b9 7e 39 3f 88 28 bd 3f 7d ba 88 bf 77 fb 65 c0
       0.7245899 1.4777994 -1.0681912 -3.5934732
000020 aa 37 94 3f d8 02 bb bf 02 72 f5 bf 89 8f a7 3e
       1.1579487 -1.4610243 -1.9175417 0.32726696
000030 96 14 ff 3f d6 08 2b bf 68 53 c0 3f 54 f3 4f c0
       1.9928157 -0.6681036 1.5025454 -3.2492266
000040 75 c7 e3 bf 46 11 75 3e de 40 29 3f 2b 03 61 3f
       -1.7795244 0.2393237 0.66114604 0.8789546
000050 a1 8e 8b bf 77 0a 45 3e be 93 7c 3f 80 c7 f4 be
       -1.0902902 0.19242273 0.98662937 -0.47808456
000060 c4 40 4b bf ed a8 77 3e 92 9a 71 bf 2b 66 b6 3f
       -0.793957 0.24185534 -0.9437648 1.4249929
000070 1f 8c 73 40 f0 de 90 be 19 47 05 bf 5c e2 c7 be
       3.8054273 -0.28295088 -0.5206161 -0.39039886
000080 d7 27 bd bc 57 ae 0a 3f 18 d2 29 be 65 69 4a bf
       -0.023090286 0.5417227 -0.1658405 -0.7906707
000090 b0 39 82 bd 3a 75 be bf 37 f6 16 3e 30 58 94 bf
       -0.06358659 -1.4879525 0.14742361 -1.1589413
0000a0 60 7a 80 bf cf 19 26 3e d9 5d 43 c0 95 21 01 bf
       -1.0037346 0.16220783 -3.052603 -0.5044187
0000b0 c0 39 fc 3f fe ac fc 3e ec 76 6d 3f 01 ec 94 3f
       1.9705124 0.49350733 0.92759585 1.1634523
0000c0 28 5c 91 bf 87 93 ea bf 30 06 24 be 96 59 fc be
       -1.1356249 -1.8326272 -0.16017985 -0.492871
0000d0 6a 7c d9 3d 58 f2 d5 bd ad f7 db 3d 9b 24 1a c0
       0.10619433 -0.10446614 0.107406 -2.4084842
0000e0 fc 41 68 3f 0c 29 1a 3e 05 bb 90 be 77 ac 83 3f
       0.90725684 0.1505472 -0.28267685 1.0287007
0000f0 6b 8f ed bf 3d d1 92 3e 00 24 3d 3f 9e b5 c5 3f
       -1.8559393 0.2867526 0.73883057 1.544605
000100 76 e0 d5 be 39 81 b1 3e c9 fd c5 bd f4 6c af 3e
       -0.41772813 0.34668902 -0.09667546 0.34262812
000110 96 c0 79 3f b2 20 85 3f 90 a3 7e bf db 2d 0f bf
       0.9755949 1.0400603 -0.99468327 -0.55929345
000120 7d 84 01 c0 ff 93 c9 bf db c2 ba bf 98 cb f9 bf
       -2.0237114 -1.574829 -1.4590715 -1.9515257
000130 91 77 e7 3f 70 f4 70 bf 02 9a 12 bf 38 ef 85 bf
       1.8083364 -0.9412298 -0.5726625 -1.0463629
000140 42 07 2e bf 02 6e c3 3f c0 84 97 3f 7d 06 90 3f
       -0.67979825 1.5267947 1.1837387 1.125198
000150 c9 26 81 3c 6c 45 28 3f 46 64 ad 3e 53 88 fe 3e
       0.015765565 0.6573093 0.33865565 0.49713382
000160 ad da da 3f 94 ea 13 3f 1d 23 a7 3f 39 cf fb be
       1.7097985 0.5777981 1.3057591 -0.49181536
000170 de e8 1c 3e 76 66 f5 be ea ea da be 18 4d 90 be
       0.15323207 -0.47929734 -0.4275735 -0.28183818
000180 0a 20 7f 3d ee 43 3f 3f c0 d8 6a be b0 9a 54 bf
       0.062286414 0.7471303 -0.22934246 -0.83048534
000190 3e 77 9a 3e 03 af d6 bc aa a1 80 be af 9c 11 3f
       0.301691 -0.026206499 -0.2512334 0.56879705
0001a0 e0 4f 31 3f f2 cb 95 3e ef 11 a9 3e 3f cf 11 3f
       0.69262505 0.2925716 0.33021495 0.5695686
0001b0 1b db aa 3e c6 bb db 3d 9e 5d 8c 3f f1 ed 12 3e
       0.3337029 0.10729174 1.096607 0.1434858
0001c0 61 ca b0 3f fd 1b 4d 3f c3 bd 60 be b0 c4 9d bd
       1.3811761 0.8012083 -0.21947388 -0.07703531
0001d0 ab c5 85 be d1 4a 05 bf 07 be 4f 3f f4 b4 df 3b
       -0.2612737 -0.52067286 0.81149334 0.006826991
0001e0 9e af a2 bd 46 24 39 3e 94 49 0f 3f 43 75 da bf
       -0.079436526 0.18080243 0.55971646 -1.7067035
0001f0 b6 de aa bf 87 a1 4a 3e 80 14 8e be f0 6b 94 bf
       -1.3349216 0.1978818 -0.27750015 -1.159544
000200 7e 52 7d 3c bc 90 3f 3f c0 bb 5f bf bc 70 94 bf
       0.015461562 0.7483022 -0.8739586 -1.1596904
000210 8c 42 51 3e 32 19 90 3d 99 4d 4d 3e d1 93 19 3f
       0.20435542 0.070360556 0.20049132 0.59991175
000220 22 c7 aa 3f 67 e4 98 3f 5d 50 9d bf 4c 8f 4d bf
       1.334202 1.1944703 -1.229015 -0.8029678
000230 5e 6a de be b2 58 8d 3f 76 01 73 3e 6c f3 70 bf
       -0.43440527 1.1042693 0.23731026 -0.9412143
000240 db 39 dc be 19 3d 0a 3f 90 4d 4d bf c5 68 78 3e
       -0.4301289 0.5399948 -0.80196476 0.24258716
000250 23 2b 07 bf 6b 4b 3e 3f 03 65 fe 3d aa 1d 6e 3d
       -0.52800196 0.7433383 0.1242161 0.05813376
000260 94 32 32 3f 83 4d 26 3f 07 af 18 3f 47 33 ea be
       0.69608426 0.64962023 0.5964207 -0.45742247
000270 f7 af f6 be e4 d2 35 bf 56 b9 f4 3e 30 4d 10 bf
       -0.48181126 -0.7102492 0.4779765 -0.5636778
000280 b5 21 00 3f 25 8c b7 3e 79 ad 86 3f 8d 53 72 3c
       0.5005143 0.3584911 1.052169 0.014790428
000290 01 89 aa 3f ba 66 52 bf d3 47 6a bf b0 0a fb be
       1.332306 -0.82188 -0.91515845 -0.4903159
0002a0 8b 0a 28 3f 19 0a ff 3e 04 af 53 3e 33 5c 20 3e
       0.6564109 0.4981239 0.20672232 0.15660171
0002b0 e3 2f 8f 3f f7 9d 09 bf ca f1 4c bf 8c 3a 3f 3e
       1.1186489 -0.5375666 -0.8005644 0.18674678
0002c0 fb 1f 95 be df 0e fc bd 20 fb b3 3f 7b d2 32 bf
       -0.29125962 -0.12307524 1.4061012 -0.6985242
0002d0 9e b6 27 be 9a ba 17 bf 67 70 0d 3d ba e3 08 3e
       -0.16378257 -0.59269106 0.034531023 0.13368121
0002e0 b9 bf 43 3e c9 e0 a7 3e 01 dc 96 bd 3c 2e 22 bf
       0.19116105 0.32788685 -0.07366181 -0.633518
0002f0 c8 81 66 bf e2 43 0b bf ff d1 e6 be b6 6f 9d 3e
       -0.9004178 -0.54400456 -0.4508209 0.3074929
000300 a0 03 04 3f c1 f5 78 be 65 ec 97 3e 55 43 5b 3f
       0.5156803 -0.24312498 0.29672542 0.85649616
000310 fe 62 6d 3e c2 f3 00 3e c3 8d 24 bf 2e 34 25 bd
       0.23182294 0.12592986 -0.6427881 -0.040332966
000320 3f 63 a9 3e aa 2d 3a bc 94 b1 e9 be 11 da 99 3f
       0.3308353 -0.011363426 -0.45643294 1.2019674
000330 bf 15 1c 3d 77 dd cf be f6 4b 89 3d a7 09 75 3f
       0.038106676 -0.40598652 0.067039415 0.95717853
000340 b0 04 96 bc 8d f9 23 3f ba cf 43 3f f7 0e d4 be
       -0.018312782 0.6405266 0.7648884 -0.41417667
000350 64 82 ab 3f dd ae 6f 3f c4 6f 38 bf 07 36 f1 3e
       1.3399167 0.93626195 -0.7204554 0.47111532
000360 a8 61 4f be ad fc d1 be 55 a2 b9 3d 25 d0 28 3e
       -0.20252097 -0.4101309 0.090641655 0.16485651
000370 ec 05 30 3f 29 5a a3 be 94 22 c8 3d 16 22 89 bf
       0.68759036 -0.31904724 0.0977222 -1.0713527
000380 d8 f9 67 bf 73 25 23 3e d5 18 66 3f b0 fb 9b bf
       -0.90615606 0.15932254 0.8988164 -1.2186184
000390 5b 0a 8b be 42 9d f3 3e c8 66 f6 bc 96 73 93 be
       -0.27156338 0.47580916 -0.030078307 -0.28799123
0003a0 c1 6c 32 3f d9 87 35 3d 9a b3 af 3e 97 1d 46 3f
       0.69697195 0.044319008 0.34316713 0.773889
0003b0 e2 9b 1e 3f 10 c2 5e 3f e4 c6 7e bf 9f 14 02 3f
       0.6195661 0.87014866 -0.99522233 0.50812715
0003c0 f7 0f 1a 3f 51 04 e1 be f7 f0 8e be 3a 7a 1f bf
       0.6018061 -0.43948606 -0.27918217 -0.6229588
0003d0 24 35 f5 be a2 b9 ad 3d 6f 46 53 bf 56 d0 0f be
       -0.47892106 0.08482672 -0.8252935 -0.14044318
0003e0 83 30 c3 be 5b 77 14 bf 7e 8f 80 be 9c fc 14 40
       -0.3812295 -0.5799462 -0.25109476 2.327918
0003f0 51 d2 1a bf 66 28 b7 c0 98 3d 72 bf 2c 5c e6 3e
       -0.6047717 -5.7236814 -0.94625235 0.44992197

lstm.bias_ih_l0 f4 [200]
000000 40 4d b2 bd cc 78 29 bd 44 dc 2b be a6 a7 ce bd
       -0.087061405 -0.041374967 -0.16783243 -0.1009057
000010 e6 a9 bb 3c 73 e0 d8 be ed 51 b9 be 33 95 50 3e
       0.022908162 -0.4235874 -0.36195317 0.20369415
000020 98 24 b5 be 97 03 9f 3c 6a c7 02 3f ed 0e 0b bf
       -0.3537948 0.019410891 0.5108553 -0.5431965
000030 fd 4c 07 3f 6a 75 c6 be 64 c2 8f 3d 33 6e 13 be
       0.5285185 -0.38761455 0.07019499 -0.14397506
000040 b1 b0 b6 bd e5 7f aa 3e 2e 6a cd be fb 77 56 bd
       -0.0892042 0.333007 -0.4012007 -0.052360516
000050 2a ed b5 bd ff 49 21 be 56 47 4f 3e 5e 10 93 3e
       -0.08883126 -0.15750884 0.20242056 0.28723425
000060 2d 17 76 be 6b 58 58 be 2c 8e e9 3e 91 27 08 bf
       -0.24032278 -0.21127479 0.4561628 -0.53185374
000070 d5 fe 34 3e 96 09 d2 bd ab 17 48 bf c4 6c 4e be
       0.17675336 -0.102557346 -0.78161114 -0.20158678
000080 91 05 0b 3f 3e 28 4b 3e 74 d7 f9 3e 5c 27 10 be
       0.5430537 0.1983957 0.4879719 -0.14077514
000090 cf 2d 8b be 0f 21 c9 be f9 51 18 bf 51 d0 dc be
       -0.27183387 -0.39283034 -0.5950008 -0.43127683
0000a0 2b 6b 1c 3f 21 a6 53 be 6f 66 3a bf e5 66 73 be
       0.61101025 -0.20668842 -0.7281255 -0.2376972
0000b0 37 1c 5c be 5b 67 0d bf db e0 72 3f 5b 88 3b 3e
       -0.21495138 -0.5523583 0.9487435 0.18313734
0000c0 ec d6 87 be 13 47 10 bf 6b c6 f5 3e 4c 5b d9 bd
       -0.2653116 -0.5635845 0.48002943 -0.106131166
0000d0 3c bb 66 3f aa 94 2b 3d b3 cd 45 3f 3c 35 6a be
       0.90129447 0.041889824 0.77267 -0.2287187
0000e0 de 7b 29 be 8b 38 1c bf 00 8e 24 3f 90 ef de bd
       -0.16551158 -0.6102378 0.64279175 -0.10885537
0000f0 62 f9 b8 be f9 73 8e 3e ae c2 a0 be 2c 38 11 3f
       -0.36127764 0.27822855 -0.3139853 0.56726336
000100 7b 0a 1c 3f d3 f2 98 3e a9 7b dd bd 86 32 2c bf
       0.6095349 0.2987276 -0.10814602 -0.6726459
000110 51 57 90 3e c4 22 74 be 6a 5d ee be b7 59 1f 3f
       0.28191617 -0.23841387 -0.46555644 0.6224627
000120 5c 39 c1 be 83 da 8d bd b6 b0 30 3f de f1 49 be
       -0.37739074 -0.069264434 0.6901964 -0.19721171
000130 3e 60 9c be 6a fc 55 3d 36 5b 33 bf 94 6f c9 3e
       -0.30542177 0.052242674 -0.7006105 0.3934294
000140 13 9d 08 be 44 e5 8c be 04 aa 7f be bf 91 1e bf
       -0.13341169 -0.27518666 -0.249672 -0.6194114
000150 83 80 de be 2f 76 1e be b9 32 64 3f 70 ee 80 3f
       -0.43457422 -0.15474771 0.89139897 1.0072765
000160 0d c5 32 3d 34 86 35 3e 29 4e 6c be 9e 03 b4 be
       0.043644954 0.17726976 -0.2307669 -0.3515901
000170 39 40 71 3e 8a 59 d1 be 2f ab 35 3e 2e d2 57 3e
       0.23559655 -0.40888625 0.17741083 0.21076271
000180 9c b9 1d 3e 4c 99 97 3e 78 e6 db 3e c3 e0 b3 bd
       0.15402836 0.29609144 0.4294927 -0.08783104
000190 3d d8 c2 bb aa 55 21 bf 9f b7 a0 be 41 f1 13 3e
       -0.005946188 -0.6302134 -0.31390092 0.144475
0001a0 22 81 3b be 1a 50 8b bd a5 0c 01 be bd 48 a3 3d
       -0.18310979 -0.068023875 -0.1260248 0.07972858
0001b0 9a e1 c4 3d 55 95 0c be e6 6a 9c 3e 3b 5d 2e be
       0.096133426 -0.1372884 0.30550307 -0.17027752
0001c0 0c f4 7a be da 88 c5 3d 79 31 ac bd e4 dd f6 bc
       -0.24507159 0.09645243 -0.08407874 -0.030135103
0001d0 83 80 93 bd 06 cb f0 be 0b 0f ad bd cf 29 0f be
       -0.07202246 -0.47029895 -0.08450135 -0.13980792
0001e0 9a 83 18 3e 51 60 42 be b5 d2 68 3e 99 54 84 3e
       0.14893952 -0.18982054 0.22736628 0.25845793
0001f0 61 b3 03 be 7c 32 16 3e 3e 73 b2 3d 51 ba 39 be
       -0.12861396 0.14667696 0.08713387 -0.1813748
000200 75 4b ef bd 58 6c 89 3d 12 8b fa be 02 c2 85 be
       -0.11684314 0.06710118 -0.48934227 -0.2612458
000210 fa e7 6e 3c cd 4b 9f be 65 0c bf bc c1 39 e2 bb
       0.014581675 -0.3111252 -0.02332134 -0.0069038575
000220 8f 1d 7a bd df a0 f3 3c 15 91 6b 3e 04 c7 ea 3d
       -0.061063346 0.029739795 0.23004563 0.114637405
000230 b1 1f 6c 3e cd 5a 8e bb d2 f9 d0 3d 57 ca 16 3e
       0.23058964 -0.0043443204 0.102038994 0.14725624
000240 38 18 14 bd 02 79 07 be db b9 63 3d 91 aa 9e be
       -0.03615591 -0.13229755 0.055597167 -0.30989507
000250 15 ad 10 3e 34 fd 9a bc 6e 67 6d be 4c a7 5e be
       0.14128526 -0.018919565 -0.23183987 -0.21743506
000260 f1 b8 7b 3d c2 82 2e 3d e8 75 4a 3d 00 2c 08 3e
       0.06145567 0.04260517 0.04942885 0.13298035
000270 ff 80 db be 63 25 2f 3e f6 08 17 3e 43 64 3c bb
       -0.42871854 0.17104106 0.14749512 -0.0028746284
000280 ae 62 ec 3e 87 af 89 be 09 06 13 3f d9 f8 43 be
       0.46169037 -0.2689173 0.57431084 -0.19137897
000290 8d 23 ae 3d da fe 9c 3e 4c d8 48 be c8 f6 a3 3e
       0.085028745 0.30663186 -0.1961376 0.32024217
0002a0 9a 83 6c be b3 92 2f be 00 cf 75 be 0d bb 27 3e
       -0.23097077 -0.17145805 -0.24004745 0.16379948
0002b0 e5 5b ca 3e 52 7e 2c 3f f7 bb ff 3c bc 3c e7 bd
       0.39523235 0.6738025 0.031217558 -0.11290881
0002c0 4c dd 1e 3f 1b df 00 bf 61 15 ce 3e eb 89 58 be
       0.6205642 -0.5034043 0.40250686 -0.21146362
0002d0 0f ab fb be 6d ca 94 be fe 71 0a 3f cc bd 3f bd
       -0.49153945 -0.2906069 0.5408019 -0.046811864
0002e0 70 52 c1 3e 79 bb 6f bc 01 92 7f be e7 39 3d 3f
       0.37758207 -0.014632099 -0.2495804 0.73916477
0002f0 94 82 04 3f 8a 1c 01 be 41 b9 4e 3f 93 f6 92 bd
       0.51761746 -0.12608543 0.80751425 -0.071759365
000300 79 45 e1 be ef 75 7a be a1 44 f5 3d 9e ac 02 bf
       -0.43998316 -0.2445905 0.119759806 -0.5104464
000310 06 c9 53 3f 53 49 2e bd 5b 79 0e bf 2a b5 e5 be
       0.8272861 -0.042550396 -0.55653924 -0.4486478

lstm.bias_hh_l0 f4 [200]
000000 57 11 0a be 19 94 38 be e2 2b 3f be 38 88 f8 bd
       -0.13483177 -0.18025245 -0.18669084 -0.12135357
000010 ed 29 01 3d d1 5b ec be 93 fb e1 be 0d 94 1c 3e
       0.031534124 -0.461638 -0.44137248 0.15290852
000020 3c 26 10 bf cf 74 bb 3d e1 cd 84 3e 9c 65 de be
       -0.5630834 0.09153139 0.25938323 -0.43436897
000030 77 09 2e 3f 76 f5 d8 be 0c bc f2 bc ff 63 fc bc
       0.6798319 -0.42374772 -0.029630683 -0.0308094
000040 5d 97 36 bd 87 c1 ef 3e 2c 61 bd be cc 7e 19 be
       -0.044577945 0.46827337 -0.369882 -0.14989775
000050 48 42 3e be f7 e9 21 be d9 39 b3 3d 54 40 be 3e
       -0.18579972 -0.15811907 0.08751268 0.37158453
000060 f7 ca 6d bd 3b 89 c2 be a0 46 0d 3f 8b 04 06 bf
       -0.05805489 -0.37995324 0.5518589 -0.5235068
000070 f9 42 74 3e c4 74 42 be 47 02 32 bf 20 c0 41 be
       0.23853673 -0.18989855 -0.69534725 -0.18920946
000080 cf 5f d1 3e 42 31 24 3d bd 3d 3a 3f 50 3b 0f be
       0.4089341 0.04008604 0.72750455 -0.1398747
000090 1b 83 89 be 84 74 7c be 7f 90 59 bf bd d4 ed be
       -0.26857838 -0.24653822 -0.8498611 -0.4645137
0000a0 8d e4 22 3f 31 b0 2c be 81 36 28 bf cc 09 d5 bd
       0.6362999 -0.16864087 -0.65708166 -0.10402259
0000b0 2e a0 82 be 65 cd a4 be 25 b0 45 3f 23 16 82 3e
       -0.25512832 -0.32187954 0.772219 0.25407514
0000c0 07 bc 79 be ff 9f 1e bf 4c 92 02 3f 54 08 a1 be
       -0.24388133 -0.61962885 0.5100448 -0.31451666
0000d0 f0 3f 3b 3f 0c dc 56 3e a3 24 50 3f 02 2a 36 be
       0.73144436 0.20982379 0.81305903 -0.17789462
0000e0 4a 8b 7f 3c 0d f0 2f bf 72 e9 49 3f c1 d3 37 3d
       0.015597174 -0.68725663 0.78871834 0.04487968
0000f0 96 9f e6 be 23 dc 7f 3e e2 8c 9a be 86 7b 20 3f
       -0.4504363 0.24986319 -0.3018561 0.6268848
000100 b9 d2 21 3f 83 44 f2 3e 35 18 f8 bd 0a a0 3d bf
       0.6321216 0.47317895 -0.12113992 -0.74072325
000110 81 dd a3 3e ac 34 b7 3b d5 58 09 bf 1b a9 0d 3f
       0.32004932 0.005590996 -0.5365117 0.5533616
000120 b6 99 87 be 3e af 79 be 9a 67 52 3f e1 76 98 be
       -0.2648446 -0.24383256 0.82189333 -0.29778197
000130 a7 46 e7 bd 4d de 11 3e 36 7d 58 bf f0 f6 cd 3e
       -0.11292773 0.14244957 -0.84566057 0.4022746
000140 35 24 93 bd ec 95 c2 be bc 2b 66 be a7 d5 01 bf
       -0.0718464 -0.38005006 -0.22477621 -0.5071663
000150 e3 1a 9e be a7 82 33 bd 79 a4 8c 3f e6 f5 7e 3f
       -0.30879888 -0.04382577 1.0987693 0.9959396
000160 ba 3d 2c 3c 4a 5b 64 3e 8f 3c 8d be 90 ff 86 be
       0.010512764 0.22300449 -0.27585265 -0.26366854
000170 f4 e1 9a 3e 62 9d c9 be d3 49 43 3e 56 6d b2 3e
       0.30250514 -0.39377886 0.1907113 0.34849042
000180 8f c5 ad 3c dd f3 0b 3e 9f 9b 72 3e 7e 9b 5a be
       0.021212367 0.13667245 0.23692177 -0.21348378
000190 eb 37 3e ba bc 90 2f bf d7 2a e9 bd a9 32 f7 3c
       -0.0007256257 -0.6858022 -0.11385124 0.030175524
0001a0 ae e5 8e be 0e 16 c0 3d 17 51 57 bc ee ff 26 3e
       -0.27909607 0.093792066 -0.013141892 0.16308567
0001b0 52 a0 e1 3d c7 1c a8 bd 94 8e ae 3e 47 a6 30 be
       0.11016907 -0.08208614 0.34093153 -0.1725093
0001c0 bd 58 67 bb 0e bc 91 bc 4f fc 3a bd 82 e6 76 3c
       -0.0035300695 -0.017789867 -0.045650776 0.015069606
0001d0 4a 0a 29 bd d7 b0 0e bf 9d 90 3f bd 33 36 8a be
       -0.041269578 -0.55738586 -0.046768773 -0.26994476
0001e0 f1 34 a6 3c 43 a0 8c bd 10 e8 d7 ba df 1a bf 3e
       0.020288916 -0.06866505 -0.0016472358 0.3732519
0001f0 69 aa cb bc d2 34 1c 3e 2e 90 ee 3a a5 6f 69 3d
       -0.024861531 0.15254524 0.0018200928 0.05699124
000200 9f 34 f4 3c 5d 9e ea bc 38 3e ee be 08 a9 ca be
       0.029810248 -0.028639967 -0.46531844 -0.39582086
000210 a9 1f 05 3d bf 5f 4f be bd ef cb bd e6 5f b9 3d
       0.032500897 -0.20251368 -0.09957836 0.09051494
000220 ff f3 6b bd 6b 1e ec 3c 5f ed 67 3e eb 9c a9 3e
       -0.05760574 0.028823098 0.22649144 0.3312753
000230 65 28 d5 3e 1c 8e 34 be 58 26 aa bd be ef c7 bc
       0.4163238 -0.17632335 -0.08308095 -0.02440631
000240 5a 4f 25 3d 04 01 07 3c 44 19 cd 3c 75 39 c0 be
       0.04035888 0.008239988 0.025036462 -0.37543836
000250 5c e8 d0 3e ce 84 02 be 02 a9 10 be 48 14 6f be
       0.40802276 -0.12745973 -0.14126971 -0.2334758
000260 11 ba 34 3e 8b df 3a 3e 13 b6 27 3e 09 84 9d 3e
       0.17649104 0.18249337 0.1637805 0.30764797
000270 4d 33 13 bf 69 e1 44 3e 8c 8d e9 3d 54 51 17 3c
       -0.57500154 0.19226612 0.11403951 0.009235699
000280 10 26 b7 3e 8d 7b b5 be 32 8f d0 3e d6 8c ae be
       0.35771227 -0.35445824 0.4073425 -0.34091824
000290 47 d3 c0 3d 43 19 1b 3e c7 b6 b1 bb 3c 69 87 3e
       0.09415298 0.15146355 -0.0054234 0.26447475
0002a0 0f 8e 21 bd 05 aa c9 bd cc b6 6b be 8f e0 73 bb
       -0.03944212 -0.09846882 -0.2301895 -0.0037212705
0002b0 6f cd 6e 3e 28 f7 61 3f d4 ce 1e 3d 32 e4 49 be
       0.23320554 0.88267756 0.038771465 -0.19715956
0002c0 84 13 25 3f 28 38 ba be bf 54 6c 3e 2b cf 24 be
       0.64482903 -0.3637097 0.23079203 -0.16094653
0002d0 b7 45 ef be d2 5f b9 bd dc 48 0a 3f 77 c6 25 be
       -0.46732876 -0.090514794 0.54017425 -0.1618899
0002e0 d7 f5 25 3e 7f 07 b7 bc b8 db 3b be 95 91 3f 3f
       0.16207062 -0.022342442 -0.18345535 0.74831516
0002f0 ed 3e ea 3e f8 b3 63 be 77 f9 54 3f 8b 3d 82 be
       0.45751134 -0.22236621 0.83193153 -0.2543758
000300 1d 87 e3 be d7 fb da bd 88 74 67 3e e4 6f 3c bf
       -0.4443902 -0.10692566 0.22603047 -0.7360823
000310 58 bd 1a 3f 59 c0 d1 bd f7 6e 04 bf 09 7a 07 bf
       0.60445166 -0.102417655 -0.5173182 -0.52920586

linear.weight f4 [1, 50]
000000 77 44 83 bd 04 90 ab bd 8f 76 32 3e 72 53 24 bf
       -0.06409543 -0.08377078 0.17428039 -0.6418983
000010 22 b7 21 3e 20 47 bc 3e 34 57 1a 3e aa 37 71 be
       0.15792516 0.36773014 0.15072328 -0.2355639
000020 68 8c bc bd db b8 a3 be a9 f3 71 3d 2d b2 39 bc
       -0.09206468 -0.3197697 0.059070263 -0.011333984
000030 76 fb 4e bf 56 62 26 be 71 92 c8 3d 92 b3 af bd
       -0.8085245 -0.1624845 0.097935565 -0.08579172
000040 b8 fc 62 bd 5b e7 24 3d 4a 0c 1b 3e 71 ca f0 be
       -0.055416793 0.0402597 0.15141407 -0.4702945
000050 49 09 58 bf c3 bf 3a 3e 05 b2 8f bb 56 19 c3 be
       -0.8438917 0.18237214 -0.0043852353 -0.38105267
000060 bd d4 4a 3e 14 0d ca 3f 70 6b 16 bf 62 45 a5 3d
       0.19807716 1.5785241 -0.58757687 0.08069874
000070 4a eb 05 3f 0a 38 cf 3d ad e7 3c bf 17 0e 59 be
       0.5231215 0.101181105 -0.7379101 -0.21196781
000080 be eb 64 bf df 78 e6 bd 4c 5c 9d be f8 3e e0 be
       -0.89422214 -0.11253523 -0.3073448 -0.4379804
000090 68 1b 63 bd 4d 89 e7 bd ed d4 ac 3f c0 4e 16 bc
       -0.05544606 -0.11305485 1.350248 -0.009174049
0000a0 05 88 76 bf b6 d0 89 be f5 f6 64 bd fa 7d 04 bf
       -0.963013 -0.26917046 -0.05589958 -0.51754725
0000b0 89 9e 5e 3e ae f0 10 3d 7f cb 0b 3f fa 48 3f be
       0.21740164 0.03538578 0.54607385 -0.18680182
0000c0 c3 5d dd 3d 7a d6 59 3e
       0.10808899 0.21273223
