lstm_FullData/trial10/jt1_vel/lstm_model_epoch143.pth (torch, 50829 bytes, 5 tensors)

lstm.weight_ih_l0 f4 [200, 8]
00000000: 2a4f d03d 017b 45bd d45d 433e c142 d0be
00000010: 14f1 aebd 0b86 963d e0bd e53e ab00 0dbe
00000020: be82 e4bd 3352 a5bd 24be 043e 1f97 b3be
00000030: a322 11be bb7b 203b 5e0e 653e e641 5cbe
00000040: a90e 163d da5c b73d 107c 7b3e 576b 02bd
00000050: fe41 4dbe 80c9 01bc 7f4d 37be 3570 243e
00000060: 5557 733c a876 d63c 8217 563e f27a 93be
00000070: ba16 8fbe 2c65 52bd e49c 52be ec8e e33c
00000080: 9249 04bd 6d10 7dbe fce6 683e e22d e4be
00000090: dc8a 38bb 50fe 13be 56a1 4cbd af73 0dbe
000000a0: 13a3 933e 48a7 19be af5f abbc 8b44 98be
000000b0: bd44 71be 8e27 333e ae1a ac3d 347b ad3c
000000c0: a7d3 32be 7d99 8abe 0eff 8e3e af21 073e
000000d0: d6be 923d bc08 11be 087e 1a3e 97ca db3d
000000e0: 0273 89bd ad5a a0be 7e30 073e ae5c 1bbe
000000f0: 6781 afbd 6124 1c3e ce4b 23be 7510 343c
00000100: 966e b23b 94ea 90bd 5f09 fb3e 630c 9dbe
00000110: a8c5 0dbe 0aba 0a3e 9caa 823d f51f 85bd
00000120: c99e 013e dcab 02be 57db 503d 0f1e 0fbe
00000130: 8673 9ebc 9f43 fabc ecc5 27be 94e8 4ebd
00000140: 1a5a 933e b555 e1bd 5d9c bb3d debe c4be
00000150: f9dc a6bd 9f5f 0abe b6e7 173e fa36 92be
00000160: cc40 1abd 94e6 e8bc e2fe b83e 9961 0cbf
00000170: 36a2 91bd acce 7d3d 789f 093e af3d 4bbe
00000180: 0262 513e 4c20 44be e255 4b3e fe36 d3bd
00000190: e291 13be 78c6 d3bd eccc 0b3e 7697 673e
000001a0: a995 473e 216b 39bd ef7d 1a3e c91c c8be
000001b0: ef34 eabd 2cba c93d a69e 0b3e 49cd d03d
000001c0: 60bc 16bd bd49 64be 3da1 553b 7b90 c23d
000001d0: c74b fd3d ae97 37be 01f2 63bd 5e00 edbd
000001e0: 58be 3a3e f966 88be b639 713e b5eb a9bd
000001f0: 4c3c ccbd f0f3 a5bd 6d41 9fbc b057 3ebc
00000200: 5f2a 8dbe cbf9 87be 225f b93e 70f8 15bf
00000210: 3a60 8dbd 426f 0e3d ee16 863d 5862 32be
00000220: bc8a 8dbe 278f 51bd cc90 763e d6f2 bbbc
00000230: 8951 46bd 820f d83c 8a2f 07be ec29 313e
00000240: 89d5 91bd 3c94 c73d 33d1 d53e 3e0b f7be
00000250: 9f83 1cbe cfee 903d 340e 683e a077 483a
00000260: 9522 913e 9912 92be c759 bc3d b874 20bd
00000270: 9339 86bd 0805 82be f306 bdbd 59cb 93bd
00000280: 9ea7 24be ed66 583d 6740 613e ea00 26be
00000290: 3bb5 4ebe a1e3 4fba e148 b1bc 5635 923d
000002a0: 6df7 2c3e aae0 0bbe a0ad 0f3e 2df1 b0be
000002b0: a586 26be 816d fd3c 1352 efbc a544 1dbd
000002c0: 8743 b03d d132 a5be 8571 083f a4f6 babe
000002d0: 5450 7bbe 24a6 a93d d7eb 09be 58b0 323c
000002e0: 24e7 a7bd 7250 243d b379 9e3e 207b 89be
000002f0: ebf4 6ebe ef1c abbc 1618 143e 89a2 493e
00000300: 58f7 833e dfa5 d9bd e0e4 203e 11b2 a8be
00000310: f18e e2bd 68af 063c c443 ad3d 2fb8 10be
00000320: 8912 e3bd e969 b3bc 9036 983e 6b81 d53d
00000330: c604 8abc fbe4 a63d e2dc 93be 98a9 a83d
00000340: fc64 4b3e 5175 22be 4f9b c1bb a52f 62be
00000350: ce25 87be ef4d 7b3e 2982 a83d a49b 1abd
00000360: 8aa4 103b dcf3 a8be ab06 b43e 304f 10bf
00000370: 0ca9 aabd 2596 e93c 33da 023e 4976 38be
00000380: 5187 77be dce3 ecbd 62d6 e73c 6700 013d
00000390: 8c88 13bb 0c91 46be 0637 27be 034f 243e
000003a0: 50c9 413e d7e3 97be 211d ec3d 333e 97be
000003b0: 1b76 bc3d d876 b4bc 52ff 34be 9346 7f3c
000003c0: 7985 033f 97b1 93bd 06fc 5a3e dc77 ecbe
000003d0: 026c 9dbe 42a4 1b3e c42e 5fbe d8f1 f03d
000003e0: debd a33d 69ce 5fbe b912 233e 13f6 12bf
000003f0: ef20 873d a04c 213e 0174 323e ff12 eabd
0.10171349 -0.04821301 0.19078761 -0.4067593 -0.08542076 0.073497854 0.44871426 -0.13769786
-0.111577496 -0.08072319 0.12963158 -0.35076234 -0.14173369 0.0024487812 0.22368762 -0.21509513
0.036635075 0.08953257 0.24559045 -0.03184065 -0.20044705 -0.0079215765 -0.17900656 0.16058429
0.014852365 0.026179627 0.20907405 -0.28804737 -0.27947026 -0.051366016 -0.20567662 0.027778111
-0.032296725 -0.24713297 0.22744364 -0.44566256 -0.0028158939 -0.14452481 -0.04995855 -0.13813661
0.28835353 -0.15005219 -0.020919649 -0.29739794 -0.23561378 0.17495558 0.08403526 0.021176912
-0.17463551 -0.27070227 0.27928966 0.13196443 0.07165305 -0.14163488 0.1508714 0.10732
-0.06711389 -0.3131918 0.13202092 -0.15172073 -0.085696034 0.15248252 -0.15946886 0.010990252
0.005445312 -0.07075992 0.49030587 -0.30673513 -0.13844931 0.13547531 0.063801974 -0.06500236
0.12658228 -0.12760872 0.05099043 -0.1397631 -0.019342195 -0.030549822 -0.16384095 -0.050514773
0.2877968 -0.110026754 0.09160683 -0.3842687 -0.08147616 -0.13513039 0.14834484 -0.2855757
-0.03765945 -0.02843026 0.3613196 -0.5483642 -0.071110174 0.061964676 0.13439739 -0.19847749
0.20447543 -0.19152945 0.1985698 -0.10313223 -0.14411119 -0.10340589 0.1365239 0.22616372
0.19490685 -0.04526818 0.15087102 -0.3908446 -0.114358775 0.098499626 0.13634738 0.10195405
-0.036800742 -0.22293754 0.0032597326 0.09500214 0.12367969 -0.17928955 -0.055650715 -0.11572336
0.18236673 -0.26641062 0.23557171 -0.08296911 -0.09972438 -0.08103168 -0.019440377 -0.011617586
-0.2757139 -0.26557764 0.36205393 -0.5858221 -0.069031194 0.034774072 0.06547342 -0.17420328
-0.27644908 -0.05116191 0.24078673 -0.022942942 -0.0484176 0.026374582 -0.13201728 0.17301148
-0.07120807 0.0974507 0.4176117 -0.48250765 -0.15284584 0.07076799 0.22661668 0.000764722
0.28346696 -0.28529814 0.09196811 -0.03917381 -0.0655395 -0.25394464 -0.09229841 -0.0721652
-0.16079566 0.052832533 0.21997224 -0.16211286 -0.20186321 -0.00079303427 -0.021641197 0.07139079
0.1689126 -0.13659921 0.14031076 -0.34559003 -0.162623 0.030936005 -0.02921394 -0.038395543
0.0860663 -0.32265332 0.5329822 -0.36516297 -0.24542361 0.08283642 -0.13468872 0.010906301
-0.081983835 0.04011578 0.30952224 -0.2685175 -0.23335616 -0.02088782 0.14462313 0.19690908
0.25774646 -0.106273405 0.15712309 -0.32948354 -0.1106242 0.008220531 0.08460191 -0.1413276
-0.1108752 -0.021901088 0.29729128 0.10425075 -0.01684798 0.08149143 -0.28879458 0.082354724
0.19862741 -0.15865065 -0.005908407 -0.22088487 -0.2639603 0.24541448 0.08227951 -0.037746087
0.002207073 -0.3299855 0.35161337 -0.5637083 -0.083330244 0.028513977 0.12778549 -0.18013872
-0.24172713 -0.11566898 0.028300468 0.031494524 -0.0022511808 -0.19391268 -0.16329584 0.16045766
0.18924451 -0.29666016 0.115289934 -0.29539642 0.09202214 -0.022029325 -0.17675522 0.015580791
0.5137554 -0.07211607 0.21385202 -0.46185195 -0.30746466 0.15199378 -0.21795183 0.11764878
0.07995199 -0.21856083 0.15925111 -0.5740673 0.065980785 0.15751886 0.17427064 -0.114294045

lstm.weight_hh_l0 f4 [200, 50]
00000000: 6528 a5bd a219 3abe d8b6 28be d601 2b3e
00000010: 4ec0 39be 4442 39bd 8a2a 84bd f4fd 2abd
00000020: b9a1 a03d 6c33 983d 3993 eabd 85e1 44bc
00000030: 8e29 273e c37b df3b e996 11be 6e68 1ebd
00000040: ff9f 7eba c740 8f3e 2698 6abe 4cbb 14be
00000050: 400a 0f3e 60b5 ef3c 7572 90be 8fb9 97bd
00000060: 1983 41be fa0b 4a3d 54f7 4dbe 73b1 ca3a
00000070: 32c1 d5bd 99c6 f1bd bdd9 afbd 8ca2 7ebd
00000080: 971b ca3d 98d6 58bd 5e26 063e d19c 31bd
00000090: 2677 06be ccf9 06bd 6e05 2f3e 2fd5 ff3d
000000a0: 5e40 55be 6e33 1f3e 6aa7 8bbc 0b81 bfbc
000000b0: edcc 933d aaf9 ed3d 59fe 403e e9eb 4b3e
000000c0: cd75 223e f90e 4a3e ddef 1cbe 7597 87bd
000000d0: c2de 6c3d 27c9 3abe a438 12be 6fea 773b
000000e0: 6dd4 c13c 0c15 d8bc 2e04 263d e507 e0bd
000000f0: 9c6f 9a3b 82cd 8dbd 8048 6e3c 9e61 1cbe
00000100: 04bd 3bbd 9ee7 0cbd ddbe b83d 3ef7 86bd
00000110: e7ed 08be b464 9dbd b5c2 46bd c140 983c
00000120: c404 ca3d 6832 cabd eabd 1bbe 8597 8fbd
00000130: 7b62 2ebe 1583 063e c8e1 ef3d 52cc 113e
00000140: c013 c23d e330 3ebd 6146 223e f47a 083e
00000150: 383d 1f3e 2954 5abd 5abe 8c3d dd9e 1ebe
00000160: 8d06 d83d 0782 063d 9547 5bbd f61d 81bc
00000170: 2c48 1f3e 1ca1 abbd 50a6 dd3c c233 42be
00000180: 5a62 053c 883f f43c c247 8ebd a6f0 72bd
00000190: 57fa e2ba 834a 6abd 55ae c83d 55bf 06be
000001a0: 42bd 9bbd d90c f9bc b8d9 c2bd bee1 1f3e
000001b0: a00e e03d ed15 b6bd 2286 acbd d337 82bd
000001c0: 6000 073e 6f05 d7bb fbca b6bd 8095 653d
000001d0: c548 0dbd 6cdf f93d 4c1d a03d 9e31 313e
000001e0: 4b7e 7ebe 3483 f9bd 2edb 8abc 3821 b1ba
000001f0: 3792 05bd dc02 0d3e e280 2f3e 36ea df3c
00000200: bf96 5bbd 8139 153b 8170 4c3d 4c1e 943c
00000210: fb0d 46bd 918f 0a3e e226 7abd eca0 0fbe
00000220: 6ebc 0a3e 33e5 683d 8716 cd3d 818b 763d
00000230: 0818 943a 8de5 5b3e 83c2 043e bd57 e4bd
00000240: 609b a73d b6b3 af3d d210 34bd ce6f 81bd
00000250: 2423 a93c 7fdb 2a3e 2313 a53d 7171 d6bc
00000260: b14b 00be edea 443d c03a a33c 2616 123d
00000270: 5cca a8bd 2dae 003c 5e52 02be 1700 2f3d
00000280: 11bc 9cbd 07e2 1abc d0d6 f83d d274 eabd
00000290: 74c1 183e 3359 923d c8ff aa3d 2d5c 323d
000002a0: 72b2 b5ba 71aa 2e3e 0b97 66bd a6b0 7f3d
000002b0: 5c59 3cbe bc00 85bd 393a 94bd 0a65 b43d
000002c0: 2b49 ed3d 8063 903d c04e b03d 3513 023e
000002d0: e114 12bd 84e9 5ebd ba62 493b 757b 9c3b
000002e0: 8ecd cebd e7d5 94bc 6b36 3bbc e8d5 a4b9
000002f0: fa2c c43b 8c57 cfbc 7287 92bd 5743 1c3d
00000300: b396 aa3c 236f 38be b4cc 803d 3815 dcbd
00000310: fc95 a0bd 200d 50bd 7912 e0bc 11d4 91bc
00000320: a27f 7cbd b709 2c3c d6cd 37bd 2ba1 35be
00000330: 4667 d1bd 7097 12be 6a68 04be 10a1 6f3d
00000340: d258 e9bc 77ab d3bd 7e33 0a3d cabf e23d
00000350: f6fb 3e3c 5d1a 723c de4d 54be 0bff a1bd
00000360: 462e 013e 68af ed3c 91e4 5ebe 51b0 dd3d
00000370: a552 813d a09a 8a3d 4073 c03c 9d28 973c
00000380: b2e9 1cbe d35d fc3d f789 aebd 4d62 e53c
00000390: 0c78 77bd 624a 103e db79 e23d 1cf3 f33d
000003a0: 5685 783e 9782 6f3d 3b90 0fbd 30f6 b03c
000003b0: f814 933e 8992 bb3d 831d be3d c5ca f63d
000003c0: 7b3e 273d e539 af3d c641 533e 3385 1abe
000003d0: 7855 903d 13aa 39bd e3c8 e5bd fb4a ef3d
000003e0: 8657 b2bd 3d12 b83d 9e27 99bd f829 113e
000003f0: 3922 3cbd 39d6 3fbe 919c 1cbe 918e 7f3d
-0.08064345 -0.1817384 -0.16476 0.16699919 -0.18139765 -0.04522921 -0.06453426 -0.041746095
0.07843346 0.07431683 -0.11453862 -0.012016659 0.16324446 0.0068201735 -0.14217724 -0.03867381
-0.00097131723 0.2797911 -0.22909603 -0.14524573 0.13968754 0.029261291 -0.28212324 -0.07408439
-0.18897666 0.049327828 -0.2011388 0.0015464261 -0.1043724 -0.118054576 -0.08586452 -0.062166736
0.098685436 -0.052939028 0.13100573 -0.043362442 -0.13131389 -0.03295307 0.17091915 0.124918334
-0.20825335 0.15546963 -0.017047603 -0.023376962 0.07216821 0.11619885 0.18847026 0.19914211
0.1586525 0.19732274 -0.15325876 -0.06620685 0.057829626 -0.18240796 -0.14279419 0.0037828942
0.023660863 -0.026377223 0.04053133 -0.10939006 0.004713012 -0.06923963 0.014543653 -0.15271613
-0.045834556 -0.034400575 0.09020779 -0.065901265 -0.13372003 -0.07685223 -0.04852553 0.018585565
0.0986419 -0.098728955 -0.15209165 -0.07011322 -0.17029755 0.13135941 0.11712986 0.14238098
0.09476423 -0.04643334 0.1584716 0.13328153 0.15550697 -0.053302918 0.06872244 -0.15490289
0.105481245 0.032838847 -0.053535063 -0.015761357 0.15554875 -0.083803385 0.027056843 -0.18965057
0.008141125 0.02981545 -0.069472805 -0.05931153 -0.0017317039 -0.057199966 0.09798876 -0.13158925
-0.076044574 -0.030401634 -0.09514183 0.15613458 0.109402895 -0.08890901 -0.08424021 -0.06358304
0.13183737 -0.006561927 -0.08925434 0.056050777 -0.034493227 0.122008175 0.07818088 0.17304084
-0.24852864 -0.12183228 -0.016950216 -0.0013513928 -0.032610144 0.13770622 0.17139009 0.02733336
-0.05361056 0.002276987 0.04991198 0.018080853 -0.048353177 0.13531329 -0.061072238 -0.1402623
0.13548443 0.056859206 0.100140624 0.060191635 0.0011298666 0.21474285 0.12964825 -0.11149547
0.08183932 0.08579199 -0.043961354 -0.06320153 0.02064664 0.16685294 0.08060291 -0.02617714
-0.12528874 0.048075605 0.019925475 0.035665654 -0.08241722 0.007854027 -0.12726733 0.042724695
-0.07653058 -0.009453303 0.12150347 -0.11448063 0.14917547 0.0714592 0.08349568 0.043544937
-0.0013862385 0.17057206 -0.05629639 0.062424324 -0.18393463 -0.06494281 -0.072376676 0.08808334
0.11586221 0.07050228 0.0860877 0.1270264 -0.035664443 -0.054421917 0.0030729012 0.0047754594
-0.100978 -0.018168403 -0.0114265485 -0.0003143989 0.005986807 -0.0253103 -0.071547404 0.038150158
0.020823812 -0.18011145 0.06289044 -0.10746235 -0.07841107 -0.050793767 -0.027352558 -0.017801316
-0.061645158 0.010500363 -0.044874035 -0.17737262 -0.10224776 -0.14315581 -0.12930456 0.05850321
-0.028484736 -0.10335439 0.033740513 0.11071737 0.011656752 0.014776793 -0.20732829 -0.07909974
0.12615308 0.029014304 -0.21766879 0.10824645 0.06314591 0.06767774 0.023492455 0.018451983
-0.15323523 0.12322583 -0.085224085 0.028000975 -0.06041722 0.14090875 0.11058398 0.11911604
0.24269614 0.05847415 -0.03504966 0.021601766 0.28726935 0.09158809 0.09282973 0.12050394
0.04083107 0.085559644 0.2063056 -0.15089874 0.07047552 -0.04532821 -0.11219957 0.11684223
-0.087081 0.08987854 -0.074782595 0.14176166 -0.045931075 -0.18734063 -0.152941 0.06239182

lstm.bias_ih_l0 f4 [200]
00000000: 3435 963e 332e 0c3e d15f 913d 9a4f 563e
00000010: ba93 893e 90d7 843e 2de8 363e a2d4 743e
00000020: e58f 173e 79ad 7b3c 660b a73d a819 2a3e
00000030: fd7f a93e 2372 1e3d b41d 503e a11e 873e
00000040: c911 e83e 23ca 853e d0fc 4e3e 938f 563e
00000050: 340e 833e 7aa2 c83d 27ec b63e cb0e 873e
00000060: 9a58 843e 1d26 c639 1a65 f53d 7aa3 f13e
00000070: 48e2 c83b 9aee ad3e 88df 853e 5b5e 373e
00000080: 7b69 633e 6cb8 1a3e 6f75 1e3e 381e 653e
00000090: aa6f 823e d7ba cb3e 640b ab3e 6f61 ce3e
000000a0: e026 823e 3211 c83e bd92 4c3e 007c 31bd
000000b0: 9842 543e fd78 353d 6ef0 633d 8ac5 053e
000000c0: 5485 523e 80f0 3b3e 4600 1dbe b892 0e3e
000000d0: 31b8 223d a71d 62bc 73fe f53d 8ac6 333d
000000e0: fec2 9e3d e80b 463d 477c a1bc 07fc a5bd
000000f0: 46cd 88bd e9d1 f93d dbf1 6b3d 7b8a 37bc
00000100: 7b0b bc3c c8a5 903c f172 bfbc a0de 3d3e
00000110: ef93 9fbd 8378 183e 8b9c f83d df4c 0b3e
00000120: c682 dbbd f4d8 c13d b1b1 a53c 92ac 2a3e
00000130: e805 b73d b046 0e3e 0fa4 1bbd bec2 cf3c
00000140: fef2 f23c 9721 dabc 134b 133c fcae 0dbd
00000150: 01e6 123e 9d52 dd3c 8174 d6bd 92e0 f13d
00000160: dc3c aabd 5dc9 193e 983c df3d a431 81bd
00000170: a7fa fb3d 5966 fcbc 70d6 05be 95a9 343d
00000180: ddbf f0bd 92b8 383e 8ad7 a9bd 1069 1dbd
00000190: bfd6 0b3d 6313 c3bd 87b0 b33d aa3f e2bd
000001a0: 3dcd 87bc 73ff f1bc 7f86 0fbd 4546 3f3e
000001b0: 0971 393e 966f 1abe 6cb7 8abd 1548 a33d
000001c0: 2994 873d 4206 82bd ea54 5e3d b95c 8abd
000001d0: 3131 053e 1ae4 e93c 1326 0c3d 0a28 ec3d
000001e0: 601f b8bd cc02 27bc 2bbc 073d 7901 c73d
000001f0: 03db 7f3d 9734 eb3d a317 e63d 7ad0 c13d
00000200: 9ece 2dbe cee6 b63d 41db 71bb 3b33 953d
00000210: 14d4 bdbd 2563 533e cb2b b2bb d824 02be
00000220: a7d1 a03c 4847 723d 2c65 9ebd 55fb eb3d
00000230: 1b64 b33d 0858 52bd 193e 5c3d 2270 23be
00000240: 504e 0fbe 5f3f 1b3e 1c4d 63bd 8f23 bb3d
00000250: f931 8a3d a537 80ba 5ab2 643d 7578 d43c
00000260: 0ebe 833e c474 a23d c97d 1d3e 2128 bf3d
00000270: 2d7c 583e a8a2 963d bf96 fb3c 82e5 123e
00000280: 3712 333e 471f 7f3e 2164 643e eb03 e33c
00000290: 2e8c b6bc 7e92 613e ff17 a93e 0626 4b3e
000002a0: cea6 973e efc7 5f3e 9710 1d3e 5450 9e3e
000002b0: 0f06 863e 507d 1b3d e368 0d3e c512 d73c
000002c0: 980b 223e bcf0 c13e 7a6e b03d d10f 203e
000002d0: c9ee 323e e89e aa3e c2e9 04bd fb88 343e
000002e0: d0ae 0a3d a26a 373d 6294 2b3e 95f0 543d
000002f0: d0d8 5e3e e021 973e aee5 933e df9a 663e
00000300: f189 9d3d 4f5f 463e c884 c13d 9c28 2a3e
00000310: 4908 9c3e ec72 b23d 4393 753e ff2e 883e
0.29337466 0.13689499 0.07098354 0.20928803 0.2687052 0.2594571 0.17862006 0.23909238
0.14800985 0.015361183 0.08156471 0.1661135 0.3310546 0.038683068 0.20323831 0.26390556
0.4532607 0.2613078 0.20213628 0.20953207 0.25596774 0.09796615 0.35727045 0.26378474
0.25848848 0.000377939 0.11982174 0.47195035 0.0061304905 0.339711 0.26147103 0.17907088
0.22208206 0.15109414 0.15474485 0.22374809 0.25475818 0.39790985 0.33407128 0.4030871
0.25420284 0.3907562 0.19977851 -0.043331146 0.20728528 0.044304837 0.055649213 0.13063636
0.20558673 0.18353462 -0.15332136 0.13923156 0.03972644 -0.013801015 0.12011423 0.043890513
0.077520356 0.0483512 -0.01971258 -0.08104711 -0.06679778 0.1219824 0.0576037 -0.01120245
0.022954693 0.017657176 -0.023370238 0.18541956 -0.07791888 0.14889722 0.12139233 0.13603543
-0.107183024 0.09465209 0.020226331 0.16667393 0.089366734 0.13894153 -0.037998255 0.025361415
0.029656883 -0.026627345 0.008990067 -0.034590706 0.14345552 0.027016932 -0.1047144 0.118104115
-0.08312389 0.1501822 0.10900229 -0.06308296 0.123036675 -0.030810522 -0.13070083 0.04410704
-0.11755345 0.18039158 -0.08293064 -0.038430274 0.034140345 -0.09525182 0.08773904 -0.11047299
-0.016577357 -0.029540753 -0.035040375 0.1867915 0.18109526 -0.15081629 -0.06773266 0.07972733
0.06620056 -0.0634885 0.0542802 -0.06755967 0.13007046 0.02855115 0.034215998 0.11531074
-0.08990359 -0.010193538 0.033138435 0.09717078 0.062464725 0.1148464 0.11234977 0.09463592
-0.1697335 0.08930741 -0.0036904367 0.07285162 -0.09268966 0.2064329 -0.0054373494 -0.12709367
0.01963122 0.05915001 -0.07734141 0.11522547 0.08759328 -0.051353484 0.05377016 -0.15960744
-0.13994718 0.15160893 -0.05549346 0.09137642 0.06747813 -0.0009782208 0.05583415 0.025936345
0.25730938 0.079324275 0.15380014 0.09333826 0.2114112 0.07355243 0.03071153 0.14345363
0.17487417 0.24914275 0.22303821 0.02771183 -0.02228364 0.22028539 0.3302612 0.19838724
0.2961945 0.21853612 0.1533836 0.3092066 0.26176497 0.037961304 0.13809542 0.026254067
0.15824735 0.37878978 0.08614822 0.15631033 0.17473902 0.3332436 -0.03244949 0.17630379
0.03385812 0.044779427 0.16755822 0.05198725 0.21762395 0.29518032 0.2888617 0.22520016
0.07692326 0.19372295 0.09449154 0.16617054 0.3047507 0.08713326 0.23981957 0.26598355

lstm.bias_hh_l0 f4 [200]
00000000: 4300 363e 684b a43e 345b 9c3e 40ed df3d
00000010: a439 833e 9133 6b3e aef4 a13d 3291 103e
00000020: 99c5 753e 64c9 ab3b e9dd 333e 32d0 a13e
00000030: a601 e33d 3538 ac3d 9588 0b3d 95ea 843e
00000040: f5a9 aa3e bbab 103e cd72 963e 56b1 033e
00000050: e7dc fb3c 9c22 a23e f7d7 4c3e efd9 d03d
00000060: 17ac 943e 45e2 723e 8876 ed3d 5e88 d43e
00000070: 8ae0 403e 50f2 093e 7d98 cb3d 83b2 963e
00000080: 14e2 c33d 3ab5 bb3e 88ac 933d 1db7 823c
00000090: 98ff 343e feb2 d93e 350a 8a3e e159 6d3e
000000a0: 5e36 123e 059b 173f 0143 6f3d 8e97 643e
000000b0: 9f71 863d edca 263e a5e6 863e fc90 433e
000000c0: cd98 6b3e 8d93 c23e 9458 d6bd 3325 edbd
000000d0: a5e8 08bc 9305 debd c805 4c3e 58ec 293e
000000e0: 4015 2d3e 18b5 d53d 8fe9 f13d 9f6c ef3d
000000f0: 891a 973d f108 b1bd 42c2 413e d953 da3d
00000100: f76e 80bb 4773 a13c f80d 333d c7ce f33c
00000110: 5f10 0d3e 47e6 f03d 062b 87bd e333 553d
00000120: 335d a83d ef79 83bd a578 293e 3737 5ebd
00000130: 6044 b03d 15b3 74bd 351f 4f3d 5467 88bd
00000140: 6bb4 e5bb 6ad2 09bd bac1 a43c fbb7 95bc
00000150: 6da5 8f3b 65da 5b3d 33ae ffbc 9639 0dbd
00000160: 9ee4 9b3d ae73 c2bd 2d34 313d 0a1c 9abd
00000170: 9b60 49bd 34aa d63d 7346 5f3d 5ae6 cc3d
00000180: a2f8 b33b 1d8e 153e 26d2 2dbe 6b11 303e
00000190: 7c32 363d 66e1 e0bd 79c6 183d cfb9 16be
000001a0: 3aff e8bd 5ed8 82bd dcb0 c4bd 79fc c63b
000001b0: 9b79 113e 2f8d 15bd 49c8 cfbd 28b0 aebc
000001c0: cdf3 d7bc 338f 96bd 6135 c8bc f617 473d
000001d0: 8dd1 b1bd 9eff e1bd cb84 a0bc e68e b03d
000001e0: 52ad 0e3b 835a 9e3d 2aa9 b03d 5a0a dbbd
000001f0: d4c5 58be a8ff b33d 1007 493d 3638 253e
00000200: cf6a 79be 83e2 bd3d cf25 133e 8e38 91bc
00000210: 1876 b0bd 78e5 343e f939 2e3e 1e12 61bd
00000220: 9a91 2b3e 8ba9 b33d b0ff d5bd 5a0f 523d
00000230: 8d4b 823d b1ac 79bd 5813 0a3a 2cd1 d93d
00000240: b06f bcbc e930 95bd 3d5a ae3d b9be fcbd
00000250: 6f8a a2bc bcba d63d d945 303e a109 ee3d
00000260: 511b 8b3e 82f9 563e 893d 853d e96c a93c
00000270: 0590 033e d3e9 953d 3bbf f63d f8ab 8b3d
00000280: 850f b53d a4a1 233e 24eb 253e 2a8f 853c
00000290: 5ce6 253d dc95 913e 513c de3e 94fd 613e
000002a0: ab09 b73e 59ed 0f3e ef02 693e 20dd a83e
000002b0: afee df3e 715c f93d c484 8f3e 3896 ca3d
000002c0: 4802 813e e4db c33e 623c fa3d 21f9 933e
000002d0: e5cc 8b3e 59c0 a83e da2d 5abc b0b7 473e
000002e0: ea76 ea3d 75e1 033d efdb 6b3d 8f76 423e
000002f0: d946 793e 48ce 5a3e f2c0 ce3d 7b4f ab3e
00000300: e4c5 2a3e 65ab 4f3e 5904 2d3e fa00 243e
00000310: 2e05 053e 5047 653e 3956 323e f096 053e
0.17773537 0.3208878 0.30538332 0.10933924 0.25629914 0.2296889 0.07907997 0.14117888
0.24001159 0.0052425135 0.17565121 0.31604153 0.11084299 0.08409158 0.0340658 0.25960222
0.33332792 0.1412801 0.2938446 0.12860617 0.030744983 0.3166703 0.20004259 0.101978175
0.29037544 0.23719127 0.11594874 0.4151029 0.18835655 0.13471341 0.09941194 0.2943307
0.09564605 0.36661702 0.07210642 0.015956456 0.17675626 0.42519373 0.26960912 0.23178817
0.14278552 0.59220916 0.05841351 0.22323439 0.0656464 0.16288348 0.26347843 0.19098276
0.23007508 0.38003197 -0.10466114 -0.11579361 -0.008356248 -0.10840907 0.1992408 0.16594064
0.16902637 0.104349315 0.11812126 0.1169064 0.07378108 -0.086442836 0.1892176 0.10660524
-0.003919478 0.019708289 0.043714494 0.029761685 0.13775776 0.11762672 -0.06600003 0.052051436
0.08220901 -0.06419741 0.16549928 -0.054251876 0.086067915 -0.0597411 0.05056687 -0.06660333
-0.007010033 -0.033647932 0.020111907 -0.018276205 0.004383734 0.053675074 -0.031210994 -0.034478746
0.07611965 -0.094947204 0.04326265 -0.07524879 -0.049164396 0.104816824 0.054510545 0.100048736
0.005492286 0.14604993 -0.16974697 0.17194144 0.04448174 -0.10980491 0.037298653 -0.14719318
-0.113768056 -0.06388925 -0.09604046 0.0060725776 0.14206545 -0.036511596 -0.10145623 -0.021324232
-0.02636137 -0.07351532 -0.024439516 0.048606835 -0.08682547 -0.11035083 -0.01959457 0.08621006
0.0021770787 0.077321075 0.086260155 -0.10695334 -0.21169215 0.08788997 0.049079 0.16134724
-0.2435715 0.09271719 0.14369892 -0.017727163 -0.086162746 0.1766566 0.17014302 -0.05494892
0.16754761 0.08772572 -0.10449159 0.05128417 0.063620664 -0.060955707 0.00052671647 0.106355995
-0.023002476 -0.072847195 0.08513305 -0.12341065 -0.0198414 0.104848355 0.17214145 0.1162293
0.27169278 0.20993617 0.065058775 0.020681815 0.12847908 0.07319989 0.12048193 0.0681991
0.08840851 0.1597963 0.1620298 0.016303618 0.04050289 0.28434646 0.43405393 0.22069389
0.35749564 0.14055385 0.22755025 0.32981205 0.4373679 0.12175835 0.2803098 0.09891933
0.25197053 0.382537 0.12218548 0.28901008 0.2730476 0.3295925 -0.013316596 0.19503665
0.11448462 0.032197434 0.057582792 0.18990539 0.24343432 0.21367753 0.10095395 0.33459076
0.16677052 0.20280226 0.1689619 0.16015998 0.12990257 0.22390485 0.17415704 0.1304586

linear.weight f4 [1, 50]
00000000: 70ee 463e 83db 41be 1056 56be ddae 1e3e
00000010: 156c 36be 5883 2abe 5c4c 16be c442 c8bd
00000020: 3622 8e3e 47b6 7d39 29dc 4bbe 5253 89be
00000030: 041a 873e 4ffe c13c 98c7 e53c ab3f 66be
00000040: 1c58 a6be 8aa2 173c 89e6 66be b421 3cbe
00000050: 9070 2c3e 90e1 093e d008 98be b7d6 10be
00000060: 3eb3 52be 7d6c 0cbe 275c fdbd acb4 453e
00000070: 7ec1 bbbc 2bfe a5be acb2 39be ba78 87be
00000080: 18fc bbbd 3ed6 5bbe 50aa 223e a512 813e
00000090: 08c2 3ebe 0d4f 53be 0730 863e c685 753e
000000a0: c246 8abe 64d9 6f3e 49e9 85be 77a1 283e
000000b0: 1995 d33d 1cfd 30be 9f0d 543e de66 2b3e
000000c0: 1935 913e 4ef9 753e
0.19426894 -0.18931393 -0.20931268 0.15496393 -0.17814668 -0.16651666 -0.14677566 -0.097783595
0.27760476 0.00024195864 -0.19908203 -0.2682138 0.26387036 0.023680834 0.028049275 -0.22485225
-0.32489097 0.009255061 -0.2254888 -0.18372232 0.16839814 0.13464952 -0.29694223 -0.14144407
-0.20576188 -0.1371326 -0.12371092 0.19307202 -0.022919413 -0.32420477 -0.18134564 -0.26459295
-0.091789424 -0.21468446 0.15885282 0.25209537 -0.18628705 -0.20635624 0.26208517 0.23976812
-0.2700711 0.23422772 -0.26154545 0.16467844 0.103311725 -0.17284054 0.20708321 0.1673846
0.28360823 0.24020883
