lstm_4to1/trial3/j2/lstm_model_epoch0.pth (torch, 49573 bytes, 7 tensors)

lstm.weight_ih_l0 f4 [200, 4]
00000000: 9beb 693e 8c72 0dbe a283 9f3e 267d a1be
00000010: 9d39 803d 476d d63d b39d ae3d a947 16bf
00000020: 87ae d73d 815a 033e 8084 413e 2e67 733c
00000030: 9a36 ebbc 17f1 7e3c 4fd0 8a3d 9ad7 85bd
00000040: 1af3 afbd 55b4 8c3c 962b 3b3e 167c dabc
00000050: f05f cebd a56f 0d3e 254d 723d e8f5 1fbe
00000060: df1b 07be c093 92bd 365a 0f3d 2a43 a73d
00000070: 4c07 013e fdf4 ffbc 56fe 47bc bc7c 4dba
00000080: db36 fbbe 3dd9 69be 3add bfbd cb93 2f3d
00000090: 7ae7 e63d 70af 783d 9a07 513e 7230 8cbe
000000a0: d5be 82bd 8ac2 123e 7ad4 dc3d 8cb1 25be
000000b0: df93 043d 8289 0abd ad65 0b3e da4b 89bd
000000c0: f2db df3d 4cf7 143d 824a ef3d 6557 8fbe
000000d0: 5245 8bbd 5fa1 653d d18a babb 9ed3 81be
000000e0: 9235 4c3d 62f5 d1bd 946f 38be feee c93c
000000f0: a5da 173e 3e3e 183e fa7b 2d3e 8f62 6ebe
00000100: 7ddc 243e d426 62be 35e9 46bd 6b3f 8cbd
00000110: df86 0d3e b211 103e d802 8f3e 857e 95be
00000120: 1b1a ecbc d663 3bbd 3c90 9b3d ee40 3cbe
00000130: d325 203d dda8 523e 0724 8fbc ada4 cfbd
00000140: 2764 0ebd f77d c43d 17e6 3b3c cf15 a9bd
00000150: d994 7abb 5649 b0bd ec99 5dbd 5202 8d3d
00000160: 6843 243e 4b00 8fbe ff7b 983d 2f13 8bbe
00000170: a0b1 123d 03a2 573d a41d c73d b032 e6bd
00000180: 49c0 293e 9e80 b2bd c32f 20be e305 18be
00000190: 75f2 0ebe c9f3 193e bb99 4f3d 4560 27be
000001a0: 1903 acbd 9a56 acbc 732f 63b9 bdd3 63be
000001b0: 1a52 533d 3bd7 75bd 2cd3 333e 26ef 5cbd
000001c0: 845a 163e f8e2 8ebc 9c27 e23d b506 a7be
000001d0: e9a9 90bd 84c6 783d 94da 7dbd 8b5e 13be
000001e0: 2048 76bd e748 06be 6876 163e e76f 6bbe
000001f0: 0c4c 843d dc6c 373e c994 1e3d 8975 01bf
00000200: 8bf3 bf3d a4b7 593d 9195 1bbd 466c dbbd
00000210: ff32 243d b917 803d a990 023e fedc 0b3d
00000220: 76b4 a6bd 9cf0 4e3e a2a7 0f3f 2729 0ebf
00000230: e3a5 4e3a 8d83 d4bd 752e 053e 8ecb 10be
00000240: f9ca 10be c183 393d 29ee 383e 7dcc 51be
00000250: fdd0 a1bb ed6f 7bbd b91a 273e 2874 25be
00000260: 245a fe3e 9ec3 fe3b 18ea 8c3d e0aa 42be
00000270: ecfb 01be 46ad b7bd 08ad a33d 72c9 f7bd
00000280: 0099 c2bd 3d0d eb3d 9413 6f3d 54d9 6dbe
00000290: f89a 7cbe cdb0 f63d 84de ec3e fabc 43bf
000002a0: 5d62 b3bd 8395 0bbe 1842 813d f90e d3bd
000002b0: a51a e03a 1cd3 6abd bc48 073d ee17 28be
000002c0: 85b8 4f3d d3a6 d53d 117d 173d aa9e 373d
000002d0: 0cf3 263e 7f8a 053e 7dfc bf3d 2452 3fbe
000002e0: 7d2c f33d fbf4 c43d ffdd 2e3e 2848 73bd
000002f0: 7fbf 26bd fee6 373e 00c5 ce3d 77f7 32be
00000300: 40af 81bd b8f2 7bbd e225 9c3c 6fd4 bcbd
00000310: 95dd d63d 4f9a 933d 6c37 623e 108f 67be
00000320: b96e 083d 0ab4 5b3e 44b0 183d 4297 573d
00000330: bed8 34bd 46dc 4b3e 3255 b0bd 4395 033e
00000340: 9976 e83d deeb 393d b3c0 9cbc c93d 453d
00000350: 9b50 32be 9347 423e 1837 7ebc b74f 13bd
00000360: ec5d b8bc 82ca ba3d e8ff 15bd 34cf ebbd
00000370: bdee 11be 42d5 813e d063 193d 4cf2 2fbc
00000380: 67af cfba 7a6b 3a3e 146c 1fbe f433 85bd
00000390: daa3 ab3d 563c f3bd b105 a4bd 27d0 b9bd
000003a0: fe5b 2bbe 46d3 57be d5d0 f7bd c055 e9bc
000003b0: 7308 58bd 0edd 643e 26ce 5abc 0abe 5bbb
000003c0: a847 0abe ce1b e0bb e86b b23c 28c3 bc3a
000003d0: 2c70 cfbd 78e8 1cbd 623e f23d 93fd d2bd
000003e0: 99a7 b6bd 78aa 353e 301c 8e3c 21b0 c9bc
000003f0: 9891 a83d 79de 3d3c 4c16 24bd 5ffa 36be
0.22843783 -0.13813227 0.31155115 -0.31540793 0.06260989 0.10470062 0.085261725 -0.58703095
0.10531335 0.12827493 0.18898201 0.014856143 -0.02871256 0.01556041 0.06778013 -0.06535263
-0.0859129 0.017175833 0.18278345 -0.026670497 -0.100768924 0.1381212 0.059155602 -0.1562115
-0.13194226 -0.07157087 0.03499814 0.081671074 0.1260044 -0.03124475 -0.0122066345 -0.0007838716
-0.4906529 -0.22836776 -0.093683675 0.042865556 0.112746194 0.060714185 0.20413056 -0.2738071
-0.063840546 0.14332023 0.10782714 -0.1618101 0.032367583 -0.033822544 0.13613005 -0.06703921
0.10930623 0.036368653 0.11684133 -0.27996364 -0.06800331 0.0560621 -0.0056928177 -0.25356764
0.049855776 -0.10251881 -0.18011314 0.024650093 0.148295 0.14867494 0.16941825 -0.23279785
0.16099735 -0.22085124 -0.048562247 -0.068480335 0.1382098 0.1406925 0.27931857 -0.2919809
-0.028821042 -0.045749508 0.0759587 -0.18384144 0.039098572 0.20572229 -0.017473234 -0.10138831
-0.03476348 0.095943384 0.011468432 -0.08256113 -0.0038235693 -0.08607738 -0.05410187 0.06885208
0.16041338 -0.2792991 0.074455254 -0.27163073 0.035813928 0.05264474 0.097224504 -0.112401366
0.16577257 -0.08715938 -0.1564322 -0.14845996 -0.13959678 0.15034403 0.05068372 -0.16345318
-0.08399028 -0.021037389 -0.00021666083 -0.2224874 0.05159197 -0.060019713 0.17561024 -0.053939007
0.14682966 -0.017442212 0.11042711 -0.32622305 -0.07063658 0.060736194 -0.06197603 -0.14391534
-0.060127378 -0.13113748 0.14693606 -0.22991906 0.06459817 0.1791262 0.03871611 -0.5056997
0.09372624 0.05315365 -0.037984435 -0.10714011 0.040087696 0.06254525 0.12750496 0.0341463
-0.08139889 0.20208973 0.5611516 -0.55531543 0.00078829954 -0.10376654 0.13006003 -0.1414015
-0.14139928 0.045291666 0.18059601 -0.20488162 -0.0049382434 -0.061386038 0.16318788 -0.16157591
0.49678147 0.007774784 0.06880587 -0.19010496 -0.12693757 -0.08968596 0.079919875 -0.120989695
-0.09501839 0.114771344 0.05836828 -0.23227435 -0.24668491 0.12045441 0.46263516 -0.7646023
-0.08758996 -0.13631253 0.063114345 -0.1030559 0.0017097784 -0.057330236 0.03302835 -0.16415378
0.05071308 0.1043221 0.036984507 0.04482905 0.16303653 0.13041113 0.0937433 -0.18683678
0.1187372 0.09617039 0.17076872 -0.059394985 -0.04070997 0.1795921 0.100961685 -0.17477213
-0.063322544 -0.06151077 0.019061033 -0.09220206 0.10491482 0.072071664 0.22091454 -0.22613168
0.03330872 0.21455398 0.037277475 0.052634485 -0.044152014 0.19908246 -0.0861 0.12849908
0.11350746 0.045390956 -0.019134855 0.048154626 -0.17413561 0.18972616 -0.015516065 -0.035964694
-0.022505723 0.091206565 -0.036621004 -0.1151413 -0.14251228 0.25358015 0.037448704 -0.01073892
-0.0015845121 0.18205062 -0.15568572 -0.0650405 0.083808616 -0.118767425 -0.08008898 -0.09072905
-0.16734311 -0.21076688 -0.121003784 -0.028483272 -0.052742433 0.2234995 -0.013354814 -0.003353002
-0.13503897 -0.006839252 0.02177997 0.0014401423 -0.10128817 -0.038307637 0.11828305 -0.10302272
-0.089186855 0.1774081 0.017347425 -0.024620118 0.08230895 0.011588686 -0.040060326 -0.17868946

lstm.weight_hh_l0 f4 [200, 50]
00000000: 92d8 0d3e d06a 17bd 5cac 1cbb 1d50 da3d
00000010: 24cb 84bd 19e2 5cbe 898f 9b3d 4aba 1b3c
00000020: 635d 00bd d5a2 113e c46e 2e3d e19e 61bd
00000030: 8d9c 493d 08c0 f8bc f533 47bd fdce ed3b
00000040: 11cc 8a3d f09e 17be a65a d6bc 9761 833d
00000050: 4963 bb3d 17c8 643d 6f83 263e 346c 853d
00000060: 7da1 3e3e ea93 a43b 1e11 31bd 07bc 743d
00000070: 7f49 e5bc ceed 08bd caf1 d33d c4c7 433d
00000080: 5751 223c 79f4 3b3c bbc0 343d b74e 963d
00000090: af55 9abd efcf e9bd ceb5 ae3d 3dca 7cbb
000000a0: 5e71 89bd 82b3 7d3e b6ad 00be 6508 033e
000000b0: 9223 adbd 6c1e 08bd f8aa b03d 34ce 013d
000000c0: 1f6f cd3d 1c73 cdbc 9eb0 31bd 8ede 813e
000000d0: a408 42bd 9fde 3c3c f9a1 753d 8492 4b3e
000000e0: 6fcc 113e b4c4 393d aed9 77be 2035 813b
000000f0: 78f0 483e de63 f43d 55ad a1ba a4a6 c1bc
00000100: 77be ffbd fee4 2fbe e2d1 12be 754a 233c
00000110: a370 19be e07b 3fbe ddb9 05b9 c01e 3f3e
00000120: 0271 c63e 23c4 1fbd 0b46 833e 7692 1dbd
00000130: 34d5 56bd bb45 893e dc2e 13be 027f 463e
00000140: 019c 103d f193 b2bc d8cc 80bd 04de ac3d
00000150: b932 3bbe fe16 afbd d43a 9cbd 2df9 cc3d
00000160: cb73 bc3a 249c 83bd 2fb4 153e 3528 983c
00000170: 3e89 ab3d 0251 363e e531 2bbe bf6d 9bbd
00000180: dcda ec3d 7420 19bc bb9e 94be 7728 3a3d
00000190: 8e1e 6abd 36b2 69bd 018d 1f3d 4291 8e3b
000001a0: bce4 02be 2347 6fbb 2313 79bd 22e6 2e3d
000001b0: 5002 cbbb 3bd4 5f3d 385b 9b3d 342f 23be
000001c0: cf26 78bd 98ef 3cbd f4d2 f2bc 6703 f6bd
000001d0: b3c8 3c3c 38ce f6bd d67e 93bd 71b5 e5bd
000001e0: ca57 16be 8808 853d a82b 093e 3a51 d93d
000001f0: bada 19bd aca4 1ebe a753 143e 7b5d 49bd
00000200: fc21 64bd f174 54bd 6daa 0c3e 02c1 733d
00000210: dfbf 2f3d b0b1 dfbc 9cce f5bc e33d d1bd
00000220: aed1 fd3d ce80 61bc 6a87 cd3d 5397 c3bd
00000230: 1296 d43b a389 ad3d d783 c1bc 58bc c7bd
00000240: 3b67 cabd 5184 00bd 8aea 08be 920c 6d3d
00000250: 44b6 ac3c 0912 933c 8f73 b13c ae2e 69be
00000260: 5e16 383c cc40 883d 4899 db3d f976 01be
00000270: 30da 54be fa77 e43c aad1 0c3d 57a5 b03d
00000280: e65b 50bd b689 b93d daf5 45bd f44d f53d
00000290: cd33 04be 7e57 b5bd c072 913c 5557 373d
000002a0: 416b c9bb 0ef2 133c 43a5 7f3b 29af 3a3e
000002b0: 0c8a 57bd 1eb9 babd 6cd5 05be 79d7 92bd
000002c0: 137e 02bd 968f 1b3d 593d d6bd 5fc6 e0bd
000002d0: ae5b 59bd 17f5 0dbd d4b5 613d d7be 80bd
000002e0: ceb2 77bd ab17 ba3d 7a1b 5ebd db29 a7bd
000002f0: bdb3 0c3e 4772 de3d 328a d03d d79b 08be
00000300: 2215 57bd 04d6 af3c 1d6f 5a3c c42b bd3d
00000310: 6d38 e03d dba4 1dbc 671b a73d 48b2 153d
00000320: 842c 143d efdd 033e e109 78bd d86d 50bc
00000330: 594d 0fbe f477 99bd 214b 85bd 8096 d4bd
00000340: b584 c6bd 2d56 cd3d bbb5 903b 27ea 27be
00000350: 362b 403c d550 633d f8d1 d6bd 687e 123e
00000360: 38dc 6b3b 45b5 43bd 82ec dc3d e0b4 83bd
00000370: c127 2fbe dcf2 503d 4089 d43c 6ee9 0e3e
00000380: c1f8 0c3e 5bee 373d 481c 4dbc 36ad b1bd
00000390: 5e6a 613d f548 00be 2e35 ccbd bcb8 38bd
000003a0: 3c77 a73d eec0 263e b79c f8bd f772 15bd
000003b0: 995e 2bbd 5421 353e 8cc4 213e ec35 34bd
000003c0: de8b bcbd 13b2 13be 7cc6 a03d 64e9 8e3c
000003d0: 28d9 00be 2929 953d 4ef5 9cbd c9fb c2bd
000003e0: da0a 013e 1161 033e fb8a 9ebd c243 3bbc
000003f0: 8fbd 67bd 8e3f 8e3d 2f3d 51bc 59a0 07be
0.13852146 -0.0369671 -0.0023906445 0.10659812 -0.064840585 -0.21570624 0.075957365 0.009504864
-0.03133906 0.14222272 0.042586103 -0.05508316 0.049221564 -0.030365005 -0.048633534 0.007257341
0.06777204 -0.14806724 -0.026166271 0.06415098 0.091497965 0.055854883 0.16261075 0.06514779
0.1861629 0.0050225155 -0.043229215 0.05974963 -0.027989147 -0.033429913 0.10348852 0.047797933
0.009907088 0.011471861 0.044129115 0.073392324 -0.07535874 -0.11416613 0.0853077 -0.0038572692
-0.06711076 0.24775508 -0.12566265 0.12796171 -0.0845405 -0.033232138 0.0862636 0.03169079
0.1003096 -0.025079302 -0.043381326 0.25365108 -0.04737152 0.011527686 0.059968922 0.1988011
0.14238141 0.045353606 -0.24204132 0.0039431006 0.19622982 0.11933111 -0.0012334982 -0.02363903
-0.124875 -0.17177197 -0.14337876 0.009966482 -0.14984374 -0.18699598 -0.00012753108 0.18664074
0.38758093 -0.03900541 0.25639376 -0.038469754 -0.05244942 0.26811013 -0.14373344 0.19384387
0.035305027 -0.02179906 -0.06289071 0.084407836 -0.18281068 -0.08549307 -0.07628408 0.10008464
0.0014377771 -0.06426266 0.14619516 0.01857386 0.08375786 0.1780434 -0.16718252 -0.07589292
0.115651816 -0.009346116 -0.29027352 0.045448747 -0.057158045 -0.05705472 0.03895283 0.004350812
-0.12782568 -0.0036510907 -0.060809266 0.04269994 -0.006195344 0.054645758 0.07585758 -0.15935975
-0.060583886 -0.046126932 -0.029641606 -0.12012368 0.01152246 -0.12051052 -0.072019264 -0.11216248
-0.14681926 0.06495768 0.1339556 0.10611196 -0.03756211 -0.15492505 0.14485036 -0.049161416
-0.055696473 -0.051869337 0.13736887 0.05951024 0.042907592 -0.027306408 -0.030005746 -0.10216882
0.12393509 -0.01376362 0.10035594 -0.09550347 0.0064876163 0.08473518 -0.023622436 -0.097527206
-0.09882971 -0.031376187 -0.1337072 0.057873316 0.021083005 0.017952936 0.021661548 -0.22771713
0.0112358015 0.06652984 0.107225955 -0.1264304 -0.20786357 0.02788924 0.03437964 0.08625286
-0.05086889 0.090594694 -0.048330165 0.11977759 -0.12910385 -0.088545784 0.017754912 0.04476102
-0.006146819 0.009029878 0.0039008416 0.18230881 -0.052621886 -0.091173396 -0.13069695 -0.071700044
-0.031858515 0.03797873 -0.1046092 -0.10975336 -0.05306595 -0.034657564 0.055105045 -0.062864
-0.060473256 0.090865456 -0.054225422 -0.0816228 0.1374044 0.108616404 0.10182609 -0.13340698
-0.05251039 0.021464355 0.0133321555 0.09236863 0.10948262 -0.009621824 0.081595235 0.036546975
0.036175266 0.1287763 -0.060556296 -0.012721501 -0.1399435 -0.07493582 -0.0650847 -0.10380268
-0.096932806 0.10026202 0.004416195 -0.16397916 0.011729052 0.05549701 -0.10489267 0.14306033
0.0035989415 -0.047780294 0.10787298 -0.064309835 -0.17105009 0.05101286 0.025944352 0.13956234
0.13766767 0.044905048 -0.01251895 -0.086756155 0.05503308 -0.12527831 -0.09971081 -0.04509805
0.08177039 0.16284534 -0.12139266 -0.036486592 -0.041838262 0.17688495 0.15797633 -0.043996736
-0.09206365 -0.14423399 0.07850358 0.017445274 -0.12582839 0.07283241 -0.07663976 -0.095206805
0.12601796 0.12829997 -0.07741352 -0.011429729 -0.05657726 0.06945716 -0.012770935 -0.13244762

lstm.bias_ih_l0 f4 [200]
00000000: 4ed0 f93e b16b 203e 0d4b b13c 7cac 123e
00000010: 1697 2a3e 7e5c 353d d18f 57bb c961 d1bb
00000020: 5164 553c 341f af3e d7fc 3b3e ca32 fcbb
00000030: cd25 343e d425 6d3c 473e d53d 9db4 153e
00000040: 3f34 ff3d 0c0b 4f3e 0903 743e ffb7 143e
00000050: 5c96 b839 dd87 103d 0dc4 1a3e 853d 303e
00000060: 20bb 273e f1ad 353e e746 aabd c092 473e
00000070: be6b f6bc bff9 813d 5f29 723e ec62 a33e
00000080: e428 a03d b40d 583d abfc 34bc c697 7ebc
00000090: f959 1a3e 9b91 033e 40f5 f43e 3828 fb3c
000000a0: 796f 1e3e a326 2c3f 0101 83bd 8425 073e
000000b0: 4b0c 63bd f3f9 e53c 9703 6fbd 318c 5a3e
000000c0: e1b6 3a3e 79cd 1a3e a75e 633d f786 69be
000000d0: 365d 9b3d 0b63 233b fd7a f7bd 7ceb 7dbd
000000e0: 1398 2abe d5e2 05be 03bf bbbd 79aa abbd
000000f0: f029 edbd c818 f4bd abf3 e33d 64c6 ae3c
00000100: d00a 963d b2f6 dfbd 1897 283c d06b 95bd
00000110: deda c93a 9bb9 253b 066e d7bd 2094 073d
00000120: f899 333d 6c43 8cbd 955a 05bd db62 713d
00000130: eb66 ae3b 924f 3f3c dd07 a8bc caa2 cb3d
00000140: eb11 213d 61b4 133e 215a fa3d a598 dc3d
00000150: 2b2f 33be 9257 2b3d e389 4f3d cd4d 01be
00000160: 8957 483b 60ce 7d3d d7fa dc3d 6fcc 8bbe
00000170: 5506 9abd 2168 e83d 4c4c d7bc 59a5 0f3e
00000180: dd53 c1bd 269d e53c 3846 12be 52a2 96bc
00000190: c1f9 1b3c b0ad 6abd 1b55 b93c 2b53 b8bd
000001a0: 0329 0ebe baa1 b03d 4e7b e0bb 63f4 a63d
000001b0: 7b48 393c 6974 eabd 2180 a4bd 917f dfbb
000001c0: bd1d a33d c722 113e 040f 9fbd 8eb4 f8bd
000001d0: 971d 80bd c2f5 c9bd 0a5d e2bd 212e f7bd
000001e0: 6c5d 21bd d2a0 123e 4fc9 b2bd d305 103d
000001f0: 3b11 a3bc 4ff8 d2bd 7881 013e ebd8 b73d
00000200: 2e4d fa3d 049c 323d 1359 b83d 0bac 2e3d
00000210: defd 83bd c9fb 00be 4dd6 993d cfae 083e
00000220: b122 ed3d 91cd bc3c 85ca 0ebe edf0 8c3d
00000230: cfa8 afbd 09de 3cbc 2907 a6bc 8208 4cbc
00000240: 0f34 8e3d f82f 2bbd 4d59 91bd 1875 273d
00000250: 3cae 883d 7883 e63d b5ad f03e 9321 8a3e
00000260: 02dc 9ebc 8bdc a1bd 276f 123d 3016 4d3c
00000270: bdd5 b4bd ee9f d43d 7d27 9d3d 182b 013e
00000280: 6993 113e 4283 c83b d67c 773e 01e5 943d
00000290: 3ea2 3c3d 66ac be3d df8b 4c3e 4b48 483e
000002a0: 7fc0 6e3e e101 d0bc 5453 473e dbef 90bd
000002b0: a053 de3d b11b 2a3e c3e7 673e 4b58 2cbb
000002c0: ad0a 62bc e4d4 d93d 5d3e 63ba 1986 0b3e
000002d0: f6e9 2c3e 9477 0d3e a537 71bc 6e1c 023d
000002e0: acff 003e b87e 2d3d 74d5 9dbd 00b4 313e
000002f0: 5d37 cc3e 5f09 163d 9fa3 d93e 6322 4d3f
00000300: 6f56 133e 2350 813e fb1c 043e 601c 093d
00000310: e548 99bc ceaf 033e 9120 8cbd d6d3 383d
0.48791736 0.15666081 0.021642232 0.1432361 0.16659197 0.04427766 -0.0032892118 -0.0063898307
0.013024406 0.34203494 0.1835817 -0.007696484 0.17592545 0.014474351 0.10412269 0.1461968
0.12461137 0.20219058 0.23829283 0.14523314 0.0003520724 0.03528582 0.1511385 0.17210968
0.16379976 0.17742135 -0.08314305 0.19489574 -0.030080672 0.063464634 0.23648594 0.3191141
0.07820299 0.052747443 -0.011046569 -0.015539115 0.15073384 0.12848513 0.4784336 0.030658826
0.15472211 0.67246455 -0.06396676 0.13197905 -0.055431645 0.028073287 -0.058353033 0.21342541
0.18233825 0.15117444 0.05551019 -0.22805391 0.07586138 0.002493086 -0.12084005 -0.061992154
-0.16659574 -0.13074811 -0.09167292 -0.083821245 -0.115802646 -0.11918789 0.1113046 0.021334834
0.07326281 -0.10935725 0.01028993 -0.07295954 0.001540031 0.0025287631 -0.10519032 0.033100247
0.043848008 -0.06848797 -0.03255709 0.058932167 0.0053223274 0.011676686 -0.020511562 0.09943159
0.03932373 0.14424278 0.12224222 0.10771302 -0.17498462 0.04183156 0.05066861 -0.12627335
0.0030569753 0.061964393 0.107900314 -0.27304408 -0.07520739 0.11347986 -0.026281498 0.14027919
-0.09439824 0.028029036 -0.14284599 -0.018387947 0.009519995 -0.057294548 0.02262359 -0.09000238
-0.13882832 0.08624597 -0.0068506366 0.08152082 0.011308785 -0.11447985 -0.08032251 -0.006820627
0.079646565 0.14173423 -0.07766536 -0.12143813 -0.06255644 -0.09861328 -0.11052902 -0.12069345
-0.039395735 0.1431916 -0.08729803 0.035161804 -0.019905677 -0.10301267 0.12647045 0.08976921
0.12221752 0.04360582 0.090013646 0.04264454 -0.06444906 -0.12596048 0.07511578 0.13347934
0.115788825 0.02304724 -0.13944443 0.068818904 -0.085771196 -0.011527547 -0.020267086 -0.0124532
0.06943523 -0.041793793 -0.07097111 0.040883154 0.066738576 0.112555444 0.47007528 0.2697874
-0.019392017 -0.07903393 0.035750534 0.012517497 -0.0882983 0.10382067 0.076735474 0.12614095
0.14216389 0.006119163 0.24168715 0.072702415 0.046053164 0.09310226 0.19975232 0.19558828
0.23315619 -0.025391521 0.19465381 -0.07076999 0.10855794 0.16612126 0.22647004 -0.0026297744
-0.013796491 0.10636309 -0.00086686556 0.13625373 0.16886124 0.13815147 -0.014722739 0.031765394
0.12597531 0.042357177 -0.077067286 0.17353821 0.3988599 0.03663003 0.42507645 0.80130595
0.1438844 0.25256452 0.1290168 0.033474326 -0.018711517 0.12860033 -0.06842149 0.045123897

lstm.bias_hh_l0 f4 [200]
00000000: c422 9d3e 768a 823e 85de 5c3c d1dc dc3b
00000010: 2d7c 5c3d 5afa 76bd 8445 163e ff99 9c3c
00000020: 8e1d 493e b8c9 933e b28d b03c 62aa 083e
00000030: 817a 653e a785 85bd 9037 a83d a7cb 0cbc
00000040: f1a4 513e 638c 733c f608 a33e 00cb 5fbd
00000050: 3609 bd3d 824f e03d 0b6c ab3e 98a0 c9bb
00000060: 6226 dd3d a810 c5bc 4d51 f1bd 65bb 44bd
00000070: d0ee 233d 7fec db3c 7a67 ab3e 87ab 893e
00000080: 5f7c 743e 1f30 c63c 5cd2 143e 9510 0b3e
00000090: 24ca 9a3d 479f 4c3e 2aea ee3e 2b92 ce3b
000000a0: bbf2 b53e e1f7 553f 7f76 a63d 5311 0d3e
000000b0: bf6c 0ebd 0511 863e dd46 0c3e ace0 4b3d
000000c0: c153 273e a8b3 85bd 551d f5bd d299 06be
000000d0: 9415 8fbd b59c c43b 62fe 163e ebbe 09be
000000e0: 0c2f aabc 5380 f6bd 2976 f03d da14 5fbd
000000f0: 33f2 4abc b3ab 16bc a974 9dbd d9b4 cbbd
00000100: 924a c13d bafb 16bd 1e27 b8bd 7e95 183d
00000110: 4f83 763d de88 b63d 7144 04be 0cf3 f7bd
00000120: 8c41 9d3d 8ac3 b43d 4954 40bd 69b0 6dbd
00000130: a685 96bd c306 253d b602 cebd b297 c3bd
00000140: c6a7 883d bfb4 2bbc 49fb 8bbd 5501 1a3d
00000150: d653 a8be ac46 adbd 9e72 dcbd ef2f 5cbd
00000160: b48d 733e 250c f93d 50cf 5d3b 1c8d 21be
00000170: 3c85 a73b a961 80bc 9f9c 623d f0be e5bd
00000180: d395 bd3d e8c7 b3ba 4c2d 9bbd e4fe 023e
00000190: 8a20 553d 1d38 94bd d6f8 cb3d 74d0 003e
000001a0: 745c 5c3d 3db9 38be 9071 9cbd aca4 12be
000001b0: 119f 1e3d a12f 1a3c dbb6 09be bcbb 68bd
000001c0: bd74 b03d b05b 2fbd 24fa 8dbd e760 033e
000001d0: 7b8b e7bc 5377 fcbd 25fb afbc 9384 cd3d
000001e0: fa1b a4bc d295 e6bc 21d1 483d 63ee ba3d
000001f0: df14 423d 96b6 753d a44c 103e 160b 11be
00000200: 79a0 483d 9b1a 1dbe aef3 22bc 5359 8cbd
00000210: 4908 aabc fc3b a0bc a23f ee3d d04e febc
00000220: 9f92 213e 187e d9bd b021 bb3d 34ac 113e
00000230: 3c4d dc3c 0dcf f6bd 5fe1 e03c 20aa 853b
00000240: 2022 1dbd 0da6 d83d 958c e9bc b0ba 81bc
00000250: 80fc 3a3e 2157 0ebe c14c fd3e 65db 803e
00000260: 8a05 8bbd 00da ee3d 34c9 cf3d b943 153d
00000270: ad7c 3e3e 5e83 a63d aebd 683d 9cbf 7a3e
00000280: f560 b43b 1380 1d3b 29b0 fd3d bfb1 a43d
00000290: 4bf0 1abe 3569 ec3c 7be4 7e3e 4ddf 233e
000002a0: 2d9c c63d b1d1 9d3d 035a b93d 8546 463b
000002b0: 8941 af3e 7963 0d3c ba76 443e 0a59 4d3e
000002c0: f33a 8dbd d831 eebc 0271 833c 706e e1bc
000002d0: 7cf3 933e 6210 7e3e a965 383d 636f d33d
000002e0: 7645 cb3d 0b70 45bb dce3 163e 856e bc3d
000002f0: 25b5 bf3e e879 a5bd 3ff1 9b3e 8b4b 483f
00000300: ddeb a03a c642 313d 2e83 4a3d 564b 723e
00000310: 6974 ec3c 2dce ce3c 83e4 d73d 6a74 a93d
0.30690587 0.25496262 0.013480787 0.0067401906 0.05382936 -0.060297348 0.14674956 0.0191164
0.1964018 0.28864837 0.02155194 0.13346246 0.22410013 -0.06519633 0.08213723 -0.008593476
0.20473076 0.014865014 0.31842774 -0.054636955 0.092302725 0.10952665 0.33480868 -0.0061531775
0.107983366 -0.024055794 -0.11783085 -0.048030276 0.04002267 0.026846169 0.33477384 0.26888677
0.23875569 0.024192868 0.1453337 0.13580544 0.075580865 0.19982634 0.46663028 0.0063040457
0.3553675 0.8358136 0.0812807 0.1377614 -0.034771677 0.2618486 0.13698907 0.04977481
0.16340543 -0.06528407 -0.11968485 -0.13144615 -0.069865376 0.0060001262 0.14745477 -0.13451736
-0.020774387 -0.12036195 0.11741287 -0.054463245 -0.012386846 -0.00919621 -0.07688267 -0.09946603
0.09438051 -0.03686116 -0.08991836 0.03725194 0.06018382 0.08912824 -0.12916733 -0.121069044
0.07678518 0.088263586 -0.04695538 -0.058029566 -0.0734971 0.04028965 -0.10059111 -0.09550418
0.06672625 -0.010480105 -0.06835038 0.037598927 -0.32876462 -0.08460745 -0.10764049 -0.05375665
0.23784524 0.121605195 0.0033845492 -0.15776485 0.0051123183 -0.015671568 0.055325147 -0.11218059
0.09257092 -0.0013716193 -0.07576999 0.12792546 0.052032985 -0.07237265 0.09959571 0.12579519
0.053799108 -0.18039413 -0.07638848 -0.1432063 0.038725916 0.00941077 -0.1344866 -0.056819662
0.08616016 -0.04281205 -0.06932476 0.12829934 -0.028264752 -0.12327447 -0.02148206 0.10035052
-0.020032872 -0.028147612 0.049027566 0.091275 0.047383185 0.05998858 0.14091736 -0.14164385
0.048981164 -0.1534218 -0.009945793 -0.06852975 -0.020755904 -0.019559853 0.11633231 -0.03104344
0.15778588 -0.106197536 0.09137285 0.14225847 0.026892297 -0.120512106 0.027451215 0.0040791184
-0.038362622 0.10578547 -0.028509418 -0.01583609 0.18260384 -0.13900425 0.4947262 0.25167385
-0.06788166 0.11662674 0.10145798 0.03644154 0.18602248 0.08130525 0.056821518 0.24487156
0.0055047222 0.0024032637 0.123871155 0.08041715 -0.15130727 0.02885876 0.24891846 0.16003151
0.09697757 0.07706011 0.090503715 0.0030254435 0.34229687 0.008629673 0.19185916 0.20053497
-0.06896009 -0.029076502 0.016045097 -0.027518481 0.288967 0.24810937 0.045018826 0.1032398
0.09925358 -0.0030126597 0.14735359 0.092007674 0.3744289 -0.080798924 0.30457494 0.7824027
0.0012277324 0.04327657 0.04944151 0.23661551 0.028864102 0.025244797 0.10541632 0.08274157

linear.weight_mu f4 [1, 50]
00000000: 8718 0bbe 9910 3a3e 5dd1 c4bd 17a9 4abd
00000010: 731d 313e 2bb2 653e a5b4 a3bc 1a41 783d
00000020: d668 cdbd 18e4 88be f36a 513e ee11 243d
00000030: 6747 64be 1fc3 36be b890 b3bd ec69 28be
00000040: 0ca9 9a3d b437 fb3d 4e18 70be d1ec c0bd
00000050: e323 523e a36e 3ebd f011 6bbe bf86 17be
00000060: 2ce2 4fbd ea0c 3a3e 1ec8 20bd 122f 043e
00000070: b145 c3bd bbb1 cc3d d02e 80be 45da 453e
00000080: d0be 3ebe f9cf d53a a8ea e2bd f366 c3bd
00000090: 680f a1bd 7d38 023c 3874 90be 3b7c 12be
000000a0: 0e23 ebbd 399b 0dbf eb88 343e 4acf 12be
000000b0: 48f6 a13d 9b54 12be 214c 2d3e 5833 30be
000000c0: f114 25be 7626 213e
-0.13583575 0.18170394 -0.096102454 -0.049477663 0.1729639 0.22431247 -0.019983599 0.06060896
-0.100297615 -0.26736522 0.20450954 0.04005616 -0.22292863 -0.1784787 -0.08767837 -0.16446656
0.075517744 0.12266484 -0.23446772 -0.09420169 0.20521502 -0.04649223 -0.22956061 -0.14797495
-0.050752804 0.18168989 -0.039253347 0.12908581 -0.09534777 0.09994837 -0.25035715 0.19321544
-0.18627477 0.0016312591 -0.110799134 -0.095411204 -0.07864267 0.007948038 -0.28213668 -0.14305203
-0.114812955 -0.55314976 0.17630355 -0.14336887 0.079083025 -0.14290087 0.16923572 -0.17207086
-0.1612127 0.15737328

linear.weight_sigma f4 [1, 50]
00000000: a986 00be 2e83 92bd 3afa 713d 907a ab3d
00000010: a110 34bd d0e8 96bd 520a 95bd dab4 e23a
00000020: a819 5b3d 5436 4e3e 425b a93d 22cc bc3d
00000030: a227 95bd 10e7 ac3d f5e4 6a3d e22a d83d
00000040: 7207 74bd 3466 7fbd 062b 01be 3432 953d
00000050: 9e29 ee3d 481f a6bc 3406 5abe 1eef df3d
00000060: 831e 8fbd 3e64 96bd 6799 8f3d 7d13 38bd
00000070: fea6 cd3d 0762 36bd 14ac 213e e99f 1f3e
00000080: 7120 babd 7f10 ba3d 1993 e83d 753d 83bd
00000090: 8f81 243d 0493 d7bd a2d7 85be d57b 8dbc
000000a0: 1268 edbd 1d42 ebbe 3c88 b03d 1420 a4bd
000000b0: 829f b7bd 544c db3d 41cf c03d b869 c43d
000000c0: 0e74 40bc 4742 aa3d
-0.12551369 -0.07153927 0.059076525 0.08372986 -0.04396117 -0.07368624 -0.07277359 0.001729633
0.053491265 0.20137912 0.08269359 0.09218623 -0.0728295 0.08442509 0.057347257 0.10555054
-0.059577413 -0.062353328 -0.12614068 0.07284966 0.116290316 -0.020278588 -0.21291429 0.1093428
-0.069882415 -0.073433384 0.07011681 -0.04494046 0.10041617 -0.04452708 0.15788299 0.15588345
-0.09088219 0.09085178 0.11356182 -0.064082064 0.04016262 -0.10526088 -0.26141077 -0.017270962
-0.115921155 -0.45948878 0.08619735 -0.08013931 -0.089659706 0.10707918 0.094145305 0.09590477
-0.01174642 0.08313423

linear.weight_epsilon f4 [1, 50]
00000000: 5f88 243f 0c51 47bf c3a5 18bf 30ed 3d3f
00000010: ee0d 37bf 2137 bfbe 1db0 143f 48e2 203f
00000020: 107f 7c3e 989f 19bf 1ff5 153f c7a2 e93e
00000030: 1253 223f f203 79bf f160 503f cccd 18bf
00000040: 7160 4dbf 793d 4ebd 4670 573f 36e5 60bf
00000050: 4095 9d3e 0101 54bf d5ae aa3e 5d3a 5bbf
00000060: 1acc ab3d 5f09 8cbd e0a4 f1be 81bc 6bbf
00000070: b856 0ebf 37a9 a8bf c37d 87bf a3f9 703f
00000080: 8bf7 7f3f 6fef cabe 3275 3cbf ef03 4d3f
00000090: 6052 98be 6868 343f 89df 8d3e 1c6c 9d3f
000000a0: 1f97 863f b15c 1b3f 76c6 ee3e 133a 543d
000000b0: 5721 28bf 9fde 23bf 5da9 063f 9007 e4be
000000c0: c520 933e d730 be3e
0.64270586 -0.7785804 -0.5962793 0.74190044 -0.7150563 -0.37346748 0.5808123 0.6284528
0.24657845 -0.60009146 0.5857715 0.45632002 0.63408005 -0.97271645 0.8139792 -0.5968902
-0.8022528 -0.050351594 0.8415569 -0.8784975 0.3077793 -0.8281403 0.3333651 -0.8563593
0.08388539 -0.06837725 -0.47196102 -0.9208451 -0.5560107 -1.317664 -1.0585254 0.94130915
0.99987096 -0.39635798 -0.73616326 0.8008413 -0.29750347 0.7047181 0.27709606 1.2298617
1.0514868 0.6068831 0.4663579 0.051813196 -0.6567587 -0.6401157 0.5260218 -0.4453702
0.2873594 0.37146637
