lstm_FullData/trial10/jt3_vel/lstm_model_epoch144.pth (torch, 50829 bytes, 5 tensors)

lstm.weight_ih_l0 f4 [200, 8]
0.11868702 -0.368551 -0.0060179993 -0.110634066 -0.022129541 0.0047923205 0.0640688 -0.052968983
0.2006029 -0.30187184 0.15981379 0.07397421 0.21145585 -0.080821976 0.08325838 -0.0043499977
0.08336261 -0.10948629 0.19426577 0.09895455 -0.1979861 0.055366147 -0.16753353 0.043155678
0.18779504 -0.39791703 0.087384924 0.04736677 0.09358203 -0.0981413 -0.13594963 0.06883729
0.14795245 -0.030049825 0.28617734 -0.138485 0.20104213 -0.25073045 0.17276664 -0.06329505
0.1305571 0.010631314 0.019402808 -0.11706919 -0.01328779 -0.021842107 -0.102747634 0.14869072
0.34184107 -0.57983124 0.17240095 0.034272 0.22985806 -0.2606155 0.15791452 -0.22087722
0.044917904 -0.17180625 -0.06728355 -0.09102891 0.02272565 0.11727536 0.08292183 0.012284823
0.28429016 -0.11350721 -0.07106107 -0.26110086 0.17748621 -0.0018870027 0.08221987 -0.280563
0.27204397 -0.43696943 0.22468592 -0.32893273 0.07974101 0.10857607 -0.085954554 0.14607026
0.282809 -0.38848194 -0.15019037 -0.16069326 0.0063170604 -0.19556859 0.062158436 0.07226426
0.28401646 -0.38112137 0.044481173 -0.121736765 -0.019581582 -0.035956156 -0.23809363 0.023681356
0.0027063612 -0.16712572 0.08802771 -0.13501503 0.072294004 -0.23916544 0.1065047 0.041219458
0.19944336 -0.056984834 -0.15687735 -0.18526465 0.08680013 0.10739443 -0.37529922 -0.011641531
0.077757075 -0.10935329 0.09040345 0.06676026 0.12142288 -0.15579006 -0.14647335 -0.20392951
0.19943379 -0.46325487 0.42202106 -0.10526418 0.2566968 0.18505673 -0.13976848 0.2392025
0.14874077 -0.25873762 0.02687576 -9.477035e-05 0.01242973 0.15099223 0.020326374 0.11242933
0.16278213 -0.3826631 -0.06482918 -0.14023076 0.1619838 0.07613704 -0.045559686 -0.16152218
0.1850162 -0.29006934 0.30341345 -0.17313449 -0.08372997 0.084149465 0.016706204 0.13485141
-0.0056754053 -0.13874763 -0.1968935 0.0891006 -0.41533172 0.25403413 0.008749535 0.063491166
0.46384764 -0.20193823 0.01623559 -0.32419682 -0.055097528 0.20073089 -0.03169631 -0.21467435
-0.11693092 -0.1533684 -0.07292312 -0.035636608 0.012313283 -0.20398678 -0.13128902 0.08929147
0.3283927 -0.53799903 -0.006616409 -0.095484614 0.04110996 -0.017140007 -0.26016045 0.010715238
0.20144895 -0.38617945 -0.009428707 -0.3635234 0.1603414 -0.17660405 0.12296022 0.046347406
0.15695925 0.03219097 -0.26985997 -0.18540606 -0.18689245 0.23706815 -0.08722958 0.04477251
-0.08120184 -0.034958657 0.14132608 -0.11695081 0.24433704 -0.21387783 0.072271794 0.038139854
0.37935197 -0.23870963 -0.026373804 -0.2848121 0.086776674 -0.027854526 -0.13185565 -0.097796075
0.14449325 -0.3982828 -0.035617474 -0.25089502 0.05413948 0.09101378 -0.20025563 0.054787684
0.2014045 0.017547395 0.18832056 0.0051142154 -0.23532659 0.21720688 -0.25480124 -0.06438173
0.24705648 0.10145393 -0.08773307 -0.18548568 -0.21304384 -0.060320236 -0.09946174 -0.058963366
0.20377833 -0.11354363 -0.020550167 -0.22973123 0.015982334 -0.11375715 -0.04364432 0.055632953
0.0505396 -0.38576412 0.1732281 -0.18305269 0.34346035 -0.017089056 0.0027978243 0.16396107
00000000: 2e12 f33d b7b2 bcbe a332 c5bb 1d94 e2bd
00000010: 0349 b5bc e608 9d3b 8136 833d 01f6 58bd
00000020: d96a 4d3e f28e 9abe 3aa6 233e ca7f 973d
00000030: e287 583e fe85 a5bd 5f83 aa3d 6d8a 8ebb
00000040: 04ba aa3d 593a e0bd 9bed 463e afa8 ca3d
00000050: debc 4abe 9dc7 623d e98d 2bbe 02c4 303d
00000060: 584d 403e c8bb cbbe def6 b23d a903 423d
00000070: efa7 bf3d 4efe c8bd 6136 0bbe 91fa 8c3d
00000080: d980 173e 0d2b f6bc d685 923e 03cf 0dbe
00000090: fddd 4d3e be5f 80be bde9 303e d6a0 81bd
000000a0: c3b0 053e f62e 2e3c a3f2 9e3c f9c1 efbd
000000b0: 08b5 59bc 38ee b2bc 5a6d d2bd 6142 183e
000000c0: cb05 af3e d26f 14bf e089 303e cc60 0c3d
000000d0: e95f 6b3e 656f 85be 58b4 213e a32d 62be
000000e0: d6fb 373d faed 2fbe f5cb 89bd 5d6d babd
000000f0: 242b ba3c 102e f03d ecd2 a93d 4846 493c
00000100: 7b8e 913e 7876 e8bd 7788 91bd 03af 85be
00000110: f2be 353e 4e55 f7ba e462 a83d f4a5 8fbe
00000120: 5949 8b3e 75ba dfbe 1114 663e df69 a8be
00000130: 414f a33d 215d de3d f108 b0bd 7193 153e
00000140: 57cc 903e 1be7 c6be 81cb 19be c68c 24be
00000150: 58ff ce3b 2243 48be d899 7e3d 49ff 933d
00000160: 9b6a 913e 5722 c3be e431 363d 2051 f9bd
00000170: 8e69 a0bc c346 13bd d1ce 73be 67ff c13c
00000180: 355d 313b 0123 2bbe df47 b43d 6141 0abe
00000190: e10e 943d c9e7 74be 231f da3d bcd5 283d
000001a0: e13a 4c3e ee68 69bd 75a4 20be 04b6 3dbe
000001b0: 44c4 b13d 9cf1 db3d 3827 c0be 1fbc 3ebc
000001c0: 1a3f 9f3d 9ef4 dfbd 7225 b93d 9ab9 883d
000001d0: 8fac f83d 6e87 1fbe 1cfd 15be e6d2 50be
000001e0: 5f38 4c3e be2f edbe 2513 d83e bf94 d7bd
000001f0: c36d 833e 837f 3d3e 781f 0fbe 80f1 743e
00000200: 804f 183e 4279 84be 8e2a dc3c 72bf c6b8
00000210: 11a6 4b3c b59d 1a3e 7f83 a63c 5941 e63d
00000220: 5cb0 263e 6bec c3be 29c5 84bd a798 0fbe
00000230: 15df 253e bded 9b3d cb9c 3abd 1266 25be
00000240: e374 3d3e f883 94be 0259 9b3e 2b4a 31be
00000250: 9e7a abbd 8e56 ac3d 73db 883c 7d16 0a3e
00000260: c0f8 b9bb dc13 0ebe 739e 49be 607a b63d
00000270: 5ca6 d4be c310 823e 365a 0f3c a807 823d
00000280: 707d ed3e e5c8 4ebe 8000 853c 20fd a5be
00000290: f2ad 61bd 668c 4d3e fdd3 01bd 98d3 5bbe
000002a0: 7a79 efbd 9b0c 1dbe b758 95bd b1f7 11bd
000002b0: a7bd 493c e9e1 50be a170 06be 72de b63d
000002c0: 1723 a83e 4eba 09bf 76ce d8bb 708d c3bd
000002d0: eb62 283d 3369 8cbc c033 85be f78e 2f3c
000002e0: a248 4e3e 50b9 c5be dd7a 1abc bd1f babe
000002f0: 8930 243e b1d7 34be 91d2 fb3d c7d6 3d3d
00000300: edb9 203e aeda 033d 162b 8abe 16db 3dbe
00000310: bc60 3fbe fec1 723e 6ca5 b2bd 6163 373d
00000320: 264d a6bd cf30 0fbd c9b7 103e e883 efbd
00000330: 7d33 7a3e ca02 5bbe 3c03 943d 8938 1c3d
00000340: 6c3a c23e 4c70 74be e00d d8bc e4d2 91be
00000350: f8b7 b13d 2d2f e4bc 2b05 07be 4f49 c8bd
00000360: 0af6 133e b9eb cbbe a1e3 11bd 5075 80be
00000370: 5cc1 5d3d 6f65 ba3d d00f 4dbe 0d69 603d
00000380: fb3c 4e3e 8ebf 8f3c 1bd7 403e 2695 a73b
00000390: 74f9 70be 7b6b 5e3e 4f75 82be 92da 83bd
000003a0: 60fc 7c3e 14c7 cf3d 65ad b3bd f5ef 3dbe
000003b0: 2a28 5abe 5a12 77bd 99b2 cbbd 9283 71bd
000003c0: 44ab 503e 9089 e8bd d358 a8bc aa3e 6bbe
000003d0: 62ed 823c 82f9 e8bd 63c4 32bd 61df 633d
000003e0: 9d02 4f3d e082 c5be b562 313e 2a72 3bbe
000003f0: 09da af3e 59fe 8bbc b45b 373b 69e5 273e

lstm.weight_hh_l0 f4 [200, 50]
0.09036078 -0.19076106 0.15992802 -0.030787848 -0.08928909 0.20924456 0.10430347 -0.118381105
0.21392636 -0.08712997 0.052035745 -0.033973467 0.24332748 0.06213753 0.09073001 0.18899642
0.1392541 -0.064478874 0.0894597 0.078595996 0.09986063 -0.100347154 0.225523 -0.09475878
-0.03262275 -0.07800987 -0.073301 -0.015524423 -0.09299132 -0.16580184 0.0027487848 0.10049504
0.029567698 -0.05026966 0.090368345 -0.06048289 -0.0680566 -0.11888602 -0.20063852 -0.06807922
0.09272328 0.03482242 0.078975655 0.12429242 -0.026769578 -0.04256569 -0.012436226 -0.085999936
-0.18824808 0.0066553033 0.16020608 -0.02117153 -0.08741548 -0.05801889 -0.046148486 -0.12499724
-0.019672649 -0.01076344 0.16615507 -0.1783475 0.23032337 -0.053417884 0.10286753 -0.13023813
-0.07130425 -0.029942235 -0.106134236 0.007581015 0.058434237 -0.08479827 0.07106326 0.06798434
-0.07830287 -0.051139127 0.08534087 0.09099931 0.0052475384 0.073971614 -0.07830019 -0.15351377
0.17632663 -0.07087866 -0.09431047 0.13531673 0.15532778 0.034489132 0.120002694 0.10924089
-0.12798314 0.16404608 -0.049054295 -0.22955732 0.06124627 -0.08705723 0.085572526 0.10946645
0.011208374 -0.043542217 0.10517632 -0.13146356 -0.009317123 -0.19704774 0.14200488 -0.08365619
0.08117163 -0.09026509 0.017399108 0.0710156 -0.009391571 -0.09527863 -0.054565858 -0.10069302
0.18008687 0.1845685 -0.12613973 -0.03811931 0.007613298 0.117128916 -0.024701267 -0.0006021098
0.07505555 -0.03889724 -0.07321881 -0.06627858 0.09885702 -0.040488023 0.07423818 0.120431446
0.002890326 0.055858966 0.1562373 -0.07845186 0.10391298 -0.08885525 0.13214402 0.06209416
0.1438957 0.01657874 0.010136343 -0.053904045 -0.10027114 -0.22871193 0.027820349 -0.11402579
-0.069485754 0.01755766 0.04055773 0.08198933 -0.2056327 -0.14487411 0.18131848 -0.0011781106
-0.036011316 -0.12669653 -0.04006504 0.14119169 -0.12761469 -0.039183628 0.18989073 -0.011303907
0.004297389 -0.19312912 0.021218378 -0.06825979 0.058978293 -0.07173601 0.2091456 -0.20492806
0.15375218 0.09175312 0.15639926 -0.05532945 0.1611804 0.017207721 -0.04410737 -0.00233631
-0.14099748 0.16523309 0.18701549 -0.13331924 -0.057720963 0.19793954 0.07380273 -0.040700812
0.37076634 0.090282075 -0.093483225 -0.028091982 0.05520755 0.09642608 0.14779782 -0.19252175
0.03631414 -0.06691842 0.014263084 0.13632552 0.01535417 0.16944093 0.06446929 -0.028404826
0.1354704 -0.030330863 -0.07096713 -0.13955137 0.00025414865 0.04089348 0.0028397355 0.10192838
0.12529717 0.08811804 -0.100788124 -0.008857688 0.055912286 0.13036929 -0.040872622 -0.014324729
0.12252131 -0.10184337 -0.014634091 -0.1929355 0.14046794 -0.06646018 0.09733775 -0.0055008545
-0.16523796 0.1150866 -0.20865373 0.108440176 0.086454995 -0.047394898 0.10848715 -0.08641187
-0.12366087 0.0046468065 -0.080755785 0.06677078 0.13221507 0.054447234 0.03305493 0.14534411
0.1346591 -0.042365298 0.17713408 0.08784767 -0.013123882 -0.10200399 -0.1085572 -0.10581918
0.1701686 -0.025432773 0.10204718 0.08909198 0.04174567 -0.02688284 -0.029775199 0.022525117
00000000: 130f b93d de56 43be 2cc4 233e cc36 fcbc
00000010: 33dd b6bd 3544 563e 0f9d d53d cb71 f2bd
00000020: 830f 5b3e 3371 b2bd 6f23 553d c327 0bbd
00000030: d72a 793e ec83 7e3d a8d0 b93d 4788 413e
00000040: a098 0e3e 800d 84bd a636 b73d f0f6 a03d
00000050: bb83 cc3d cf82 cdbd 80ef 663e e410 c2bd
00000060: 6f9f 05bd a4c3 9fbd d61e 96bd 265a 7ebc
00000070: 3c72 bebd f5c7 29be f524 343b 58d0 cd3d
00000080: f537 f23c 8fe7 4dbd 0a13 b93d e8bc 77bd
00000090: 4261 8bbd 837a f3bd 2f74 4dbe 1e6d 8bbd
000000a0: b4e5 bd3d f4a1 0e3d fdbd a13d 068d fe3d
000000b0: e04b dbbc 5c59 2ebd 50c1 4bbc bc20 b0bd
000000c0: 1bc4 40be bb14 da3b 100d 243e eb6f adbc
000000d0: e306 b3bd 37a5 6dbd 3206 3dbd 8efe ffbd
000000e0: 8928 a1bc 2459 30bc 8e24 2a3e baa0 36be
000000f0: e4d9 6b3e b6cc 5abd 36ac d23d 255d 05be
00000100: f607 92bd 6b49 f5bc e85c d9bd 2a6a f83b
00000110: bd58 6f3d b7aa adbd 9d89 913d 603b 8b3d
00000120: 415d a0bd 4377 51bd 32c7 ae3d d95d ba3d
00000130: 8bf3 ab3b 6e7e 973d da5b a0bd b732 1dbe
00000140: f88e 343e d528 91bd d925 c1bd 7890 0a3e
00000150: 3f0e 1f3e 7a44 0d3d f9c3 f53d b0b9 df3d
00000160: 030e 03be b2fb 273e 28ed 48bd 1311 6bbe
00000170: 5edd 7a3d 104b b2bd a640 af3d f22f e03d
00000180: 54a3 373c 5359 32bd af66 d73d 629e 06be
00000190: d9a6 18bc e2c6 49be ba69 113e f053 abbd
000001a0: 503d a63d e7dc b8bd 9388 8e3c a070 913d
000001b0: 1bdf 19bc 7121 c3bd 7380 5fbd 2438 cebd
000001c0: b168 383e 86ff 3c3e c62a 01be fe22 1cbd
000001d0: f978 f93b 49e1 ef3d 505a cabc e8d6 1dba
000001e0: b9b6 993d b652 1fbd bef3 95bd 10bd 87bd
000001f0: 8d75 ca3d c5d6 25bd 300a 983d c3a4 f63d
00000200: a06b 3d3b 5fcc 643d acfc 1f3e 5eab a0bd
00000210: 54d0 d43d bef9 b5bd c350 073e 7256 7e3d
00000220: 6559 133e 23d0 873c e712 263c 7dca 5cbd
00000230: f55a cdbd 7633 6abe 80e7 e33c 5a86 e9bd
00000240: 8c4e 8ebd 15d5 8f3c dd1f 263d 06ea a73d
00000250: 6191 52be e159 14be 8dab 393e d56a 9aba
00000260: 9a80 13bd bcbc 01be 3d1b 24bd 8e94 103e
00000270: 6dad 02be 037f 20bd b772 423e 0634 39bc
00000280: 1dd1 8c3b a4c3 45be 2ad2 ad3c cacb 8bbd
00000290: 3993 713d 54ea 92bd 442a 563e a9d8 51be
000002a0: 3671 1d3e 0fe9 bb3d 2127 203e 22a1 62bd
000002b0: 7a0c 253e 35f7 8c3c eea9 34bd c71c 19bb
000002c0: a561 10be dd32 293e fd80 3f3e d784 08be
000002d0: d16c 6cbd aab0 4a3e e325 973d e5b5 26bd
000002e0: 16d5 bd3e cfe5 b83d 2274 bfbd 2821 e6bc
000002f0: 5021 623d 097b c53d 5058 173e 6c24 45be
00000300: 23be 143d 860c 89bd b6af 693c eb98 0b3e
00000310: 0f90 7b3c ec81 2d3e 7a08 843d 3db1 e8bc
00000320: c1b8 0a3e 6e78 f8bc 3757 91bd 8ee6 0ebe
00000330: 413f 8539 ec7f 273d db1a 3a3b d4bf d03d
00000340: e74d 003e 3b77 b43d 016a cebd d61f 11bc
00000350: 4804 653d 877f 053e 0d6a 27bd 45b2 6abc
00000360: 74ec fa3d 4293 d0bd d4c3 6fbc e290 45be
00000370: d4d6 0f3e 461c 88bd 0459 c73d 8340 b4bb
00000380: 2434 29be 86b2 eb3d 53a9 55be e215 de3d
00000390: 510f b13d 2721 42bd 832e de3d b5f8 b0bd
000003a0: e941 fdbd 3d44 983b 4a63 a5bd 1ebf 883d
000003b0: 6363 073e 1004 5f3d 9b64 073d 16d5 143e
000003c0: 13e4 093e 3c87 2dbd a362 353e 7be9 b33d
000003d0: 8d05 57bc 78e7 d0bd 3d53 debd bab7 d8bd
000003e0: ad40 2e3e 6458 d0bc 1dfe d03d db75 b63d
000003f0: 82fd 2a3d 6739 dcbc 1eeb f3bc 9886 b83c

lstm.bias_ih_l0 f4 [200]
0.12763722 0.11878089 0.16188848 0.21803167 0.25168067 0.083100386 0.2714413 0.15705179
0.25711364 0.37206012 0.16270815 0.43115655 0.20535114 0.15948148 0.11373339 0.20839746
0.16831163 0.32179838 0.20264772 0.23907755 0.46382982 0.19358161 0.17690885 0.17230432
-0.072272435 0.10523297 0.3067183 0.140634 0.15094087 0.17919622 0.12235201 0.2470963
0.37523204 0.20619684 0.37269562 0.17609859 0.28244236 0.10879571 0.023221351 0.15862276
0.14595766 0.2435869 0.0741288 0.24993937 0.31350505 0.08250473 0.15811071 0.014716913
0.07237667 0.23049292 0.06841976 0.040223885 0.008685976 -0.1141602 0.014226222 0.15896247
0.048369646 0.14545305 0.15695624 -0.10305614 0.17594609 0.066075355 -0.059187308 -0.103758745
-0.09604124 -0.077432774 0.13707007 0.17780688 -0.04717209 0.08550949 0.24571599 -0.06808124
-0.026394764 0.0537604 -0.05988924 0.12953536 0.095294416 -0.077684134 0.08787981 0.1299392
0.057297733 0.1309735 -0.06624211 0.087086365 -0.12958586 -0.05246237 0.09069896 0.06795505
0.10432349 0.009727056 0.09197912 0.07659496 0.053078238 0.08954868 0.14584847 0.22265895
0.031404536 -0.12631327 -0.03130947 0.08196152 -0.08292228 0.06845644 0.17907237 -0.022128524
0.08136689 -0.016177176 -0.12787761 -0.07034844 -0.0107224425 0.023856886 0.13322341 -0.03172477
-0.012271926 0.13090004 -0.16815805 0.043174207 -0.018178495 0.023793146 -0.0951286 0.13421197
0.08647085 -0.05232623 0.112704605 -0.02733244 -0.0932273 0.012245674 -0.05955231 -0.08372232
-0.19254656 -0.082910076 0.064101934 -0.043668065 0.15064725 0.10491519 -0.17539892 0.1174832
-0.035058435 -0.13217781 -0.08386109 0.004001661 -0.06052503 -0.060530256 0.10096025 -0.095929205
-0.02550401 -0.10302847 -0.30358425 0.07100836 -0.008159739 -0.054015767 0.15023391 -0.0329973
0.17659754 0.018002717 0.22988789 -0.014964771 0.15401027 0.10686923 0.106389694 0.38909367
0.2282819 0.35695478 0.10374964 0.13253266 0.1439585 0.1801566 0.32466787 0.09703805
0.0073557436 0.035503432 0.20592365 0.12651744 0.12234137 0.2186662 0.028570313 0.048440408
0.36943844 0.24393727 0.21606201 0.23947081 0.10587915 0.020904664 0.14390612 0.032687716
0.40556166 0.027246464 0.15614457 -0.011944516 0.2300135 0.21406347 0.11723687 0.44769365
0.13555056 0.0979467 0.2638516 0.27329525 0.06715365 0.1614096 0.182262 0.2035404
00000000: 55b3 023e 6543 f33d 18c6 253e b243 5f3e
00000010: 4adc 803e 8930 aa3d 5bfa 8a3e 2fd2 203e
00000020: 66a4 833e aa7e be3e f79c 263e 8dc0 dc3e
00000030: 9247 523e 1d4f 233e 0ded e83d 2566 553e
00000040: e259 2c3e c2c2 a43e e282 4f3e bfd0 743e
00000050: 1a7b ed3e 423a 463e 9827 353e 8b70 303e
00000060: 9203 94bd 6284 d73d 2e0a 9d3e 5c02 103e
00000070: 3e90 1a3e 377f 373e b193 fa3d d006 7d3e
00000080: 6a1e c03e 4425 533e f6d1 be3e 3053 343e
00000090: 499c 903e 49d0 de3d b43a be3c 016e 223e
000000a0: ed75 153e d86e 793e d7d0 973d 1bf0 7f3e
000000b0: bc83 a03e 3df8 a83d c6e7 213e 351f 713c
000000c0: 383a 943d 5606 6c3e a91f 8c3d cdc1 243d
000000d0: a04f 0e3c d3cc e9bd 1a15 693c 0fc7 223e
000000e0: 401f 463d a5f1 143e 23b9 203e 190f d3bd
000000f0: 362b 343e 8452 873d 646e 72bd 777f d4bd
00000100: 45b1 c4bd 1395 9ebd 195c 0c3e 0213 363e
00000110: 8537 41bd 991f af3d f99c 7b3e 2d6e 8bbd
00000120: d539 d8bc dd33 5c3d 6b4e 75bd eba4 043e
00000130: b829 c33d dc18 9fbd 54fa b33d c80e 053e
00000140: 07b1 6a3d eb1d 063e f2a9 87bd 565a b23d
00000150: 28b2 04be c8e2 56bd 60c0 b93d 042c 8b3d
00000160: 8ea7 d53d 3b5e 1f3c 8d5f bc3d d2dd 9c3d
00000170: 9168 593d 4c65 b73d 4d59 153e b500 643e
00000180: 0ba2 003d 4458 01be 5c3e 00bd 71db a73d
00000190: 28d3 a9bd e432 8c3d bf5e 373e e146 b5bc
000001a0: afa3 a63d ff85 84bc 59f2 02be d812 90bd
000001b0: 2fad 2fbc 846f c33c b86b 083e d5f1 01bd
000001c0: 3010 49bc a90a 063e a031 2cbe 70d7 303d
000001d0: 11eb 94bc d8e9 c23c c9d2 c2bd dd6e 093e
000001e0: a117 b13d 0754 56bd acd1 e63d 48e8 dfbc
000001f0: f4ed bebd 14a2 483c 1fed 73bd 9c76 abbd
00000200: ed2a 45be c2cc a9bd e047 833d 49dd 32bd
00000210: 4643 1a3e c6dd d63d c69b 33be 089b f03d
00000220: 6f99 0fbd 9f59 07be 5dbf abbd 5e20 833b
00000230: 18e9 77bd 93ee 77bd 3fc4 ce3d 8876 c4bd
00000240: c9ed d0bc 9700 d3bd 656f 9bbe d56c 913d
00000250: 6db0 05bc a33f 5dbd ebd6 193e 2d28 07bd
00000260: fcd5 343e 6f7a 933c bb67 6b3e cd2e 75bc
00000270: deb4 1d3e 41de da3d d7e2 d93d 4937 c73e
00000280: bbc2 693e c7c2 b63e b17a d43d a4b6 073e
00000290: db69 133e f97a 383e de3a a63e e3bb c63d
000002a0: 7308 f13b 0c6c 113d a6dd 523e ca8d 013e
000002b0: 1d8e fa3d 08ea 5f3e 4a0c ea3c 7369 463d
000002c0: 0927 bd3e b1ca 793e 5c3f 5d3e d637 753e
000002d0: 2bd7 d83d 4240 ab3c 205c 133e 8ee3 053d
000002e0: c7a5 cf3e fa33 df3c 5de4 1f3e eeb2 43bc
000002f0: a988 6b3e 7433 5b3e e219 f03d 1a38 e53e
00000300: c4cd 0a3e 4898 c83d 8f17 873e 5bed 8b3e
00000310: da87 893d 8f48 253e e4a2 3a3e e56c 503e

lstm.bias_hh_l0 f4 [200]
0.16927132 0.04075301 0.23955932 0.27537838 0.16905895 0.079055786 0.43976828 0.11011416
0.12152719 0.4397026 0.28759968 0.20840107 0.25526702 0.22531323 0.15311128 0.24052961
0.10241346 0.2677039 0.30780926 0.12154232 0.29495373 0.06417954 0.20243266 0.08097506
0.018338427 0.15691383 0.29815045 0.15602739 0.14000148 0.24563652 0.19824386 0.1923997
0.25371677 0.10750616 0.24587373 0.3865888 0.24885137 0.15230866 0.15753394 0.1462093
0.08710057 0.18006057 0.1930846 0.21060732 0.19342773 0.26175967 0.15705098 0.28201485
0.15886901 0.23031206 0.116737925 -0.07215436 0.121786445 0.016158912 0.021522403 0.18501504
0.06025407 0.0795659 -0.012064801 0.049146887 0.17926982 -0.14771482 0.118673496 -0.094915524
0.023608772 -0.057588957 -0.04774833 0.13385 -0.023994543 -0.04264528 0.09432724 0.14696604
0.13897377 0.004088723 -0.059246946 -0.05592418 0.016776316 0.092456646 -0.05516603 0.19415614
0.03181693 -0.0673958 -0.060428277 -0.039442435 -0.07003454 0.050217576 -0.10194926 -0.016206406
-0.05283324 0.04141126 0.14321081 -0.002083283 -0.091585994 0.12384037 0.093650155 -0.018908795
0.133114 -0.12404629 0.11185116 -0.11510751 -0.054431573 0.093258865 -0.008418822 0.012134128
0.06592082 0.07318924 0.017335849 -0.12771909 0.07945096 0.115045555 0.2044837 0.204201
0.070654176 0.050808314 0.025761506 0.104060136 0.002436534 -0.102056734 0.093801565 0.07309634
0.043557547 0.029063713 0.06824858 -0.18356933 -0.18037881 0.16121778 -0.04293986 -0.19238839
-0.16485235 -0.041485444 0.06570494 0.052160293 0.12869252 0.048889644 -0.07897061 0.121415295
0.048580345 -0.21450499 -0.148195 -0.17877895 0.0015494929 -0.011946093 0.050607674 0.030799337
0.11088761 0.047692295 -0.12302793 -0.085534275 0.077358864 -0.11149511 0.26374432 0.031558484
0.22391552 0.15453713 0.061730172 0.11143945 0.38424298 0.2819438 0.25263047 0.34898815
0.25306085 0.38236502 0.15236351 0.25757268 0.15673183 0.16928668 0.1661352 0.23535487
0.03620125 0.15781477 0.30542114 0.035680916 0.19129159 0.2534942 -0.023513045 0.23809436
0.41227886 0.14790808 0.19937985 0.24897526 0.117118984 0.27687755 0.26774806 0.15032007
0.44146934 0.2825217 0.015893174 -0.0020921167 0.12934525 0.132606 0.0497971 0.22440587
0.13842906 0.24904594 0.15318589 0.04484789 0.03087578 0.23001678 0.12403128 0.35161644
00000000: 7655 2d3e a1ec 263d 0a4f 753e 65fe 8c3e
00000010: ca1d 2d3e 00e8 a13d 4f29 e13e 8883 e13d
00000020: 3fe3 f83d b320 e13e 4440 933e 1767 553e
00000030: 5cb2 823e 83b8 663e 34c9 1c3e 654d 763e
00000040: 26be d13d 7c10 893e 2d99 9d3e 2eeb f83d
00000050: 2d04 973e 9070 833d 824a 4f3e 41d6 a53d
00000060: 783a 963c 05ae 203e 2da7 983e a5c5 1f3e
00000070: 8c5c 0f3e 2488 7b3e 7000 4b3e 6d04 453e
00000080: 2ae7 813e 312c dc3d 53c6 7b3e f8ee c53e
00000090: e5d2 7e3e cdf6 1b3e 9450 213e e4b7 153e
000000a0: c961 b23d cc61 383e f8b7 453e 72a9 573e
000000b0: eb11 463e 5d05 863e f9d1 203e 4064 903e
000000c0: 8fae 223e edd6 6b3e 4b14 ef3d aac5 93bd
000000d0: 2c6b f93d b25f 843c c04f b03c 9574 3d3e
000000e0: f9cc 763d 72f3 a23d 71ab 45bc 3f4e 493d
000000f0: 8292 373e 8e42 17be 170b f33d 1263 c2bd
00000100: 2f67 c13c 66e2 6bbd c193 43bd f90f 093e
00000110: 3490 c4bc d1ac 2ebd a42e c13d 447e 163e
00000120: 244f 0e3e b2fa 853b edac 72bd c110 65bd
00000130: 7c6e 893c e959 bd3d c6f5 61bd ded0 463e
00000140: 7852 023d cf06 8abd a483 77bd 648e 21bd
00000150: 456e 8fbd f2b0 4d3d c6ca d0bd 4cc3 84bc
00000160: ab67 58bd da9e 293d dba5 123e b087 08bb
00000170: 7091 bbbd 05a0 fd3d a7cb bf3d 9ee6 9abc
00000180: 094f 083e fb0b febd 3912 e53d 7cbd ebbd
00000190: a4f3 5ebd 81fe be3d 19ef 09bc 39ce 463c
000001a0: 7f01 873d 3ee4 953d e903 8e3c cbc8 02be
000001b0: 2fb7 a23d 019d eb3d 2d64 513e 111a 513e
000001c0: 23b3 903d 611c 503d cb09 d33c 7b1d d53d
000001d0: 42ae 1f3b 1f03 d1bd 091b c03d 89b3 953d
000001e0: 6669 323d 0617 ee3c e9c5 8b3d 99f9 3bbe
000001f0: 39b5 38be 4616 253e b5e1 2fbd 7601 45be
00000200: 0ecf 28be a4ec 29bd 5090 863d 08a6 553d
00000210: f9c7 033e 8240 483d 58bb a1bd 95a8 f83d
00000220: 2ffc 463d 32a7 5bbe 6ec0 17be d411 37be
00000230: 5b18 cb3a 8cb9 43bc fe49 4f3d e44e fc3c
00000240: 0b19 e33d ff58 433d 11f6 fbbd 982c afbd
00000250: 536e 9e3d 8c57 e4bd 7f09 873e 7843 013d
00000260: 1c4a 653e fb3e 1e3e c7d8 7c3d 5e3a e43d
00000270: 7fbb c43e f05a 903e c858 813e 93ae b23e
00000280: 3191 813e 59c5 c33e 2e05 1c3e 91e0 833e
00000290: 4f7e 203e 7d59 2d3e 591f 2a3e de00 713e
000002a0: c347 143d 329a 213e 2960 9c3e 2726 123d
000002b0: f1e1 433e fec9 813e 6e9e c0bc 02cf 733e
000002c0: 3716 d33e 3775 173e 3b2a 4c3e 5ff3 7e3e
000002d0: 14dc ef3d e5c2 8d3e 4616 893e 81ed 193e
000002e0: 4508 e23e afa6 903e 6732 823c e51b 09bb
000002f0: 1573 043e dec9 073e 0bf8 4b3d a7ca 653e
00000300: 59c0 0d3e e605 7f3e c3dc 1c3e 6cb2 373d
00000310: 34ef fc3c 8589 6b3e 1d04 fe3d 1207 b43e

linear.weight f4 [1, 50]
0.21373177 -0.09618635 -0.20427866 -0.23322974 0.08374142 -0.24485393 -0.21632907 -0.24412134
0.074802056 -0.25612798 0.09520381 -0.2103607 0.17302518 -0.25153932 0.011282868 -0.18300301
0.29391667 -0.24473126 0.24010554 -0.1750938 0.15235387 0.19360256 -0.29352972 -0.15372358
0.014299868 0.13107172 -0.23435953 0.16112207 0.11432434 0.0016630457 0.124807015 -0.1993206
-0.17578895 0.18689781 0.25724283 0.2580765 0.25339925 0.07254818 -0.18135539 0.22121745
0.22579019 -0.19370909 -0.027675396 0.24919957 0.21124141 0.1292266 0.16358607 0.16868807
0.2149183 -0.2599046
00000000: 80dc 5a3e 59fd c4bd 6d2e 51be c7d3 6ebe
00000010: 9f80 ab3d fdba 7abe 5e85 5dbe f2fa 79be
00000020: d231 993d 3523 83be 37fa c23d cc68 57be
00000030: 832d 313e c3c9 80be c7db 383c 2465 3bbe
00000040: 3f7c 963e d59a 7abe 3ade 753e ca4b 33be
00000050: a702 1c3e c03f 463e 8749 96be b769 1dbe
00000060: fe49 6a3c aa37 063e f2fb 6fbe 2ffd 243e
00000070: e122 ea3d 8efa d93a d29a ff3d b31a 4cbe
00000080: 0502 34be 2462 3f3e 55b5 833e 9a22 843e
00000090: 8cbd 813e 2494 943d 3ab5 39be d486 623e
000000a0: 8b35 673e ad5b 46be 83b7 e2bc 2c2e 7f3e
000000b0: ab4f 583e fa53 043e 1b83 273e 91bc 2c3e
000000c0: 8b13 5c3e 3712 85be
