archive/lstm_4to4/trial1/lstm_model_epoch149.pth (torch, 48677 bytes, 6 tensors)

lstm.weight_ih_l0 f4 [200, 4]
000000 41 93 13 3f 26 3f d3 3e 99 67 88 bd fd 7a bd 3e
       0.57646567 0.41259116 -0.06660385 0.37007895
000010 c0 97 5b 3e 4c 48 d9 bd 35 61 37 3c 9c a7 6b be
       0.21444607 -0.10609493 0.01119261 -0.23013157
000020 bb f7 8d 3d f6 f3 86 bd 8c bc f1 3c 3d 2d f4 bb
       0.069320165 -0.065895006 0.029508851 -0.007451682
000030 db 09 fa bd 00 0c 6f be 23 e0 21 be 87 28 95 be
       -0.12208911 -0.23344421 -0.15808158 -0.29132482
000040 8a 79 f9 be 6e f5 88 be c3 82 41 be fe b5 80 be
       -0.4872554 -0.26749748 -0.18897538 -0.2513885
000050 3a 68 b2 3e 4f 88 75 be 43 6b f1 3e 23 ba 34 3f
       0.34845144 -0.23977779 0.47152147 0.7059652
000060 11 92 05 be fb 27 76 3d 94 e2 07 bf d4 21 0f 3f
       -0.13044001 0.060096722 -0.53080106 0.5591099
000070 2c 2d 6e be 3d 0a 77 3f 8e 65 14 be 87 d7 be be
       -0.23259419 0.965 -0.14491865 -0.3727381
000080 52 ab 9e 3d cf 68 ce bd e2 1f 0d 3f 42 b2 1f bd
       0.077475205 -0.100785844 0.55126774 -0.03898836
000090 1f e3 04 3f 81 d1 a8 be a7 a4 c8 be bb a0 4a bf
       0.5190906 -0.3297234 -0.3918812 -0.79151505
0000a0 ca f7 8b 3e f8 a7 d1 be a3 6d 94 3f 8b d0 be 3e
       0.27337486 -0.40948462 1.1595958 0.3726848
0000b0 c8 31 43 3e 99 33 84 bd c6 4d ac 3e 74 11 85 bd
       0.19061959 -0.06455154 0.33653086 -0.064974695
0000c0 9c d7 89 3d 4a 5a 46 3d 47 21 70 be b1 43 3a 3f
       0.06730577 0.04842595 -0.23450194 0.7275954
0000d0 8c da 72 bd 84 28 3e bf 3f 2f ba 3d 4f ea 4c bf
       -0.059290454 -0.7428057 0.09091043 -0.80045027
0000e0 1b 63 a8 be 1b 9f 14 3e 07 80 46 be 30 de b9 bc
       -0.3288811 0.14513819 -0.19384776 -0.022688955
0000f0 32 8c 6a 3d 37 47 44 bf b4 85 fe be bc c4 0a 3f
       0.057262607 -0.76671165 -0.49711382 0.5420644
000100 19 27 c2 bd 30 0b 2d 3e c1 14 88 be 73 ca 66 3d
       -0.094801135 0.16898799 -0.26578334 0.056345414
000110 02 8b 2e 3e 3f 1f 35 bd d2 68 35 3e 05 85 8e 3e
       0.17045215 -0.04421925 0.17715767 0.2783586
000120 ea fd 32 bc 94 a7 94 be 4e e7 ac 3d 03 e1 47 3e
       -0.010924796 -0.29034102 0.08442555 0.19519429
000130 97 d7 89 be 0b 0e 50 3f a4 ca 86 be 1e 9a 46 be
       -0.26922294 0.8127143 -0.26326478 -0.19394729
000140 73 f1 cc bc 2f d3 9f 3d d8 a6 0e be fe bf f7 3e
       -0.025017476 0.07803952 -0.13930833 0.48388666
000150 66 bd 0e be dc c9 29 bf 71 a2 1a 3e 72 5c c3 bd
       -0.13939437 -0.6632364 0.15101029 -0.09539117
000160 12 fd 66 bf 55 8c b9 be d5 eb 84 bf e0 ae 08 bf
       -0.90229905 -0.36239877 -1.038447 -0.5339184
000170 b9 91 c1 be 6b 25 77 3e 1b 11 96 3d 0b d8 3d bd
       -0.3780649 0.24135368 0.07327481 -0.046348613
000180 b6 ef 90 3e fa ee 29 3e 5a f7 d3 3d 7d 02 5c 3e
       0.28307885 0.16595069 0.10349913 0.21485324
000190 9b ef aa 3e 9c 8f 41 be 0e d8 9c bd 59 c8 1a 3e
       0.3338593 -0.18902439 -0.07658397 0.15115489
0001a0 82 d8 95 3e 49 f6 93 bc e5 4c 9a 3e f2 06 b0 bd
       0.29266745 -0.018061774 0.3013679 -0.08595075
0001b0 1f c2 04 3e 62 27 09 be 79 59 82 bc 41 92 b4 be
       0.12964676 -0.1339393 -0.015911805 -0.35267833
0001c0 1f c5 ee 3e d7 d0 d4 3e bf 5f fa 3e 0c 7e 75 3e
       0.46634766 0.41565582 0.48901173 0.23973864
0001d0 ce c6 44 3f 85 e0 80 3e 2b 16 63 3e 48 e8 56 bd
       0.7686585 0.25171295 0.22176425 -0.052467614
0001e0 4e c7 a6 be 0a 53 06 3f 50 ba 6d 3f c2 7a 69 bf
       -0.32573932 0.5247046 0.92862415 -0.9120294
0001f0 98 e0 69 3f 62 25 00 3f 16 21 87 be 68 21 6a bf
       0.9135833 0.5005704 -0.2639243 -0.91457224
000200 9d 6b a0 3f 37 6c b5 3e 97 44 80 3f 96 b7 4c 3c
       1.2532841 0.35434124 1.0020932 0.012494942
000210 2a 1b e6 be ba ba 2d 3e ea 55 40 bd c7 6a b0 be
       -0.449426 0.16965762 -0.046956934 -0.34456465
000220 ef 5f ad bc 38 39 18 3f d3 bc e8 3e 8a 93 27 be
       -0.021163909 0.5946231 0.4545656 -0.16364875
000230 37 cc aa bf de d7 ab be 9f 40 fc be d3 b5 9a 3d
       -1.3343571 -0.3356313 -0.49268052 0.075542115
000240 76 f5 08 3e f4 ee f9 3d 8c d1 d0 be 33 cb 18 bf
       0.13374886 0.1220378 -0.40784872 -0.5968506
000250 08 6e a3 bd 7c 15 09 be 9f 87 c9 be 1f c6 5d be
       -0.07979971 -0.13387102 -0.39361283 -0.21657608
000260 48 1c 2b bc f2 f7 fb 3e 7c 2c b9 be 56 c9 fe be
       -0.0104437545 0.49212605 -0.3616675 -0.49762982
000270 59 23 07 bf 69 21 4e bf 40 a8 f6 be 59 c2 e2 be
       -0.5278831 -0.8051973 -0.4817524 -0.442889
000280 4e 61 ce 3e ea 78 05 3e d9 bf 2f bf 72 1f 53 3f
       0.40308613 0.13034406 -0.6865211 0.82469857
000290 e7 0a e8 3e 0b 24 27 3e 12 8e 95 3e cb b4 70 be
       0.45320818 0.16322343 0.29209954 -0.23506467
0002a0 db de 1a 3e df c3 31 3e af 97 93 bd 40 64 06 3e
       0.15124075 0.17359875 -0.07206666 0.1312418
0002b0 16 86 59 bf 06 cc 90 be 50 2e ed be 78 6f 8f 3e
       -0.84970224 -0.28280658 -0.46324396 0.2801473
0002c0 f1 b8 29 3c c1 64 be be 35 22 2c 3e d5 1f 6c 3d
       0.010359035 -0.37186244 0.16809924 0.057647545
0002d0 d4 a6 32 3f 7e 54 56 be 5a 61 79 bd d2 0f 84 bf
       0.6978581 -0.20930669 -0.060883857 -1.0317328
0002e0 68 9d aa 3e 36 32 56 be 4b 93 8a 3e 43 d0 28 be
       0.33323216 -0.20917591 0.270655 -0.16485696
0002f0 48 e0 4e bf f0 1c b6 3d 90 ce df 3e 10 6c d9 be
       -0.80810976 0.08892238 0.43712282 -0.42465258
000300 5e 77 48 3f 4f dc 56 be 56 af 90 be 65 7d 2f 3f
       0.7830714 -0.20982479 -0.2825877 0.6855071
000310 47 54 e1 3e dd 4c c3 bd 90 d2 bf 3e 04 36 9d 3e
       0.4400961 -0.09536145 0.37465334 0.30705273
000320 0f b2 48 bd 57 fd d6 bd 6b c7 9e 3d a9 c8 3c be
       -0.048997935 -0.104975395 0.0775288 -0.18435921
000330 f8 ba 85 3e 33 f4 72 be 96 e6 6c be 49 ba c4 be
       0.26119208 -0.23725967 -0.23134837 -0.38423374
000340 46 0e bc bd e8 4f a3 3e db db 38 bc c5 b7 01 3e
       -0.0918241 0.318969 -0.011282886 0.12667759
000350 3c 29 68 be fc ef 4e bd 3c 03 a1 3e 31 0b 37 be
       -0.2267198 -0.050521836 0.3144778 -0.17875363
000360 81 e1 9c 3e 45 d2 26 be 75 d8 8e 3d 05 55 a5 3d
       0.30640796 -0.16291149 0.0697488 0.08072857
000370 fb a1 d0 3d 03 db 8c be 60 aa ce 3e 2c c2 0d bd
       0.10187145 -0.27510843 0.4036436 -0.034609005
000380 13 08 c4 be d9 8a ad 3e 8b cb d1 be 3d 29 81 3e
       -0.3828741 0.33894995 -0.40975603 0.25226775
000390 4b 85 82 bd de 40 9b 3f 5e 01 e1 3a 8a 7b d1 be
       -0.0637308 1.2129171 0.0017166545 -0.40914565
0003a0 4c 8e 99 3c 34 78 6e 3d 0e be 83 be f9 1d 54 3e
       0.01874461 0.058220103 -0.25730938 0.20714559
0003b0 d4 df 44 bf 4f 58 8e bd 06 ce df bd 1e 35 74 be
       -0.76904035 -0.06950437 -0.10927968 -0.23848388
0003c0 56 8e 90 3e b0 ac 85 be 55 44 ef 3e 33 76 f5 bc
       0.28233594 -0.26108313 0.4673182 -0.029963588
0003d0 83 dc a2 3e ae 0d a5 be d8 97 1a bf 05 8d 0c 3f
       0.31808862 -0.32237 -0.60387945 0.5490268
0003e0 c6 4e a5 3e 26 64 2a be 7e bd a7 bd a1 75 a2 3e
       0.32286662 -0.16639766 -0.0819044 0.3173037
0003f0 76 43 fb bd 53 02 09 3e b7 39 7f 3e ea 28 89 be
       -0.122687265 0.13379793 0.2492436 -0.26789027

lstm.weight_hh_l0 f4 [200, 50]
000000 bb d5 93 3e 91 5e 73 3f 0a b4 35 3f f1 41 32 bf
       0.28874 0.9506617 0.7097784 -0.6963187
000010 ae c6 f1 3f 82 13 c5 bd 38 17 9c bf df 5e e0 3e
       1.8888757 -0.096228614 -1.2194586 0.4382238
000020 c4 67 59 bf 9e f6 a3 3f 5c 32 65 3d 60 1a e3 3d
       -0.8492396 1.2809637 0.05595623 0.11089015
000030 df dc c5 be b8 3e 33 bf c9 6b 0a c0 d3 20 e3 3e
       -0.38645074 -0.70017576 -2.1628287 0.4436098
000040 09 73 e3 be 80 5e 81 3f 67 5c 70 3e 8b 48 c5 3e
       -0.44423702 1.0106964 0.23472749 0.38531908
000050 83 0f 9c 3f 1b a2 1c 3e 69 3c ac bf a8 5c 3f 3f
       1.2192234 0.15296213 -1.3455936 0.7475076
000060 1e b9 b7 3e ca ca 64 bf ef 93 8e 3e a2 44 61 bf
       0.3588342 -0.8937193 0.2784724 -0.8799535
000070 02 06 24 3f 1b 8a 80 be 79 b0 37 3e ec 80 a0 3f
       0.6407167 -0.25105366 0.17938413 1.2539344
000080 9e ad 73 bf 4a b9 82 bf a6 dd 34 be 54 69 23 be
       -0.95186794 -1.0212796 -0.17662677 -0.15958148
000090 4d e6 93 3e b4 9f 05 bf ee cd fe 3d 12 db a6 bc
       0.28886643 -0.5219681 0.12441622 -0.020368133
0000a0 fe bf ab be 84 95 0c 3f 27 b3 fe be fc 35 f2 3e
       -0.33544916 0.5491564 -0.49746057 0.47306812
0000b0 fb 1a 06 3e 5a 2e 1c bd 10 70 9c 3e 3a 31 a1 be
       0.1309623 -0.03813014 0.30554247 -0.3148287
0000c0 e0 13 2a 3e 87 93 45 3f ca 04 88 bf 23 3a 1e be
       0.16609144 0.77178234 -1.0626462 -0.15451865
0000d0 75 91 18 be a4 7e ad 3e ce 6e fd bd de 92 14 3f
       -0.14899237 0.33885682 -0.1237465 0.580366
0000e0 68 8b 90 be 88 9f 10 bf a5 4c 6a 3e 74 b1 d1 3c
       -0.2823136 -0.56493425 0.228808 0.025597312
0000f0 c9 26 22 bf aa 61 18 3e af 4c 7b 3e 87 d0 ca bd
       -0.6334043 0.14881006 0.24540971 -0.09903055
000100 e6 03 c1 be a0 e8 73 3d 60 79 18 be 89 f4 02 bf
       -0.37698287 0.05954802 -0.14890051 -0.5115438
000110 68 24 e9 bd 47 8c 1a be 9f 26 3d bf de 8c dd be
       -0.11383897 -0.15092574 -0.73887056 -0.43271536
000120 17 ec 2e 3f 22 a9 09 bc b6 d2 c6 be 56 6f c2 3d
       0.68328995 -0.008402141 -0.38832635 0.09493892
000130 7a 62 c7 be 84 8f 0e 3f b3 7e ad 3e 31 6a f2 3e
       -0.3894232 0.5568774 0.33885726 0.47346643
000140 d9 94 fa 3e fb 91 fb 3d cd 3e 31 be 5a 69 f1 3c
       0.48941687 0.12283703 -0.17309113 0.02946918
000150 0f 53 5e 3f 0f f1 f7 3c 91 fe 3e 3f 40 57 1d 3d
       0.8684549 0.030266313 0.7460719 0.038413286
000160 10 e4 a0 be 50 8c 8f be 58 b4 6f bf 97 ae 36 be
       -0.31423998 -0.28036737 -0.9363456 -0.17840038
000170 6a 67 74 bf c1 19 a7 be df be 87 bf a9 40 fe bd
       -0.954703 -0.32636836 -1.0605124 -0.12414677
000180 d9 24 5d be 3e 5c 80 3e 04 e4 b1 3e 18 bf 97 be
       -0.21596088 0.25070375 0.34744275 -0.2963798
000190 76 d9 3a bf 34 c1 5d be 41 fd 00 3e 2b 17 8e 3e
       -0.7298807 -0.21655732 0.12596609 0.2775205
0001a0 0e 76 31 be 4c e2 d6 bc 58 d0 ab bd da 60 63 3d
       -0.1733019 -0.026230954 -0.08389348 0.055512287
0001b0 63 f1 3d bd e4 84 32 3f 14 eb 11 3e 4f 41 5d 3e
       -0.046372782 0.69734025 0.14249831 0.21606945
0001c0 ac c5 0b 3c bc 5c 24 3f 29 ec 45 bd 86 58 47 bc
       0.008531015 0.64204 -0.048320923 -0.012167102
0001d0 1b d4 4c 3f 7c d9 c1 be f3 3c be bc 6c a3 3a 3e
       0.8001115 -0.3786124 -0.023222422 0.18226403
0001e0 94 6c 55 bf e1 fc 88 be cb aa ac bc c9 4b 42 be
       -0.833688 -0.2675543 -0.021077534 -0.18974222
0001f0 ef 2d 5d be d7 f0 9b bd a6 6f 40 be 2c c5 2c 3e
       -0.21599554 -0.07614296 -0.1879259 0.1687209
000200 cc 12 b3 3e c2 43 84 3e 3d 3c 76 bd 9f b6 b4 3e
       0.34975278 0.25832945 -0.06011604 0.3529558
000210 c1 2d 80 be 87 d4 44 3d 7a ca 04 3f b8 ac 07 be
       -0.25034907 0.048054244 0.51871455 -0.1324948
000220 b1 80 ae 3e 00 9d 89 be 06 8f c3 3e e0 4e 25 be
       0.3408256 -0.26877594 0.38195056 -0.1614337
000230 c4 c0 f9 bd fc 12 ab 3d 44 62 7b bc ea b2 08 bf
       -0.1219497 0.0835323 -0.015343253 -0.53398
000240 93 b2 35 be 14 f0 de 3e 6e e4 52 3c 69 37 ea 3d
       -0.17743902 0.4354254 0.012871845 0.1143635
000250 5e 50 68 3e e8 2d 80 bc f1 48 b7 be 1a 09 d3 3e
       0.22686908 -0.01564689 -0.35797837 0.4121788
000260 1c 4e eb bd 85 af f0 3d 46 6a 97 3f 4d 49 0a 3e
       -0.114895076 0.11752228 1.1829307 0.13504525
000270 65 cf 07 3e 50 2e fc bd 29 ed c8 be 57 33 1b 3e
       0.13262708 -0.12313521 -0.3924344 0.15156303
000280 a0 61 89 be b3 6b ac be 83 79 23 bc fd 06 cb be
       -0.26832294 -0.33675918 -0.009977701 -0.3965377
000290 e5 87 02 bc bc 5a 1d be ca 5b 8e be c8 b0 a1 be
       -0.00796697 -0.15366644 -0.27804404 -0.31580186
0002a0 a0 8a ce 3d 7b 74 16 be 0d 61 f4 3e 24 9a 05 bd
       0.10085034 -0.14692871 0.47730294 -0.032617703
0002b0 9e 39 69 3f f3 71 ff 3e e1 0b f6 bc 54 2b e5 be
       0.9110354 0.49891624 -0.030034961 -0.4475962
0002c0 96 94 a2 bd c2 29 aa 3e 90 33 03 bc 80 11 14 3e
       -0.07938497 0.33234984 -0.008007899 0.144598
0002d0 42 90 ec 3e 12 2f 66 be 71 97 c8 be ae 41 15 3c
       0.4620381 -0.22478893 -0.3917804 0.009109898
0002e0 a5 35 0f 3e de 68 d9 be 31 04 0f be 50 c1 24 3e
       0.13985308 -0.4246282 -0.13966443 0.16089368
0002f0 8b 95 b2 be e7 b3 a8 bd 08 41 00 bf ba b6 2d be
       -0.34879717 -0.08237439 -0.5009923 -0.16964236
000300 18 9d 50 3e 75 f0 2e 3e 40 c0 f4 be e8 a3 89 3d
       0.20372427 0.17083915 -0.47802925 0.06720716
000310 4d bb 2f be cb ba 92 be 20 de 0b 3e 54 f8 ca 3b
       -0.17161293 -0.28658137 0.13658953 0.006194154
000320 ac 5a a4 3e 70 a2 f2 bd d0 70 fe 3e aa 4d 08 be
       0.32100427 -0.11847389 0.49695444 -0.13310876
000330 e2 63 16 be 4e 1f c9 bd 47 6d 98 3e 36 66 46 3f
       -0.1468654 -0.09820424 0.29770872 0.7749971
000340 4e cd 2b bf 53 a3 1a bd 57 35 00 bc ef f2 46 be
       -0.67110145 -0.037753414 -0.007825217 -0.1942861
000350 cb ae cc 3e 8c 67 12 3d 00 57 40 bf f7 a5 1f 3f
       0.39977106 0.03574328 -0.7513275 0.6236262
000360 8b 9e 5e 3d 79 38 89 be 2b 85 07 3f 7e 91 24 bf
       0.054350417 -0.26800898 0.52937573 -0.64284503
000370 a2 36 91 3f c9 e1 ab be ac ac e7 bf 35 7e 0e bf
       1.1344798 -0.33570698 -1.809957 -0.55661327
000380 a9 7c 4c 3f 71 2a 58 bf 8e 56 47 bf 15 6f 8f 3e
       0.79877716 -0.8443976 -0.77866447 0.28014436
000390 67 e4 01 3f 5f 04 ee be e1 66 90 be ff 11 85 3e
       0.5073914 -0.4648771 -0.2820349 0.25990292
0003a0 1e f3 3c bf a1 43 d7 bc 9f f9 af 3e e5 fb cd bd
       -0.7380847 -0.026277365 0.34370133 -0.10057811
0003b0 29 26 76 3e 69 4c a8 bd 91 a1 aa be c4 90 ba be
       0.24037994 -0.08217699 -0.3332639 -0.36438572
0003c0 36 91 23 bf e1 2b bb 3d 39 76 20 be 4e 67 d1 be
       -0.6389345 0.091392286 -0.15670098 -0.40899128
0003d0 50 90 90 be e8 de 01 3e b6 31 11 be a4 07 ce 3e
       -0.28235102 0.12682688 -0.1417912 0.40240204
0003e0 33 af da bd 8b 91 47 3f d5 42 a6 3f 2b 0f da bd
       -0.10677948 0.77956456 1.2989146 -0.10647424
0003f0 05 ce 93 be 3b e3 72 bd 83 40 84 bd 7b ee cb 3e
       -0.28868118 -0.059298735 -0.06457617 0.39830384

lstm.bias_ih_l0 f4 [200]
000000 81 dc 60 3d 05 18 cb be a3 de ba 3e e7 bb 50 3d
       0.05489779 -0.39666763 0.36497983 0.050960448
000010 17 11 2e be 87 b8 a4 be 5a c6 e7 bd e4 49 e4 3e
       -0.16998707 -0.32172033 -0.113171294 0.44587624
000020 eb 57 8a be e7 28 b4 be 53 07 20 bf 03 c4 9e be
       -0.270202 -0.35187456 -0.62511176 -0.3100892
000030 56 b1 1d bd 93 f6 0a bf 96 da 54 3e d2 24 01 bf
       -0.0384992 -0.5428249 0.20786509 -0.5044681
000040 af 97 b2 3e fb ec 5e 3e 42 fa 47 3e c8 59 a5 bb
       0.3488135 0.21770088 0.1952906 -0.005046103
000050 88 99 54 be 5f e2 b6 3e 75 f4 a4 be 1e 3d 51 bd
       -0.20761693 0.35719582 -0.32217756 -0.051083677
000060 2c 05 4d 3e c3 99 24 be a4 7a 42 bd af 29 9e 3e
       0.20021504 -0.1607428 -0.04748024 0.30891177
000070 07 a6 b1 3e 15 59 9e bd f1 b4 2e 3e 85 d3 6b be
       0.3469698 -0.07731835 0.17061211 -0.23029907
000080 b0 e4 1d bf fd 17 da be 4a 02 e4 3d 57 54 37 be
       -0.61677074 -0.42596427 0.11133249 -0.17903267
000090 30 79 c7 bd 91 4b 83 3e 82 b5 4e be 1c 68 9e be
       -0.097399116 0.2564359 -0.20186427 -0.30938804
0000a0 80 c9 f3 be 91 58 6e bd 35 36 a8 bd dc d2 37 be
       -0.4761467 -0.058189932 -0.08213464 -0.1795153
0000b0 6e a8 44 3e f3 28 5e bf f1 7b 80 be c0 23 03 bf
       0.19204876 -0.86781234 -0.2509456 -0.51226425
0000c0 ee 02 02 bf 83 4b 88 be 3b 3f 5c 3e af 99 ac 3d
       -0.5078572 -0.2662011 0.21508496 0.0842775
0000d0 be 9d d1 be a6 0b ad be bf 5e c8 3d 63 82 9d 3e
       -0.4094066 -0.3379795 0.097836964 0.3076354
0000e0 16 45 45 3f 74 f0 0c bf 54 f9 04 bc a6 b9 09 bf
       0.7705854 -0.550544 -0.008116085 -0.537989
0000f0 87 1d be 3e 43 6f 83 bb 42 48 92 3e 43 9f 8b 3e
       0.37131903 -0.004011066 0.28570753 0.27269945
000100 95 ea 37 bd 81 9b 7b 3e 85 a8 52 3e d8 58 dd bd
       -0.04490145 0.24571039 0.20572098 -0.10807961
000110 82 4d 4e be b0 65 61 3e 6a 3e 83 3d 37 38 57 be
       -0.20146754 0.22011447 0.06408389 -0.21017538
000120 d5 72 1e 3e b7 6f 16 3e de 1e 00 be 48 2d d4 be
       0.15473492 0.14691053 -0.12511775 -0.41440797
000130 c6 fe 4f bd d2 0c 9b 3d bd 83 b2 3e 1f 77 96 3e
       -0.05078008 0.07570805 0.34866133 0.29387757
000140 8f 27 d4 be 4f fe 13 bd 52 85 ee be fb d2 d7 bc
       -0.4143643 -0.0361312 -0.4658609 -0.02634572
000150 fa 84 3c 3f 57 96 aa bd ea a4 11 bf cf 50 d9 be
       0.73640406 -0.08329456 -0.56892264 -0.42444465
000160 e6 e5 d4 3e b0 00 78 3f 6d f8 ff be 8b fb 5a 3d
       0.4158165 0.9687605 -0.4999422 0.053462546
000170 c7 16 23 3e 85 e7 ea be fe 29 70 3e c6 79 c1 3e
       0.15926658 -0.4587976 0.23453519 0.37788218
000180 a7 f5 0d 3f 9d 6d db be e7 5f 0c bd e9 95 8c be
       0.5545296 -0.42857066 -0.034271147 -0.27458122
000190 93 f2 1e 3b 56 16 fc 3d 0b 41 05 be 2b 57 ef 3d
       0.0024253472 0.12308948 -0.13013093 0.11686548
0001a0 47 c7 b6 3d 71 a1 ce 3d 5f 2b 9f 3c c3 7c 06 3e
       0.08924728 0.10089386 0.01942986 0.1313353
0001b0 7b e2 54 bc fa d3 d4 3d 52 26 87 bc ba 7f 82 3d
       -0.01299345 0.10391994 -0.016497765 0.06372018
0001c0 06 c5 f8 3d f0 66 47 3e 8e 2e 65 be 91 41 64 3d
       0.12146954 0.19472861 -0.2238104 0.05572659
0001d0 78 2d cb 3c 6a 5a af 3d 02 f1 28 3e 57 d2 5a be
       0.024801955 0.08562167 0.16498187 -0.21369301
0001e0 86 6c a8 bd d9 b2 2a 3e 16 9b 7e bd 75 c0 c8 3c
       -0.08223824 0.16669787 -0.06215962 0.024505833
0001f0 3f f6 af 3c cf c0 41 be 00 fd 8b b7 e3 bb 6e bd
       0.021479724 -0.18921207 -1.6687904e-05 -0.05828465
000200 68 6c 78 3d 16 9e 8d 3d f5 1d 10 be 6c e8 23 3d
       0.06065026 0.06914918 -0.14073928 0.040016577
000210 73 82 98 3d f5 76 ca 3b 15 74 90 3d 6a 73 44 3d
       0.07446756 0.0061787316 0.07053391 0.04796163
000220 69 82 8e 3d a9 f2 0e be 6b ac 8d be 28 f2 6e 3d
       0.069584675 -0.13959755 -0.27670607 0.058336407
000230 41 3c 9e 3c 28 c9 00 3c 0e a6 b6 bd cd 72 d1 bc
       0.01931584 0.007860459 -0.08918391 -0.025567437
000240 09 00 28 be 6f 72 91 be b9 da 26 be 63 21 00 bb
       -0.16406263 -0.28407618 -0.16294374 -0.001955115
000250 d0 6d 94 bd 26 5b e1 bd ca 4d 33 3f bb 35 36 be
       -0.072475076 -0.11003713 0.7004057 -0.17793934
000260 9d 9f 0b 3f 00 92 24 3e 29 7f f1 3e f9 22 01 bf
       0.54540426 0.1607132 0.47167328 -0.5044399
000270 0e 9a a8 3e ef 9b 33 3e 0c 01 57 be e2 8d a0 be
       0.32930034 0.17539953 -0.20996493 -0.31358248
000280 09 2f 2b bf 4f ad 69 be b5 d4 9e be 3c 67 3d be
       -0.66868645 -0.22820018 -0.31021658 -0.18496412
000290 e0 18 11 3f 44 df 6d be 72 68 35 3f a4 b4 f7 bd
       0.5667858 -0.232297 0.70862496 -0.12095001
0002a0 dc c5 21 3e 3f 7b 6d 3e 15 08 6d 3e 9d d9 95 3e
       0.15798134 0.23191546 0.23147614 0.29267588
0002b0 88 35 83 be b9 12 ac 3e f7 d5 7d be 4b 0c 9c be
       -0.2562678 0.33608034 -0.24788652 -0.3047813
0002c0 a5 d7 70 bd 5a 68 a1 3e 23 b3 f8 3e 6d 15 be be
       -0.058799405 0.31524926 0.4857417 -0.37125722
0002d0 67 aa 06 be 5c 4a b7 be 25 25 b0 be b5 82 bd be
       -0.13150941 -0.3579892 -0.3440334 -0.37013784
0002e0 80 da 10 3d 41 09 cd bd 69 ca 34 be 58 da 81 3e
       0.035364628 -0.10011531 -0.17655338 0.25361896
0002f0 55 28 7a 3e fa dc a2 3d 7e d0 98 be d1 b1 3d 3d
       0.24429448 0.07952304 -0.29846567 0.046312157
000300 89 9b 38 3f 28 03 30 be 27 0c f8 3c 55 2b 04 bf
       0.7211233 -0.17188704 0.030279232 -0.5162862
000310 c1 78 b1 3e 1a 9f 26 be e3 68 3d be 09 db 84 be
       0.3466244 -0.1627163 -0.18497042 -0.2594836

lstm.bias_hh_l0 f4 [200]
000000 03 f8 42 bd f1 8d 9e be 8b fe 80 3e 9c 5c 10 3e
       -0.047599804 -0.30967668 0.251942 0.14097828
000010 77 f4 30 3d 85 2c e1 be 25 1e 87 be 82 aa e6 3e
       0.04320189 -0.43979278 -0.26390186 0.45051962
000020 6f 14 b7 be 29 e5 b3 be 5d 4c dd be ef 5f df be
       -0.35757777 -0.35135773 -0.43222323 -0.4362788
000030 28 91 42 be 11 1b 07 bf 34 7c 26 3e a8 1b 2d bf
       -0.19000685 -0.52775675 0.16258317 -0.67620325
000040 d5 ef 8e 3e 45 99 51 3e be 57 cb bc 82 29 21 3d
       0.27917352 0.20468624 -0.024822112 0.039346226
000050 70 66 4f be 8f b2 b1 3e 4f af 3f be 3e 1d f3 bd
       -0.2025392 0.34706542 -0.18719219 -0.11870812
000060 6a d0 2f 3e a3 d5 77 be 8f 99 3b be 1d c2 ce 3e
       0.17169347 -0.2420259 -0.18320297 0.40382472
000070 9b ec a4 3e b6 3f da bc ab 00 85 3d 59 5e f0 be
       0.32211766 -0.026641708 0.06494268 -0.46946982
000080 60 9c 56 bf 75 af ec be d7 03 17 bc 59 59 81 be
       -0.8383236 -0.46227613 -0.009217224 -0.2526348
000090 5c 7d 8b bd 6d fe e2 3d 5f 5a cb bd 46 00 a5 be
       -0.0681102 0.11083684 -0.09929346 -0.3222677
0000a0 08 ac 01 bf e3 47 64 bd f4 7f 44 be 5e 82 89 3c
       -0.50653124 -0.05573262 -0.19189435 0.016785797
0000b0 fa e8 2a 3e b3 50 3f bf e9 84 8f be d1 2c a8 be
       0.16690436 -0.7473251 -0.2803109 -0.32846692
0000c0 62 43 11 bf 0f 90 3c be cc 47 2a bc df a5 c3 bd
       -0.56743443 -0.18414329 -0.010393094 -0.09553122
0000d0 d8 33 db be 90 3e 3d be 7f fd ad bd 58 ce 46 3e
       -0.4281299 -0.18480897 -0.08495616 0.19414651
0000e0 46 cd 41 3f 23 ba f3 be 20 d0 6d 3d 62 d6 25 bf
       0.7570385 -0.4760295 0.05805981 -0.6478025
0000f0 e3 cc ba 3e a6 a8 0f 3e bb cc 58 3e 64 e2 55 3e
       0.3648444 0.14029178 0.21171848 0.20887142
000100 ed ab 11 3d da 58 d5 3e ed 31 09 3e 0d e2 33 be
       0.03556435 0.4166935 0.13397951 -0.175667
000110 a0 4a 61 be fa 9c 92 3e e6 c2 4e 3d cd 6d 72 be
       -0.22001123 0.2863539 0.05047884 -0.23674698
000120 87 2e 8e 3e e5 63 65 3e 47 93 b1 bc d4 a5 36 be
       0.27769873 0.22401388 -0.021676673 -0.17836696
000130 0e 25 e4 3d 51 36 ed 3c 41 5f f9 3e 44 1f 5d 3e
       0.1113988 0.028956564 0.48705485 0.21593958
000140 85 0a e9 be 65 9f 3f 3d 2c 00 42 be 4c 69 3e 3e
       -0.45515838 0.04678287 -0.18945378 0.18594855
000150 18 50 22 3f 78 23 88 be 05 8c b2 be 5f c6 d5 be
       0.63403463 -0.2658956 -0.3487245 -0.41752908
000160 da d6 d4 3e 8e e9 5e 3f e9 6e ee be fe ee 89 bd
       0.4157017 0.87075126 -0.46568993 -0.06735037
000170 5b 2a 1b 3e b1 a5 e0 be 8c 4f 94 3d dc 37 9f 3e
       0.15152876 -0.43876413 0.07241735 0.31097305
000180 9f 3f 0f 3f 9b bb 13 bf a6 87 ce bd 4b c3 95 be
       0.55956453 -0.5770814 -0.10084467 -0.2925056
000190 41 0d b3 bd 12 7d f8 bc 9d b7 08 be b5 5c a7 3d
       -0.08742762 -0.030333076 -0.13351293 0.08171979
0001a0 67 63 54 bd 55 1f 60 3e df b2 20 bc d5 fb 3e 3e
       -0.05185261 0.21886952 -0.009808271 0.18650754
0001b0 f4 21 48 3a 46 ce a6 bd 00 76 d8 bd 82 9e f9 3d
       0.0007634454 -0.08144812 -0.10569382 0.12188436
0001c0 5f bd 22 3e 2f d9 8f bd bf eb 50 3c 6f 91 dc 3d
       0.15892552 -0.07023846 0.012751519 0.10769927
0001d0 f9 48 3e 3d 66 0c 01 3d 53 df a2 bd 33 70 2e be
       0.04645631 0.031505965 -0.07952752 -0.17034988
0001e0 02 8a bb 3d 29 0d 31 3e 05 62 c8 bc 5b 2f 8d bc
       0.09157182 0.17290176 -0.024460802 -0.017234495
0001f0 fc 1f f5 bd 52 25 d8 bd 85 1e 0a be 25 7d 77 3b
       -0.11968991 -0.10553993 -0.13488205 0.00377638
000200 47 68 2c 3e f8 6b 99 3c 82 33 a8 bd 2b 95 05 3e
       0.16836654 0.018728241 -0.08212949 0.13045184
000210 b1 a6 f4 bd 47 49 2c 3d 2f 9f de 3d b7 46 80 3d
       -0.11945856 0.04206207 0.108702056 0.06263488
000220 46 6c 62 bd b3 b8 5d be a3 b1 64 be ee b8 0e be
       -0.05527904 -0.21652488 -0.22333388 -0.13937733
000230 f4 59 42 3d 2d 7f 3f 3e de c5 8c bd b0 74 e8 3d
       0.047449067 0.18700857 -0.06873678 0.113503814
000240 d0 49 a7 be fc 10 28 be 18 58 04 3d c8 aa 3a 3e
       -0.32673502 -0.16412729 0.032310575 0.1822921
000250 10 51 c0 bd 3e 8d 68 bd 1a 51 3b 3f 2a 1a 8c be
       -0.093904614 -0.056775324 0.73170626 -0.27363712
000260 9f 30 f7 3e ea d0 5c 3d 77 db d8 3e 19 8b ee be
       0.48279282 0.053910173 0.42354938 -0.46590498
000270 60 14 93 3e 21 9d 3f 3e 08 4d b2 be e4 78 24 be
       0.28726482 0.18712284 -0.34824395 -0.16061741
000280 69 68 13 bf e7 3d b4 be 75 75 89 be ce c5 0a be
       -0.5758119 -0.35203478 -0.26847425 -0.13552019
000290 f0 54 28 3f 36 bf 86 bb 16 fe 34 3f de ec c2 bd
       0.65754604 -0.0041121496 0.70700204 -0.09517835
0002a0 92 7b d7 3d 86 87 bf 3e 8a fd ae 3e cd 97 e1 3e
       0.10521616 0.37408084 0.3417781 0.44061127
0002b0 4d 45 6e be b6 e6 7a 3e a1 3b 0d bd 3b fd b6 be
       -0.23268624 0.24502072 -0.034480695 -0.35740075
0002c0 34 70 72 be bf 54 2a 3e a1 9d 21 3f 87 c4 85 be
       -0.23675615 0.1663389 0.6313115 -0.261265
0002d0 52 f9 c6 3d 12 36 a6 be bd 48 c2 be 5d 6b 64 be
       0.09715523 -0.32463127 -0.3794612 -0.22306581
0002e0 28 63 01 bc c7 19 be be e1 b0 0a be eb b4 75 3e
       -0.007897176 -0.37129042 -0.13544036 0.23994796
0002f0 e7 9b c1 3e b4 e8 ac 3d db b0 75 bd 3f 8d 57 3e
       0.37814257 0.08442822 -0.059983116 0.21049975
000300 b1 29 4a 3f 87 0f ce bc d0 2e 01 bd 8a 3a e3 be
       0.78969866 -0.025153888 -0.031538785 -0.443806
000310 1a f9 50 3e 9a 1b 37 be 31 4a 05 be 2e 70 07 be
       0.20407525 -0.17881623 -0.13016583 -0.13226387

linear.weight f4 [4, 50]
000000 d6 2b f4 bd af 4f 3a bd 1c e2 af be f6 a9 bb bc
       -0.119224235 -0.04548615 -0.34352195 -0.022908192
000010 85 bb 39 3f 51 51 2e be da 3d 92 be a3 8c 60 3e
       0.7255176 -0.17023207 -0.28562814 0.21928649
000020 df 6c 4a be 00 ef 49 3b ee 2b 06 3d 71 ff b9 be
       -0.19768094 0.003081262 0.03275674 -0.363277
000030 dc 11 5d be b7 0c 8f 3d 4e a3 ef 3e 0c b7 08 be
       -0.21588844 0.06984847 0.4680428 -0.13351077
000040 22 9c b1 bd af b7 3b 3e b6 ea 31 3e e2 a8 99 3e
       -0.08672358 0.18331788 0.17374691 0.3001166
000050 62 22 ae be 60 1b 52 3e 92 17 e6 3e a7 43 39 3e
       -0.34010607 0.20518255 0.44939858 0.18092214
000060 d1 fc 88 3c cc 78 9a 3e 48 cc 6d 3e 52 3a e9 bd
       0.016722115 0.30170286 0.23222458 -0.11388077
000070 b0 a4 36 bf 8d cb 3c 3d 06 79 02 bd 4d 06 63 be
       -0.71345043 0.04609256 -0.0318537 -0.22170372
000080 c9 20 c1 3e ca 81 75 3e cf 70 b6 bd 83 3b ab be
       0.37720326 0.23975292 -0.08908235 -0.3344384
000090 3c 98 09 3e 75 d6 16 3d bb 8f 71 3e db 9d 07 bd
       0.13436979 0.036825616 0.23589985 -0.033109527
0000a0 4b 4a 25 3e de ff 07 be fd 61 db 3e 62 f4 bc 3e
       0.16141622 -0.132812 0.42848197 0.369052
0000b0 39 3c be be f6 95 d6 3e b4 3c 91 be 8c b3 78 3e
       -0.3715532 0.41911286 -0.28366625 0.24287242
0000c0 2a 43 03 bf a2 4b 06 3e f5 f6 3e 3e 2e 3b 63 3e
       -0.5127436 0.13114789 0.18648894 0.22190544
0000d0 bc e3 46 3e 8d 63 b8 3e dd c6 c6 3c 48 27 9f 3e
       0.19422811 0.3601345 0.024264747 0.31084657
0000e0 2f ad b2 3e bc ca b3 be 44 a7 a6 3e dc a1 25 3e
       0.34897754 -0.35115612 0.3254949 0.16175026
0000f0 4b c7 40 be 25 cc 95 3e bb 6c bb 3e 5c 19 cf be
       -0.18826024 0.29257312 0.36606392 -0.40449035
000100 2e 7c b5 be f3 62 19 3f 2b 7e b3 3b c4 98 cb be
       -0.35446304 0.5991661 0.005477687 -0.39764988
000110 f5 f7 d4 be 3b 1e d5 be 87 8f 03 be 72 7a 18 bf
       -0.41595426 -0.41624627 -0.1284772 -0.59561837
000120 86 8a 2f 3d b9 f5 ca 3e 79 95 39 3e a0 b2 5e be
       0.042856716 0.39640597 0.18123426 -0.21747828
000130 18 a0 3a be ec 6a af 3e fb 7e fe bd c7 54 ca 3b
       -0.18225133 0.34261262 -0.12426563 0.006174657
000140 23 33 ad 3d 9d 77 4a be 86 fc 36 be c8 be ed 3d
       0.08457019 -0.19772191 -0.17869768 0.11608654
000150 c1 89 3d 3e 18 4e 69 3d 76 42 fd bd 19 37 ed be
       0.1850958 0.05695924 -0.12366192 -0.463311
000160 68 57 83 be 1b 44 5b 3e e2 50 42 3a 1e 63 59 3d
       -0.25652623 0.21412699 0.0007412565 0.05307304
000170 2f 78 ad 3e 9c 6d 73 bd 67 dd 00 bf 33 98 9c be
       0.33880755 -0.059430704 -0.50337833 -0.3058487
000180 d9 d8 0d 3e ae e9 48 be 42 70 02 3f ff 72 ba be
       0.13852252 -0.19620392 0.5095254 -0.3641586
000190 54 ab a2 3e 20 57 86 be 29 40 31 3e b0 3f be 3d
       0.31771338 -0.26238346 0.17309631 0.09289491
0001a0 94 2f d8 3e 86 17 aa be 61 d3 4f 3e 42 39 84 bd
       0.422238 -0.33221072 0.20295478 -0.064562336
0001b0 85 32 32 3d f8 02 e2 3e 9c fb 17 3f 85 b8 85 3e
       0.04350521 0.4414289 0.593683 0.2611734
0001c0 37 ab f6 bd 8f c4 93 3d 7c 64 b6 3e 8d e6 02 bd
       -0.120443754 0.07215225 0.35623538 -0.03195815
0001d0 05 a4 3f 3f a4 15 00 3e c3 ac b3 be 66 2b 4d bd
       0.7485965 0.12508255 -0.35092744 -0.050090216
0001e0 9e 56 84 3e 97 87 20 be d8 6f cd 3c c9 38 32 3e
       0.25847334 -0.15676723 0.025077745 0.17404474
0001f0 60 44 84 3e a6 6b 8c 3d 6b ba 39 3e 98 71 f5 bd
       0.25833416 0.0685647 0.18137519 -0.11984557
000200 ad 9d d2 bd 20 f8 75 be 29 6b 11 be 14 fb 6e 3e
       -0.102839805 -0.24020433 -0.14201035 0.23337966
000210 e0 fd a2 3e 0d 3b af be c1 e7 f7 3d 4f 02 29 3e
       0.31834316 -0.3422474 0.121047504 0.16504787
000220 7e 54 29 3d a2 4b fe 3d 03 d6 7f 3e a3 b4 87 3e
       0.041340344 0.124167696 0.24983983 0.26505002
000230 53 8b 90 be f9 d4 e9 3e 17 31 b4 be 32 9b 81 3e
       -0.28231296 0.45670298 -0.35193703 0.25313717
000240 5b 9b 3e 3e 77 6c 76 3d df aa b3 bc 11 c6 cf be
       0.18613951 0.060162034 -0.021932064 -0.405808
000250 89 eb 8a 3e 1c 5e 76 be 7a 17 b9 3e 93 16 60 3e
       0.27132824 -0.24059337 0.36150724 0.21883611
000260 10 e7 d5 be 2c 60 c8 3e cb 96 44 3e 4a cd d9 bc
       -0.4177785 0.39135873 0.19198148 -0.026587147
000270 1b fc 9d be 89 ae 2b 3d 03 46 5c be 83 aa 90 bc
       -0.30856404 0.041914497 -0.21511082 -0.017659431
000280 6d 11 a1 3b 68 28 33 be 1e 05 03 bd 49 c8 00 3f
       0.0049154074 -0.17495883 -0.031987302 0.5030561
000290 eb bc 10 bf 86 4a ee 3d eb 49 9d 3e 28 a7 c2 bc
       -0.56538266 0.11635308 0.30720457 -0.023761347
0002a0 5b 6d de bd 56 87 8e 3e 49 0b 87 bd 8c 1b be 3d
       -0.10860702 0.27837628 -0.06593949 0.09282598
0002b0 6d 5f 47 3e e7 aa b4 be f3 b3 ea be cf 56 43 be
       0.19469996 -0.35286638 -0.45840415 -0.19076084
0002c0 a8 a5 32 be 48 60 f5 3e ce d0 27 bc 04 3d be 3e
       -0.17446005 0.4792502 -0.010242654 0.37155926
0002d0 aa cc c2 3d d9 d0 03 bf 4d bf 81 bd 75 a2 99 3e
       0.09511693 -0.5149055 -0.06335316 0.30006757
0002e0 52 0a 26 be 54 df 6b be 33 22 84 be b4 21 d6 3e
       -0.16214874 -0.23034412 -0.25807342 0.41822588
0002f0 86 38 a0 be b0 63 bd be cf 3f 05 3f e3 06 c1 be
       -0.31293124 -0.36990118 0.5205049 -0.37700567
000300 c9 aa f5 be 28 77 83 be ea 63 01 be 03 ec 99 be
       -0.4798186 -0.25676847 -0.1263577 -0.30062875
000310 a9 85 32 3e b6 e0 5b 3e 9b ff 43 be 48 bf a5 bd
       0.174338 0.21472439 -0.19140474 -0.08093125

linear.bias f4 [4]
000000 d4 ce b8 3d dd 59 aa bd 39 a0 e2 3d fc 77 09 be
       0.09023824 -0.08317921 0.11065716 -0.13424677
