lstm_BigData/trial3/lstm_model_epoch0.pth (torch, 51853 bytes, 6 tensors)

lstm.weight_ih_l0 f4 [200, 8]
000000 1a 25 1d 3e e4 23 07 be 84 f4 1b 3d fb b7 a1 bd
       0.15346184 -0.13197285 0.038074985 -0.078964196
000010 2e ca 2f bc b9 8e b0 bd 0f bd f2 bc 61 00 7c 3d
       -0.010729356 -0.08620972 -0.029631166 0.0615238
000020 31 45 17 bd c3 3d 3c bd ff 09 75 3d 0d 3f 9a 3d
       -0.03693122 -0.045957338 0.059823986 0.07531557
000030 b3 9f b2 3d 5d f1 b5 3d f2 2c 49 3e 5c e5 15 be
       0.087218665 0.08883927 0.19646052 -0.14638275
000040 ab 62 eb bc 24 78 c8 3d 6e af cb 3c 45 97 c2 3c
       -0.028733572 0.0978854 0.024863925 0.023753772
000050 c5 58 ad 3d ae 38 45 3d 6b cf 5a bd da f4 86 bd
       0.08464197 0.048149757 -0.053420465 -0.065896705
000060 0e 10 57 3e 38 29 2f be e9 c8 c1 bd 81 3f 88 3d
       0.21002218 -0.17105567 -0.09462149 0.066527374
000070 80 ae 71 3e 66 5a 56 bd 52 bb 3f bd d9 75 11 be
       0.23601723 -0.052332304 -0.046809502 -0.14205112
000080 e5 92 24 bd 57 f9 85 3d 29 ba e6 bd 02 78 c0 bd
       -0.040179152 0.065416984 -0.11265976 -0.0939789
000090 fd 91 66 3d ce 7e c1 3c 5e 36 27 3c 0a f3 99 3b
       0.05629157 0.023620035 0.010205833 0.004698162
0000a0 e9 1b c6 bd c1 6d 8c 3d 95 de ab bd 0d 60 28 be
       -0.09673292 0.068568714 -0.083920635 -0.1644289
0000b0 48 fd 16 3d 5a 39 68 3c 11 85 87 3d e9 22 52 be
       0.03686264 0.01417383 0.06617177 -0.2052113
0000c0 69 bc 29 3c 8e d3 c0 3b b2 4d 58 3e 68 e5 8f bc
       0.010359862 0.0058845943 0.21123388 -0.017565444
0000d0 ff 82 ba bd 63 70 2b 3e 8b be 42 3e 60 69 f2 3d
       -0.09107017 0.16742091 0.19017999 0.11836505
0000e0 25 e8 17 3e 8a 55 1b be 44 fc 8a 3e 29 67 d8 bc
       0.1483465 -0.1516935 0.27145588 -0.026416378
0000f0 e5 7e 5d 3d e7 ae 30 3e af 8d 25 3e 4e 17 fe 3d
       0.054076094 0.1725422 0.16167329 0.12406789
000100 c8 e8 5a 3e 63 2b 02 be f0 1d dc 3c bb 52 39 3d
       0.21377861 -0.12711863 0.026869744 0.045244914
000110 c2 2b 8c 3e 82 3b be bb f4 44 9e 3d ec 50 08 3d
       0.27377135 -0.0058054337 0.077279955 0.033280298
000120 80 fb f0 3c 13 4b 1d be a2 8e 3c 3e 53 9d 79 be
       0.0294168 -0.1536067 0.18413785 -0.2437642
000130 30 ea 65 3e bb 09 ce bc 7e 6d 6c 3e 30 f5 42 bd
       0.22452617 -0.025151124 0.23088643 -0.04759711
000140 9a 0f 39 bd 7f 21 2e bd 6a 08 3a bd 7a 59 a3 3c
       -0.045180894 -0.042512413 -0.04541818 0.019940127
000150 fc cc 65 bd 14 c6 de bd ac 51 13 3e 79 5f 62 3d
       -0.05610369 -0.10877624 0.14386624 0.05526683
000160 23 6a 83 bd 5e 45 c1 bd a5 ca 81 bd c6 09 59 be
       -0.06416728 -0.09437059 -0.063374795 -0.21195135
000170 cb ad b6 bd 02 34 a9 bb 0b 43 a0 3d 29 cc 13 3e
       -0.08919867 -0.0051636705 0.078252874 0.1443335
000180 b9 de a2 bd 87 ae fc bd 79 4b 07 be 51 ab 2e bd
       -0.07952637 -0.12337976 -0.13212384 -0.04264385
000190 0d 7e da bc 64 5d f5 3d 26 48 4f 3e a0 b3 07 be
       -0.026671434 0.119807035 0.20242366 -0.13252115
0001a0 8d ce 16 bc 70 af 8e bc 62 c4 08 3e f9 6a 59 bd
       -0.009204519 -0.01741764 0.13356164 -0.053080533
0001b0 d8 06 7e bd 94 d9 b8 3c 94 a3 e8 ba 54 6b 21 3e
       -0.062018245 0.022564687 -0.0017748945 0.15763599
0001c0 ac ea 9e bd 6f 51 09 bd 6c 82 43 3e f7 b0 75 bd
       -0.07759604 -0.033524927 0.19092721 -0.05998322
0001d0 77 e0 08 3e 66 63 0e be 3b 99 e9 3d 53 2c a6 bc
       0.13366877 -0.13905105 0.114061795 -0.020284807
0001e0 27 ca ee bd 51 40 11 be 74 65 f9 bc 17 ee eb 3d
       -0.11659651 -0.14184691 -0.030443884 0.115200214
0001f0 7c 02 97 3d 9d 43 2f be 51 8b 17 3e 1f da 00 bd
       0.07373521 -0.17115636 0.14799239 -0.031458016
000200 cb 90 d1 bc ef 15 d1 bd 0c 16 8e 3d 15 d4 47 be
       -0.025581738 -0.102092616 0.06937799 -0.19514497
000210 d8 18 a6 3d ea 17 8e 3c b1 1b 0b 3e 0d 1a 38 3e
       0.08110207 0.017345387 0.13584782 0.17978688
000220 bc 14 6b bd 31 cb 24 bd c8 8d bc bd e7 db 83 3d
       -0.05739282 -0.04023284 -0.0920673 0.064384274
000230 2b 36 a0 bc 1d e9 89 3c a2 9a b3 3d f4 3d 34 bd
       -0.01955708 0.01683479 0.08769728 -0.044004396
000240 e8 6b 17 3e 53 3f 4e bd cd ce 5b 3d f1 56 3e be
       0.14787257 -0.05035336 0.053664017 -0.18587853
000250 3d e3 88 3c 3e 5e 90 bd c9 49 c4 3d 3e 02 3a 3e
       0.016709918 -0.07049225 0.09584386 0.18164918
000260 6e 71 58 bd aa 43 2a be b4 f1 ce 3d 92 8f 49 be
       -0.05284255 -0.16627374 0.10104695 -0.19683674
000270 23 d9 03 be 0c 1b 4b 3e df 05 9b 3d 8e 9e cc bd
       -0.128758 0.19834536 0.07569479 -0.099911794
000280 ed 8f c0 3c ef 9a 5d 3b 2b 18 d3 bd 5c 81 d3 3d
       0.02350613 0.0033814271 -0.10307344 0.10327408
000290 83 17 a8 3b ac ca bf bd 52 df 5c bc 10 41 ee bd
       0.005129756 -0.093648285 -0.013480978 -0.116335034
0002a0 3e 29 09 3e 57 4e de bd 81 92 60 3d 90 03 f1 bd
       0.13394639 -0.10854786 0.054827217 -0.117682576
0002b0 df 0a 30 bd d8 51 b5 3e 8c 91 8d 3e 62 ab c7 b9
       -0.042979117 0.35414004 0.27650106 -0.00038083928
0002c0 b3 3c cc bd 1f 61 d2 3d e9 6e 10 be 74 2c 02 3e
       -0.09972515 0.10272431 -0.14104809 0.1271227
0002d0 63 69 a7 3b e0 36 00 3e 5a 02 b7 bd 9b 4f 86 3d
       0.0051089986 0.12520933 -0.089359954 0.06558152
0002e0 c0 b1 e6 3d db 81 b1 3d d5 e9 7a 3e ea 4a 74 bc
       0.11264372 0.08667346 0.24503262 -0.014910439
0002f0 6a c0 1c 3d cd 12 24 bd 9d 3d 74 3e cc f3 7c 3e
       0.038269438 -0.040056992 0.23851629 0.24702376
000300 63 02 ea 3c 16 4c 5e 3c e7 c0 14 bd 58 22 e1 bd
       0.028565591 0.013567945 -0.03631678 -0.10992879
000310 66 15 89 3d d3 93 c8 be 33 a8 62 3e fb c4 e0 bd
       0.066935346 -0.3917528 0.22134475 -0.10975071
000320 ae 42 57 3d de 89 27 be 19 fe 09 bd f1 cc 33 bd
       0.052553825 -0.16361186 -0.033689592 -0.04389662
000330 fd 97 0b 3e 35 a1 25 3e 21 f4 0c be 1f a1 07 be
       0.13632198 0.16174777 -0.13765003 -0.13245057
000340 8c 3d 62 bd ed 98 00 3e 9f 48 4a 3d 00 69 8a 3d
       -0.055234477 0.12558337 0.049385663 0.067583084
000350 2e 75 9e bd 2f 69 a0 3d a3 89 1c 3e 16 0b ed bd
       -0.07737194 0.07832562 0.15286879 -0.1157438
000360 3d de 96 3d 48 97 49 bc 4d 73 98 3d 84 14 39 3d
       0.07366607 -0.012304135 0.07443867 0.04518558
000370 b0 ba ef bd 06 8a 15 bd 3c 14 f6 3c 34 50 83 bd
       -0.1170553 -0.036508583 0.030038945 -0.06411782
000380 40 a7 a6 3d 9a 1a 5e bd bb 3f da 3d 69 16 03 be
       0.08137369 -0.054224588 0.10656687 -0.12801518
000390 a5 2e 1d 3e 59 2e f5 bd 0f 1d 34 be 8b d4 59 3e
       0.15349825 -0.11971731 -0.1758921 0.21272485
0003a0 23 67 db bb aa 19 81 bd a1 ab 8a 3d d7 7e fd 3c
       -0.0066956445 -0.06303723 0.06771017 0.030944271
0003b0 dc 93 eb bd 32 75 af bc f4 a8 1a bd 3c 89 bd bd
       -0.11502811 -0.021418188 -0.037758783 -0.09254691
0003c0 b8 02 ff 3d 34 a8 66 3d cb 76 22 bd e6 d3 bd bd
       0.124516904 0.056312755 -0.03966407 -0.09268932
0003d0 55 bd 54 bd 99 fa 7e bd 8d 05 8e 3d f6 c2 17 be
       -0.051938374 -0.062250707 0.069346525 -0.14820465
0003e0 a4 30 33 3e ba e5 82 bd a6 47 e6 3d 54 61 21 3d
       0.17499024 -0.06391473 0.112441346 0.03939946
0003f0 a2 a0 de 3c d3 8c dc 3c 7a 6c 42 bd 52 2f b5 bd
       0.027176205 0.026922619 -0.047466733 -0.08846916

lstm.weight_hh_l0 f4 [200, 50]
000000 60 75 be 3d 74 2b a4 bd c8 4d f2 bd e4 b2 f6 bd
       0.09299731 -0.080161005 -0.11831242 -0.120458394
000010 68 32 05 3e e5 cc 68 bd 4d fa 18 bd 0e 05 f4 bd
       0.1300751 -0.056836028 -0.03734808 -0.119150266
000020 4d e0 15 bd a7 d3 f5 3d 2d e1 02 3e fd 22 81 3b
       -0.036590863 0.1200326 0.1278121 0.0039409385
000030 bd 54 26 3d 6b 64 ca 3d 55 e1 a2 3c 15 3f d0 3d
       0.040608156 0.098824345 0.019882837 0.10168282
000040 be c4 d7 bd ab ce 98 3d 79 55 26 3d 28 94 a1 3c
       -0.105355725 0.07461294 0.040608857 0.019723967
000050 6d 74 07 be af 98 d9 3d d6 ef de 3d e5 b5 cd bd
       -0.13228007 0.10624825 0.10885589 -0.10044459
000060 8e b0 a5 bd 62 c0 1f 3c e4 97 08 3d 21 99 7a 3d
       -0.08090316 0.0097504575 0.03334798 0.06118119
000070 d6 a8 99 bd f6 27 8c bd c6 23 17 3d 45 d1 5b 3d
       -0.07502906 -0.068435594 0.03689935 0.05366637
000080 0c f3 b6 3d cb b8 1d 3d ab f6 bc 3c e0 a8 47 bd
       0.08933076 0.03850631 0.02306684 -0.048745036
000090 6a c1 5c 3d c8 70 b2 3d 6a 62 9c 3d 6c e4 ba 3d
       0.05389539 0.087129176 0.076359585 0.09125599
0000a0 8e c0 e3 3d 34 da e1 bb b7 16 0e be 78 f1 fc bc
       0.11120711 -0.006892467 -0.13875853 -0.03087686
0000b0 92 b7 12 bd fc 30 15 bd aa df ba 3d cd 59 77 3c
       -0.035819598 -0.03642367 0.09124692 0.015097094
0000c0 aa b0 97 bd 4e df ad bd 73 79 81 3d 49 dc 05 3e
       -0.07406743 -0.084898576 0.06321993 0.13072313
0000d0 ec 49 21 bd c0 39 cc 3d 85 8e a9 bd ae b6 88 3d
       -0.039377138 0.099719524 -0.082791366 0.066754684
0000e0 58 46 e6 3d 24 66 c2 bd 0e d5 a8 3d 22 64 83 bc
       0.11243886 -0.09492138 0.08243762 -0.016038958
0000f0 fa 3c 00 be 7b 8c 61 3d 61 97 94 bd fd f9 a8 bd
       -0.1252326 0.055065613 -0.07255436 -0.082508065
000100 1f bd c4 bd ee 1f 18 3d 70 99 c0 3d ed 61 a9 bd
       -0.096063845 0.037139826 0.09404266 -0.08270631
000110 83 fb 72 bc 14 48 38 3d a3 04 87 bd 10 09 dd 3b
       -0.014830473 0.044990614 -0.06592681 0.006745465
000120 be e2 13 be 67 35 07 3e 2e 2d 67 3d 8d d0 0f be
       -0.14441964 0.13203965 0.05643957 -0.140444
000130 91 c8 91 bc d3 92 7c 3c eb 92 7d 3c f6 8f e1 bd
       -0.017795833 0.015415865 0.0154769225 -0.110137865
000140 e7 c4 aa bd e0 bc 36 3d 5c 70 34 bd 5d dc 04 3e
       -0.083383374 0.04461372 -0.044052467 0.12974687
000150 e7 e3 80 bd c2 6c 9b 3d 15 56 c4 3c 97 eb 8b bd
       -0.06293469 0.07589103 0.023966828 -0.068320446
000160 93 61 f2 3c 5e 9b 59 b9 51 e4 fd 3d 1d a1 76 3d
       0.029587543 -0.00020752611 0.123970635 0.060212243
000170 6a bf ec 3d 58 a6 03 3e 1b 06 29 3d 8f cf 08 3e
       0.11559947 0.12856424 0.04126559 0.13360427
000180 2d 97 97 bd dd ba e3 3c 14 4f 8c 3b 14 c7 e1 3d
       -0.07401881 0.027799064 0.004281888 0.11024299
000190 21 68 3c 3d 52 c3 a1 3d 22 8b a8 3d 9f 5d 08 be
       0.045997743 0.078985825 0.082296625 -0.13316964
0001a0 3c 0c 10 be 03 b7 01 3e 38 61 8a bd f7 4f ad 3b
       -0.14067167 0.1266747 -0.06756824 0.0052890736
0001b0 fe e4 d0 3d 8d 2b ef 3c df 00 1e 3d 8a c5 d1 bd
       0.10199927 0.029195571 0.03857505 -0.10242756
0001c0 29 ba 3b ba 09 4f e0 bd 1d e0 7a 3d 97 6b d2 3d
       -0.0007161224 -0.10952575 0.061248887 0.102744274
0001d0 f6 69 1b bd 19 ef 81 3d 3d 47 c8 3a 47 6f a5 bd
       -0.03794285 0.063444324 0.001528002 -0.08077865
0001e0 77 83 f9 3c 5f 41 8a bd a6 db f5 3d 25 27 35 bd
       0.030458195 -0.0675075 0.12004785 -0.044226784
0001f0 e1 2a 77 3d ef ea e4 3d 96 4a c6 3c 19 db ae 3d
       0.060343627 0.111776225 0.024205487 0.08537883
000200 f5 92 39 bd 00 7a 8e 3d 7c 62 a2 bc 53 db 9a 3c
       -0.045306165 0.069568634 -0.019822352 0.01890341
000210 e0 01 ce 3d ea 98 11 be 72 99 ac bd 22 7b ca 3c
       0.100589514 -0.14218488 -0.08427705 0.024716917
000220 6b 3e a3 3d 72 ee 71 bd 80 89 35 3d 7c 70 00 be
       0.0797089 -0.05906529 0.044320583 -0.1254291
000230 3b f1 69 3c 80 41 52 3b 9c fa d7 3d 48 31 c6 3d
       0.014278705 0.0032082498 0.10545847 0.096773684
000240 89 ce c6 bd db 14 09 3e 0f 73 aa bc 71 fd 46 3c
       -0.09707362 0.13386862 -0.020806817 0.012145386
000250 40 28 81 3d 52 16 8d 3d b9 f8 03 be fd 62 e4 3a
       0.06306505 0.06889023 -0.12887849 0.001742452
000260 dd 05 3d 3d 04 59 06 be ab 78 47 3d 38 13 a9 bd
       0.04614817 -0.13119894 0.048699062 -0.08255619
000270 e8 d8 8b 3d 13 70 12 be ad 84 c0 bd 35 02 0e 3e
       0.06828481 -0.14300565 -0.09400306 0.1386803
000280 03 ab fa bd bc 51 8a 3c ec 0d 80 3d 7e cb 79 bd
       -0.12239649 0.016884677 0.062526554 -0.06098508
000290 3f e0 13 3d 6f 17 94 3d 57 0f e8 bc 3f ac 06 3e
       0.03610253 0.07231032 -0.028327627 0.13151644
0002a0 5a 52 a4 bd 24 40 94 bb ee 3e 0f 3d 26 2e 88 3d
       -0.0802352 -0.0045242477 0.034972124 0.06649427
0002b0 d9 f1 0a 3e d4 4a 1e be d8 99 f4 3c 43 f7 ad 3c
       0.1356882 -0.15458232 0.029858515 0.021236068
0002c0 16 d6 84 3d 92 30 a5 bd bb ab 13 3e ce e1 b9 3c
       0.06486146 -0.08065905 0.14420979 0.02269068
0002d0 02 c2 b8 3d 09 68 9c 3d 06 39 f3 3d 1e 5d 78 bd
       0.09021379 0.07637031 0.11876111 -0.06063568
0002e0 34 ea a0 3d 3b 94 32 bb c3 65 a1 bd bf 0f d8 bd
       0.07857171 -0.0027248997 -0.07880738 -0.10549878
0002f0 cf dd 0b be 5b f5 0b 3d 5f 5f 9a 3d 30 50 94 3d
       -0.13658832 0.034169536 0.07537722 0.07241857
000300 11 2d be 3c 50 58 06 be 0e 3d 8d 3d 9f b8 1c 3e
       0.023214849 -0.13119626 0.06896411 0.15304802
000310 43 9b 17 be 5f 01 c0 3d ae ec 05 be d7 38 63 3d
       -0.14805321 0.093752615 -0.13078567 0.05547413
000320 6f 3a 35 3d fe 03 9f 3d ab d5 d2 bc 0a 57 9b 3d
       0.04424518 0.07764433 -0.02573665 0.07584961
000330 01 45 3d 3d 35 62 96 3c bb 6d 07 bd eb ea 6e bd
       0.046208385 0.018357376 -0.03306363 -0.058329504
000340 13 d0 f8 3d b4 eb c5 3d d5 52 d8 3d 5b 27 ca bd
       0.12149062 0.096640974 0.10562674 -0.09870788
000350 a7 01 05 bb 73 d3 c9 bc 79 a7 86 bd dd c5 e9 bd
       -0.0020295174 -0.02463696 -0.065749116 -0.114146926
000360 db 92 71 bb 70 7f d9 3d ad 99 5f bd cd 66 f1 3d
       -0.0036861214 0.1062001 -0.054589916 0.11787186
000370 94 63 fe bd 49 52 bd bd da 88 ca 3d db 51 da bd
       -0.12421337 -0.0924421 0.098893836 -0.10660144
000380 94 e6 cd 3d ae 2e ef bd b7 e3 98 bc d7 7e 81 3d
       0.10053745 -0.11678825 -0.01866327 0.06323021
000390 e4 ea 46 3d 19 f7 a3 bc ac aa b6 bd 9a 97 e8 b8
       0.048563853 -0.020015286 -0.08919272 -0.0001109086
0003a0 f8 02 4d 3d 5b 51 0a be a9 6b ce bd d6 50 86 bc
       0.05005166 -0.13507597 -0.10079128 -0.016395967
0003b0 9e cd 26 bd 8f a7 91 bc 61 a0 0b 3c bd 7e 4a 3d
       -0.040723436 -0.017780093 0.008522124 0.049437273
0003c0 0e 8c 04 be 94 ee af bd ff 0a d7 bd 4e eb dc 3d
       -0.12944052 -0.08590427 -0.10500144 0.10787068
0003d0 8d c2 f3 bc 8b cc d0 bc b9 5a f6 3d 31 81 b0 3d
       -0.029755855 -0.025488159 0.12029023 0.08618391
0003e0 5a 1d 1d 3d a3 15 84 bc 5f 23 dc bc 9a 13 9b 3c
       0.03835807 -0.016123598 -0.026872335 0.018930245
0003f0 23 8d 2e 3d 4f 37 e0 3a 15 9d b5 3d 24 0d 47 bd
       0.042615067 0.0017106327 0.08867852 -0.048596516

lstm.bias_ih_l0 f4 [200]
000000 d4 f8 5c 3c 35 af 16 bd 7c 90 15 3c 1c 9b b9 3c
       0.01348706 -0.036788184 0.009128686 0.02265697
000010 65 f0 0a 3d 6c f9 de 3c 8c 56 95 3d c1 5a 36 3e
       0.033920664 0.027218543 0.07291898 0.17808057
000020 32 d3 45 3d aa 9c 16 3c 18 55 b8 3d fc b4 5a 3e
       0.048297115 0.009192625 0.09000605 0.21358103
000030 57 98 37 3e 72 7d fa 3d fb aa ef 3d e3 72 9c bd
       0.17929207 0.12230958 0.11702534 -0.076391004
000040 96 2c 0c 3a 16 dc 8e 3d 45 a1 4d 3e 5d 11 42 3d
       0.000534722 0.06975572 0.2008105 0.04737984
000050 7e 35 1a 3e 74 06 6d 3d 75 06 0a be 2b 8f 5c 3c
       0.15059468 0.057867482 -0.13479026 0.013461868
000060 d7 ba 7c 3e 46 f1 7f bd e5 6a 5c bc 97 22 af 3d
       0.24680649 -0.062485956 -0.01345322 0.08551519
000070 f0 40 36 3e 81 18 ef 3d a3 7f 3e 3e a6 70 71 bd
       0.17798209 0.116745956 0.18603377 -0.05894532
000080 68 df f4 3c bb 0b f3 bc 56 64 5e 3e 6b 54 13 3d
       0.029891685 -0.02966868 0.21717963 0.03596918
000090 f1 93 ff 3d 2e f9 95 bd e3 48 05 bd a3 0e ae bc
       0.124793895 -0.07322918 -0.032540213 -0.021247214
0000a0 0c 56 52 3e be 1b 16 3e 50 91 5a bd f2 1a e2 bd
       0.20540637 0.1465902 -0.053361237 -0.11040296
0000b0 cc 48 0e 3e 63 53 04 3e a0 1d 80 3d fb f1 ef 3d
       0.13894957 0.12922435 0.062556505 0.11716076
0000c0 36 93 c3 3d 25 87 da 38 68 7c 11 3e 9f 6e 3c bd
       0.09549563 0.00010420223 0.14207613 -0.046003934
0000d0 77 64 1d bd da 8d b7 bd 60 5b fc bd c0 ac ac 3d
       -0.03842589 -0.08962603 -0.12322116 0.08431387
0000e0 72 d9 27 bd 40 44 b6 bd 91 f3 8b 3d 9d a1 ba 3d
       -0.040978856 -0.088997364 0.06833566 0.091128565
0000f0 c6 c4 2e bd d0 2d ae 3d ca d2 5c bd 8e c9 c8 3d
       -0.042668127 0.08504832 -0.05391196 0.098040685
000100 43 fd 63 3d 1c 2d 7e bb 00 27 3f 3d 79 b5 d6 bd
       0.05566145 -0.0038784212 0.046668053 -0.10483832
000110 ff a7 be bd c0 69 42 bd 17 2e 0e bd d5 d4 88 bd
       -0.093093865 -0.047464132 -0.034711923 -0.066812195
000120 fc d6 46 bd 0d a4 13 3c b7 86 85 3c 22 37 f3 3c
       -0.04854487 0.009011281 0.016299589 0.029689375
000130 7f 2d 2a bd 14 8e 13 be eb bc e6 bd 66 2b a4 3d
       -0.041547295 -0.14409667 -0.11266502 0.0801609
000140 b7 bc 8e bd 6f 44 8c bd 61 2f c5 bb 56 b5 0b bb
       -0.06969588 -0.0684899 -0.006017611 -0.0021317801
000150 23 e1 bb 3d 1a 4b 20 be 97 fc b4 3c b2 e8 ff 3d
       0.09173801 -0.15653649 0.0220931 0.12495555
000160 a6 1f 24 3c 70 99 f7 bd b1 f0 0f 3e a7 90 47 3c
       0.010017311 -0.12089813 0.1405666 0.012180484
000170 40 3e bf bd ab 62 f7 bd 06 f2 7f 3d 54 e8 be bc
       -0.09338045 -0.12079366 0.06248667 -0.023304142
000180 ed ce ba bc 0d c4 8b bd cf 94 a3 bd 79 2d 15 3e
       -0.022803748 -0.06824503 -0.07987367 0.14568128
000190 7a ee 7b 3e df 97 c7 bc 71 8f a7 3d fd ec 38 3e
       0.2460269 -0.02436441 0.08181656 0.18059154
0001a0 1e a7 e3 3d 6f d2 71 bd 54 79 fa 3d 1b 91 35 3d
       0.111158594 -0.059038576 0.12230173 0.044327836
0001b0 73 45 40 bd 07 9a 5f 3e 80 6a a4 3d bf d8 f3 3d
       -0.046941232 0.218361 0.08028126 0.119065754
0001c0 7c fc 01 be 27 ea 50 3d 36 2b 94 3d 9a 5b 84 3d
       -0.12693971 0.051004555 0.07234804 0.06462784
0001d0 00 61 5b 3e 6b 71 e9 3c a2 eb 95 bd ca 0a c8 bd
       0.21423721 0.028496465 -0.07320334 -0.09767683
0001e0 30 9a 8b bd 63 82 0f 3b 9e 8d 9b bc 3d 9f 12 bd
       -0.06816518 0.0021897785 -0.018988427 -0.035796393
0001f0 c8 64 03 3d 34 c1 70 bd 92 b0 af bd f6 9b 96 bd
       0.032078534 -0.058778003 -0.085786 -0.07353966
000200 a0 c0 35 3b 82 57 30 3d bc ce c2 3c 4a c6 f1 3c
       0.0027733222 0.043052204 0.02378022 0.029513497
000210 46 ba b8 3d b3 02 7e be 25 50 7b 3d bc c6 65 3d
       0.09019904 -0.24805717 0.06135573 0.05609773
000220 29 60 a5 bc 4d c4 fa bd 95 e3 8f 3e 5e fb 15 bb
       -0.020187454 -0.12244473 0.2810332 -0.0022885422
000230 2b 7c 8e bd 4c 65 70 3c a9 9d d8 3d d3 01 19 be
       -0.06957277 0.014672589 0.10576946 -0.14942102
000240 85 51 95 be ce 69 03 3e 7b cd 7d 3d a2 dc 7e be
       -0.29163757 0.1283333 0.06196354 -0.24888852
000250 a3 78 30 be 62 84 cd bd 49 81 8b bc d6 d0 d6 bb
       -0.1723352 -0.10035016 -0.017029421 -0.006555657
000260 c6 33 f8 bc ee e4 ec 3d ce 85 86 3c da 44 19 3e
       -0.030298125 0.115671024 0.016421225 0.14967671
000270 60 17 e0 3d ca 70 61 3e fe 61 14 3e a9 7c 4a 3e
       0.109419584 0.22015682 0.14490506 0.19774117
000280 51 4d ba bd c6 83 1f 3d 57 dc cf 3c 87 3a 59 3e
       -0.09096778 0.03894403 0.02537362 0.21213733
000290 93 de 8e bd cb 20 08 bb 41 7f 16 bd ab 7a bd 3d
       -0.069760464 -0.00207715 -0.036742453 0.09251913
0002a0 83 df 21 3e 3a ba b1 3d 0b 1e de 3d 0a ca b0 3d
       0.15807919 0.08678098 0.10845574 0.08632286
0002b0 16 94 00 bd 4a ea ee bb 4a 51 94 3d 2e 67 d9 3c
       -0.031391226 -0.007291113 0.07242067 0.026538458
0002c0 25 5f 93 bd c6 42 bc bd 3c 8a 79 bd c4 86 0c bd
       -0.07195882 -0.091924235 -0.060922846 -0.03430821
0002d0 d1 6d 91 bd 1b 1c 48 bd fe c8 25 3e e0 8e 81 3d
       -0.07101024 -0.04885493 0.16189954 0.06326079
0002e0 73 f7 13 3e f7 4a 3f 3e b8 e4 cd 3c 15 67 07 3e
       0.14449863 0.1868094 0.025133476 0.13222916
0002f0 cc 0b 98 bc 8b ae e6 3c 29 1d e1 3d 97 fd 42 3e
       -0.018560313 0.0281594 0.1099189 0.1904205
000300 cc c4 b6 3d e2 7e 0f 3d 23 f1 30 3e 1c 97 c3 bb
       0.08924255 0.035033114 0.17279486 -0.0059689414
000310 82 71 2b 3e 55 03 6e 3e 7e 1d 94 bd 57 ad 12 3d
       0.16742519 0.23243459 -0.07232188 0.03580984

lstm.bias_hh_l0 f4 [200]
000000 54 a8 33 3c fc da 33 3e 04 cc 24 3e 66 e6 9a 3b
       0.0109654255 0.17564005 0.16093451 0.0047271727
000010 e7 f3 11 3e 45 00 7a 3e 98 d3 c4 3d ff 93 58 3d
       0.14253198 0.24414165 0.09610671 0.052875515
000020 38 d2 be 3d 24 c3 0a 3e 49 60 12 3e cd 72 ac bc
       0.0931744 0.13551003 0.14294542 -0.021050835
000030 3f d3 31 3e ac ee 83 3d 02 ae 57 3e fd 21 ad bd
       0.1736574 0.064420074 0.21062472 -0.084537484
000040 c6 50 8a 3e 98 11 05 be f8 91 c1 3b ba 45 c0 3d
       0.2701475 -0.12994993 0.0059072934 0.09388299
000050 5a 8e 6b bb cc a5 4a 3d 7b 48 e2 3d ad 43 15 3e
       -0.0035943002 0.049474522 0.11048981 0.14576598
000060 f9 23 65 3d 62 14 28 bd e9 40 fd bd 0b da 93 bd
       0.05594251 -0.041035064 -0.12365896 -0.07219323
000070 97 bc bb 3d 4d 28 91 3d 0e 5a dd bc ec c8 f3 3d
       0.0916683 0.07087765 -0.02702048 0.11903557
000080 40 e8 28 bd 22 85 33 3d 6f 17 73 3d 14 83 c0 3c
       -0.041237116 0.043828137 0.05934852 0.023500003
000090 c4 a6 43 3d 11 95 54 bd c7 ef 97 bc 38 90 6e 3e
       0.047766462 -0.051899973 -0.018546952 0.23297203
0000a0 0f 75 2f 3b 92 d8 30 3e 1a 05 46 3d 98 19 d7 bd
       0.0026772653 0.17270115 0.04834471 -0.105029285
0000b0 bf c1 84 ba 21 2c c3 3d be 51 f0 3c 05 40 0f 3e
       -0.0010128542 0.09529901 0.029335853 0.13989265
0000c0 6f 4e 59 bd 86 84 57 3d fa 19 ee 3d b7 04 2d 3d
       -0.053053316 0.05261662 0.116260484 0.042240825
0000d0 99 46 ad 3d e1 1d 23 bd 6a f9 0e 3c 72 77 0c 3d
       0.08460731 -0.039823417 0.008726457 0.0342936
0000e0 e7 b1 52 3c 5a 26 9f bc dd 6f dd bc a5 8b 78 3c
       0.012859798 -0.019427467 -0.02703088 0.015170013
0000f0 c7 a7 d4 bd 8e 2c b3 bd 68 2a 5f bd 4c 8c ca 3d
       -0.103835635 -0.087487325 -0.0544838 0.09890041
000100 fc 23 9f 3d d2 e3 35 bd 63 3c d9 3d 7a 4d ac bc
       0.07770535 -0.04440672 0.10607221 -0.021033037
000110 e8 73 1d 3c cc ca a2 3c 81 3d 09 be 69 05 0e be
       0.009610154 0.019872092 -0.13402368 -0.13869251
000120 7e 64 60 3d cf 3f 17 be ed da 8a 3d cf 5a a2 3d
       0.054783337 -0.14770435 0.06780038 0.079274766
000130 a8 95 84 3d 12 d1 8b bc af 7e cc 3d 94 ad 8a bb
       0.06473857 -0.017067466 0.099851005 -0.004232118
000140 05 74 52 bd 97 1f 73 bd 17 c7 0e be 04 71 0c be
       -0.051380176 -0.0593563 -0.13943134 -0.13714987
000150 d5 be 27 bc ed 73 de bd 97 25 07 be 18 c4 89 bb
       -0.010238369 -0.10861955 -0.13197933 -0.0042042844
000160 c7 f4 05 be f2 b5 d6 3d ac 43 fb bd 25 14 53 3d
       -0.13081656 0.10483922 -0.12268767 0.051532883
000170 59 0e 05 be d4 c3 c5 3a 64 3d 4d bd 04 b7 06 bd
       -0.12993754 0.0015088269 -0.050107375 -0.03288938
000180 3b e0 e9 bd 8f 86 93 bd 18 00 04 3e f0 73 5c 3d
       -0.11419722 -0.072033994 0.12890661 0.053821504
000190 0a 4e e3 3c 14 7c ea bd 91 fa 92 bd 9b 77 68 3e
       0.027747173 -0.11449447 -0.07176698 0.22701876
0001a0 ca 29 b1 bd a5 43 0e 3e 3e 76 17 3e 70 cd 06 3e
       -0.08650549 0.13892992 0.147912 0.13164306
0001b0 12 e1 e6 bd 57 cc 34 3e ba 42 08 bd bb a8 17 3e
       -0.112733975 0.17656074 -0.03326676 0.1481046
0001c0 08 3d cd bd 5f e7 89 3e 58 c7 8f bd a9 33 48 3d
       -0.100214064 0.26934335 -0.07020444 0.048877392
0001d0 0c 88 3d 3e ed 09 9a 3d 2a 52 f7 3d 00 f9 e8 bc
       0.18508929 0.075214244 0.120762184 -0.028439045
0001e0 7e bd dd 3d 4b ca cb bd 96 12 52 bd ce 35 d8 bd
       0.108271584 -0.09950694 -0.051287256 -0.105571374
0001f0 ef 8d 6a 3d 2f d2 16 be ef d3 36 bd c6 35 c6 bd
       0.057264265 -0.14728616 -0.04463571 -0.09678225
000200 c9 91 6e 3d fa 2d cc 3c d7 c0 09 bd b4 08 07 3d
       0.0582445 0.024924267 -0.033631172 0.032967284
000210 62 71 76 3d 17 0d 37 be 39 21 88 3d f4 17 00 be
       0.060166724 -0.17876087 0.06646962 -0.12509137
000220 e1 15 bf bd d9 66 d0 3d cf 1c 87 3e 6a 48 8f bd
       -0.09330345 0.10175867 0.26389167 -0.06996234
000230 ea 48 2f bd 0e 90 6c bb a4 0c 4f bd cc f5 a6 3d
       -0.042794146 -0.0036096605 -0.050549164 0.08152351
000240 ec 86 ed bc 47 e8 20 bd a7 47 70 bd 94 dc 14 bc
       -0.028995 -0.039284017 -0.058662083 -0.009085793
000250 1f ef b9 3d 52 fe 9c bd b3 60 f0 3c 24 6f 24 3e
       0.09078812 -0.07665695 0.029342985 0.16058022
000260 e6 3c ce 3c 68 cc 5a 3d 70 98 4a bd cc 8b 6f 3e
       0.025175523 0.053417593 -0.049461782 0.23393172
000270 39 e2 0a 3e fa 17 29 3e 63 d0 8c 3d 19 4f 45 3d
       0.1356286 0.16513053 0.06875684 0.048171137
000280 ff 28 fa bc d5 0f 17 3e 2e 89 0c 3d 4d a0 08 3e
       -0.030537127 0.14752133 0.034310512 0.133424
000290 39 86 d5 3d 53 75 a6 3d fb 1d 5c 3e 6c 75 4e bd
       0.104259916 0.081278466 0.21495812 -0.05040495
0002a0 53 df 89 3d 00 6f f3 3d e3 cf fb bd 37 fb 44 bd
       0.06732049 0.11886406 -0.122955106 -0.04809114
0002b0 d9 87 c7 bd 65 18 ef 3d d8 9e 7b 3d 10 23 fa 3d
       -0.09742708 0.11674575 0.061430782 0.12213719
0002c0 1d b3 0b be 6c 20 8f bd 72 65 f2 3d 84 0d b3 bd
       -0.13642545 -0.06988606 0.118357554 -0.08742812
0002d0 01 2f 9d bd d5 10 c7 3c 04 0c 7f 3d 7e 25 08 bc
       -0.07674981 0.024300018 0.06226732 -0.00830972
0002e0 74 ab 1d 3c af 25 54 3e 0c 20 db 3b f5 d8 00 bd
       0.009623397 0.207175 0.00668717 -0.031456906
0002f0 61 dd 6c bb 4d 04 44 3e b7 1b 8c 3d d4 a0 a8 3d
       -0.0036142694 0.19142266 0.06841224 0.082338005
000300 6d a2 4f 3d e0 b3 44 bd 8a bb a3 bc 62 03 da 3d
       0.05069201 -0.048023105 -0.019986887 0.106451765
000310 2a d2 3c 3d 85 31 7e 3e 10 4b 15 3d 88 76 46 3e
       0.046098866 0.24823578 0.03644854 0.19381154

linear.weight f4 [4, 50]
000000 bd a3 10 be 04 5a fe bd 17 f3 d6 3d fd 58 a6 3e
       -0.14124961 -0.12419513 0.104955845 0.32489768
000010 ac 30 22 3d 06 58 f7 3d a3 d5 8b 3e 8d e2 69 be
       0.0395972 0.12077336 0.2731143 -0.22840329
000020 8b 36 3d bd 53 3b 90 be 50 f3 0b 3c 31 e4 c2 3e
       -0.046194594 -0.2817026 0.008541897 0.3806472
000030 5e b4 23 3e 7a 04 e3 bd e9 13 5a 3e 9b 8f 46 be
       0.15986773 -0.11084838 0.21296658 -0.19390719
000040 98 33 ad be 28 21 d8 3d e3 8d a5 bd f4 45 06 be
       -0.33828425 0.10553199 -0.08083703 -0.13112622
000050 0f 46 45 3d 5e 5a f4 3d 2b c3 44 3c b1 18 e7 3d
       0.048162516 0.11931299 0.012009422 0.112840064
000060 48 4f 5c 3e 53 e1 11 3c 38 7d 14 3d 86 dc 8b 3d
       0.21514618 0.008903819 0.03625223 0.06829171
000070 6a 9a 46 be d3 a3 84 3a fc 4b 0b be 3f 02 4e 3c
       -0.19394842 0.0010119624 -0.13603204 0.012573778
000080 48 5f dc 3d ad ed a9 3e cf 0d 0e be 46 c8 aa 3e
       0.10760361 0.33189145 -0.13872455 0.33355922
000090 80 5d dd be df cc c5 3e b9 52 7d be 22 f3 2d be
       -0.43235397 0.38632867 -0.24738587 -0.16987279
0000a0 06 ca fe bc b6 1f 3e 3e d0 cf f7 3d bf fe d9 3d
       -0.031102192 0.18566784 0.12100184 0.10644292
0000b0 81 97 84 3e 1f e0 c1 be 66 87 03 3e 28 63 ab 3e
       0.25896838 -0.37866303 0.12844619 0.33474088
0000c0 1a 82 99 be c6 0d b1 3e 35 1c 18 be a4 20 f5 3d
       -0.29982072 0.3458082 -0.1485451 0.11969116
0000d0 dc 17 e0 3d f7 ff 61 be 4f 34 a0 3e 9c 09 20 3f
       0.10942051 -0.22070299 0.31289908 0.6251466
0000e0 44 be c3 3e 02 4b d3 3e ee 33 48 3e 97 50 ef 3e
       0.382311 0.41268164 0.1955106 0.46741173
0000f0 a8 c6 0e be 38 50 a4 bd f1 33 8a 3e 71 73 94 3e
       -0.13942969 -0.08023113 0.26992753 0.28994325
000100 42 34 a9 be b6 c8 2a 3d f9 f4 a8 3e 0e 9c 23 3e
       -0.33047682 0.04169532 0.329994 0.15977499
000110 cf 34 e5 bd fb 6c 9d 3e 51 26 58 3d b9 6e 9a 3e
       -0.11191713 0.30747208 0.052770916 0.301626
000120 25 8a 43 be cb b5 13 bf d3 09 81 be 3e f1 39 be
       -0.19095667 -0.5769927 -0.25202808 -0.18158433
000130 5c e1 ce 3d 60 af 03 be 80 38 da 3d a2 77 44 3c
       0.10101578 -0.12859869 0.10655308 0.011991413
000140 dd 06 8b be 3b 8a 1f 3e 90 11 c5 be 69 71 16 be
       -0.27153674 0.15580074 -0.38489962 -0.146917
000150 67 12 10 be f8 fa 3f 3c ea c0 aa bc 97 7b 91 bc
       -0.1406952 0.01171755 -0.020843942 -0.017759128
000160 e9 49 30 3e 8f 15 94 be d5 9a 8b 3d 7b 98 85 be
       0.17215694 -0.28922698 0.06816641 -0.26092896
000170 67 08 b1 be ed ba 98 bd 55 cd e7 bd 7c 5f f1 3d
       -0.34576723 -0.07457528 -0.11318461 0.1178579
000180 c6 07 64 bc 0d d5 25 bd 83 c6 c5 3d 45 cf 19 bb
       -0.013917869 -0.040486384 0.09657004 -0.002346949
000190 28 7d 09 be bd 20 0f bd fe a7 ba bd 1a 03 74 bd
       -0.1342665 -0.03494333 -0.09114073 -0.05957327
0001a0 63 4d 0a be 8f 09 94 bc 51 05 99 3e fb bc f3 be
       -0.13506083 -0.018070964 0.2988687 -0.47605118
0001b0 18 fb 1b 3e ea 01 a6 3d 3f b0 82 bd b6 b2 be bd
       0.15232503 0.08105834 -0.063812725 -0.0931143
0001c0 e4 a9 48 bd 3f a1 d9 be 83 3f 47 3c ac a7 8c 3c
       -0.048990145 -0.42505834 0.0121611385 0.017169796
0001d0 ff 93 19 be f8 ed c9 bc 9d f9 ac bd 47 a4 8e 3e
       -0.14997862 -0.024649605 -0.084460475 0.2785971
0001e0 7a 05 65 bd 38 56 03 3e 57 49 04 3e ed 44 3e be
       -0.055913426 0.12825859 0.12918602 -0.1858098
0001f0 8f b3 85 3e 68 5e ed 3d 49 46 52 be bb ca 45 be
       0.26113555 0.11590272 -0.20534624 -0.19315617
000200 66 b7 e3 bd c3 27 f3 3d c5 86 7e 3e 57 be 51 3e
       -0.11118965 0.11872818 0.24856098 0.20482765
000210 a6 6b d4 3d 6a 2b 59 3e 3c 5b ed 3d ca 46 3d be
       0.10372095 0.21207967 0.11589667 -0.18484035
000220 14 c5 5a 3c a1 3d 9d 3d 5c 6b 48 be 3d 8d 97 3e
       0.013352651 0.076777704 -0.19572204 0.29599944
000230 7c 79 9d be 25 35 f9 bd f9 15 9c bd 75 4b af 3d
       -0.30756748 -0.1216834 -0.076213785 0.08559314
000240 b7 c0 47 3e df 3f ee 3d 1e 77 92 bc 42 7f bc 3e
       0.19507109 0.11633276 -0.017879065 0.3681584
000250 db 42 6e 3e 4a e0 20 3e 7b 08 9b be fa c2 5c be
       0.23267691 0.1571056 -0.30279908 -0.21558753
000260 bf 1f 85 bd a6 18 e5 3e 7b e8 b0 bd d5 af 74 3e
       -0.06500196 0.44745368 -0.08638092 0.238952
000270 24 3f ac 3d 58 c1 a7 3c 0e e1 02 bf fb 23 d9 bd
       0.084104806 0.020477936 -0.51124656 -0.10602566
000280 3c 5c b5 3d 20 65 62 be ce e3 38 3e f3 1b 97 be
       0.08855483 -0.22108889 0.1805565 -0.2951351
000290 bc 5c 3a be da 78 82 bd 6b b0 99 bd d8 70 c9 3d
       -0.18199438 -0.06370707 -0.07504352 0.09835976
0002a0 ee 24 3f be 3f ff 68 be 9e f0 c2 3d 8c 35 d5 be
       -0.18666431 -0.22753619 0.0951855 -0.41642416
0002b0 f6 30 4c bd 59 6a eb 3d 6e da c0 3e 9c a3 a5 3d
       -0.04985138 0.114948936 0.3766665 0.08087847
0002c0 90 b0 2b be 5d 5b 62 3c b4 3d b8 be 86 5a 1a 3d
       -0.16766572 0.013815728 -0.35984576 0.037683986
0002d0 53 0c 95 bd b6 4b 66 be 52 ae e8 3c ed 14 d2 3c
       -0.07277741 -0.22489819 0.028403435 0.025644744
0002e0 2a f5 a0 3e a6 6d 09 3f ef 93 55 3e 61 83 e6 bd
       0.31437045 0.53682935 0.20857213 -0.11255527
0002f0 25 bf ff 3e 4c 8e 5d be e6 70 8d 3d 2b fa 56 bd
       0.4995052 -0.21636313 0.06906299 -0.052484673
000300 87 aa 1f be 12 4d b8 bd 8e 5f 98 3e 04 ab 5b be
       -0.15592395 -0.08999075 0.29760402 -0.21451956
000310 56 0a 9d 3e 60 f5 08 bf 9f a7 a9 bd 69 e5 52 be
       0.30671948 -0.5349941 -0.08283924 -0.20595326

linear.bias f4 [4]
000000 ab 2a 97 3d 8b ab 96 be 41 43 a2 3d b5 93 96 be
       0.07381185 -0.29427752 0.07922984 -0.29409567
