archive/lstm_FullData/trial2/lstm_model_epoch0.pth (torch, 51853 bytes, 6 tensors)

lstm.weight_ih_l0 f4 [200, 8]
-0.091079585 -0.21634111 0.17158163 -0.4855359 0.25098306 -0.025535785 0.22785696 -0.561952
0.46554253 -0.53528136 0.086136796 -0.0053397743 0.40864858 -0.270298 -0.16625325 -0.18634012
0.10374382 0.22356196 0.33503315 -0.3373759 -0.14951245 0.20081906 -0.38910064 0.31370628
-0.14991035 0.06729373 0.4946442 -0.2546184 -0.09205831 -0.14183103 0.33880103 -0.28647307
0.16786574 -0.15956903 0.21479453 -0.20749186 -0.10092848 0.30061626 -0.1919312 -0.0888066
0.34145963 -0.096537925 0.25354135 -0.11911924 0.06086774 0.2950351 0.15529065 -0.25446218
-0.3443727 0.10315153 0.33113432 -0.33018833 0.14963642 -0.21536131 -0.24197835 0.02925493
-0.32568458 0.14964871 0.17980537 -0.3578888 0.0813566 -0.16304377 -0.12966333 -0.029020239
-0.13738433 -0.23182628 0.07290835 -0.32015982 0.27898586 -0.29389954 0.13078484 0.15387276
0.7142922 0.09046426 -0.57830024 -0.35916594 0.2089028 -0.13861762 0.17868924 -0.5319081
-0.059757076 -0.05671848 0.61291456 -0.5672839 -0.06878452 -0.12976146 -0.031956274 0.07927636
0.23943488 -0.44920182 0.2021079 0.16664317 -0.15317671 0.13995068 -0.20772777 0.38387713
0.2121352 -0.3032509 0.21847793 -0.35350323 -0.05406796 -0.12127683 0.041047562 0.27519915
-0.03449707 -0.1319036 -0.12264407 0.079656295 0.004698312 0.1448246 -0.19496198 -0.119789734
0.31596804 -0.30521163 0.22681317 -0.42284414 0.13499594 0.09734791 0.22805825 -0.07960105
0.10482173 -0.20279983 0.086539164 -0.26393506 -0.07534637 0.030785007 -0.31739137 0.4802325
0.35794646 -0.10084629 0.3833831 -0.3495323 0.094645925 0.01489621 0.11416774 0.08252051
-0.15242222 0.06823257 0.20847782 -0.22428268 -0.026537647 -0.12954973 0.10373791 -0.09077227
-0.2067831 -0.18588887 0.12475854 -0.23524985 -0.025374617 0.012901977 0.34564477 -0.18070284
0.195219 -0.073673226 0.264474 -0.10242131 0.03433393 -0.064184 0.10509994 0.21296471
0.44859543 -0.64561766 -0.060363926 -0.017114488 0.2239154 -0.12622938 -0.026984274 0.057905946
0.3150065 -0.05630022 -0.31853473 0.124869116 -0.15402135 0.122166894 -0.14509688 -0.037991457
-0.017184671 -0.10505569 -0.8277523 -0.9385862 0.04495372 -0.13466907 0.06388503 -0.174764
0.1672814 0.014149803 -0.036405392 -0.27568436 0.14961168 -0.30073437 0.15572111 -0.14394727
0.11267204 -0.38648748 0.17813171 -0.3533451 -0.10926287 -0.12552956 0.17507766 -0.09261932
0.070281304 -0.36976287 0.18282036 -0.1279873 0.26340714 -0.057847362 0.26852012 0.040510513
-0.02225692 -0.10798821 0.52480286 -0.40413982 0.28055468 0.17763878 0.09618062 0.23455968
0.28207308 -0.28289407 0.6915158 -0.10629141 -0.12850301 0.1140004 0.15133837 0.30931473
-0.28233346 -0.29177648 0.095603675 -0.039853998 0.007171649 -0.22440246 -0.24551353 0.009750028
-0.2602872 -0.003343456 0.2539877 -0.32500568 0.13774148 0.043933935 0.06507901 0.13237421
0.362989 -0.23592626 0.19136184 -0.4466893 0.44924575 -0.53132844 0.08896956 0.050383516
0.036249984 0.09499164 0.2373971 -0.21211018 0.047623374 0.0019241984 0.11136543 -0.005287232
00000000: ef87 babd 8688 5dbe 18b3 2f3e 2998 f8be
00000010: da80 803e 6c30 d1bc 5653 693e 16dc 0fbf
00000020: 975b ee3e 3308 09bf 7d68 b03d 46f9 aebb
00000030: 633a d13e 8064 8abe 4b3e 2abe f2cf 3ebe
00000040: a477 d43d 6ded 643e 7789 ab3e 89bc acbe
00000050: cb19 19be 83a3 4d3e 3338 c7be 1c9e a03e
00000060: 1982 19be 4cd1 893d 0142 fd3e 585d 82be
00000070: 1189 bcbd 273c 11be 5477 ad3e 99ac 92be
00000080: ffe4 2b3e 1066 23be 19f3 5b3e bf78 54be
00000090: 97b3 cebd 60ea 993e 9d89 44be 3ce0 b5bd
000000a0: ccd3 ae3e adb5 c5bd 2cd0 813e caf4 f3bd
000000b0: 7450 793d d70e 973e 8304 1f3e de48 82be
000000c0: 9e51 b0be 1c41 d33d 708a a93e 720e a9be
000000d0: 4a3a 193e ad87 5cbe 2cc9 77be 09a8 ef3c
000000e0: 21c0 a6be 833d 193e e61e 383e 333d b7be
000000f0: 4a9e a63d f2f4 26be 77c6 04be dabb edbc
00000100: 7aae 0cbe de63 6dbe f950 953d fdeb a3be
00000110: 3cd7 8e3e 007a 96be 76ec 053e d290 1d3e
00000120: dbdb 363f 5345 b93d 7c0b 14bf 99e4 b7be
00000130: 9eea 553e c7f1 0dbe 50fa 363e 212b 08bf
00000140: d6c3 74bd a351 68bd f8e7 1c3f 8539 11bf
00000150: e6de 8cbd 30e0 04be 95e4 02bd a55b a23d
00000160: 6b2e 753e c8fd e5be 60f5 4e3e 82a4 2a3e
00000170: 5bda 1cbe 3b4f 0f3e 97b6 54be 8b8b c43e
00000180: f839 593e b443 9bbe aeb8 5f3e 60fe b4be
00000190: 5d76 5dbd fd5f f8bd 7d21 283d e7e6 8c3e
000001a0: cd4c 0dbd bd11 07be d02c fbbd d722 a33d
000001b0: 4cf4 993b e64c 143e 1da4 47be 5254 f5bd
000001c0: 90c6 a13e b344 9cbe b641 683e 077f d8be
000001d0: 603c 0a3e 575e c73d 1a88 693e e005 a3bd
000001e0: c6ac d63d c2aa 4fbe 723b b13d 7f22 87be
000001f0: 334f 9abd d730 fc3c 1f81 a2be 09e1 f53e
00000200: c244 b73e 8088 cebd ca4a c43e e6f5 b2be
00000210: b9d5 c13d 3c0f 743c c7d0 e93d 8300 a93d
00000220: 9214 1cbe 85bd 8b3d 367b 553e 5caa 65be
00000230: 7b65 d9bc afa8 04be 8b74 d43d d0e6 b9bd
00000240: f3be 53be a759 3ebe 6881 ff3d 56e5 70be
00000250: 6ede cfbc d062 533c 5af8 b03e 2a0a 39be
00000260: 7de7 473e fde1 96bd 2369 873e 44c2 d1bd
00000270: bca1 0c3d e772 83bd a33e d73d 6c13 5a3e
00000280: 4dae e53e 3347 25bf 2a40 77bd af33 8cbc
00000290: 144a 653e 4642 01be 200e ddbc c92e 6d3d
000002a0: 8848 a13e 0f9b 66bd fc16 a3be 61bb ff3d
000002b0: c6b7 1dbe a332 fa3d 4794 14be ee9c 1bbd
000002c0: dec6 8cbc 7027 d7bd 93e7 53bf 2f47 70bf
000002d0: 6421 383d b0e6 09be 28d6 823d 56f5 32be
000002e0: d14b 2b3e 93d4 673c d21d 15bd 8026 8dbe
000002f0: ce33 193e dbf9 99be 5b75 1f3e ea66 13be
00000300: 99c0 e63d b0e1 c5be 2968 363e a6e9 b4be
00000310: 36c5 dfbd d28a 00be 8f47 333e 33af bdbd
00000320: a5ef 8f3d 8f51 bdbe 4335 3b3e 1a0f 03be
00000330: 4ddd 863e 5bf1 6cbd 787b 893e 5aee 253d
00000340: 2554 b6bc ec28 ddbd 7b59 063f 6aeb cebe
00000350: dda4 8f3e f1e6 353e 58fa c43d 6a30 703e
00000360: e26b 903e 7ed7 90be 2e07 313f 50af d9bd
00000370: 4b96 03be 0b79 e93d 72f8 1a3e 805e 9e3e
00000380: 038e 90be ba63 95be dccb c33d f23d 23bd
00000390: 2700 eb3b c2c9 65be e667 7bbe 95be 1f3c
000003a0: 5d44 85be e21d 5bbb ad0a 823e 2567 a6be
000003b0: 1a0c 0d3e 12f4 333d 2548 853d 1b8d 073e
000003c0: b2d9 b93e a796 71be 5cf4 433e 76b4 e4be
000003d0: 8a03 e63e 2405 08bf ac35 b63d f25e 4e3d
000003e0: dd7a 143d fa8a c23d 3a18 733e 6933 59be
000003f0: ba10 433d 6235 fc3a 8f13 e43d 8440 adbb

lstm.weight_hh_l0 f4 [200, 50]
0.03452755 -0.042392354 0.09132635 0.4004671 -0.0063932496 0.09739376 -0.10797527 -0.014929619
-0.012504003 -0.30263612 -0.22011498 0.08206018 0.13680182 0.031214232 -0.0390642 0.14078122
-0.100608595 0.15663658 0.15410583 0.18746623 0.09614991 0.13067196 -0.25458586 0.4029819
0.07731969 -0.45234933 0.33465382 -0.13905029 0.37975067 0.022694496 -0.109718874 -0.31102666
-0.10672361 0.04685078 0.14258969 0.19807094 0.41713274 0.031226093 -0.10280254 -0.004778428
-0.06508038 -0.11131669 -0.2510187 -0.042651694 0.20869923 0.23281515 -0.006329134 0.035325006
0.1579013 -0.032028552 -0.2878636 -0.086957164 -0.27207422 -0.0811084 0.016125029 -0.14214306
-0.01738629 0.22175206 -0.043812368 0.16947319 0.14070249 0.20536852 -0.566041 0.16527998
0.18173939 -0.23011081 0.3057221 -0.14373143 -0.55222 -0.16242112 -0.20264725 -0.04136332
0.01259627 -0.040692966 -0.052513037 0.1920857 0.018394845 0.17325495 0.25929028 0.29320347
-0.1914753 -0.030807253 0.1637049 -0.12193938 -0.08245226 0.04380421 -0.21672326 0.07015528
-0.16851743 -0.02502649 -0.14892177 0.32770953 -0.19306998 -0.17017609 -0.09056515 0.16594826
-0.04007998 0.067019455 -0.0047584795 -0.16560353 -0.2751934 -0.1762627 -0.14974046 -0.104544185
0.08830862 -0.14149612 -0.0005461636 -0.2064014 0.07799255 0.19967236 0.15834087 -0.06261005
0.040602528 -0.1265726 -0.036816504 0.01833571 -0.1724313 0.048376292 -0.18370035 0.12119065
0.18204609 0.058115423 -0.2929351 -0.05556874 -0.04789501 -0.021404944 0.049090575 -0.27716738
0.03553271 0.07526634 0.1965777 0.008804343 -0.089467235 0.106897056 0.14118059 -0.14387025
0.21220097 -0.19094844 0.0073537324 -0.034407295 0.053717304 -0.015595311 -0.034958746 0.24606358
-0.21066615 -0.19400245 -0.08582525 -0.16112047 -0.025824249 0.17599668 0.07125786 -0.100741416
0.17288361 -0.049552944 0.0712989 0.071538284 -0.09807951 -0.059898168 0.17508146 -0.23218499
-0.12219596 0.009151648 -0.011407643 0.0116006 0.03923214 -0.011470311 -0.24517356 0.106597215
0.14627393 -0.03078897 0.25177312 -0.107522935 -0.23224707 0.047796205 0.092219464 -0.27155083
0.12191853 -0.051750973 -0.07199385 0.0013445223 0.1266654 0.12206903 0.14073646 0.19230518
0.11549481 0.06077036 0.21420065 -0.1256857 -0.007814781 0.082801156 0.13454296 -0.19492935
-0.06543646 0.24874984 0.00935533 -0.20536283 -0.36499155 -0.10592459 0.40015787 -0.009166193
-0.014577461 -0.10727652 0.066228285 -0.083592094 0.016115712 0.05086274 -0.04956444 0.09970172
0.23418267 -0.08498551 0.10778075 0.21206333 0.07778686 0.031870414 -0.0035422167 -0.07737698
-0.019131232 -0.029277137 0.032515567 -0.06920028 0.099192366 0.01574208 -0.030098146 -0.21839668
0.0767269 0.05254457 0.077849746 -0.0706627 -0.124579296 0.12938124 0.095344655 -0.041749023
-0.14939074 0.008732794 -0.15613262 0.12218493 -0.077629715 0.019662756 0.0062201032 -0.09464936
-0.17225721 0.055985875 -0.10117269 0.30479705 0.11011844 0.14267208 -0.048060983 0.14182127
-0.059964184 0.018732069 0.037945688 0.23591918 0.08513467 0.090927 -0.0674159 0.107129104
00000000: c36c 0d3d 9ba3 2dbd 4f09 bb3d 060a cd3e
00000010: 777e d1bb 6176 c73d 2322 ddbd 5c9b 74bc
00000020: 97dd 4cbc 1ff3 9abe d265 61be 2b0f a83d
00000030: c715 0c3e fdb4 ff3c c801 20bd f428 103e
00000040: e10b cebd 5765 203e ebcd 1d3e 26f7 3f3e
00000050: 3eea c43d dfce 053e 1459 82be a553 ce3e
00000060: c959 9e3d 559a e7be bf57 ab3e 3363 0ebe
00000070: ae6e c23e cfe9 b93c 4ab4 e0bd e33e 9fbe
00000080: e891 dabd 9ae6 3f3d 0803 123e 1cd3 4a3e
00000090: 6c92 d53e ddcd ff3c 238a d2bd 5c94 9cbb
000000a0: dd48 85bd 01fa e3bd 8685 80be 8bb3 2ebd
000000b0: 40b5 553e 1867 6e3e a064 cfbb f4b0 103d
000000c0: e1b0 213e 5f30 03bd dc62 93be 9916 b2bd
000000d0: 504d 8bbe 291c a6bd a318 843c f38d 11be
000000e0: b16d 8ebc f912 633e 9974 33bd 618a 2d3e
000000f0: 5014 103e 204c 523e 10e8 10bf 283f 293e
00000100: e419 3a3e 2ba2 6bbe 9b87 9c3e 552e 13be
00000110: 4a5e 0dbf b951 26be c382 4fbe 966c 29bd
00000120: 9660 4e3c abad 26bd e917 57bd 1db2 443e
00000130: c9b0 963c bf69 313e b2c1 843e c41e 963e
00000140: 1a12 44be 7e5f fcbc 42a2 273e 5bbb f9bd
00000150: bbdc a8bd 0b6c 333d b4ec 5dbe 92ad 8f3d
00000160: d58f 2cbe 5b04 cdbc f37e 18be 8bc9 a73e
00000170: 23b4 45be a442 2ebe 397a b9bd 57ee 293e
00000180: e82a 24bd 7f41 893d 05ed 9bbb f993 29be
00000190: 26e6 8cbe 367e 34be 9055 19be 431b d6bd
000001a0: 26db b43d 5ce4 10be 6b2c 0fba e35a 53be
000001b0: 8fba 9f3d e976 4c3e 1c24 223e b339 80bd
000001c0: d64e 263d 3f9c 01be e7cc 16bd c534 963c
000001d0: d591 30be 3826 463d f21b 3cbe ce32 f83d
000001e0: 4a6a 3a3e 700a 6e3d 97fb 95be 0c9c 63bd
000001f0: 8f2d 44bd 6c59 afbc 3313 493d e2e8 8dbe
00000200: bf8a 113d 3d25 9a3d aa4b 493e 1740 103c
00000210: 993a b7bd d8ec da3d a591 103e b952 13be
00000220: 364b 593e fd87 43be 94f7 f03b aaee 0cbd
00000230: ad06 5c3d 7a83 7fbc e730 0fbd 17f8 7b3e
00000240: deb8 57be 94a8 46be 26c5 afbd c4fc 24be
00000250: 608d d3bc 7938 343e a4ef 913d 8451 cebd
00000260: 6708 313e 07f8 4abd 2805 923d aa82 923d
00000270: e9dd c8bd c857 75bd 8e48 333e e7c1 6dbe
00000280: e041 fabd cbf0 153c 1fe7 3abc 7110 3e3c
00000290: e1b1 203d f9ed 3bbc c70e 7bbe a44f da3d
000002a0: d5c8 153e 2639 fcbc 68e8 803e fc34 dcbd
000002b0: 2dd2 6dbe f4c5 433d 8fdd bc3d b608 8bbe
000002c0: 6cb0 f93d d4f8 53bd 8371 93bd af3a b03a
000002d0: 93b4 013e 54ff f93d 381d 103e a6eb 443e
000002e0: 8b88 ec3d 57ea 783d 6a57 5b3e c1b3 00be
000002f0: 9109 00bc a793 a93d a1c5 093e 8f9b 47be
00000300: 8d03 86bd 47b8 7e3e 1947 193c a24a 52be
00000310: 2ce0 babe feee d8bd 7ee1 cc3e cd2d 16bc
00000320: 4ed6 6ebc cbb3 dbbd b2a2 873d 5532 abbd
00000330: 1905 843c 7355 503d 1504 4bbd 6a30 cc3d
00000340: 95cd 6f3e e20c aebd 27bc dc3d 2127 593e
00000350: b84e 9f3d 8d8a 023d 8924 68bb d277 9ebd
00000360: 1ab9 9cbc 9bd6 efbc 0b2f 053d e0b8 8dbd
00000370: 5e25 cb3d 89f5 803c 6390 f6bc 61a3 5fbe
00000380: fe22 9d3d fa38 573d b06f 9f3d 9bb7 90bd
00000390: 6e23 ffbd 847c 043e 0f44 c33d 0601 2bbd
000003a0: e3f9 18be fe13 0f3c 3be1 1fbe 183c fa3d
000003b0: 54fc 9ebd ca13 a13c 02d2 cb3b 86d7 c1bd
000003c0: 3264 30be 7251 653d a133 cfbd 5c0e 9c3e
000003d0: c785 e13d a118 123e 98db 44bd 9839 113e
000003e0: 019d 75bd ff73 993c f06c 1b3d cc94 713e
000003f0: 165b ae3d ef37 ba3d 5911 8abd 8166 db3d

lstm.bias_ih_l0 f4 [200]
0.22279176 0.21274978 -0.05668817 0.14625964 0.14055765 0.2880985 0.2005625 0.24859965
0.33306903 0.25878248 0.34485176 0.026291328 0.17122112 0.24892795 0.0979059 0.0823875
0.09792725 -0.026356615 0.14136514 0.004101089 0.17605868 0.2444132 0.2245149 0.33243144
0.35931754 0.10104268 0.080996715 0.33373487 0.06178858 0.32199743 0.35835096 -0.039347935
-0.045538906 0.22282515 0.20009868 0.15597764 0.12045715 0.07897176 0.19290905 0.09401358
0.07825995 0.13712715 0.3777143 0.4421517 0.12862433 0.28449106 0.44783345 0.13020463
0.2670399 0.427718 -0.17936899 -0.07358177 -0.04049482 0.045218885 -0.030894652 0.041795067
-0.012136209 -0.15340747 0.05382659 -0.2935959 -0.048886266 -0.10688442 -0.02674176 -0.056073185
-0.047166593 -0.056158498 -0.007927055 0.08084613 0.039409343 0.067929655 -0.20154274 0.046359982
-0.19152202 -0.092481434 0.015761279 0.07956198 -0.03230776 0.04580149 0.13566366 -0.022771174
-0.094137505 0.09018373 -0.07340406 -0.12287586 0.08826066 -0.058281336 -0.22555973 0.072404094
-0.04320053 -0.03078867 -0.11188979 0.13224721 0.08724677 0.116962716 0.041073233 -0.16221505
0.15551898 -0.027059354 -0.162709 -0.0025556767 -0.115367025 -0.12696488 -0.098465435 0.037583552
0.08013665 0.27007124 -0.06717155 -0.09165958 0.005159072 -0.05987529 0.05009478 0.083849184
-0.08137948 -0.13312578 -0.04996403 0.09875819 0.012867127 0.17306416 0.009594807 0.0878506
-0.033956967 -0.13395166 0.20961933 -0.048967253 -0.016015071 -0.056839738 0.043337572 0.07022668
-0.114637926 -0.23780347 -0.009482303 -0.024068592 0.14974909 -0.029022474 -0.035133116 -0.14424789
-0.12744328 -0.05867338 0.09387153 -0.021457514 0.02023088 0.096749924 0.07438569 0.07027061
-0.07835998 0.022813039 -0.07347425 0.024270097 -0.040815473 -0.07273742 0.17089587 0.16288708
0.15928121 0.22529112 -0.108244196 0.001990381 0.17575938 0.05727937 -0.050834812 0.18130888
0.060952812 0.07828692 0.11439312 0.1668165 0.059208874 0.18791012 0.083862856 0.17559047
0.024960868 0.15626195 0.108837076 0.22254774 0.1701972 0.22001687 0.08097211 0.0062771663
0.12916335 0.24796632 0.038421877 0.15451536 0.28279972 0.1437082 0.0652947 0.18964154
-0.04532947 0.05437387 0.35707986 0.13785993 0.028402384 -0.023764623 0.041359555 0.12827224
0.028587246 0.25670832 -0.00921806 0.19107279 0.05472861 -0.077391215 0.23242545 0.22280344
00000000: 8623 643e 14db 593e db31 68bd 16c5 153e
00000010: 58ee 0f3e a681 933e 4260 4d3e e890 7e3e
00000020: 0688 aa3e 237f 843e 6990 b03e e960 d73c
00000030: 9754 2f3e f8e6 7e3e e382 c83d c7ba a83d
00000040: 158e c83d d4e9 d7bc 06c2 103e 6e62 863b
00000050: ba48 343e 7447 7a3e 3ce7 653e 7434 aa3e
00000060: 78f8 b73e 77ef ce3d 9be1 a53d 4cdf aa3e
00000070: 0616 7d3d d9dc a43e c779 b73e 4d2b 21bd
00000080: 0187 3abd 472c 643e abe6 4c3e 9ab8 1f3e
00000090: 3db2 f63d f2bb a13d f389 453e 318a c03d
000000a0: c146 a03d 0f6b 0c3e c563 c13e b561 e23e
000000b0: 19b6 033e d0a8 913e 6d4a e53e 5d54 053e
000000c0: 74b9 883e dbfd da3e 81ac 37be 0ab2 96bd
000000d0: e5dd 25bd 7037 393d c816 fdbc 4e31 2b3d
000000e0: f3d6 46bc d916 1dbe 4579 5c3d 3452 96be
000000f0: f73c 48bd 38e6 dabd 8911 dbbc ffac 65bd
00000100: c231 41bd 7406 66bd 7ae0 01bc a892 a53d
00000110: b16b 213d b41e 8b3d 3861 4ebe f7e3 3d3d
00000120: 591e 44be e866 bdbd cc1d 813c 64f1 a23d
00000130: 2455 04bd 589a 3b3d 6aeb 0a3e 9d8a babc
00000140: 2acb c0bd 3fb2 b83d de54 96bd 57a6 fbbd
00000150: 01c2 b43d 69b8 6ebd 21f9 66be 9948 943d
00000160: 0af3 30bd 8538 fcbc 7926 e5bd d06b 073e
00000170: 6fae b23d 268a ef3d 683c 283d b41b 26be
00000180: 5e40 1f3e 94ab ddbc 309d 26be 247d 27bb
00000190: 8c45 ecbd 1503 02be 3fa8 c9bd 36f1 193d
000001a0: af1e a43d c746 8a3e 3d91 89bd 05b8 bbbd
000001b0: 6f0d a93b cb3f 75bd 2f30 4d3d 1fb9 ab3d
000001c0: 49aa a6bd 2052 08be 15a7 4cbd bc41 ca3d
000001d0: a4d0 523c bb37 313e 8a33 1d3c 04eb b33d
000001e0: 7616 0bbd a02a 09be 73a6 563e e391 48bd
000001f0: 0a32 83bc c9d0 68bd bd82 313d 01d3 8f3d
00000200: 4ac7 eabd c182 73be a95b 1bbc 7f2b c5bc
00000210: d357 193e 8ac0 edbc bee7 0fbd b8b5 13be
00000220: 7e80 02be 8053 70bd b73f c03d abc7 afbc
00000230: 3bbb a53c d324 c63d 8657 983d 0aea 8f3d
00000240: 327b a0bd 69e2 ba3c ab79 96bd 15d2 c63c
00000250: 202e 27bd 5bf7 94bd 54ff 2e3e dfcb 263e
00000260: 9d1a 233e b7b2 663e 22af ddbd 0d71 023b
00000270: 44fa 333e c69d 6a3d 2a38 50bd 09a9 393e
00000280: a8a9 793d e554 a03d f146 ea3d f2d1 2a3e
00000290: 0185 723d 836b 403e 4ac0 ab3d fdcd 333e
000002a0: bc7a cc3c 2203 203e f9e5 de3d 8ee3 633e
000002b0: 2d48 2e3e 1a4c 613e b5d4 a53d b0b0 cd3b
000002c0: 6643 043e e2ea 7d3e 4260 1d3d 4639 1e3e
000002d0: 20cb 903e 3e28 133e 3ab9 853d 6431 423e
000002e0: 65ab 39bd 23b7 5e3d 2cd3 b63e 272b 0d3e
000002f0: 1eac e83c 07ae c2bc a368 293d cc59 033e
00000300: cd2f ea3c 466f 833e 5907 17bc 96a8 433e
00000310: 1b2b 603d 497f 9ebd f000 6e3e 9626 643e

lstm.bias_hh_l0 f4 [200]
0.23331243 0.28917125 0.12206987 0.14184284 -0.088210136 0.27225274 0.20783123 0.13473034
0.35060263 0.138692 0.29491016 0.260605 0.19283433 0.1485241 0.10279795 0.12441748
0.33756578 -0.048832256 0.10419294 0.06929885 0.037748773 0.19938189 0.2742592 0.0996948
0.18365175 0.06182342 -0.09981967 0.25878027 0.03090868 0.42398497 0.38062546 0.12940872
0.17550871 0.25970307 0.15380202 0.031743605 0.16839172 0.15806788 0.11658723 0.14894171
0.1395097 0.24016546 0.26235342 0.36851695 0.11532042 0.21247454 0.3558782 0.0011828624
0.19858056 0.30739555 -0.06558719 0.04363009 0.05523851 0.07626567 -0.08108669 0.00061533944
-0.07455215 -0.009444853 -0.1290837 -0.07660138 -0.004670586 0.009458337 0.054958962 0.09992256
-0.041548945 -0.03922507 0.0042310813 -0.10624492 0.012092545 -0.033481266 -0.17849958 -0.09431869
0.076967366 -0.09336661 -0.14740868 0.06942326 -0.024601204 -0.06242684 -0.07567558 0.11903858
-0.1922759 0.11657838 -0.025707472 0.0827298 0.037432943 0.0024911514 -0.06823322 -0.15614164
-0.023700183 0.09656237 0.038056526 0.047388002 0.08271309 0.11253566 0.012713067 -0.25881323
0.06830473 0.094093315 -0.05662083 -0.058030196 0.054502837 0.09421676 0.07691943 -0.030601311
0.1566071 0.16398008 0.010674207 -0.09820572 0.0097097065 -0.26725227 -0.08470522 -0.03452706
-0.18890658 -0.016756592 0.0002882913 -0.030821301 -0.009944821 0.15763812 -0.024960287 0.05848521
-0.11581302 -0.12940031 0.29839435 0.0076378733 0.01597337 -0.08382732 0.06559892 0.047513932
-0.1462691 -0.06938402 0.087056555 0.12613621 0.04853046 0.042678405 0.026847243 -0.016466442
-0.0712928 0.08242346 -0.11697171 -0.06385067 0.06338064 0.14963324 -0.021120142 -0.03690837
0.07616933 0.022269005 0.0419014 0.034574267 -0.05608304 -0.132584 0.29386377 0.3094772
-0.019300245 -0.009020239 0.15698338 0.22200654 0.34048954 -0.020215832 0.0389119 0.12444849
0.10651984 0.0081810085 0.0309058 0.13846129 -0.008295284 0.1872737 0.11994061 0.008815862
0.042899378 0.046418026 0.19906667 0.23997003 0.3731723 0.22216144 0.3406842 0.048902128
0.16275084 0.17341322 0.034128115 0.35811573 0.15486728 0.19404757 0.01648138 0.13690427
0.19744003 0.19759992 0.15670235 0.13101016 0.020714898 0.1320344 0.0345808 0.20706233
0.21122062 0.21760935 0.023444606 0.08797597 0.21865945 0.046648487 0.1596314 0.15815923
00000000: 74e9 6e3e 410e 943e c5ff f93d 403f 113e
00000010: 84a7 b4bd b664 8b3e b6d1 543e c0f6 093e
00000020: 3082 b33e 4705 0e3e 77fe 963e 056e 853e
00000030: 5d76 453e b416 183e bb87 d23d 97ce fe3d
00000040: 6cd5 ac3e 5504 48bd 1c63 d53d 8eec 8d3d
00000050: 759e 1a3d c42a 4c3e b46b 8c3e ca2c cc3d
00000060: 340f 3c3e 8e3a 7d3d 416e ccbd d97e 843e
00000070: 3334 fd3c 8f14 d93e 57e1 c23e b883 043e
00000080: 8eb8 333e cdf7 843e 477e 1d3e 9505 023d
00000090: e16e 2c3e 8cdc 213e 49c5 ee3d 2d84 183e
000000a0: a1db 0e3e efed 753e 3053 863e 41ae bc3e
000000b0: 1d2d ec3d ed92 593e ab35 b63e 470a 9b3a
000000c0: b458 4b3e f362 9d3e 9452 86bd 77b5 323d
000000d0: c741 623d 2d31 9c3d c710 a6bd bb4e 213a
000000e0: ccae 98bd 96be 1abc 842e 04be 2fe1 9cbd
000000f0: b70b 99bb 24f7 1a3c a61c 613d 33a4 cc3d
00000100: 3a2f 2abd 78aa 20bd e2a4 8a3b f096 d9bd
00000110: cf1f 463c a723 09bd 98c8 36be 282a c1bd
00000120: 11a1 9d3d fe36 bfbd 4df2 16be c82d 8e3d
00000130: 7788 c9bc 49b3 7fbd ccfb 9abd 80ca f33d
00000140: f9e3 44be a5c0 ee3d 7a98 d2bc 3e6e a93d
00000150: 4953 193d 9642 233b dcbd 8bbd 98e3 1fbe
00000160: e326 c2bc 7ec2 c53d 29e1 1b3d ec19 423d
00000170: 7b65 a93d 1979 e63d 784a 503c 2b83 84be
00000180: 5ae3 8b3d ffb3 c03d 3eeb 67bd 12b1 6dbd
00000190: 5e3e 5f3d b7f4 c03d ef87 9d3d 9aaf fabc
000001a0: 9d5d 203e 65ea 273e dee2 2e3c 1520 c9bd
000001b0: 7615 1f3c 4ad5 88be ee79 adbd 3f6c 0dbd
000001c0: ba70 41be 1f45 89bc ce25 9739 f47c fcbc
000001d0: 9aef 22bc e36b 213e 8479 ccbc 308e 6f3d
000001e0: 602f edbd 8481 04be 25c7 983e 2047 fa3b
000001f0: 96da 823c a8ad abbd ba58 863d f89d 423d
00000200: 91c7 15be 3619 8ebd b54a b23d da29 013e
00000210: e0c7 463d 8dcf 2e3d c0ee db3c a2e4 86bc
00000220: f601 92bd a2cd a83d dd8e efbd 24c4 82bd
00000230: b5cd 813d 7539 193e 2604 adbc 3b2d 17bd
00000240: aafe 9b3d 7d6d b63c cda0 2b3d bf9d 0d3d
00000250: 54b7 65bd 1ac4 07be 5075 963e cc73 9e3e
00000260: 8c1b 9ebc a0c9 13bc 40c0 203e af55 633e
00000270: a554 ae3e ac9b a5bc 1662 1f3d dade fe3d
00000280: 1327 da3d a309 063c 292e fd3c ccc8 0d3e
00000290: f1e8 07bc adc4 3f3e 6ca3 f53d 6870 103c
000002a0: 42b7 2f3d d420 3e3d 22d8 4b3e b4ba 753e
000002b0: 7110 bf3e 4a7e 633e 296e ae3e 994d 483d
000002c0: 28a8 263e 3c93 313e ecc9 0b3d f25a b73e
000002d0: 8795 1e3e 68b4 463e f603 873c a230 0c3e
000002e0: b82d 4a3e a257 4a3e 9576 203e 8727 063e
000002f0: 4ab2 a93c 0734 073e 99a4 0d3d 2608 543e
00000300: 384a 583e fcd4 5e3e e70e c03c bf2c b43d
00000310: 43e8 5f3e 7c12 3f3d 6a76 233e 7ef4 213e

linear.weight f4 [4, 50]
-0.12589309 -0.2995573 0.1288381 0.001280718 0.03414092 -0.005108533 0.22514093 -0.0841494
-0.117322885 0.07380325 0.04571962 -0.026028197 0.22432815 0.068643406 0.104776636 0.09053014
-0.038438965 0.051898897 0.18038276 0.117832504 0.19108412 0.07077769 -0.2370629 -0.040656283
-0.0022716525 -0.1384053 0.19809705 0.12574403 -0.000242193 0.29235095 0.10048847 0.059383925
0.2012307 0.113317855 -0.23931496 -0.030191913 0.12883528 0.18705362 -0.058643296 0.22460231
0.08125889 -0.20245066 -0.054878987 0.007180602 -0.041889906 -0.11314629 0.20588425 -0.13685267
0.04669801 0.11423842 -0.25915563 -0.14926386 -0.09690431 -0.24071449 -0.13918303 -0.19511622
-0.22595303 0.105185516 0.19214258 0.23533256 0.27231386 0.11576562 -0.1188546 0.0825895
-0.14748345 -0.19294128 0.06595929 -0.19341446 0.036952246 -0.08990421 -0.12527086 0.04112684
-0.31928965 -0.1796054 -0.16854021 0.21941884 -0.21716356 0.1104673 0.13052174 -0.06632084
-0.16325313 -0.1396443 -0.20115854 0.064691775 0.035263766 0.2113921 -0.5361948 -0.030855358
0.19730352 -0.11821172 -0.09711186 0.25548398 -0.05098851 -0.23537557 0.013478097 0.096418925
0.1518228 0.03623894 -0.15364765 -0.2180967 0.1612639 -0.00095417985 0.10211974 0.072713375
0.042357713 -0.17013013 0.20439239 -0.07182396 -0.13586025 0.004412226 -0.0004496303 0.1984736
-0.08317925 0.13724402 0.11623187 0.13924004 0.27875897 -0.10771923 0.009797056 0.020486865
-0.036547657 -0.24728139 -0.13393946 -0.15205671 -0.10352605 0.244061 -0.0012890375 0.31395805
0.10871332 0.31408077 0.15621714 0.054246727 -0.07525402 -0.10243802 -0.096910566 -0.16495296
0.07760258 0.030554071 -0.24680282 0.057792563 0.10813262 0.20105407 -0.018159976 -0.070954874
0.060100004 -0.23469935 -0.13036239 0.107425414 0.14757219 0.025318746 -0.059948914 -0.04116043
-0.074861236 0.022918455 -0.1790496 0.3053898 -0.067595884 -0.024157379 0.10164492 -0.1671024
-0.083228715 -0.2038084 0.12552008 -0.22394994 -0.19957519 0.087602966 -0.16619855 -0.06865662
-0.1094278 -0.20325936 0.2757646 0.065425016 -0.09628328 -0.03914822 -0.28514647 -0.11405819
0.051745646 -0.1492871 0.31855083 0.007461968 0.35600576 -0.026816644 -0.14933422 0.16549319
0.104969725 0.08953552 -0.10049439 -0.24173298 0.0970669 -0.08993518 0.013001021 -0.18935987
-0.21340336 0.2133155 -0.23879364 0.22059004 -0.05696281 -0.15365247 0.09613869 0.25682044
00000000: 1eea 00be 935f 99be 23ee 033e c4dd a73a
00000010: 59d7 0b3d 7b65 a7bb 588b 663e 8556 acbd
00000020: fb46 f0bd 2926 973d 7f44 3b3d 1639 d5bc
00000030: 47b6 653e ea94 8c3d 2295 d63d de67 b93d
00000040: 2d72 1dbd f093 543d 42b6 383e 2b52 f13d
00000050: 8eab 433e e5f3 903d 9ec0 72be 3487 26bd
00000060: 01e0 14bb 1eba 0dbe f4d9 4a3e 0bc3 003e
00000070: 30f5 7db9 06af 953e e6cc cd3d 8f3c 733d
00000080: 6c0f 4e3e 3113 e83d fb0e 75be 0855 f7bc
00000090: 65ed 033e fc8a 3f3e f433 70bd 26fe 653e
000000a0: 106b a63d 3a4f 4fbe cac8 60bd 414b eb3b
000000b0: c094 2bbd 3eb9 e7bd 52d3 523e 1b23 0cbe
000000c0: 6a46 3f3d d5f5 e93d 0cb0 84be a0d8 18be
000000d0: c475 c6bd dc7d 76be ff85 0ebe 8ccc 47be
000000e0: 3b60 67be 816b d73d 06c1 443e 05fb 703e
000000f0: b96c 8b3e 8616 ed3d 0a6a f3bd af24 a93d
00000100: e705 17be 6692 45be aa15 873d 710e 46be
00000110: 3d5b 173d b31f b8bd 0147 00be 9e74 283d
00000120: ef79 a3be 7aea 37be ce95 2cbe 55af 603e
00000130: 2060 5ebe ae3c e23d 7ea7 053e 38d3 87bd
00000140: d42b 27be eafe 0ebe 81fc 4dbe 1f7d 843d
00000150: bd70 103d 2c77 583e 1044 09bf 60c4 fcbc
00000160: ef09 4a3e fc18 f2bd 95e2 c6bd ccce 823e
00000170: 54d9 50bd 4b06 71be 3cd3 5c3c 4977 c53d
00000180: 7077 1b3e 486f 143d cf55 1dbe be54 5fbe
00000190: 5d22 253e ed21 7aba 2724 d13d c0ea 943d
000001a0: 487f 2d3d 9836 2ebe 3d4c 513e 7118 93bd
000001b0: f31e 0bbe 6f94 903b 5bbc ebb9 aa3c 4b3e
000001c0: e259 aabd b289 0c3e fa0a ee3d f194 0e3e
000001d0: 7fb9 8e3e e69b dcbd d583 203c 12d4 a73c
000001e0: ffb2 15bd 5537 7dbe 6d27 09be c1b4 1bbe
000001f0: 7705 d4bd 20eb 793e ecf4 a8ba 1cbf a03e
00000200: 17a5 de3d 32cf a03e 63f7 1f3e d131 5e3d
00000210: c81e 9abd 06cb d1bd 0c79 c6bd 6ee9 28be
00000220: 1aee 9e3d 884c fa3c e1b9 7cbe e5b7 6c3d
00000230: a374 dd3d 1ee1 4d3e 3bc4 94bc ca50 91bd
00000240: 6c2b 763d 0755 70be b87d 05be db01 dc3d
00000250: 2a1d 173e 4269 cf3c fe8c 75bd d797 28bd
00000260: d950 99bd 7cbf bb3c c758 37be 0d5c 9c3e
00000270: b66f 8abd b2e5 c5bc 362b d03d e41c 2bbe
00000280: d173 aabd 26b3 50be 5688 003e 2253 65be
00000290: 705d 4cbe 2f69 b33d f42f 2abe d89b 8cbd
000002a0: af1b e0bd 3923 50be 0531 8d3e 8dfd 853d
000002b0: 2b30 c5bd e259 20bd b8fe 91be 5797 e9bd
000002c0: 3ef3 533d b8de 18be 1819 a33e 8683 f43b
000002d0: 6346 b63e 94ae dbbc 12eb 18be 0c77 293e
000002e0: 5efa d63d 665e b73d 01d0 cdbd da88 77be
000002f0: 03cb c63d f02f b8bd 3c02 553c 8ee7 41be
00000300: 6986 5abe 616f 5a3e 5286 74be 5be2 613e
00000310: d651 69bd 1357 1dbe 5de4 c43d f87d 833e

linear.bias f4 [4]
0.054706514 -0.0013200621 -0.042893037 -0.11872841
00000000: f013 603d ef05 adba 9cb0 2fbd e127 f3bd
