lstm_BigData/trial9/jt1_pos/lstm_model_epoch149.pth (torch, 50344 bytes, 5 tensors)

lstm.weight_ih_l0 f4 [200, 8]
0	0x3dbcf42f	0.09226262
1	0x3d265639	0.040609572
2	0xbe1334b5	-0.14375575
3	0xbdd124c7	-0.10212093
4	0xbc3b9152	-0.011448221
5	0xbde53f0a	-0.11193664
6	0x3ce39ab4	0.02778373
7	0x3d2cf2e0	0.04222381
8	0xbdb5dbba	-0.088798
9	0x3cd6a8d7	0.026203556
10	0x3dd4e853	0.10395875
11	0x3d170245	0.0368674
12	0x3a479543	0.0007613489
13	0x3d1a2235	0.03763028
14	0x3dacb13b	0.084322415
15	0xbd27027b	-0.04077385
16	0x3e82f3ea	0.25576717
17	0xbe602778	-0.21890056
18	0x3e5ae30b	0.21375673
19	0xbe971c60	-0.29513836
20	0xbe3b4dd7	-0.18291412
21	0x3c9ac3d4	0.018892206
22	0xbd014fbb	-0.031570178
23	0xbe886d65	-0.2664596
24	0xbe878f33	-0.2647644
25	0xbd553523	-0.05205263
26	0xbd448e29	-0.047987137
27	0xbe6112ec	-0.21979874
28	0xbaf31124	-0.0018544537
29	0xbd242954	-0.040078476
30	0xbd48ac9a	-0.04899273
31	0xbba5bde0	-0.0050580353
32	0x3e7face0	0.2496829
33	0x3deb7759	0.11497373
34	0x3d795fdd	0.060882438
35	0xbe755f80	-0.23962212
36	0x3dbdad0a	0.0926152
37	0x3ab0eff4	0.0013499246
38	0xbcb7482b	-0.02237328
39	0xbd699664	-0.05702819
40	0xbbaf1fdb	-0.0053443736
41	0xbb83e6f1	-0.004025333
42	0x3ec90f86	0.39269656
43	0xbe1ca839	-0.15298547
44	0xbe2ac1bb	-0.16675465
45	0xbbe98cf2	-0.0071273977
46	0xbc76dc7b	-0.015067215
47	0x3e8d9fe4	0.2766105
48	0x3e7f3fbf	0.24926661
49	0x3e4ca934	0.19986421
50	0x3e6e2faa	0.2326037
51	0xbd81e612	-0.063427106
52	0xb91e23ec	-0.00015081436
53	0x3d976fce	0.07394372
54	0xbd335ec7	-0.04379156
55	0xbdf29e1f	-0.118465655
56	0x3e02d87d	0.12777896
57	0x3d1d2e6c	0.03837435
58	0x3de6a931	0.112627394
59	0xbc8d2aa0	-0.01723224
60	0xbdbd5848	-0.09245354
61	0xbdae44b3	-0.08509197
62	0x3d90b5e2	0.070659414
63	0xbd713cdd	-0.058895934
64	0xbdebe62e	-0.11518513
65	0xbe842b20	-0.25814152
66	0xbe48053e	-0.1953325
67	0xbea5e40e	-0.32400554
68	0x3df8fdf2	0.12157811
69	0xbe3eea5f	-0.18644093
70	0xbdb29ef8	-0.08721727
71	0x3d66e1b1	0.05636758
72	0x3db84010	0.08996594
73	0x3e00cb01	0.1257744
74	0xbe8da50e	-0.2766499
75	0xbd14d6a0	-0.036337495
76	0xbd8af8a1	-0.067857035
77	0x3dfd05d3	0.123546265
78	0xbdf14370	-0.11780441
79	0x3dccea16	0.10005586
80	0x3de43bc2	0.111442104
81	0xbe17433f	-0.14771746
82	0x3da3a5bc	0.07990596
83	0xbd8c76f5	-0.06858627
84	0xbcb68e81	-0.022284748
85	0xbd3ee670	-0.04660648
86	0xbd61b641	-0.05510545
87	0xbe81b53c	-0.25333583
88	0xbe30a60a	-0.17250839
89	0xbd5ae8ab	-0.053444546
90	0x3ebefb50	0.3730111
91	0xbef6b1a3	-0.481824
92	0x3a24756c	0.0006273601
93	0xbe1cb956	-0.15305075
94	0x3de7ff79	0.113280244
95	0xbea2bde1	-0.3178549
96	0xbe3ddb54	-0.18540698
97	0x3d4535e0	0.048147082
98	0x3cbe5f07	0.023238672
99	0xbd8bf1b6	-0.06833212
100	0xbd19a843	-0.037513983
101	0x3d4efcc8	0.05053404
102	0x3d6aa965	0.057290453
103	0x3e0a28f1	0.1349218
104	0x3cbe9610	0.023264915
105	0x3c56b382	0.013104321
106	0x3d966c62	0.07344891
107	0x3d34e64a	0.044164933
108	0xbd8b0d4c	-0.067896456
109	0xbc51243d	-0.012764988
110	0xbd63742c	-0.055530712
111	0xbd498fa3	-0.04920925
112	0xbeb00f73	-0.34386787
113	0xbe84b881	-0.25922015
114	0x3e09c22c	0.13452977
115	0xbcca27a7	-0.02467711
116	0xbea9c0df	-0.3315496
117	0x3e46e6f4	0.19424039
118	0x3d774683	0.06036998
119	0xbe2c5cbc	-0.1683225
120	0x3be71502	0.007052065
121	0xbd60c06a	-0.054871
122	0xbe1f213e	-0.15540025
123	0xbd25235d	-0.04031693
124	0xbb4c263b	-0.0031150717
125	0xbe1f575f	-0.15560673
126	0x3d242543	0.040074598
127	0x3db48608	0.08814627
128	0xbe3d3d82	-0.18480495
129	0xbe011772	-0.126066
130	0x3e9067e0	0.2820425
131	0xbe90c334	-0.28273928
132	0x3d189c2f	0.037258323
133	0xbe8d5f70	-0.27611876
134	0xbd9194da	-0.07108469
135	0xbcf84fd4	-0.030311503
136	0xbdc1a8bd	-0.094560124
137	0x3df5cac7	0.12001567
138	0x3e832374	0.25612986
139	0xbe2e3c56	-0.17015204
140	0x3c84a5d1	0.016192349
141	0x3e31829f	0.17334984
142	0x3d929141	0.07156611
143	0x3d5090e1	0.050919417
144	0xbe9159fc	-0.28388965
145	0x3e2f1f30	0.17101741
146	0x3a77d7a9	0.0009454438
147	0x3d16d9ad	0.036828686
148	0xbd6a5321	-0.057208184
149	0xbd94103f	-0.07229661
150	0xbd13c561	-0.036076907
151	0xbdf288de	-0.118425116
152	0xbd575938	-0.05257532
153	0xbd5ee664	-0.054418936
154	0x3e290d63	0.16509013
155	0xbea91b08	-0.33028436
156	0x3d8b7ca0	0.0681088
157	0x3df40f96	0.11917035
158	0x3cf2eafe	0.029653069
159	0x3e5c851d	0.21535154
160	0xbe73d369	-0.23811115
161	0x3c1deb2e	0.009638591
162	0x3d5d5dd8	0.054044574
163	0xba843aa6	-0.0010088279
164	0xbe2f5eb9	-0.17125978
165	0xbbe1653a	-0.006878522
166	0xbe26771d	-0.16256376
167	0x3dd909ca	0.1059757
168	0x3b97aee7	0.0046290043
169	0x3ce9c185	0.02853466
170	0x3e9e4643	0.3091298
171	0xbc1d6fe7	-0.009609199
172	0xbe2d50dd	-0.16925378
173	0x3e0279d6	0.12741789
174	0xbcfa5ba5	-0.030561278
175	0xbdac8f12	-0.08425726
176	0x3d73387b	0.059380036
177	0x3d4b0cc9	0.04957274
178	0x3e0545a2	0.13014844
179	0xbe3d7964	-0.18503338
180	0xbdb1db16	-0.086843655
181	0xbc81457d	-0.015780205
182	0x3d8a77e2	0.06761147
183	0xbd56c502	-0.052433975
184	0x3c928396	0.01788501
185	0xbd6097c9	-0.054832254
186	0x3d132ca5	0.03593125
187	0xbd672b4d	-0.05643778
188	0xbdb1b9d0	-0.08678019
189	0xbdc699e6	-0.096973225
190	0x3dd711ea	0.10501464
191	0xbdcfe2b6	-0.101506636
192	0x3e262859	0.16226329
193	0x3cc52a23	0.024067944
194	0x3e3628db	0.17789023
195	0xbed0a4ed	-0.40750828
196	0xbd1dfbca	-0.038570203
197	0x3d6fe8ec	0.05857174
198	0x3d4d205a	0.05007968
199	0xbcc5519d	-0.024086768
200	0x3db1094f	0.086443536
201	0x3dd4b009	0.103851385
202	0x3e4e7827	0.20163022
203	0xbdfc7f4c	-0.123289675
204	0xbda15c71	-0.0787896
205	0xbdcc9218	-0.09988803
206	0xbe95e547	-0.29276487
207	0xbdc7b7f0	-0.0975188
208	0xbe84d485	-0.2594339
209	0xbe5aa7f3	-0.2135313
210	0x3e042a87	0.12906848
211	0xbd81c23f	-0.063358776
212	0x3d0e994d	0.034814168
213	0xbc7d5a35	-0.015463402
214	0x3d85fd3e	0.06542443
215	0xbe0bb692	-0.13643864
216	0xbe2baa84	-0.16764265
217	0x3e0783aa	0.1323382
218	0x3e25c078	0.16186702
219	0x3d69722e	0.056993656
220	0xbb724ba5	-0.0036971357
221	0xbe162e08	-0.14665997
222	0xbdf6fcb5	-0.12059919
223	0x3e2bb071	0.16766526
224	0x3ceeacd5	0.029135147
225	0xbe1d8072	-0.15381029
226	0x3e339924	0.17538887
227	0xbbd9f711	-0.006651767
228	0x3e274c66	0.16337737
229	0xbc2fa224	-0.01071981
230	0x3da9bc18	0.08287829
231	0xbd95d131	-0.07315291
232	0x3e1eb679	0.15499295
233	0x3d3a1254	0.045427635
234	0xbcb18c68	-0.021673396
235	0xbb0650be	-0.0020494903
236	0xbcbee1ac	-0.023300968
237	0x3e954175	0.29151502
238	0x3d2766c3	0.040869486
239	0xbe03cdcb	-0.12871473
240	0xbdf3c141	-0.11902095
241	0x3e4820b8	0.19543731
242	0x3cb29ff3	0.021804785
243	0xbe210d78	-0.15727794
244	0xbde109f2	-0.10988225
245	0xbde4e3ba	-0.11176248
246	0xbe30af4d	-0.17254372
247	0xbdf3795d	-0.118883826
248	0xbe1d81f6	-0.15381607
249	0xbd2a2f18	-0.04154882
250	0x3e10eec8	0.14153588
251	0xbe0a0129	-0.13477005
252	0x3dcfb0a8	0.101411164
253	0xbcc7d554	-0.024393715
254	0xbeb4fde6	-0.3534996
255	0x3e19aabf	0.1500654

lstm.weight_hh_l0 f4 [200, 50]
0	0xbd06664a	-0.032812394
1	0xbdb37143	-0.08761837
2	0xbe43c4d5	-0.19118054
3	0x3d0913e7	0.033466246
4	0xbd7d0507	-0.061772373
5	0x3dd1349d	0.10215113
6	0xbd949174	-0.072543055
7	0xbd3f4245	-0.04669406
8	0x3ce62da6	0.028097939
9	0xbe120647	-0.14260207
10	0xbe08f033	-0.13372879
11	0xbdddc36a	-0.10828288
12	0xbe5b5674	-0.21419698
13	0x3b725746	0.0036978289
14	0x3d25df45	0.04049613
15	0xbb833232	-0.0040037865
16	0xba2fba1e	-0.0006703454
17	0x3d06a08e	0.03286796
18	0x3dcd5c89	0.10027415
19	0xbdfeb24e	-0.12436353
20	0xbd15473d	-0.03644489
21	0x3d932504	0.071847945
22	0x3c584a88	0.013201363
23	0x3d4d62df	0.05014312
24	0xbd9beb9e	-0.076133
25	0xbe15fbd8	-0.14646852
26	0x3e054511	0.13014628
27	0xbc117d0c	-0.008879911
28	0xbd130cdc	-0.035900936
29	0x3e1b4b1f	0.15165375
30	0x3d56eddf	0.052472945
31	0xbd80f02f	-0.062958114
32	0xbd9aaadd	-0.07552121
33	0x3c83f6d9	0.016108917
34	0x3eb713cb	0.35757288
35	0xbd3a18e4	-0.045433894
36	0x3dd5bfca	0.104369715
37	0x3b5c6500	0.0033629537
38	0xbda2adef	-0.079433315
39	0x3c4e1020	0.012577087
40	0x3cfad351	0.030618342
41	0xbe2a6556	-0.16640219
42	0xbd89d48a	-0.06729992
43	0xbc963ba0	-0.018338978
44	0xbdb17fdf	-0.086669676
45	0xbd786a1b	-0.060648065
46	0x3d5c1752	0.053733177
47	0x3d77c69d	0.060492147
48	0x3def58fb	0.116868936
49	0x3da198bc	0.0789046
50	0x3d19c44c	0.03754072
51	0x3dc1d102	0.09463693
52	0x3d4d15c5	0.05006959
53	0xbd8c2aa2	-0.06844069
54	0x3df836ae	0.12119804
55	0xbe13af3c	-0.14422315
56	0x3d8a1ba4	0.06743553
57	0xbded5c4d	-0.115898706
58	0xbcc2a7e1	-0.023761692
59	0xbe7b0248	-0.24512589
60	0x3dbd0d72	0.0923108
61	0x3d8f1b90	0.06987679
62	0xbdb0ef46	-0.08639388
63	0xbe4ebf3e	-0.2019014
64	0x3e66e0f0	0.22546744
65	0x3e4b149c	0.1983208
66	0xbd1e97d7	-0.038719025
67	0xbe1b6997	-0.15176998
68	0xbdf38a64	-0.1189163
69	0x3bf904ae	0.007599435
70	0xbd8808e0	-0.06642318
71	0x3e3bb5c4	0.18331057
72	0xbdb6bf3b	-0.08923193
73	0x3d9d8bb4	0.07692662
74	0xbc87a018	-0.01655583
75	0x3dd094b3	0.10184612
76	0x3ded9fff	0.116027825
77	0xbe429c87	-0.19005023
78	0x3ce53c5b	0.027982881
79	0xbe0fc510	-0.14040017
80	0x3d7edddb	0.062223297
81	0xbe233143	-0.1593676
82	0x3d4ca3a9	0.049960766
83	0xbc0b5b39	-0.008505636
84	0x3e48d3ca	0.19612041
85	0x3dcadb86	0.09905152
86	0x3bf03523	0.007330553
87	0x3e12da90	0.14341187
88	0x3d749742	0.059714563
89	0xbce43ffe	-0.027862545
90	0xbe1b7c2a	-0.15184084
91	0xbcd84769	-0.026401239
92	0xbd64794e	-0.055779748
93	0x3e7712ad	0.24128218
94	0x3d26fa6c	0.040766165
95	0xbc628172	-0.0138248075
96	0x3c170e07	0.009219653
97	0xbd8ae8e1	-0.067826994
98	0x3cef9cc4	0.029249556
99	0xbe14575b	-0.14486448
100	0x3d65e469	0.056126032
101	0xbea8745d	-0.32901278
102	0x3da55ae6	0.08073978
103	0x3e2642e1	0.1623645
104	0x3e6fbc62	0.23411706
105	0x3e5d4caa	0.21611276
106	0xbca7252a	-0.020403463
107	0xbe0d7b31	-0.13816525
108	0x3ec4ea04	0.3845979
109	0xbd0cd215	-0.034380037
110	0x3bcb1bc4	0.0061983783
111	0x3e1b6f6e	0.15179226
112	0xbe127b74	-0.14304906
113	0x3d40f963	0.047112834
114	0x3d6153ab	0.055011433
115	0x3e7a3acd	0.24436493
116	0xbc8d2f38	-0.01723443
117	0xbd9cc258	-0.07654256
118	0x3cec5e45	0.028853545
119	0x3e00b18e	0.12567732
120	0x3e521716	0.20516619
121	0x3e0746d4	0.13210613
122	0x3db6c462	0.08924176
123	0x3d9ad9ba	0.07561059
124	0xbdf36921	-0.11885286
125	0xbd32487e	-0.043526165
126	0xbcc0d23b	-0.023537746
127	0xbe2e14d1	-0.17000128
128	0x3e255a0b	0.1614763
129	0xbe63fb5f	-0.22263859
130	0x3b637087	0.0034704523
131	0xbd7961b5	-0.060884196
132	0x3d3407bb	0.043952685
133	0xbdadb015	-0.084808506
134	0xbb89a9c6	-0.004201147
135	0x3e767352	0.24067429
136	0xbe667928	-0.22507155
137	0x3b48d195	0.0030642499
138	0xbcce797d	-0.025204415
139	0xbc91b130	-0.017784685
140	0xbd1d078f	-0.038337287
141	0xbe09c9d2	-0.13455895
142	0xbd2ae026	-0.04171767
143	0xbe1ff4a8	-0.15620673
144	0x3ecdd842	0.40204054
145	0x3deb0eff	0.1147747
146	0x3dc36d71	0.09542359
147	0xbe2ba9f0	-0.16764045
148	0xbeddf682	-0.43352133
149	0xbc814061	-0.015777769
150	0xbda6c681	-0.0814333
151	0xbdbe84ed	-0.09302697
152	0x3b88c3fc	0.004173754
153	0xbde04a43	-0.10951664
154	0xbd8d7fa9	-0.06909115
155	0x3d7bf8e6	0.061516665
156	0x3b3ed446	0.0029118224
157	0x3c6d18a6	0.014471209
158	0x3e023870	0.12716842
159	0xbcc83a88	-0.024441972
160	0xbd0e4abe	-0.03473925
161	0x3ccde649	0.025134223
162	0x3d563a25	0.052301545
163	0xbded1eeb	-0.11578163
164	0xbdc6f17e	-0.0971403
165	0x3e7ed56b	0.248861
166	0x3ca140f4	0.019684292
167	0x3da27115	0.07931725
168	0x3c326bad	0.01088993
169	0xbd660608	-0.056158096
170	0xbe8059d6	-0.2506854
171	0x3e6f953d	0.23396774
172	0xbdd39769	-0.103316136
173	0xbce6e05d	-0.028183157
174	0x3e04f355	0.12983449
175	0x3caa1fc6	0.020767104
176	0xbdb83d1a	-0.08996029
177	0xbd95237d	-0.072821595
178	0xbe297b0d	-0.16550846
179	0xbe0b09bb	-0.1357793
180	0x3dc513b5	0.096228994
181	0x3b18332e	0.0023223865
182	0xbd88c0c7	-0.06677394
183	0xbdb9cd6e	-0.09072386
184	0x3e11df80	0.14245415
185	0xbc68d585	-0.014211063
186	0x3b5dc85c	0.0033841347
187	0xbdb117b2	-0.08647098
188	0xbe2a319c	-0.16620487
189	0x3de19a6d	0.110157825
190	0xbcea1f45	-0.028579364
191	0x3e64d2a2	0.22345975
192	0xbd93690f	-0.07197773
193	0x3d0b0d6f	0.03394836
194	0x3d8143ac	0.063117355
195	0x3dc4643c	0.09589431
196	0xbc044d4e	-0.0080750715
197	0x3e28e834	0.16494828
198	0xbce0fd54	-0.027464546
199	0x3dbca532	0.09211196
200	0x3ceb1b83	0.028699642
201	0x3d0ebd04	0.034848228
202	0x3d9600a2	0.073243394
203	0x3e18e432	0.149308
204	0x3d52c450	0.05145675
205	0x3a0e3490	0.00054247025
206	0xbce8676e	-0.028369632
207	0xbcfffc10	-0.031248122
208	0x3c5db71d	0.013532427
209	0xbd04c1c4	-0.03241135
210	0xbd93003c	-0.07177779
211	0xbd5a46b7	-0.053290095
212	0xbc25f98e	-0.010130299
213	0x3d28bc91	0.041195456
214	0xbcaa86e1	-0.020816268
215	0x3c1a2dd8	0.009410344
216	0xbe1d476e	-0.1535928
217	0xbae9136c	-0.0017782277
218	0x3e649632	0.2232292
219	0x3d1e659c	0.03867112
220	0x3c5b16ac	0.013372105
221	0xbd44d280	-0.04805231
222	0xbde7c100	-0.11316109
223	0x3e156b35	0.14591677
224	0xbd812c52	-0.063072816
225	0x3da76db5	0.08175222
226	0x3bbe1e23	0.0058019324
227	0x3e2cc9df	0.16873883
228	0x3dd29064	0.102814466
229	0x3dabd951	0.08391059
230	0x3c94940a	0.018136997
231	0xb8d8a63c	-0.00010330646
232	0x3ce9638e	0.028489854
233	0xbd8007ac	-0.06251463
234	0x3c61c71f	0.013780384
235	0xbd99edaa	-0.07516034
236	0x3d0b6575	0.034032304
237	0xbd934a52	-0.0719191
238	0x3dc045d4	0.09388319
239	0xbe057232	-0.13031843
240	0x3debfdc0	0.11523008
241	0xbe09f842	-0.13473609
242	0x3e1af513	0.15132551
243	0x3d642ec5	0.055708665
244	0xbbc7d8bc	-0.006098835
245	0xbdc74f91	-0.09731973
246	0xbcce5371	-0.025186272
247	0x3cc1be8c	0.02365043
248	0x3d28feae	0.041258506
249	0x3e4203ef	0.18946813
250	0x3dd8e646	0.10590796
251	0xbde62ac7	-0.11238628
252	0xbe482258	-0.19544351
253	0x3d95a812	0.073074475
254	0x3e546ce5	0.20744665
255	0xbc5b6ad1	-0.013392166

lstm.bias_ih_l0 f4 [200]
0	0xbc7f0564	-0.01556525
1	0x3e604231	0.2190025
2	0x3ed9bb9b	0.42525944
3	0x3cdc44ab	0.026888212
4	0xbbbe0add	-0.005799635
5	0x3e9b0f3a	0.30285054
6	0x3e257cd6	0.16160902
7	0x3e7daa05	0.24771889
8	0x3e2e63e4	0.17030293
9	0xbd57b078	-0.052658528
10	0x3e3bcd07	0.1833993
11	0x3e9d8142	0.30762678
12	0x3c7838ac	0.01515023
13	0x3dc30de5	0.095241345
14	0x3ec00ead	0.37511197
15	0x3e6d4551	0.23170973
16	0x3ea1e45b	0.31619534
17	0x3e2823dd	0.16419931
18	0x3da66349	0.08124406
19	0x3be61c28	0.0070223995
20	0x3dc5d1c5	0.09659151
21	0x3e8578f9	0.26068857
22	0xbbe211c5	-0.006899091
23	0x3dce2479	0.1006555
24	0x3dcf0845	0.10108999
25	0x3d8ea0a6	0.06964235
26	0x3d8f77d0	0.07005274
27	0x3e559a32	0.20859602
28	0x3e2cda2c	0.16880101
29	0x3e820744	0.25396168
30	0x3d8eb62b	0.069683395
31	0x3cfd2ccf	0.030905155
32	0x3dbd11ec	0.09231934
33	0x3df09dc1	0.11748839
34	0x3e89997a	0.26874906
35	0x3d7680e3	0.06018151
36	0x3db115a5	0.086467065
37	0x3e77127b	0.24128143
38	0x3e7c2490	0.24623322
39	0x3d25ee89	0.040510688
40	0x3d1bdc63	0.038051974
41	0x3ea00202	0.31251532
42	0x3e8737a8	0.2640965
43	0x3e703b26	0.23460063
44	0x3db5cb30	0.088766456
45	0x3c21b719	0.009870314
46	0x3e2a3490	0.16621614
47	0x3e5f5e3b	0.2181329
48	0x3e106015	0.14099152
49	0x3ea9cb5f	0.33162972
50	0xbe1068ff	-0.14102553
51	0x3de154f9	0.110025354
52	0x3d5a8fe3	0.053359877
53	0x3e2d205f	0.1690688
54	0xbdb38343	-0.087652706
55	0xbd5522f8	-0.052035302
56	0xbcafce8a	-0.02146079
57	0x3ca1ce49	0.019751685
58	0xbd5fa58f	-0.05460125
59	0x3cd90912	0.026493583
60	0xbddbbf16	-0.10729806
61	0xbe32fc2d	-0.1747901
62	0xbd971d94	-0.073786885
63	0xbd95b0ae	-0.073090896
64	0x3e65fd85	0.22459991
65	0xbd134b9c	-0.03596078
66	0xbcfe59dc	-0.031048708
67	0x3e23970b	0.15975587
68	0x3e661bdf	0.2247157
69	0x3d19ac76	0.037517987
70	0xbced5372	-0.028970454
71	0x3e00b643	0.12569527
72	0x3d15c582	0.03656531
73	0xbd677c54	-0.056515053
74	0xbd1aa763	-0.03775729
75	0x3dd33708	0.10313231
76	0x3d0bfb61	0.03417528
77	0xbd6d9dd5	-0.05801185
78	0x3d5f0823	0.05445112
79	0x3e09193b	0.13388531
80	0x3de3c4f5	0.11121551
81	0x3bc032f7	0.0058654505
82	0x3e6b8800	0.23001099
83	0xbd59eceb	-0.05320446
84	0xbd1a1b6a	-0.0376238
85	0x3e228720	0.15871859
86	0x3d069e12	0.03286559
87	0x3daa5d0c	0.083185285
88	0xbdbf95bd	-0.09354732
89	0xbd688fa2	-0.056777604
90	0x3dfe187f	0.12407016
91	0x3e2459e0	0.1604991
92	0x3d7aa946	0.061196588
93	0x3e084451	0.1330731
94	0x3e410dc8	0.18852913
95	0x3d7bd125	0.061478753
96	0x3dff1d30	0.12456739
97	0xbd64a49a	-0.05582104
98	0x3d6e9dc1	0.058255915
99	0x376c9374	1.4101028e-05
100	0x3e0dc5a0	0.13844919
101	0x3d88fffe	0.06689452
102	0xbcb2a4a2	-0.021807019
103	0x3d3d06ef	0.04614919
104	0x3e06c42d	0.13160773
105	0xbdfa8a19	-0.12233371
106	0xbd522487	-0.051304366
107	0xbd81f187	-0.06344896
108	0x3e348b81	0.17631342
109	0xbe0d0206	-0.13770303
110	0xbd5f043f	-0.05444741
111	0xbcec41ef	-0.028840033
112	0xbdb41e99	-0.087948985
113	0xbda267ec	-0.07929978
114	0x3d203360	0.039111495
115	0x3daad59f	0.08341526
116	0xbd33e9c4	-0.04392411
117	0x3d17b563	0.03703822
118	0x3bb10f99	0.0054034707
119	0x3daf42f9	0.08557696
120	0x3dd10777	0.10206502
121	0x3da60fa5	0.08108453
122	0xbd90f775	-0.07078449
123	0x3dc1e4b9	0.094674535
124	0x3e264aa9	0.16239418
125	0xbdc73de7	-0.09728604
126	0x3d8bf275	0.068333544
127	0xbe2aeec8	-0.1669265
128	0x3dce1a21	0.100635774
129	0xbcfded36	-0.0309969
130	0x3dff9ca6	0.1248105
131	0xbe21e61c	-0.15810436
132	0x3e0c7d96	0.13719782
133	0xbe146645	-0.14492138
134	0x3e255b5b	0.1614813
135	0xbd850e71	-0.06496895
136	0xbd5eaf44	-0.054366365
137	0x3dea4b90	0.11440194
138	0x3d8a51bc	0.06753871
139	0x3d930072	0.07177819
140	0x3d2fcb8b	0.042918723
141	0x3dc8f7fe	0.09812926
142	0xbd2e9f31	-0.042632286
143	0xbcebcd7e	-0.02878451
144	0xbd09bd4b	-0.03362779
145	0xbda265eb	-0.079295956
146	0xbce0eb32	-0.0274559
147	0xbc5ead4d	-0.013591123
148	0x3b177e64	0.0023116106
149	0x3e02d7b6	0.127776
150	0x3dfb5e13	0.122738026
151	0x3dc3bf01	0.095579155
152	0x3e0f9647	0.1402217
153	0x3e0e34d5	0.13887341
154	0x3deb0413	0.114753865
155	0x3dea6758	0.114454925
156	0x3e820b8c	0.25399435
157	0x3e1b2574	0.15151006
158	0x3ea0933c	0.3136233
159	0x3dd86c85	0.105675735
160	0x3e110dcc	0.1416542
161	0x3e8f031c	0.2793206
162	0x3e17230b	0.14759462
163	0x3d4ab40d	0.049488116
164	0x3e7e6dc6	0.24846563
165	0x3e1f3176	0.15546212
166	0x3ec09410	0.37612963
167	0x3e3ad879	0.1824664
168	0x3d3ea27e	0.046541683
169	0x3e6a4e42	0.22881415
170	0x3e451f4b	0.19250219
171	0x3e1775fc	0.14791101
172	0x3dcd7b41	0.100332744
173	0x3e4f9a85	0.20273788
174	0x3e7166ac	0.23574322
175	0x3e694cb9	0.22783174
176	0x3db5dcbd	0.08879993
177	0x3e4b0d2b	0.19829242
178	0x3d3fe4c0	0.046849012
179	0xbd5c3ec9	-0.053770814
180	0x3e219abd	0.15781684
181	0x3d21aa7f	0.03946924
182	0x3e8405ca	0.25785667
183	0x3e1d7a8b	0.15378778
184	0x3ecf4238	0.40480208
185	0xbb3eb436	-0.0029099113
186	0xbcb31047	-0.021858348
187	0x3e88d79e	0.26727003
188	0x3e3e8434	0.18605119
189	0x3dd88fd9	0.10574312
190	0x3e066abb	0.13126652
191	0x3e9c9a6e	0.3058657
192	0x3da62120	0.08111787
193	0x3e568652	0.20949677
194	0x3e2a2a6c	0.16617745
195	0x3e67f62d	0.22652502
196	0x3e3584bf	0.1772642
197	0x3e888089	0.26660565
198	0x3ccb3e21	0.024809899
199	0x3f0a6de4	0.5407393

lstm.bias_hh_l0 f4 [200]
0	0x3e55cd6e	0.20879146
1	0x3e242f24	0.16033608
2	0x3e962707	0.2932665
3	0x3e0d289d	0.13785024
4	0x3d41f1c3	0.047349703
5	0x3e0d03f1	0.13771035
6	0x3d82e5a9	0.063914604
7	0x3aa2e33f	0.0012427344
8	0x3ea3753e	0.31925386
9	0x3e03888a	0.12845054
10	0x3d963b28	0.07335502
11	0x3e977a44	0.2958547
12	0xbd093552	-0.033498116
13	0x3d4c58ce	0.04988938
14	0x3e8d1fd9	0.2756336
15	0x3e012775	0.12612708
16	0x3e7f57da	0.24935856
17	0x3e1df6f0	0.1542623
18	0x3ce56e06	0.028006565
19	0x3e160c43	0.14653115
20	0x3e4d9882	0.20077708
21	0x3e2b4bfa	0.16728202
22	0x3d9b2b72	0.07576646
23	0xbd058645	-0.032598753
24	0x3de63fca	0.112426355
25	0x3db4546b	0.08805164
26	0x3e4fa3c5	0.20277317
27	0x3df6dfc4	0.12054399
28	0x3e47bf7b	0.19506638
29	0x3e678e4b	0.22612874
30	0xbc6c441f	-0.014420538
31	0xbbde975a	-0.006792945
32	0x3e6e81ca	0.23291698
33	0x3c0ec504	0.008713964
34	0x3e916e9c	0.284047
35	0x3e459da2	0.19298413
36	0x3e01ada4	0.12663895
37	0x3e5a9bce	0.21348497
38	0x3e48ac5f	0.19597004
39	0xbd25f50a	-0.04051689
40	0x3e440bea	0.1914517
41	0x3ec0e1da	0.3767231
42	0x3e5dacce	0.21647951
43	0x3e70e8ce	0.23526308
44	0x3e12171b	0.14266627
45	0x3e308689	0.17238821
46	0x3e172a41	0.14762212
47	0x3e8c681b	0.27423176
48	0x3dcbe95d	0.0995662
49	0x3f0bb1ae	0.5456799
50	0x3dbd2dc5	0.092372455
51	0x3d57efb6	0.05271884
52	0x3e76837a	0.24073592
53	0x3e2f8a16	0.1714252
54	0xbde0633a	-0.10956426
55	0xbbdde16e	-0.006771258
56	0x3e1938b1	0.14963032
57	0xbca93590	-0.020655423
58	0x3d3d0339	0.04614565
59	0x3e3fba02	0.187233
60	0x3d2c3448	0.042042047
61	0xbda5d78b	-0.08097752
62	0xbd674f7f	-0.056472298
63	0xbd87f468	-0.06638414
64	0x3d515ac0	0.051111937
65	0x3dab9295	0.08377568
66	0x3e44fb96	0.19236597
67	0x3def5332	0.1168579
68	0x3e33a06e	0.17541668
69	0x3c1ed55c	0.0096944235
70	0x3d863a4c	0.06554088
71	0x3e79bbc2	0.2438803
72	0xbc1efd39	-0.009703928
73	0xbd138833	-0.03601856
74	0x3dbb5255	0.09146563
75	0xbbf87c3a	-0.0075831683
76	0x3d5f416c	0.05450575
77	0xbcc328ba	-0.02382313
78	0xbd3b61e9	-0.04574767
79	0xbce662e4	-0.028123327
80	0x3b351f9d	0.0027637251
81	0xbd8e9021	-0.06961084
82	0x3dd96a64	0.106159955
83	0x3deeeb97	0.11666029
84	0xbda26b78	-0.07930654
85	0x3d91ee47	0.07125526
86	0xbdd4881c	-0.10377523
87	0x3c39c772	0.011339055
88	0x3daa8d0d	0.083276846
89	0xbda3d1fa	-0.07999034
90	0xbca71d0a	-0.02039959
91	0x3e7ff776	0.24996743
92	0x3e239366	0.15974197
93	0x3e283732	0.16427305
94	0x3d959b5e	0.073050246
95	0xbd572e1b	-0.052534204
96	0xbce0c454	-0.027437367
97	0xbd0a88da	-0.033821918
98	0xbcfb096e	-0.030644145
99	0xbe1b68a7	-0.1517664
100	0xbd8ecaf9	-0.06972308
101	0xbe1d3b42	-0.15354636
102	0x3daba87d	0.08381746
103	0xbe0dad46	-0.1383563
104	0xbdff674f	-0.124708764
105	0xbcbc77f2	-0.023006413
106	0x3d8cf309	0.06882293
107	0x3c7d0d58	0.015445076
108	0x3dfb2722	0.12263323
109	0xbe0e2eeb	-0.13885085
110	0x3d5086a3	0.05090965
111	0x3cf5a3a9	0.029985266
112	0xbd72c683	-0.059271347
113	0xbd49b41b	-0.049244028
114	0xbd395c5b	-0.045254093
115	0x3ddbac65	0.10726241
116	0x3e04e8f1	0.12979485
117	0xbe273f9c	-0.16332859
118	0xbd90db81	-0.07073117
119	0x3d64cb9d	0.055858243
120	0x3d2b1990	0.041772425
121	0x3d6c238a	0.05765108
122	0xbc20ef30	-0.009822652
123	0x3d9fc055	0.07800356
124	0x3c9038fc	0.017605297
125	0xbc5d4e3f	-0.013507425
126	0x3da2ec0e	0.0795518
127	0x3c2cebd1	0.01055427
128	0xbd766d1f	-0.06016266
129	0xbd5bc08d	-0.053650428
130	0x3c12ccc4	0.008959953
131	0xbe456bc6	-0.19279394
132	0xbda19489	-0.07889659
133	0xbdab995d	-0.08378861
134	0xbd15d8aa	-0.03658358
135	0x3e19eb86	0.15031251
136	0x3cfac5b6	0.030611854
137	0x3ddb7b17	0.10716837
138	0x3c20ce42	0.009814801
139	0xbb4fa384	-0.0031683156
140	0xbda327f4	-0.07966605
141	0x3df0ac80	0.11751652
142	0xbdc9da75	-0.098561205
143	0x3d3c7fd8	0.04602036
144	0x3e088c7c	0.1333484
145	0xbd4746e5	-0.048651595
146	0x3d0a3625	0.033743042
147	0xbdd9e6dd	-0.10639737
148	0xbdf0ba99	-0.11754341
149	0xbdc24f67	-0.09487801
150	0x3c418ba3	0.011813077
151	0x3decc934	0.11561814
152	0x3e775d1e	0.24156615
153	0x3e282670	0.16420913
154	0xbd2ec07e	-0.042664044
155	0x3ea52271	0.3225284
156	0x3e88af5e	0.26696295
157	0x3e33924e	0.1753628
158	0x3e16cb75	0.1472605
159	0x3e4a4837	0.1975411
160	0xbc18f421	-0.009335549
161	0x3ddc1a7f	0.10747241
162	0xbd6c937a	-0.057757832
163	0xbda6ef8b	-0.08151158
164	0x3ead459b	0.33842167
165	0x3e371283	0.17878155
166	0x3e9d019b	0.30665287
167	0x3e65328c	0.22382563
168	0x3d4b1195	0.049577314
169	0x3e16f847	0.14743148
170	0x3cbc8bc6	0.023015868
171	0x3df9a5ec	0.1218985
172	0x3d8be1a3	0.06830146
173	0x3e6df781	0.23238946
174	0x3e447406	0.19184884
175	0x3d99ca95	0.075093426
176	0x3d414a03	0.047189724
177	0xbcde7d0d	-0.027159238
178	0x3e8306e1	0.25591186
179	0x3d809ddc	0.06280109
180	0x3d55fc31	0.05224246
181	0x3db91dc2	0.09038879
182	0x3e3ee454	0.18641788
183	0x3b74d027	0.0037355514
184	0x3e2b6079	0.1673602
185	0xbd3706e7	-0.044684317
186	0x3d83c863	0.06434705
187	0x3d9a75c9	0.07541997
188	0x3d51b27e	0.051195614
189	0x3d473062	0.048630126
190	0x3dece63f	0.115673535
191	0x3d996480	0.07489872
192	0x3e4fd1c2	0.2029486
193	0x3db86885	0.090043105
194	0x3e1bcf31	0.15215756
195	0x3d6e49b3	0.058175754
196	0x3e9dd26f	0.3082461
197	0x3e91c39c	0.2846955
198	0x3d6b2571	0.057408754
199	0x3ef0f000	0.47058105

linear.weight f4 [1, 50]
0	0x3dc478d1	0.095933564
1	0xbe652682	-0.22377971
2	0xbe510117	-0.20410572
3	0xbdd1a7d5	-0.102370895
4	0x3e2d9df7	0.1695479
5	0x3e3e0942	0.18558219
6	0xbe7efb01	-0.24900438
7	0x3e802222	0.2502604
8	0xbe2cf027	-0.16888486
9	0x3e32e472	0.17469957
10	0x3e496cba	0.19670382
11	0x3de1b6a6	0.110211655
12	0x3e01e20f	0.12683891
13	0xbdacc9f2	-0.084369555
14	0x3dd22473	0.102608584
15	0xbe18222d	-0.14856787
16	0x3e1a6a49	0.15079607
17	0xbe4eb7da	-0.20187321
18	0x3be48451	0.006973781
19	0x3d84df0c	0.06487855
20	0xbddf1a96	-0.10893743
21	0xbde2cea9	-0.110745735
22	0x3e328a25	0.1743551
23	0x3e5e1eca	0.21691433
24	0xbde21259	-0.11038656
25	0xbe50f439	-0.20405664
26	0x3e4dd55f	0.20100926
27	0xbe4f6b30	-0.20255733
28	0xbe70cf9d	-0.23516698
29	0xbdae4758	-0.085097015
30	0xbddc9f2f	-0.10772549
31	0xbc179542	-0.009251894
32	0x3e108fd9	0.14117374
33	0x3d30e68f	0.043188628
34	0xbdb04f13	-0.08608832
35	0xbb455ed0	-0.0030116327
36	0xbd9ce236	-0.07660334
37	0x3d8d16d1	0.068891175
38	0x3da08a43	0.07838871
39	0x3e37cdfa	0.17949668
40	0xbe0bc813	-0.13650541
41	0x3e78e9a7	0.24307881
42	0xbe7c9e48	-0.24669755
43	0x3e1484a6	0.14503726
44	0x3e5fb55b	0.21846525
45	0x3e1e724a	0.15473285
46	0xbe9c93b4	-0.3058144
47	0x3e59070e	0.21194097
48	0xbd4f6e3a	-0.05064223
49	0x3e2f5c89	0.17125143
