lstm_BigData/trial9/jt3_pos/lstm_model_epoch140.pth (torch, 50829 bytes, 5 tensors)

lstm.weight_ih_l0 f4 [200, 8]
000000 f8 45 e3 3e ff 9e 2b 3c 3a 69 c5 bd af bd 5d be
       0.4438932 0.010474919 -0.09639211 -0.2165439
000010 4e 62 39 3a 95 03 45 3e c9 81 eb 3d 4d 44 ce be
       0.00070718385 0.19239648 0.11499364 -0.40286484
000020 0e cd 16 3f b0 c0 4c be b3 70 5b 3e 84 6d f5 bd
       0.5890664 -0.1999538 0.2142971 -0.11983779
000030 ce de a8 3c c7 77 ff 3b 88 d9 47 bd 26 b4 c5 3c
       0.020614054 0.007796261 -0.04879144 0.024133753
000040 b6 56 2b 3d c2 e3 a3 bd 1c db ae be 4d 2a 15 bd
       0.04183074 -0.08002426 -0.34151542 -0.036417294
000050 4b 43 3f bc 55 86 fd 3c be 2c ad bc cc 5d 60 bd
       -0.011673759 0.030947844 -0.021139499 -0.05477695
000060 2f 97 23 3f df fd ab bd a3 ed cd be ab 11 55 be
       0.6390256 -0.083980314 -0.40220365 -0.20807521
000070 40 7c 70 be 36 e9 80 3e 49 4c d3 be 3a 0a 01 bd
       -0.23484898 0.25177926 -0.41269138 -0.031503893
000080 32 c9 19 3e 7f 91 13 bf 6d d9 79 3e c2 5a 93 be
       0.15018156 -0.57643884 0.24399348 -0.2878018
000090 50 c4 89 3e b2 d5 d3 bd 83 3b 59 bd a3 77 8b 3e
       0.26907587 -0.103434935 -0.05303527 0.27239713
0000a0 58 15 45 3d b3 b0 f6 bd 95 d5 89 3e be 1f 80 be
       0.048116058 -0.120454215 0.26920763 -0.25024217
0000b0 02 da 59 be 55 1b 06 3d c9 ba 21 3e 5d 0c 20 bd
       -0.2127457 0.03274091 0.15793909 -0.03907429
0000c0 54 99 63 3e fb 29 7c bd 24 fa 7b be c6 a3 aa bd
       0.22226459 -0.061563473 -0.2460714 -0.083320186
0000d0 1a 2a 41 3e 56 05 d2 be 3f 68 4f bd 27 67 12 be
       0.18863717 -0.41019696 -0.050636526 -0.14297162
0000e0 df 2e 11 3f ce 1a d8 bd ab e3 95 3e 7d 51 85 bd
       0.56712145 -0.105519876 0.2927526 -0.06509683
0000f0 f7 96 86 bd 7c 98 bb bd c6 01 e9 bd f9 c1 b4 3d
       -0.06571763 -0.091599435 -0.113772914 0.0882606
000100 64 a3 a7 3f e7 99 26 bf 35 17 a5 3e 96 eb c5 3e
       1.3096738 -0.65078586 0.32244268 0.386563
000110 2f 1e 87 3d 25 dd 82 be 2a 27 f6 bd 2e bb 41 be
       0.06597554 -0.25559345 -0.12019189 -0.1891906
000120 fc d0 c3 bd 86 a2 e2 be 16 9f 78 3e ba ab a4 bd
       -0.09561345 -0.4426462 0.24279436 -0.08040567
000130 15 35 a2 3e a5 ba bc bd c4 06 0d be 58 d3 f4 3d
       0.31681123 -0.09215287 -0.13772112 0.11954373
000140 58 e2 91 3d 9b 01 09 3d 2f 40 a1 bd 17 4c 11 be
       0.0712325 0.033448797 -0.0787357 -0.14189182
000150 ce d4 69 be 00 43 ed 3d b2 50 7d be 44 9e f9 bb
       -0.22835085 0.11585045 -0.24737814 -0.0076177437
000160 e0 73 70 3e f3 d7 10 be 2c 85 54 3e 86 65 21 bb
       0.23481703 -0.14144878 0.20753926 -0.0024627163
000170 2e 06 6f bd 60 b8 af 3d c7 96 72 be 99 50 71 3d
       -0.058355503 0.085800886 -0.2369033 0.058914755
000180 71 a7 bb 3e a3 e1 30 bd a1 0a 94 be 58 34 50 3e
       0.36651185 -0.043183934 -0.2891436 0.20332468
000190 6f 9f ca 3d 58 7b 93 bd 1d ce 8c bd 65 a2 4b be
       0.09893691 -0.0720126 -0.068752505 -0.19886167
0001a0 73 97 76 3e 6d 39 21 be cb a7 48 bd 7c 7a 8c 3d
       0.24081211 -0.15744562 -0.048988145 0.068592995
0001b0 06 b0 56 3d b7 46 f0 3c a0 19 f4 bc 11 65 7a bd
       0.052413963 0.029330594 -0.029797375 -0.06113154
0001c0 90 9e 9f 3e 9c b9 40 be dd eb 59 3f 25 ee 68 be
       0.3117566 -0.18820804 0.85125524 -0.22747095
0001d0 c2 9d c9 3d 0b d3 62 bc ce e5 1e 3f 20 dc 63 be
       0.09844543 -0.013844262 0.62069404 -0.2225194
0001e0 3c 2c 89 3e 1c 48 1b bd 3d 59 8d 3e 3b d2 02 3d
       0.2679156 -0.037910566 0.27607146 0.031938773
0001f0 90 20 2e 3e e4 d2 f9 3d 2a 6a 2f bd 3c b8 bd bd
       0.17004609 0.12198427 -0.042825855 -0.092636555
000200 9b 08 61 bd c0 aa 24 bf f0 af 5e bd 56 42 73 be
       -0.054939847 -0.64323044 -0.054367006 -0.23755774
000210 30 a0 52 3b f8 35 b8 bd 33 45 c4 bd 3d 85 10 3e
       0.0032138936 -0.08994669 -0.09583511 0.14113326
000220 62 90 75 be 40 8a 5a bc 19 0d 1f be 8c 4f aa 3d
       -0.23980859 -0.013338625 -0.1553234 0.083159536
000230 4e a0 2b 3d 84 4b d3 3d 01 d8 0a 3e 57 2f b2 bd
       0.041900925 0.10317138 0.13558961 -0.087004356
000240 e1 67 20 bd f9 5c 20 bd 9a 24 a7 3d d3 42 df bd
       -0.039161567 -0.039151166 0.08161278 -0.109014176
000250 41 3e 5a 3d 8d e4 62 3e 78 28 21 3e 69 41 69 3b
       0.053282026 0.22157498 0.15738094 0.0035591966
000260 01 48 50 be 58 f5 89 be 93 0e 11 be da 7f c1 be
       -0.20339967 -0.26944995 -0.14165716 -0.37792856
000270 03 68 2c 3e b8 64 92 bd 26 ca 35 3e 3e d7 0a 3e
       0.16836552 -0.07148117 0.17752895 0.13558671
000280 89 c9 8a 3d 32 ed cb be 8c 24 6f 3f 34 0a 6b be
       0.06776721 -0.39829403 0.9341514 -0.22953111
000290 bd 27 29 3e 55 85 b5 3d a4 0a a3 3e 0c 4f bb bd
       0.16519065 0.08863322 0.31844056 -0.09145936
0002a0 e2 65 6f 3e 04 59 c9 bc c0 cb 10 be 1b 78 62 bd
       0.23378709 -0.024578579 -0.14140224 -0.055290323
0002b0 e7 41 43 3e 54 c0 d2 bd 62 6b 9e 3c 92 4c 6e 3d
       0.19068108 -0.1029059 0.019338313 0.058178492
0002c0 12 da 1f 3d 19 7c 62 3d be 2f c6 3d 43 ef 00 be
       0.039026327 0.05529413 0.09677075 -0.12591271
0002d0 84 f9 9a be e6 54 16 bd cd 0b b3 3c 43 26 59 3d
       -0.3026849 -0.03670206 0.021856213 0.053015005
0002e0 1b 76 1e 3e be f9 0f be 7c 79 29 bc 31 b4 28 bc
       0.15474741 -0.14060113 -0.010343906 -0.010296867
0002f0 bb ab ec 3d 14 a8 de bb c2 0a 64 bd fa 33 b1 3d
       0.115561925 -0.006794939 -0.055674322 0.08652492
000300 e2 af a9 be 33 1e f8 ba 2c 7a 12 3e 59 98 c4 bd
       -0.33142 -0.0018929899 0.14304417 -0.095993705
000310 71 3e 24 3e 47 1c 4e 3d dc 88 16 3e 0c a0 16 bd
       0.16039445 0.050319936 0.14700645 -0.036773726
000320 5e e1 8f 3e eb ea 5b bd 23 ed 1c be 05 3a 56 3c
       0.2810163 -0.053690832 -0.15324835 0.013075356
000330 31 3a 21 3d a3 a9 5c 3c 29 d2 00 be fb 4e 54 bd
       0.039362136 0.013468179 -0.1258017 -0.051833134
000340 56 22 e7 3d da ab c7 bd 5d 5e 75 3e 5e ae c8 be
       0.11285846 -0.09749575 0.23961778 -0.39195532
000350 df fe 2f be 69 30 b6 3d 9f 06 ec be 58 9a a5 3e
       -0.1718707 0.08895952 -0.46098801 0.32344317
000360 b6 f7 a3 3d 66 c2 51 bd e3 cf f4 3d 0d aa 17 be
       0.080062315 -0.051210783 0.11953714 -0.14810963
000370 ba 15 fc bd 72 76 56 3e e9 26 f5 bb f5 de 05 39
       -0.123088315 0.20943621 -0.007481445 0.00012766926
000380 d1 79 1c 3d 45 87 18 3d a5 5e 8a bd d0 95 52 bd
       0.03820211 0.037238378 -0.06756333 -0.051412404
000390 5f e1 b2 ba 68 97 06 be a8 05 b6 bc 90 07 30 be
       -0.0013647488 -0.13143694 -0.022219494 -0.17190385
0003a0 38 03 22 bd 46 21 65 be 08 97 26 bc d9 5d 0b 3e
       -0.03955385 -0.22375974 -0.010167845 0.13610019
0003b0 0c bf 6b 3e e7 03 82 3e 67 08 cd 3e 47 0c 92 bc
       0.23022097 0.25393602 0.40045473 -0.01782812
0003c0 9f 5e 72 be 5c 12 47 be 8c 4e ce 3e b3 66 46 3d
       -0.23668908 -0.19440597 0.40294302 0.048437785
0003d0 32 1f 83 be 55 51 2f be 8b e6 e4 3d 3d 67 03 3f
       -0.25609738 -0.1712087 0.11176785 0.51329404
0003e0 ee 35 21 3e 8c 3f 4d 3d e0 f0 a0 bd 62 b6 99 3d
       0.15743229 0.05010943 -0.07858443 0.0750549
0003f0 75 2d 83 bc 01 c7 c7 bd d1 37 dc bc 7c 7d 24 3e
       -0.016012887 -0.09754754 -0.026882084 0.16063493

lstm.weight_hh_l0 f4 [200, 50]
000000 e7 9b 0b be eb e5 2f bb 7c 7f 21 3e 1d e4 f9 3d
       -0.13633691 -0.0026839923 0.15771288 0.12201712
000010 97 4f 92 3d bb b9 d3 3d a0 24 f4 3d ec 9c 9b 3c
       0.07144087 0.1033816 0.11921048 0.018995725
000020 65 ed 2a 3e 75 35 95 3e ba d4 83 3e be 67 2b be
       0.16692121 0.29142347 0.25748235 -0.16738793
000030 cb 19 14 bc c6 56 0c be be c2 ca 3d 05 fa ad 3d
       -0.009039353 -0.13704976 0.099004254 0.08494953
000040 b6 f5 b7 bd fd 0d 55 3e af 18 d2 3d aa 60 2c 3e
       -0.089824125 0.20806117 0.10258614 0.1683375
000050 34 e0 c7 bd 5c b5 cd 3d c5 40 1c 3e 8d 5e c1 be
       -0.0975956 0.10044357 0.15259083 -0.3776745
000060 f8 84 9a be 2c 40 82 be 2b bb d0 3d 0b 08 82 3e
       -0.30179572 -0.25439584 0.101919495 0.2539676
000070 46 5f d3 3d 90 80 97 be 80 89 6f 3c 28 21 cf 3c
       0.10320906 -0.29590273 0.014620185 0.025284365
000080 83 68 a2 bd ac 9c a3 3d c3 bf bf 3e a2 7e df 3d
       -0.0793009 0.07988867 0.3745099 0.10912825
000090 2a 01 b7 bd e5 a0 78 3b b7 5c 08 be d8 e7 9b be
       -0.08935769 0.0037937697 -0.13316618 -0.3045032
0000a0 f8 4e f1 3c e1 b5 10 3d 48 9e 8a 3e df 02 14 be
       0.0294566 0.035329703 0.27073884 -0.1445422
0000b0 9b b8 0a 3e c2 b7 aa be e1 65 53 3d ce fc 16 be
       0.13546984 -0.3334332 0.05161083 -0.14744875
0000c0 f8 48 2e bd 08 3b 0f bd 75 79 ee bd 86 2d 9b 3d
       -0.042550057 -0.034968406 -0.1164426 0.07577042
0000d0 44 35 cd 3d 61 d6 ca 3d 37 1f 53 3d 34 53 8c ba
       0.10019925 0.09904171 0.05154344 -0.0010705949
0000e0 d8 20 26 be 85 76 a4 3d b0 bc 04 3e ba 79 3d be
       -0.16223466 0.08030418 0.12962604 -0.18503466
0000f0 01 22 4f 3d 9e c4 d0 3d a1 be 0a 3e 40 d5 f6 bd
       0.050569538 0.10193752 0.13549282 -0.12052393
000100 06 ca 0a bd 1e 11 78 bc 00 ee 6d 3e 3e 6b d8 3e
       -0.03388407 -0.0151408 0.23235321 0.4226932
000110 c0 9f f0 3d 9a 91 e0 bd e5 27 6f 3d 1e 72 53 3d
       0.1174922 -0.10965271 0.058387656 0.051622503
000120 70 c1 20 be 54 18 e1 3d b2 aa ec bd 87 65 0e 3e
       -0.1569879 0.10990968 -0.11555995 0.13905917
000130 ab d8 df bd 46 03 7d bd e0 94 77 be 50 59 de 3d
       -0.10929998 -0.0617707 -0.24177885 0.10856879
000140 b4 89 c0 bd 78 44 56 bd 14 41 82 3e 40 9d 64 bd
       -0.09401265 -0.05231139 0.25440276 -0.055814028
000150 7c 40 01 be d2 64 b6 3d 54 c7 cc bd 57 f3 29 be
       -0.12622255 0.08905949 -0.09998956 -0.16596733
000160 dc 39 90 3e 01 93 0b be 1d 81 10 3e fe df 2b 3e
       0.28169143 -0.13630296 0.14111753 0.16784665
000170 de 85 19 be e4 c4 d6 3d fa e1 c3 3d fe a7 8a bd
       -0.14992473 0.10486773 0.09564586 -0.06770323
000180 e9 a8 e4 bc 3d 02 73 3d c1 32 a5 3d 28 0d b8 3c
       -0.027912574 0.059328306 0.08066321 0.02246721
000190 cf b6 6a 3d 93 34 cc bd 7e ec 30 be 75 24 39 3d
       0.057303246 -0.09970965 -0.17277715 0.045200784
0001a0 18 12 e0 3d 7c f0 ae 3d d8 9e bc 3d ff 05 8f bd
       0.10940951 0.085419625 0.092099845 -0.069835655
0001b0 ed 3a 62 be 65 2e 3c bd 0c af 2a 3d ba e8 30 3d
       -0.22092791 -0.045942683 0.041670844 0.043190695
0001c0 9e 77 54 3e 52 c0 fb bd 2e d6 d5 3c 18 ed 7b 3d
       0.20748755 -0.122925416 0.026103105 0.061505407
0001d0 2f 99 9d 3c 38 f5 72 bc 15 71 4c bd 03 ca 23 3d
       0.019238083 -0.0148289725 -0.04991253 0.039987575
0001e0 27 b9 a0 3d 3a b8 7a bd dd 33 e7 3d a1 a6 8b bc
       0.07847815 -0.06121085 0.11289189 -0.017047228
0001f0 fd d4 2f be 6f c6 02 be f2 5a 56 be c7 b0 6c 3e
       -0.17171092 -0.12771009 -0.2093313 0.2311431
000200 25 ee ae bd 6c b2 38 3e 89 cb 49 3e 8a 19 b2 3d
       -0.08541516 0.18036813 0.19706549 0.086962774
000210 de 85 44 3d bf 7d 5a 3e eb 33 24 bd 85 0c 23 be
       0.04797923 0.21337031 -0.040088575 -0.15922745
000220 5d 10 46 3c 60 b8 23 3e c6 e4 30 be f4 a6 22 3d
       0.012088862 0.15988302 -0.1727477 0.03971
000230 e5 89 50 bd 2a b8 84 be 11 e2 36 3d 6c be 5f bc
       -0.050912756 -0.25921756 0.044649187 -0.01365624
000240 54 a6 3d 3e 1a 12 a2 bc b4 a4 a6 bd 42 f0 80 bc
       0.1852048 -0.019784022 -0.081368834 -0.015739564
000250 10 cf 9b bd b8 b1 03 3e e7 22 0f 3e 33 ed 51 3d
       -0.076078534 0.12860763 0.13978158 0.0512516
000260 ae de 55 bd 13 3e ce bc 2b b4 35 3e 40 bc 8e bd
       -0.052214317 -0.025176084 0.1774451 -0.069694996
000270 dd 63 ac 3d 0f 93 53 be ce 36 1c be c3 60 c1 bd
       0.08417485 -0.20661567 -0.15255281 -0.09442284
000280 53 4d 51 3e 9b 49 d6 3c 8f 06 33 be 96 13 06 3e
       0.20439653 0.026158145 -0.1748297 0.13093409
000290 9e 09 8d 3e a9 96 1d 3b 9c 00 18 bc 3f 13 5b be
       0.275464 0.00240461 -0.009277489 -0.2139406
0002a0 f0 95 0f be 70 61 74 bc 77 72 0a 3e 64 d3 94 3d
       -0.1402204 -0.014915809 0.13520227 0.07266882
0002b0 6b 8a ee 3e c9 e7 db bd 0c f3 46 3e 1d 8f b0 bc
       0.4658998 -0.10737569 0.19428653 -0.021552617
0002c0 29 3d 03 be d5 1f c3 3d df 7a f3 bb c0 cb 0d be
       -0.128163 0.09527556 -0.007430419 -0.13847256
0002d0 5e 5e 7c 3e a9 d3 f1 3d b2 44 10 be 75 91 74 3c
       0.24645373 0.11807949 -0.14088705 0.014927258
0002e0 3c 1e 66 be 3d eb 4f 3e b2 6c 2c be f1 53 49 3d
       -0.22472471 0.2030458 -0.16838339 0.04915232
0002f0 e9 e3 61 bd 50 f4 1a be 94 86 60 3d ef 91 21 be
       -0.055148993 -0.1513226 0.054815844 -0.15778325
000300 f7 b5 af 3e 08 0a f5 3c 27 42 18 3e 23 02 95 bd
       0.34318516 0.02991201 0.14868985 -0.07275798
000310 86 04 68 be c8 f8 3b 3d 20 96 3f 3b a4 00 af be
       -0.22657976 0.045891553 0.0029233769 -0.34180176
000320 cb 14 9d 3e d0 e7 66 3d 81 a0 71 bd 07 d4 60 bc
       0.30679926 0.056373417 -0.05899096 -0.013722426
000330 af 4e fd bd e4 5e 09 3b fc e7 90 bb 5d 09 ea 3d
       -0.12368523 0.00209611 -0.004422186 0.11427567
000340 a0 51 17 be e9 94 b9 3d 4f f9 0b be 7c c3 25 3e
       -0.14777231 0.090616055 -0.13669322 0.16187853
000350 1c 63 1f be df 06 3c bd ff ff a5 be 76 10 03 3f
       -0.15565151 -0.04590499 -0.32421872 0.5119699
000360 29 cd 38 3e fe 7f 73 bd 34 fb 3e 3e f2 4b 4c 3d
       0.18047012 -0.059448235 0.18650514 0.049877115
000370 e6 17 39 3d 8e ce 04 3e c6 65 6d 3e 8f 4d dc 3d
       0.045188807 0.1296942 0.23183355 0.10756981
000380 5e 0d 29 bd 1f af 13 be d0 4a bf bd 7a c4 a6 bd
       -0.041272514 -0.14422272 -0.09340441 -0.08142944
000390 16 98 06 3e 7d 2a 2e 3d c4 4b 96 bd 9d 39 61 be
       0.13143954 0.04252099 -0.0733867 -0.21994634
0003a0 f8 85 02 bd 31 05 69 3e 81 08 8a 3d db 2e a7 be
       -0.031866044 0.22755887 0.06739903 -0.32652935
0003b0 22 c9 9e bd d0 81 4e 3d 9e e9 84 3d 11 88 60 bc
       -0.07753207 0.050416768 0.064898714 -0.013704316
0003c0 1d b8 9f be 9e a8 bb bd be 78 15 be 4e 5a 1f 3e
       -0.31195155 -0.091630206 -0.1459684 0.15561792
0003d0 14 cf b0 be fc 55 2f 3e 67 bd 6a 3d 9d d5 05 be
       -0.34532988 0.17122644 0.057309534 -0.13069768
0003e0 25 91 6c 3e ee cd b9 bb 77 b4 3e 3e 61 e2 a6 be
       0.23102243 -0.0056703007 0.1862353 -0.32594588
0003f0 f5 77 fd 3d e1 d1 7e bd dd 47 05 be a8 d0 38 3d
       0.123763956 -0.062211875 -0.13015695 0.045120865

lstm.bias_ih_l0 f4 [200]
000000 c7 bf e3 3e d0 f7 b6 3c 0e 37 c4 3d c8 35 99 3e
       0.44482252 0.022334963 0.09580813 0.29923844
000010 c2 5a db 3e e4 18 e9 3d 0d 8e a3 3e d7 f6 45 3e
       0.4284268 0.11381701 0.31944314 0.19332443
000020 9f 04 bf 3e 38 44 86 3e 8d 22 bb 3e 9e e0 ec 3d
       0.37308213 0.26223922 0.36549798 0.1156628
000030 c9 98 32 3e 5a 1d c3 3d 85 f3 03 3d 22 6c 85 3e
       0.17441095 0.09527083 0.03221466 0.2605906
000040 8c 36 8f 3e f0 e1 1d 3e c3 51 39 3e 01 f8 9a 3e
       0.27971303 0.1541822 0.18097596 0.30267337
000050 93 c1 9c 3e 4c b1 2c 3e c0 35 0b 3e 7d 4d 55 3d
       0.30616435 0.16864508 0.13594723 0.05207585
000060 43 9e 34 3e 39 5c 8d 3d 1a 14 c5 3d d5 0b 05 3e
       0.17638497 0.06902356 0.09622975 0.12992795
000070 ef 76 6a 3e 6f b0 5b 3e 43 70 0b 3f 8a 1e 80 3d
       0.22896932 0.21454023 0.5446817 0.06255825
000080 ca e9 1a 3e cb 62 26 3d d4 52 ab 3e 3a 34 c9 3d
       0.15128246 0.04062156 0.3346163 0.098244146
000090 33 1d 71 3e 77 39 39 3e 4a 1f 33 3e 00 06 12 3e
       0.23546295 0.18088327 0.17492405 0.14260101
0000a0 1e 6e c5 3e f5 54 7e 3e 4f 46 2c 3e 1f 28 d4 3d
       0.38560575 0.24837096 0.16823696 0.10359215
0000b0 cf de a3 3e c1 f5 d4 3e 12 54 7f 3d 20 e8 87 3d
       0.32005927 0.41593745 0.062336035 0.06636071
0000c0 85 9f 79 3e f3 7f a0 3e 36 82 13 3e 54 a3 4a bd
       0.24377258 0.31347618 0.1440514 -0.049472168
0000d0 30 79 81 bc 0c 71 a9 3b 15 67 ac bd a1 30 24 bc
       -0.015804857 0.005170947 -0.08418099 -0.01002136
0000e0 6a 29 25 bd c1 f8 36 3e 0b 56 9c 3c 67 5e f8 3d
       -0.0403227 0.1786833 0.019083997 0.12127381
0000f0 b7 19 15 3c da 7c a2 3d 7e 82 34 bb cd 01 1e 3e
       0.009100369 0.0793397 -0.00275436 0.15430374
000100 db 22 22 3d 8b 1b 4a 3e 01 77 20 be 3f 8b 86 bd
       0.039584022 0.1973707 -0.15670396 -0.06569528
000110 25 2f 22 3e 83 ca 5e 3e eb 1d a6 bd 04 16 c7 bc
       0.15838297 0.2175694 -0.08111175 -0.02430249
000120 7a 0c a9 3a 16 f2 34 3e 43 95 15 3e cb e9 72 3e
       0.0012897395 0.17670473 0.1460772 0.23721997
000130 a6 a8 19 3d 47 1f 09 3e b0 88 03 bd eb 6f 99 3d
       0.03751435 0.13390838 -0.032112777 0.0749205
000140 52 53 9f 3d 38 43 21 bd c2 a4 40 3e fa af 2f 3c
       0.07779564 -0.039370745 0.1881285 0.010723108
000150 ad d3 1d 3e fe 61 9e bd 38 47 df 3d 0f 73 82 bd
       0.15412779 -0.07733534 0.10902256 -0.06369602
000160 9c ad df 3d cb e3 c4 3d 50 39 c6 3d 70 2f 3e bd
       0.10921785 0.096137606 0.096789 -0.04643196
000170 d4 4e 50 3e 6b bb 03 3e aa 44 50 3d c4 aa a0 3d
       0.2034257 0.12864463 0.050846733 0.07845071
000180 5a a2 f0 bb 81 14 08 3e b9 00 f1 3d ed 65 96 3a
       -0.0073435726 0.13289072 0.11767716 0.0011474468
000190 7b a9 31 3d d7 9f 6a bc 74 aa 88 bd 13 c6 3f bd
       0.04337452 -0.014320335 -0.06673136 -0.046819758
0001a0 51 cc 4f bd bf b3 a4 3d 1f 7d 45 bd a9 d1 25 bc
       -0.05073196 0.08042096 -0.048215028 -0.010120788
0001b0 29 89 4d bd 67 4f dc 3d ac 8e ab 3d 0a 1c c8 bc
       -0.050179634 0.10757332 0.08376822 -0.024427433
0001c0 95 74 d9 3d c6 56 db 3c 2a f8 1e be a9 24 0b 3e
       0.106179394 0.026774775 -0.15524355 0.13588203
0001d0 bf 7e dc 3d 37 b2 0e 3e 3c c6 65 3d bf f2 8d bd
       0.107663624 0.13935171 0.056097254 -0.06931066
0001e0 e3 fe 74 3d 5b 9a d8 3c 88 68 d6 3d 8d 8a 29 3c
       0.05981339 0.02644079 0.104691565 0.0103479745
0001f0 62 6d 16 bd 6d e1 f5 bd 7e 31 6a bd ed 36 b3 bb
       -0.03672541 -0.12005887 -0.057176106 -0.005469194
000200 c6 af fd bb 5e ea 2c bc 03 eb 02 bd 36 86 1e bd
       -0.007741901 -0.010553924 -0.031962406 -0.038702212
000210 e2 ff 93 bd 10 ce f4 3d b7 f1 92 bc 38 12 b1 bd
       -0.0722654 0.11953366 -0.017937524 -0.08646053
000220 85 f7 dc bd 10 27 ea bd 03 72 0e 3e d1 9a 9d bd
       -0.10789398 -0.11433232 0.1391068 -0.076955445
000230 a3 38 11 be 57 be 20 be c2 1e b7 3d 4a 7d d9 bd
       -0.14181761 -0.15697609 0.089414135 -0.106196
000240 81 21 09 be 46 99 1e be 27 fc 91 bc 5e b5 37 be
       -0.13391687 -0.15488157 -0.01782043 -0.1794028
000250 90 8b f0 3d 81 4e 87 bd 5a 0b ac 3e 08 f6 1e 3d
       0.117453694 -0.0660677 0.3360241 0.038808852
000260 1d 75 75 3c 2a 84 95 3e de 5b d3 3e 0e 93 e6 3d
       0.014981535 0.29202396 0.41281027 0.11258517
000270 e5 2c c2 3e 65 1a 87 3e bf f2 cc 3e 9f b0 ef 3c
       0.37924877 0.26387325 0.4002895 0.029259024
000280 25 30 81 3e e9 17 66 3d 78 bd 49 3e 54 73 1f 3d
       0.25232044 0.056175146 0.19701183 0.038928345
000290 b5 a6 91 3e 5c 73 7d 3e d9 ec 00 3f f2 b9 29 3e
       0.284475 0.24751037 0.503614 0.16574839
0002a0 fd e9 1a 3e ee c3 89 3d 20 e7 7b 3e c1 e7 a8 3d
       0.15128322 0.06726824 0.24599886 0.082473285
0002b0 f5 19 88 3e 2f ee af 3d bb 38 83 3b 45 a5 91 3d
       0.26582304 0.08590352 0.0040045655 0.07111601
0002c0 f8 b2 de 3d 33 33 c4 3d fc 0b 30 3d b1 f3 95 3e
       0.10873979 0.09580078 0.04298018 0.29287484
0002d0 56 8a 0c 3f 00 96 39 3e 5f 12 5e bc 46 5d a8 3e
       0.54898584 0.18123627 -0.013554185 0.32883662
0002e0 42 43 7c 3d e5 8f 71 3d fb c8 b1 3d 16 72 34 3e
       0.06158758 0.05897512 0.08680912 0.17621645
0002f0 d1 10 8f 3e 1a d7 24 3e ca 60 26 3e f5 4c be 3e
       0.27942517 0.1609768 0.1624786 0.3716809
000300 2b 71 66 3e ab 2f 09 3e 26 08 a9 3e cd 06 21 3f
       0.22504108 0.1339709 0.3301403 0.62901
000310 09 e9 bd 3d 38 c2 5f 3e 8b 95 91 3e a3 2a 44 3e
       0.092729636 0.21851432 0.28434405 0.1915689

lstm.bias_hh_l0 f4 [200]
000000 70 08 eb 3e 7c 78 6a 3e de a1 00 3e a2 4f b7 3e
       0.45904875 0.22897524 0.12561747 0.35802943
000010 b0 58 0d 3f 6f 4e 86 3e e3 33 d7 3e 61 0f 43 3e
       0.5521345 0.26231715 0.42031774 0.19048835
000020 06 96 a6 3e 72 22 b5 3d 9f 6c 21 3e 58 29 55 3e
       0.32536334 0.088444605 0.15764092 0.20816553
000030 97 4d 14 3e f5 8c 05 3e 3b 9d 89 3e 5d 31 98 3e
       0.14482723 0.13042052 0.2687777 0.2972516
000040 68 11 b3 3e 5b 8a 63 3e 59 cd 44 3e 68 44 92 3e
       0.34974217 0.22220747 0.19218959 0.28567815
000050 c6 05 c0 3e d0 e4 43 3e de 8c 23 3e a1 3b 90 3d
       0.37504405 0.19130254 0.15971705 0.07042623
000060 92 20 8c 3e 2c f7 76 3e 91 63 9d 3e c9 54 2d 3e
       0.273686 0.24117726 0.30740026 0.16926874
000070 54 e0 6d 3e 02 7d 80 3e 5b ed 0b 3f 80 04 38 3e
       0.23230106 0.25095373 0.5465905 0.17970467
000080 c2 f8 0a 3e e3 d9 ef bb 12 ee 94 3e be be 92 3e
       0.13571456 -0.0073196753 0.29087883 0.2866115
000090 df 65 9c 3e ee af 63 3e c4 04 15 3e 49 f0 08 3e
       0.3054647 0.2223508 0.14552599 0.13372912
0000a0 a9 9b 21 3e d4 a1 b5 3e 04 e7 83 3d b6 5f 50 3e
       0.15782036 0.35475028 0.06440547 0.20349011
0000b0 e3 a6 be 3e e9 6b 0b 3f 4f a2 42 3c 8e d7 19 3e
       0.372367 0.5446153 0.011879518 0.15023634
0000c0 52 94 c3 3d 2d 22 30 3e 45 80 b7 bc fd e4 1b 3b
       0.09549774 0.17200537 -0.02240003 0.002378761
0000d0 3d e7 8f 3d 7b 04 84 bd c8 7a 14 3e b7 43 ba 3c
       0.07026527 -0.06446167 0.14499962 0.022737367
0000e0 13 55 87 3d 51 e4 aa 3d 95 20 d9 3d 69 78 84 3d
       0.066080235 0.08344329 0.10601918 0.06468279
0000f0 5f d4 0b 3e 1e fe 8a 3d b1 9b 1b bd c3 dc a0 3d
       0.13655232 0.0678675 -0.037990276 0.07854607
000100 48 72 2e bd 09 1b 60 3e 95 81 32 be 59 6b d6 3d
       -0.042589456 0.21885313 -0.17432244 0.10469694
000110 2a 69 74 3d 93 7b 50 3e 15 40 3e 3d 55 53 40 3e
       0.059670605 0.2035964 0.046447832 0.18781789
000120 54 cc eb 3d 0b 2e d7 3c 44 5e 0d 3e 32 d5 b2 3d
       0.11513582 0.026267072 0.1380549 0.0873207
000130 29 cf 0f 3e 72 b6 7b 3d 22 2e 18 bc 86 25 2b bd
       0.14043869 0.06145329 -0.009288343 -0.041783832
000140 0a 34 33 bd 4c fb ae 3c a3 65 82 bd 01 67 21 3d
       -0.0437508 0.021360062 -0.06367042 0.039404873
000150 7a c2 ce 3d 2c 72 62 3c 8f 6e 13 3e 80 6e 09 3e
       0.10095687 0.013821166 0.14397644 0.13421059
000160 84 ea 11 bd 97 1a 8f 3d 75 71 6a 3e b4 3b d5 bc
       -0.035624042 0.069874935 0.22894843 -0.026029445
000170 ee 67 8f bb 16 46 27 3e 3f d3 f8 3d 03 35 cb 3d
       -0.004376403 0.1633533 0.12149667 0.099222206
000180 f6 54 7e bd ef 13 e1 3d fe a7 81 3d 8c 51 1b 3e
       -0.062092744 0.1099013 0.0633087 0.15167826
000190 ce a2 c6 3d 8a ae 07 be 54 69 11 bd ec 71 67 3c
       0.09699021 -0.13250175 -0.03550084 0.014126282
0001a0 5a 18 95 bd 48 07 cb 3d 97 1f f0 3c ee d9 a0 3d
       -0.07280035 0.09913498 0.029311938 0.07854067
0001b0 ad 5e b3 bc da 7a 85 3d 20 1a f2 3d 0d 52 a1 3d
       -0.02189573 0.06517573 0.11821389 0.07876978
0001c0 7d f0 e2 bc 30 98 c1 bd c6 36 a3 bc 1d 60 85 bd
       -0.027702564 -0.094528556 -0.019923579 -0.06512473
0001d0 da 7a eb 3d b6 af ed 3d ac f2 93 bd 74 b3 b1 3d
       0.114980415 0.1160578 -0.0722402 0.08676806
0001e0 71 c0 3f 3d b6 02 08 3e 65 4e 77 bc 9d d2 fc bd
       0.046814386 0.13282284 -0.015094374 -0.12344859
0001f0 60 5b d5 bd 9c a6 d8 bc 70 13 e8 bd 18 e7 bf 3d
       -0.10417819 -0.026446633 -0.113318324 0.093702495
000200 98 5b 9a 3d 49 d0 0b 3d 8c e2 a4 bd 49 0a 87 bd
       0.07537001 0.034134183 -0.08051023 -0.065937586
000210 40 6c 75 3d 5e ee a9 3d 75 11 ef 3c 10 d8 a4 bd
       0.05991769 0.08297418 0.029183129 -0.08049023
000220 87 b2 e0 3d a7 c6 cb 3b 59 03 85 bd 20 a4 c6 bc
       0.109715514 0.0062187496 -0.06494779 -0.024248183
000230 e3 41 06 be fb 3e 19 be e3 97 0d 3e cc 47 f0 3d
       -0.13111071 -0.14965431 0.13827471 0.11732444
000240 7f 92 e1 bd 29 8b 20 be 29 2d 1b be cf 50 ae 3c
       -0.1101427 -0.15678085 -0.15153946 0.021278767
000250 0e ac 94 3d 94 a1 95 3d 64 88 05 3f df fe 2c 3d
       0.07259379 0.07306209 0.5216124 0.04223525
000260 82 78 23 3e fd 23 c7 3e 07 e7 98 3e 5a d4 0f 3e
       0.15963939 0.38894644 0.2986376 0.1404585
000270 4c be 62 3e 93 72 96 3e 95 b1 0b 3f 7a 88 69 3e
       0.22142905 0.29384288 0.54567844 0.22805968
000280 87 32 1f 3e 0d 3a 33 3d 7d 8c 45 3e 19 03 ef 3d
       0.15546618 0.043756533 0.19291873 0.11670513
000290 2b 5a ee 3d f5 f3 89 3e 20 41 ad 3e 8c 9d 05 3c
       0.11638292 0.26943937 0.3383875 0.008155238
0002a0 26 fa 8e 3e 77 02 64 3c f4 b7 33 3e b6 83 3d 3e
       0.27925223 0.013916603 0.17550641 0.18507275
0002b0 fc af 8c 3e ab 5e dc 3d 9f c5 10 3e bd ab 21 3e
       0.27478015 0.10760244 0.14137886 0.15788169
0002c0 72 60 27 3d 5d 9e 35 3e 45 65 9e 3d c5 98 69 3e
       0.04086346 0.17736192 0.077341594 0.22812183
0002d0 1e c3 db 3e ad bd 6a 3e 83 ad 9c 3d 76 5a b2 3e
       0.429223 0.22923918 0.07650282 0.3483464
0002e0 38 07 4e 3d 42 28 dc 3d ae 87 a0 3c 34 8f 2f 3d
       0.050299853 0.10749866 0.019595947 0.04286118
0002f0 58 40 ad 3e ac 5e 58 3d 16 c0 a2 3e 00 75 2a 3e
       0.33838153 0.05282466 0.31787175 0.16646194
000300 29 65 be 3c 8c 08 2b 3d d4 5b 81 3e bb 94 ef 3e
       0.023241596 0.041756198 0.25265372 0.4679316
000310 22 4f 68 3e 5b 8d 88 3e bf ae 30 3e 0c 75 02 3e
       0.22686437 0.26670346 0.1725416 0.12739962

linear.weight f4 [1, 50]
000000 f6 1d 66 3c 55 5e b6 bd 0b 1f 86 bd a1 60 2e be
       0.014045229 -0.08904711 -0.0654889 -0.17029049
000010 14 cb 87 3e 44 9a 63 3d 39 9c af 3d df c7 5a 3e
       0.26522124 0.05556704 0.08574719 0.21365307
000020 9c 4b 5f be 49 d5 41 be eb a3 7e 3e f4 5c 31 3e
       -0.21806186 -0.18929018 0.24867217 0.17320615
000030 f2 f9 36 3e ac 9c 10 be 20 2b 38 be 5e ca 50 3c
       0.17868784 -0.14122266 -0.17985201 0.012743561
000040 52 f8 e1 bd 58 ce 19 3d e2 1a 7f be c8 e2 50 3e
       -0.110336915 0.0375503 -0.24912599 0.2039901
000050 1c e9 a0 be d3 4f 16 3d da 4a 81 bd 63 e1 0c be
       -0.31427848 0.03669722 -0.06313105 -0.13757853
000060 2a 51 65 3e c4 cb 8f 3d b6 81 47 be 12 0d 5e 3e
       0.22394243 0.07021287 -0.19483075 0.21684673
000070 70 ac 88 be 4f 4f 8e be 74 18 8f 3e 85 81 99 3d
       -0.2669406 -0.27794883 0.27948344 0.07495407
000080 c9 75 b9 3d 10 ca ad bd cf 16 88 be 65 c9 31 3c
       0.09055669 -0.08485806 -0.26579902 0.010851239
000090 51 79 8b be a0 4e 6a be 2d 01 5c be 5e bc f6 3b
       -0.27240995 -0.22881556 -0.21484824 0.0075297793
0000a0 5c 75 67 be 1f e8 48 3d 91 32 63 3e ed e0 7a be
       -0.22603363 0.049049493 0.22187258 -0.24499865
0000b0 56 57 6d 3e 9f 02 d3 bd ab b2 9f bd c5 75 52 3e
       0.23177847 -0.10303234 -0.0779775 0.20552738
0000c0 47 e5 0a 3e 33 aa b4 bd
       0.13564025 -0.088215254
