lstm_singleJoint/trial6/lstm_model_epoch70.pth (torch, 45657 bytes, 5 tensors)

lstm.weight_ih_l0 f4 [200, 1]
-0.1979203 1.4389724 0.23611952 -1.0666037 0.39932528 -0.13746443 -1.0921156 0.2807345
0.7708397 -1.599216 1.4387573 0.12806374 -0.57503724 -0.011710737 -0.23557332 -1.818751
-0.46057168 0.6259956 12.904877 1.0797638 1.503295 0.18382972 1.1339651 0.40599695
-0.1771149 0.10627353 0.32920697 0.035104647 0.5904243 0.99468076 1.8363966 -0.34824294
0.47236547 -0.1693843 -2.4270906 -0.59392583 0.65833026 -2.0643911 1.751616 -1.3332627
0.38863206 0.3377657 0.55219305 -0.59654623 0.026847865 0.44249156 -1.353482 0.7087086
-0.14637981 0.21775652 -0.18288255 -0.1717733 0.5869529 1.0269476 -1.7097803 -0.39408925
-0.2979305 0.4684515 -0.70377064 -2.271447 0.83016825 0.28541064 -0.23478888 0.4800412
-0.93327606 -1.3059509 0.35076866 0.5318754 -0.78229344 -0.46009624 -0.32470644 1.089631
0.049076915 -0.54079986 -0.8567862 0.027115198 0.23864026 -3.0167415 -0.09613855 -0.4863497
1.3856739 1.0180326 -0.0964117 0.6094584 -1.8815358 -2.1799133 0.123160444 -0.6537007
0.6093685 -0.81329864 -0.56903756 0.42385018 0.53563666 -0.53453994 0.35606954 0.79625124
-0.19320832 -1.1459312 -1.1613598 0.81672466 -4.7307143 0.8001416 -2.0045054 1.7935351
-0.18683492 0.8420944 2.1975317 -1.407343 1.1190641 0.49548766 0.78030473 2.308349
-2.2390785 0.5225474 -0.6508734 -2.3617268 -0.9372469 0.7909306 -5.3515296 0.766736
0.5842177 -0.604164 -0.90414655 1.7173038 -0.66519153 -0.5605979 1.1810883 4.6152472
-1.5604707 0.25863487 -1.7387453 -0.8914868 1.9764332 -0.80615026 -0.33157736 -0.27549183
0.7623783 -4.597813 1.5658014 -3.6442885 0.9128139 -0.50381064 -0.8338003 0.538839
1.238928 0.7057345 0.93226486 0.60283977 -0.96209717 0.18843281 -0.44837075 1.3239136
0.29988068 -1.0821106 -1.4466931 -0.24312934 -1.2238456 0.35451108 1.3392367 -2.7469578
1.7269377 0.062710404 -0.25203815 -0.12332107 -1.5037869 -1.0487175 0.32452163 0.7009165
-1.1796508 1.1449558 1.7747232 0.05265798 1.262451 0.49726397 -1.1571617 0.022228245
0.7806249 0.19853853 0.5418957 0.2817717 2.7946413 0.46240506 0.24252318 0.33487418
-2.9968073 -1.0166014 0.9908832 -1.5877417 2.0723119 -1.2171152 0.46061575 1.1258643
0.4947357 -0.36521095 0.65775967 0.36967108 -1.7019502 0.38393247 -0.2748895 0.246053
00000000: 9eab 4abe 3f30 b83f 51c9 713e 7886 88bf
00000010: 5d74 cc3e 7ac3 0cbe 72ca 8bbf 6fbc 8f3e
00000020: c055 453f 1cb3 ccbf 3329 b83f 2423 033e
00000030: a435 13bf 64de 3fbc 223a 71be d5cc e8bf
00000040: 0dd0 ebbe 3f41 203f 607a 4e41 b335 8a3f
00000050: f86b c03f dc3d 3c3e c525 913f d5de cf3e
00000060: 9c5d 35be f0a5 d93d d18d a83e e4c9 0f3d
00000070: 0c26 173f 66a3 7e3f 0b0f eb3f e64c b2be
00000080: e3d9 f13e 1473 2dbe 7455 1bc0 860b 18bf
00000090: 5588 283f fc1e 04c0 f434 e03f 5aa8 aabf
000000a0: c8fa c63e a0ef ac3e 865c 0d3f 41b7 18bf
000000b0: 0ef0 db3c 418e e23e e63e adbf ed6d 353f
000000c0: 97e4 15be 91fb 5e3e 9045 3bbe 57e5 2fbe
000000d0: 8c42 163f 0573 833f 15da dabf 11c6 c9be
000000e0: 598a 98be e0d8 ef3e 502a 34bf 635f 11c0
000000f0: e885 543f 5821 923e 7f6c 70be f6c7 f53e
00000100: 2eeb 6ebf 6629 a7bf f397 b33e fc28 083f
00000110: 6244 48bf bc91 ebbe ec3f a6be 0779 8b3f
00000120: e004 493d dc71 0abf 5756 5bbf b120 de3c
00000130: 1d5e 743e 4b12 41c0 4ae4 c4bd d402 f9be
00000140: c35d b13f e44e 823f 7f73 c5bd 7705 1c3f
00000150: 2ad6 f0bf b383 0bc0 8b3b fc3d ee58 27bf
00000160: 93ff 1b3f 5734 50bf 72ac 11bf e402 d93e
00000170: 7c1f 093f 9cd7 08bf bf4e b63e 1fd7 4b3f
00000180: 67d8 45be e0ad 92bf 70a7 94bf de14 513f
00000190: 0362 97c0 14d6 4c3f d149 00c0 8f92 e53f
000001a0: a751 3fbe 8093 573f 5ca4 0c40 d123 b4bf
000001b0: 7e3d 8f3f 8fb0 fd3e 0dc2 473f fdbb 1340
000001c0: 104d 0fc0 abc5 053f a49f 26bf 8826 17c0
000001d0: 6aef 6fbf 6e7a 4a3f bb3f abc0 cf48 443f
000001e0: 4b8f 153f 7eaa 1abf 2676 67bf 9cd0 db3f
000001f0: fe49 2abf 5883 0fbf e72d 973f 1bb0 9340
00000200: 81bd c7bf ca6b 843e 358f debf 7b38 64bf
00000210: c3fb fc3f dd5f 4ebf 82c4 a9be 440d 8dbe
00000220: 392b 433f 4921 93c0 2e6c c83f 063c 69c0
00000230: 2cae 693f bcf9 00bf f073 55bf 5af1 093f
00000240: 3195 9e3f 04ab 343f e9a8 6e3f b553 1a3f
00000250: 004c 76bf 88f4 403e da90 e5be 0076 a93f
00000260: f689 993e 9a82 8abf 3d2d b9bf e6f6 78be
00000270: f9a6 9cbf 7a82 b53e 1c6c ab3f 28ce 2fc0
00000280: 4b0c dd3f 506e 803d 250b 81be c28f fcbd
00000290: 177c c0bf 603c 86bf b327 a63e 446f 333f
000002a0: ccfe 96bf e98d 923f 212a e33f e5af 573d
000002b0: ff97 a13f 6299 fe3e e01d 94bf 0218 b63c
000002c0: 09d7 473f af4d 4b3e adb9 0a3f 6144 903e
000002d0: 67db 3240 5bc0 ec3e ff57 783e a174 ab3e
000002e0: b1cb 3fc0 ff1f 82bf 85aa 7d3f 1f3b cbbf
000002f0: c2a0 0440 6eca 9bbf d4d5 eb3e 521c 903f
00000300: ff4d fd3e eefc babe f062 283f 8745 bd3e
00000310: 81d9 d9bf cc92 c43e 51be 8cbe 51f5 7b3e

lstm.weight_hh_l0 f4 [200, 50]
0.061797455 0.5498598 -1.3356782 -0.7804205 0.85698754 2.4061682 -1.5194267 -0.37937066
0.9883308 1.5976101 -0.7000362 1.1406798 1.0559335 -0.9334102 -0.29341978 -0.117160186
-1.2526915 0.8222159 0.16003816 -0.38731626 -2.3633885 1.4467226 0.39460334 0.23607683
-0.67428523 1.0047327 0.71989506 -0.30176675 -0.36968955 1.5260371 -1.9850268 -1.2132083
0.10757744 0.42824212 -0.7072936 0.0197326 1.0042145 1.097538 2.062158 -0.19039032
0.36190343 0.043974575 1.1355532 -1.2298244 2.2721815 -0.05206566 -0.3449709 0.59896886
-0.6680706 -0.27508 -0.62772644 -0.003356864 0.8354439 -0.3215459 0.48442233 -0.7149415
0.2927335 -1.0688716 1.0653182 -1.0531507 1.5262846 0.095819086 0.7748096 0.7953874
0.04721574 -1.1385833 0.3293015 0.646227 -1.3110379 0.19348566 1.56167 -0.8977933
-1.6381347 0.0096864635 -0.3542923 -0.3370742 0.95799255 0.6125712 -0.19249414 -2.4527044
0.41596472 1.8016223 -0.23957017 -0.47506398 1.0911484 0.78482276 -0.22829776 -0.17727323
0.35245836 -0.80320466 1.4309644 -0.8373461 -1.0463638 -0.1938798 -0.50965446 -0.6414961
1.9602381 -0.2108265 0.8837027 0.39779863 0.37865284 -1.2692289 -0.3278891 0.2411262
0.13305034 0.17091428 -0.124199055 0.09024655 -0.6849523 1.3187509 -1.3474252 -0.9467659
-0.94465244 -0.011672494 -0.77870375 0.7447585 -2.7830923 -1.7323815 0.5663532 -1.1041615
-0.5800212 -0.038767237 0.46035844 -0.5368898 1.8329728 -1.0880734 0.56233686 -0.23310733
0.5292483 1.118993 0.23400754 -1.017201 -0.47139192 0.45982495 -0.40515924 -0.45382923
-0.54999524 0.7254983 0.5344656 0.76094836 0.520047 0.5119505 -1.1224277 -0.31770518
0.38106793 0.015979346 -0.32972288 -1.5165157 1.7287861 -2.6524317 1.0035856 -0.06596747
1.2728374 0.28987405 1.0326915 -1.2436036 -0.91187376 1.8783058 -0.33480003 0.77596456
0.23465408 0.4240567 -2.0648558 -0.5418096 2.4567099 2.482909 -1.415902 0.56013006
0.17861639 -0.6445944 0.3650179 0.020007076 0.95048326 1.437807 -2.4977152 1.4393594
-0.11695379 -1.8284638 -0.5903924 0.09869095 -1.5261873 -0.5704049 -1.0252509 0.7677436
0.22882144 -1.1712093 0.04404303 0.30069712 -0.23813283 -0.53899974 -0.17502756 -1.0423484
1.645192 -1.2067158 0.037863124 -0.2935001 0.4582544 -0.37664685 -0.23503625 0.3538843
-1.6634388 -0.90561837 0.102742665 0.42294943 0.72953033 -0.7845268 0.59772396 0.7779085
0.305791 -0.27692616 1.2098516 0.93757975 -0.58788216 1.0151224 0.05319188 0.15430506
-0.63351893 0.64446825 -2.3425996 -0.9400241 -0.4944989 -1.0025566 0.09534393 -1.5894511
-0.37602994 0.33729693 0.3026184 2.1660173 -0.46323934 -0.15186794 -0.8751547 1.0214899
-0.24609713 -0.4722767 0.97297454 1.3831425 0.40844256 0.052006 -0.21061529 -1.2195894
1.2960966 -0.32283488 1.1663458 -0.9856831 -1.8216684 -0.68562216 0.5071388 0.4620318
1.1893309 0.49710223 0.90431523 0.15302038 1.1442659 0.6093911 -0.15538853 -0.31431615
00000000: 541f 7d3d 9dc3 0c3f 81f7 aabf a3c9 47bf
00000010: 8963 5b3f a9fe 1940 937c c2bf df3c c2be
00000020: 3f03 7d3f 7d7e cc3f 9335 33bf cc01 923f
00000030: d428 873f f9f3 6ebf 1e3b 96be aef1 efbd
00000040: 3258 a0bf be7c 523f 0be1 233e 514e c6be
00000050: c241 17c0 352e b93f 7309 ca3e 20be 713e
00000060: f59d 2cbf 159b 803f 0b4b 383f 2c81 9abe
00000070: f347 bdbe 2f55 c33f 5c15 febf 694a 9bbf
00000080: 9051 dc3d 8d42 db3e 3211 35bf 43a6 a13c
00000090: 1a8a 803f 207c 8c3f 66fa 0340 aef5 42be
000000a0: 684b b93e af1e 343d cf59 913f e36a 9dbf
000000b0: 6c6b 1140 cd42 55bd 07a0 b0be 0656 193f
000000c0: ad06 2bbf 49d7 8cbe aeb2 20bf d5fe 5bbb
000000d0: a7df 553f aaa1 a4be 3406 f83e 6806 37bf
000000e0: 2ae1 953e c9d0 88bf 595c 883f a4cd 86bf
000000f0: 4b5d c33f cc3c c43d ec59 463f 829e 4b3f
00000100: 4b65 413d 19bd 91bf 359a a83e 226f 253f
00000110: 17d0 a7bf 1b21 463e cde4 c73f c8d5 65bf
00000120: 66ae d1bf f9b3 1e3c cd65 b5be fd94 acbe
00000130: 003f 753f 77d1 1c3f 2f1d 45be 1cf9 1cc0
00000140: 54f9 d43e 8f9b e63f e251 75be 963b f3be
00000150: c0aa 8b3f 25ea 483f e3c6 69be 1d87 35be
00000160: 6c75 b43e d29e 4dbf d729 b73f 505c 56bf
00000170: 40ef 85bf 6d88 46be b778 02bf 1739 24bf
00000180: 15e9 fa3f e7e2 57be 573a 623f 43ac cb3e
00000190: c9de c13e 1876 a2bf 15e1 a7be c9e9 763e
000001a0: 593e 083e 2704 2f3e 135c febd 2fd3 b83d
000001b0: 0959 2fbf d4cc a83f 6e78 acbf 405f 72bf
000001c0: bed4 71bf fd3d 3fbc 2159 47bf 7ea8 3e3f
000001d0: 2f1e 32c0 adbe ddbf 86fc 103f 2a55 8dbf
000001e0: 457c 14bf 65ca 1ebd 1ab4 eb3e 9c71 09bf
000001f0: da9e ea3f fd45 8bbf 4ff5 0f3f b0b3 6ebe
00000200: d17c 073f 2a3b 8f3f ac9f 6f3e a433 82bf
00000210: 485a f1be 2d6e eb3e 0871 cfbe 4e5c e8be
00000220: 7dcc 0cbf 42ba 393f bdd2 083f 83cd 423f
00000230: cd21 053f 300f 033f b6ab 8fbf 41aa a2be
00000240: 561b c33e 1ee7 823c 70d1 a8be 301d c2bf
00000250: dd48 dd3f 71c1 29c0 7e75 803f f419 87bd
00000260: 56ec a23f 5f6a 943e 3c2f 843f 672e 9fbf
00000270: 8f70 69bf 536c f03f e96a abbe 9da5 463f
00000280: 2949 703e f61d d93e 9926 04c0 09b4 0abf
00000290: bc3a 1d40 fbe7 1e40 473c b5bf af64 0f3f
000002a0: 37e7 363e 2304 25bf a0e3 ba3e e1e5 a33c
000002b0: df52 733f 0f0a b83f 91da 1fc0 ee3c b83f
000002c0: 7885 efbd 1a0b eabf f523 17bf 7b1e ca3d
000002d0: 1b5a c3bf 0e06 12bf 6c3b 83bf d88a 443f
000002e0: 2b50 6a3e 30ea 95bf 7766 343d f9f4 993e
000002f0: 18d9 73be e3fb 09bf 6d3a 33be ac6b 85bf
00000300: a795 d23f aa75 9abf 5d16 1b3d a545 96be
00000310: 52a0 ea3e dbd7 c0be 58ad 70be 5330 b53e
00000320: 90eb d4bf 9bd6 67bf bf6a d23d d48c d83e
00000330: 80c2 3a3f c0d6 48bf 7004 193f 0325 473f
00000340: a390 9c3e 44c9 8dbe 6bdc 9a3f 3a05 703f
00000350: 727f 16bf 88ef 813f bbdf 593d 2502 1e3e
00000360: 4c2e 22bf dffb 243f 27ed 15c0 6ba5 70bf
00000370: f62e fdbe c653 80bf ae43 c33d 2273 cbbf
00000380: ff86 c0be 2fb2 ac3e cdf0 9a3e 07a0 0a40
00000390: b52d edbe 4583 1bbe 230a 60bf 2ec0 823f
000003a0: e300 7cbe 40ce f1be dc14 793f d00a b13f
000003b0: 621f d13e 3e04 553d 89ab 57be 811b 9cbf
000003c0: 7ee6 a53f 9d4a a5be d24a 953f ba55 7cbf
000003d0: 6e2c e9bf ef84 2fbf d9d3 013f 6f8f ec3e
000003e0: ff3b 983f 2f84 fe3e 3481 673f 60b1 1c3e
000003f0: 4e77 923f 0e01 1c3f 2c1e 1fbe 0cee a0be

lstm.bias_ih_l0 f4 [200]
0.32698503 -0.43288967 0.4743298 -0.22386397 -0.1548558 -0.17728521 -0.16399743 -0.77679026
0.089893475 -0.49232614 -0.19633502 0.14644662 -0.64287806 -1.1103197 -0.7585289 0.44292912
-0.5738613 -0.58252 0.31966493 -0.1795607 -0.3963295 0.1540294 -0.19651283 0.32489398
-0.2107962 -0.67217946 0.21365473 -0.5749482 0.90430003 -0.105995096 -0.15072785 -0.35508272
0.030515404 -0.6831385 -0.41525602 -0.15507308 -0.014903469 1.2843562 0.9784271 0.21779537
-0.5321728 -0.25990358 0.0077289236 0.21089508 -0.25243375 -0.60501796 -0.29412556 -0.51802844
-0.60241 -0.12803327 -0.20345964 -0.0705421 -0.31050423 -0.16498172 -0.7515272 0.7079307
1.5096318 0.360199 -0.4151025 0.2932848 -0.11410631 -0.48114502 -0.5150798 0.77269214
0.9304332 -0.93144697 0.28994074 0.9006973 -0.6826066 -1.1105123 -0.055845134 0.35252476
-0.04172781 -0.5106313 -0.29070735 0.24025686 -0.22778037 -0.8501114 -0.77732986 -0.9683912
-0.46891588 0.6308353 -0.36099067 1.0786002 -0.48838156 -0.24772713 -0.70432764 -0.5189138
-0.72781986 -0.51748353 -0.016117306 -0.18857095 -0.48858154 -0.58880484 0.2156854 0.15155262
-0.16056255 -0.42418617 0.55951947 0.29356098 -0.03705851 0.08009949 0.0074242847 0.31423646
-0.41166806 0.27863985 -0.023314761 -0.20465656 -0.028722351 0.15593708 -0.18257666 0.037572205
-0.101380646 -0.081541434 -0.12365502 -0.026403468 0.13876292 0.0230423 0.104911834 0.10794539
0.12370196 0.25309283 0.04701448 0.16794989 0.12824847 -0.10773303 -0.007345992 -0.19856155
-0.0067677284 -0.12421809 0.041130945 -0.13524379 0.064237036 0.13161677 -0.10170376 -0.27243942
-0.40411288 -0.3121974 -0.17530158 -0.04239489 -0.0023947563 0.06342103 -0.16442852 0.30629125
-0.10291798 -0.08488361 0.13597412 -0.22396313 -0.15945318 -0.026139673 0.47818393 -0.44981545
0.498403 -0.19388956 -0.088417664 -0.17451009 0.6752139 -0.17661703 -0.269134 0.03148822
0.019352263 0.24676335 -0.5001811 -0.24930337 0.32177508 0.104819626 -0.20046002 -0.16583472
0.39669704 -0.0036151423 -0.18475981 -0.108361565 -0.16844027 0.16724697 -0.06618733 -0.26952788
0.27306747 -0.0754962 1.0454102 0.28421533 -0.1931084 -0.37880313 -0.099111654 0.3591243
-0.37096682 -0.01682768 -0.024996795 1.4908497 0.94146127 0.13785994 -0.45864427 0.22511528
-0.03948923 0.28811404 -0.27362007 -0.30675906 -0.2819737 -0.45717165 -0.5347846 0.0675142
00000000: 956a a73e b7a3 ddbe 5bdb f23e 993c 65be
00000010: 8592 1ebe 418a 35be f1ee 27be badb 46bf
00000020: 121a b83d 2c12 fcbe 0c0c 49be 1af6 153e
00000030: a893 24bf f51e 8ebf f32e 42bf 9bc7 e23e
00000040: 93e8 12bf 0820 15bf 1fab a33e c3de 37be
00000050: b3eb cabe e2b9 1d3e a93a 49be 8158 a63e
00000060: f6da 57be f413 2cbf 4ec8 5a3e ce2f 13bf
00000070: 3580 673f f513 d9bd 6758 1abe 67cd b5be
00000080: 71fb f93c 2ae2 2ebf 709c d4be 7acb 1ebe
00000090: ae2d 74bc c965 a43f 337a 7a3f c005 5f3e
000000a0: 7a3c 08bf 1512 85be e942 fd3b e1f4 573e
000000b0: ff3e 81be 75e2 1abf a097 96be 839d 04bf
000000c0: 8b37 1abf 271b 03be b957 50be 6078 90bd
000000d0: 69fa 9ebe f8f0 28be 1664 40bf f23a 353f
000000e0: 9d3b c13f 016c b83e 5188 d4be 6d29 963e
000000f0: 92b0 e9bd a458 f6be 45dc 03bf 27cf 453f
00000100: df30 6e3f 4f73 6ebf 1d73 943e 1994 663f
00000110: 4ebf 2ebf 4425 8ebf debd 64bd 207e b43e
00000120: c8ea 2abd bcb8 02bf 98d7 94be e505 763e
00000130: 423f 69be e7a0 59bf 17ff 46bf 7ce8 77bf
00000140: be15 f0be 6c7e 213f c5d3 b8be 920f 8a3f
00000150: 260d fabe 2eac 7dbe d14e 34bf 89d7 04bf
00000160: 6752 3abf cd79 04bf 7108 84bc be18 41be
00000170: 5c27 fabe eabb 16bf a2dc 5c3e 9c30 1b3e
00000180: 826a 24be ee2e d9be ab3c 0f3f a04d 963e
00000190: aaca 17bd 340b a43d 6a47 f33b 9ae3 a03e
000001a0: 28c6 d2be e2a9 8e3e 99fe bebc 7d91 51be
000001b0: 234b ebbc f8ad 1f3e 60f5 3abe 50e5 193d
000001c0: a8a0 cfbd 32ff a6bd d83e fdbd 164c d8bc
000001d0: de17 0e3e 35c3 bc3c 04dc d63d 7912 dd3d
000001e0: 7457 fd3d 6295 813e 4192 403d 0efb 2b3e
000001f0: 9153 033e 23a3 dcbd a6b6 f0bb b853 4bbe
00000200: d2c3 ddbb 0e66 febd ec78 283d 597d 0abe
00000210: b58e 833d 8cc6 063e 104a d0bd 2e7d 8bbe
00000220: e2e7 cebe 56d8 9fbe 4282 33be 44a6 2dbd
00000230: 58f1 1cbb e3e2 813d f35f 28be 35d2 9c3e
00000240: a9c6 d2bd 75d7 adbd cd3c 0b3e 9756 65be
00000250: b247 23be de22 d6bc 86d4 f43e 364e e6be
00000260: ae2e ff3e fc8a 46be 5214 b5bd c6b2 32be
00000270: d1da 2c3f 18db 34be efcb 89be cbf9 003d
00000280: a388 9e3c 88af 7c3e de0b 00bf 6249 7fbe
00000290: b4bf a43e acab d63d 6445 4dbe 94d0 29be
000002a0: e01b cb3e 06ec 6cbb ad31 3dbe abec ddbd
000002b0: 9b7b 2cbe ca42 2b3e 398d 87bd 8fff 89be
000002c0: 80cf 8b3e c09d 9abd 00d0 853f ac84 913e
000002d0: 35be 45be 7cf2 c1be 0dfb cabd 24df b73e
000002e0: 5def bdbe 34da 89bc 14c6 ccbc 2ad4 be3f
000002f0: 9b03 713f 282b 0d3e 6cd3 eabe 9f84 663e
00000300: 75bf 21bd af83 933e ee17 8cbe 860f 9dbe
00000310: db5e 90be 6712 eabe a5e7 08bf e344 8a3d

lstm.bias_hh_l0 f4 [200]
0.4508308 -0.5760622 0.3727077 -0.062118817 0.044167712 -0.33491668 -0.09742796 -0.5877125
0.0010131369 -0.5050999 -0.15403718 0.27930406 -0.54840946 -0.93227744 -0.79857117 0.26130983
-0.504004 -0.74636996 0.2151954 0.0855795 -0.3722873 -0.024628185 -0.1211184 0.40322348
-0.20049837 -0.7338581 0.22316122 -0.433214 1.163007 -0.06151733 -0.23256879 -0.1995349
-0.09245236 -0.8223243 -0.60336673 -0.06376715 0.02319624 1.2545613 0.9991317 0.2683122
-0.40969363 -0.23163684 0.0073304097 0.26306155 -0.19282094 -0.675564 -0.21845943 -0.3563756
-0.45670545 -0.094282165 -0.37609977 0.023491137 -0.3593528 -0.36704367 -0.592497 0.78106
1.3177935 0.34237167 -0.50016624 0.2692329 -0.11829516 -0.47777545 -0.53208977 0.73257345
0.94826907 -1.0057702 0.30567035 1.006627 -0.8374456 -1.0559266 -0.03197788 0.3851508
0.052253976 -0.5229279 -0.3031447 0.2569825 -0.21299192 -0.6604063 -0.7865285 -0.88565063
-0.48848593 0.7183243 -0.43151227 1.0750453 -0.49187797 -0.32108212 -0.69587976 -0.5192736
-0.6321487 -0.67206675 -0.08418508 -0.3067698 -0.5713502 -0.7140434 0.09922131 0.20997813
-0.05350943 -0.4086421 0.5641257 0.32301348 -0.047458775 -0.07715708 0.085147664 0.22990052
-0.2576605 0.14749384 -0.07962947 -0.22638305 -0.057195168 0.15576223 -0.108281694 -0.10613327
-0.066864125 -0.08759792 -0.06764558 0.059140913 -0.08530768 -0.00407352 0.0922828 0.14208768
-0.14141206 0.043460634 -0.03892434 -0.06405154 0.12244559 0.029541934 -0.12766196 -0.0041111982
0.08257098 -0.23026267 0.106410146 -0.15414824 -0.11944569 0.0049420865 -0.05257094 -0.28764164
-0.12894493 -0.21306516 -0.31285936 -0.067671895 -0.013335049 -0.04692457 -0.21987225 0.16292451
0.008853663 -0.11727638 0.07096939 -0.19839509 -0.054268185 0.04086148 0.6011779 -0.3379972
0.5071739 -0.3237513 -0.23034325 -0.21196556 0.4855936 -0.107627735 -0.17012133 -0.090917304
-0.023920326 0.18988284 -0.5624135 -0.050706744 0.27032763 0.0002085572 -0.1962609 -0.11519939
0.3703071 -0.04567458 -0.3501027 -0.100421496 -0.20506571 0.259278 -0.09221269 -0.05720741
0.21233669 -0.18249488 1.1679809 0.31621963 0.011417907 -0.33483303 0.0052238763 0.16354057
-0.39452848 -0.052823078 -0.1731421 1.2906554 1.1790357 0.21005875 -0.25759274 0.20696558
-0.14628758 0.22257051 -0.47962293 -0.22799572 -0.07919026 -0.32890257 -0.3903103 0.03066044
00000000: 4bd3 e63e d078 13bf 8bd3 be3e 4d70 7ebd
00000010: 34e9 343d 337a abbe 4f88 c7bd 5474 16bf
00000020: 3ccb 843a 3a4e 01bf ecbb 1dbe f100 8f3e
00000030: 9064 0cbf bca9 6ebf 296f 4cbf 67ca 853e
00000040: 6806 01bf 1a12 3fbf 2f5c 5c3e 4e44 af3d
00000050: 719c bebe 0cc1 c9bc ec0c f8bd 4f73 ce3e
00000060: 724f 4dbe 20de 3bbf 6084 643e 3ace ddbe
00000070: 6add 943f 99f9 7bbd 8326 6ebe e052 4cbe
00000080: aa57 bdbd d883 52bf 3e76 1abf 5a98 82bd
00000090: 0b06 be3c 7795 a03f 18c7 7f3f 3760 893e
000000a0: 5dc3 d1be 3532 6dbe ef33 f03b 01b0 863e
000000b0: da72 45be c3f1 2cbf d4b3 5fbe dd76 b6be
000000c0: 4cd5 e9be 0217 c1bd 2690 c0be 7c70 c03c
000000d0: 17fd b7be 26ed bbbe e2ad 17bf 8cf3 473f
000000e0: 75ad a83f 574b af3e e50a 00bf e5d8 893e
000000f0: bc44 f2bd fc9e f4be 0937 08bf ef89 3b3f
00000100: c3c1 723f 14bd 80bf d380 9c3e 27d9 803f
00000110: d662 56bf 9a28 87bf 3dfb 02bd 7c32 c53e
00000120: 4408 563d 9ade 05bf c835 9bbe 3693 833e
00000130: 8e1a 5abe 6310 29bf ef59 49bf 00ba 62bf
00000140: d41a fabe 1ae4 373f 2def dcbe 169b 893f
00000150: 6ed7 fbbe e064 a4be 2d25 32bf 1def 04bf
00000160: 7fd4 21bf 910c 2cbf 3a69 acbd ee10 9dbe
00000170: 0244 12bf 8ccb 36bf 8b34 cb3d 8204 573e
00000180: b42c 5bbd 8a39 d1be 8b6a 103f 0662 a53e
00000190: 2264 42bd 8804 9ebd e661 ae3d 0b6b 6b3e
000001a0: 14ec 83be a008 173e c714 a3bd f5d0 67be
000001b0: 7b45 6abd 2280 1f3e cbc2 ddbd 665c d9bd
000001c0: 0ff0 88bd 8a66 b3bd c489 8abd be3d 723d
000001d0: cbb5 aebd 2a7b 85bb c4fe bc3d 6f7f 113e
000001e0: 53ce 10be c703 323d 216f 1fbd 742d 83bd
000001f0: c1c4 fa3d ed01 f23c d1b9 02be 3bb7 86bb
00000200: f91a a93d fac9 6bbe 90ed d93d 09d9 1dbe
00000210: f19f f4bd 3af1 a13b a054 57bd c445 93be
00000220: 240a 04be c12d 5abe 1a2f a0be 9097 8abd
00000230: 407b 5abc fa33 40bd 3126 61be afd5 263e
00000240: f40e 113c 992e f0bd 6658 913d 1528 4bbe
00000250: 5148 5ebd 5e5e 273d cbe6 193f f80d adbe
00000260: 26d6 013f bbc2 a5be 1adf 6bbe 800d 59be
00000270: b99f f83e ee6b dcbd 4934 2ebe da32 babd
00000280: 8ff4 c3bc a670 423e 55fa 0fbf e0b1 4fbd
00000290: 6268 8a3e 26b0 5a39 9ef8 48be a8ed ebbd
000002a0: e498 bd3e 4515 3bbd a940 b3be c9a9 cdbd
000002b0: bffc 51be 16c0 843e 02da bcbd 5152 6abd
000002c0: ca6e 593e f0df 3abe 6680 953f 8ae7 a13e
000002d0: 2c12 3b3c 3c6f abbe 0d2d ab3b 2e77 273e
000002e0: a3ff c9be 035d 58bd 2a4c 31be 3234 a53f
000002f0: a4ea 963f a419 573e 32e3 83be c9ee 533e
00000300: 69cc 15be 86e9 633e 2391 f5be b677 69be
00000310: 812e a2bd eb65 a8be c0d6 c7be 9a2b fb3c

linear.weight f4 [1, 50]
-0.09814883 0.17703508 -0.018455261 -0.15771072 -0.15686586 0.050431266 0.23100954 -0.104308076
0.30951664 0.2825301 0.36202788 0.051358648 0.2204254 0.24987939 -0.1538109 -0.4395381
0.09558443 0.07435474 0.48744565 0.38420036 0.4016832 -0.23943841 -0.3129233 0.32230604
0.08031475 -0.11045374 0.2432048 -0.6032705 -0.28348684 0.27785853 0.37492597 -0.06204128
0.31307685 -0.17449054 -0.3623728 -0.2023115 0.118329644 0.06657487 -0.09666332 -0.13617031
0.2063724 -0.08014256 -0.019159283 0.035161767 0.03474964 0.20969748 -0.119994424 -0.06124028
-0.13792692 0.102543704
00000000: 4102 c9bd af48 353e 7d2f 97bc eb7e 21be
00000010: 72a1 20be 0491 4e3d c48d 6c3e 799f d5bd
00000020: f778 9e3e c9a7 903e b85b b93e 725d 523d
00000030: 32b7 613e 62e0 7f3e 9b80 1dbe 230b e1be
00000040: c5c1 c33d 4c47 983d 7a92 f93e e9b5 c43e
00000050: 6ca9 cd3e 582f 75be 7c37 a0be 4c05 a53e
00000060: 0f7c a43d 9235 e2bd ae0a 793e ef6f 1abf
00000070: 3025 91be 7943 8e3e 4cf6 bf3e ff1e 7ebd
00000080: 9c4b a03e a6ad 32be ed88 b9be bf2a 4fbe
00000090: d056 f23d 6858 883d 6bf7 c5bd 3b70 0bbe
000000a0: 4953 533e c821 a4bd eef3 9cbc c905 103d
000000b0: a355 0e3d f0ba 563e a3bf f5bd 16d7 7abd
000000c0: b73c 0dbe 6f02 d23d
