archive/lstm_4to1/trial1/lstm_model_epoch12.pth (torch, 48089 bytes, 5 tensors)

lstm.weight_ih_l0 f4 [200, 4]
000000 32 da 2e bd a2 30 d7 3e fa f3 1f bf 42 c8 4f 3f
       -0.042688556 0.4202929 -0.62481654 0.81164944
000010 6b f0 2b 3e 29 53 2d bf f2 89 ca 3b 16 80 95 3d
       0.16790931 -0.6770502 0.006180995 0.07299821
000020 b4 16 05 bc d8 7c 51 3e 12 bc 60 be fa 51 b2 bc
       -0.008123089 0.2045778 -0.21946743 -0.021767605
000030 91 a5 82 bf 1a 7e f0 be e1 0e fd 3e 80 6a 3d be
       -1.0206777 -0.46971208 0.49425414 -0.18497658
000040 6c 90 0d bf c3 60 9b 3e 2d a0 1b be b0 c7 9d 3f
       -0.55298495 0.3034726 -0.15197821 1.2326565
000050 95 aa a9 bc ac 7f 9e 3d 09 cf a9 3e 38 f4 63 3d
       -0.020711223 0.07739195 0.33165768 0.055652827
000060 ac af 08 bf 9b a2 4c be 90 da 73 3e f8 51 88 3d
       -0.53393054 -0.19983904 0.23813844 0.06656259
000070 7f 00 c4 3c 1d 5a ab 3e 58 32 16 bf b0 45 93 bd
       0.023926018 0.33467188 -0.5867057 -0.07191026
000080 74 45 25 be d8 c2 81 bf 7e 32 15 bf 29 e8 23 bf
       -0.16139776 -1.0137587 -0.5828017 -0.64026123
000090 c7 ef cb be d9 d0 a2 3e c3 ba ed be b9 c1 e8 3e
       -0.39831373 0.31799963 -0.4643155 0.454603
0000a0 b3 a5 90 3e f4 cf 1e bf 19 65 8c be 2f 23 9f 3e
       0.28251418 -0.6203606 -0.2742088 0.3108153
0000b0 c8 29 f4 be 49 29 0d be 02 1f 9c 3e 24 70 9a 3e
       -0.47688127 -0.1378528 0.30492407 0.30163682
0000c0 35 34 69 bd 49 2d 0f be 63 c4 6c bf 35 3f 56 be
       -0.056934554 -0.13982119 -0.9248716 -0.20922549
0000d0 73 a5 51 3d f4 fe 15 3f 1d 83 e0 bd 00 d3 1b be
       0.051183175 0.5859215 -0.10962508 -0.15217209
0000e0 ff 51 f8 be df 0c d3 3e 6d 7c 00 3e 4e f5 f8 3e
       -0.48500058 0.41220757 0.12547465 0.48624653
0000f0 8a 63 90 3d d2 95 7e 3e b0 ef 2c be d6 74 44 bf
       0.070502356 0.2486184 -0.16888309 -0.7674078
000100 01 64 d8 be 99 d9 25 3f 12 02 04 3a 72 e8 11 bb
       -0.42263797 0.6478515 0.0005035709 -0.0022263792
000110 14 94 c4 be 21 67 b7 3e 85 16 19 40 40 24 b0 bf
       -0.38394225 0.3582087 2.3919995 -1.3761063
000120 85 11 26 bf 2a b6 9b 3c 39 cd 5e bf d6 de c0 3e
       -0.6487048 0.019007761 -0.87031895 0.3767001
000130 0c 89 96 3d 14 ee 0e be 9d 36 a4 bd 45 ad a2 3d
       0.07350358 -0.13958007 -0.08018229 0.07943205
000140 99 89 d1 be 3f 80 11 3e fe c9 4f 3e 5c 9e a6 3c
       -0.4092529 0.14209078 0.20291898 0.020339184
000150 4f 9a 70 be b2 01 51 3f 79 5b 60 3e 33 89 2b 3d
       -0.23496364 0.8164321 0.21909894 0.04187889
000160 f6 b2 83 be 61 bb d1 bd d4 1b a9 bf 99 64 a4 3e
       -0.25722474 -0.10240818 -1.3211617 0.32108
000170 b7 53 d4 3e d9 33 6c bf e3 27 f4 be 5f e5 8f be
       0.4147012 -0.92266613 -0.4768668 -0.28104684
000180 a1 a0 c3 3e b9 2e da be 31 56 59 be 1d 7c 88 3e
       0.38208488 -0.42613772 -0.21224286 0.2665719
000190 17 9b 87 3d 42 60 e2 bc 3d ee 3d 3f 0e d2 49 3e
       0.06621378 -0.02763379 0.7419165 0.19709036
0001a0 7e 5a 12 bf aa ab 3c 3f b7 aa 5b 3d 3d ef 03 3e
       -0.5716933 0.7369944 0.053629603 0.12884231
0001b0 17 93 bd be 94 3f 17 be dc 17 1c bf b2 c4 02 3f
       -0.37026283 -0.14770347 -0.60973907 0.51081383
0001c0 46 41 35 bf 9e 6e 56 3e 6d e6 11 3f 31 16 46 3f
       -0.70802724 0.20940635 0.56992227 0.7737761
0001d0 68 72 6d be 25 69 9e bb 31 b7 ee be 3a 3b a6 3e
       -0.23188174 -0.0048343115 -0.4662414 0.3246706
0001e0 c0 89 e8 be 0b e2 82 bf b8 90 93 bf 4c e3 68 3e
       -0.45417595 -1.0225233 -1.152854 0.22742957
0001f0 45 b7 89 3e ab cf 06 3f 7a 02 c4 be 94 6d 30 bc
       0.26897636 0.52660626 -0.3828314 -0.010768313
000200 90 d1 e5 3d af cc cf 3d 41 3d 41 bf 2c 75 95 bc
       0.112216115 0.10146462 -0.7548409 -0.018244348
000210 b6 75 c4 3e f6 52 fe 3e 78 41 83 bf 1e a1 1a 3f
       0.38371056 0.4967267 -1.0254354 0.60402095
000220 06 4d 78 be c7 81 b2 3e 2c f6 0f 3f b7 fb 87 3f
       -0.24248132 0.34864637 0.56235003 1.0623692
000230 75 32 45 3e 56 15 b5 bc 1d 94 d9 3d 3d f6 a7 be
       0.19257529 -0.0221049 0.106239535 -0.32805052
000240 c5 f0 b9 be 66 db 96 3e 67 47 16 3e df 33 1c bd
       -0.36316505 0.29464263 0.14675675 -0.038135406
000250 72 b8 cf be ed 4c 19 3b bc 86 be bc f0 2b f7 3d
       -0.40570408 0.0023391799 -0.023257606 0.12068927
000260 0b 6a a5 3c 1b f9 10 bf 0f 20 46 3d 9d 90 14 3f
       0.020192167 -0.56630105 0.048370417 0.5803316
000270 65 91 16 3e 3a e6 85 bc 0a d7 9e be b6 d1 30 3f
       0.14703901 -0.016345132 -0.31023437 0.69069993
000280 80 cb 32 3e b0 92 4f be 1f 6c d6 3e 87 84 c7 be
       0.17460442 -0.202708 0.41879365 -0.38968298
000290 24 3e e4 bc 0e 41 d6 be ee 33 b5 be 20 88 84 3e
       -0.027861662 -0.41846508 -0.35391182 0.25885105
0002a0 d2 7f 31 bf 51 67 3d bf 2e ad 80 bf 2d 18 51 3e
       -0.69335663 -0.73985773 -1.005285 0.20419379
0002b0 ca 4a b9 bf 7e 9f c9 3d a4 10 44 bf b2 eb e2 3e
       -1.4475949 0.09844874 -0.7658789 0.44320446
0002c0 68 b3 8d be a8 17 8b be 69 a0 85 be e1 36 ac be
       -0.2767594 -0.27166486 -0.26098946 -0.3363562
0002d0 7f 62 0c 3d e4 a3 14 3e 1b 75 4e 3e a7 84 1d be
       0.03427362 0.14515644 0.2016186 -0.15382634
0002e0 bb ee 32 bf 6c 8b 66 bd 9c ae 1c 3f f1 74 21 3f
       -0.69895524 -0.056285307 0.6120393 0.63069063
0002f0 de dd 62 be 96 7a 29 be c0 9a b7 bf ca 56 ce 3e
       -0.22154948 -0.16550669 -1.4344101 0.4030059
000300 db 86 87 be bf dd 8f be ff 9a 34 bd 53 4c cd 3d
       -0.26470074 -0.28098866 -0.04409313 0.10024323
000310 52 08 e3 be f5 0b cb bd f7 03 48 bd be a8 18 3f
       -0.44342285 -0.0991439 -0.048831906 0.5963248
000320 6f f8 ab 3d 66 fe 5f 3e 98 45 07 bf 68 15 09 3f
       0.08396994 0.21874389 -0.52840567 0.5354829
000330 01 f8 94 3d c6 9b de 3c 5d 23 cc bb a8 07 cf bd
       0.072738655 0.027173888 -0.0062298016 -0.10108882
000340 ec bf 1b bc 12 25 5c 3e a4 ce d1 be c9 7e be bd
       -0.009506207 0.21498516 -0.40977967 -0.09301526
000350 80 9c de 3d 8c 49 5d bc f4 10 2f 3e 8a d3 24 3f
       0.10869694 -0.0135063045 0.17096311 0.64385283
000360 76 86 88 bd 88 6e 8d bb 44 5a 49 bf 2c b6 83 3f
       -0.066662714 -0.004316155 -0.7865336 1.028997
000370 d4 e8 c3 be e3 cf 8e 3d 0d 9a 98 3e e7 a1 09 3e
       -0.3826357 0.06973245 0.2980503 0.13440667
000380 ba e9 45 bf f0 80 a5 3e 68 8c b4 3d b8 38 ef 3d
       -0.77309763 0.32324934 0.08815843 0.1168074
000390 38 9c 59 3d 04 2f b4 3e 7f 99 19 bf a8 f7 c2 be
       0.053127497 0.3519212 -0.5999984 -0.38079572
0003a0 b6 7a 7a 3e ab 94 b2 be 1a 8f 82 be 05 62 26 be
       0.24460873 -0.3487905 -0.25499803 -0.16248329
0003b0 7c c1 d1 be 7c c1 aa 3e 05 42 8c bf bc 0f 1c 3f
       -0.4096793 0.33350742 -1.0957648 0.6096151
0003c0 10 5d 3c 3e 97 ff 07 be d1 30 17 be bb 64 30 3e
       0.18394876 -0.13281094 -0.14764716 0.17225926
0003d0 b0 ff 69 be 88 c6 81 bb e7 b7 2c bd 48 93 74 3e
       -0.22851443 -0.0039604343 -0.04216757 0.23884308
0003e0 cb a7 ce 3e 96 4f 3c 3e 10 d8 48 bf 56 a0 e0 3c
       0.4036239 0.18389735 -0.78454685 0.027420204
0003f0 ec fc d8 bd c4 56 0f 3f 5b cc 0f 3e 2c 77 50 be
       -0.10595116 0.5599177 0.14042799 -0.2035796

lstm.weight_hh_l0 f4 [200, 50]
000000 19 17 8c 3d cc 8d 4d be 2d e5 62 be ea 55 84 bf
       0.06840343 -0.20073622 -0.22157736 -1.0338719
000010 1a 1f 55 bf d3 1b 7f 3f 54 c9 7b 3f d8 df 41 bd
       -0.8325058 0.9965183 0.9835408 -0.047332615
000020 5a 5c 6c 3f 1a 8b c2 3d 60 ba 94 be 93 b0 19 3e
       0.9232842 0.09499188 -0.29048443 0.15008764
000030 8d 6d 7f bd 2e 7c 8a bd 3a 04 06 bd ce 06 95 bd
       -0.062360335 -0.06761967 -0.032718875 -0.072766885
000040 63 56 bf be ed 75 04 3f 54 48 89 be fd 84 97 bd
       -0.37370595 0.5174244 -0.26812994 -0.073984124
000050 73 c3 8a 3e f0 dd fc 3d 73 cd 9f 3e bd 6c f1 bc
       0.2710224 0.12347019 0.31211433 -0.029470796
000060 15 1f 2f 3e 4e 57 bb 3d bb 32 28 bf 2e c2 9d 3e
       0.171017 0.091475114 -0.6570241 0.3081221
000070 83 42 1f 3e 1d a5 70 3f c1 30 54 bf 49 c5 39 bf
       0.15552716 0.9400194 -0.8288689 -0.7256666
000080 9b b2 49 bd 83 0a 34 be ef 26 45 3f 81 e1 a8 bf
       -0.049242597 -0.17582135 0.7701253 -1.3193818
000090 94 ee 53 3f b5 1b 96 3e df bd 1a bf 3b e0 41 3d
       0.82785916 0.29318014 -0.6044597 0.047332983
0000a0 91 cb 8c 3e 11 bf 88 3f 3a b3 37 be 87 a5 24 3e
       0.2749906 1.0683309 -0.17939463 0.16078769
0000b0 57 c0 84 3f 95 29 fc 3b 5d 29 a0 3f 5e 0e f7 3d
       1.0371197 0.0076953867 1.2512623 0.12063287
0000c0 a0 57 14 3f e6 59 56 bf 30 c4 b1 3e 19 04 02 bb
       0.57946205 -0.83730924 0.34719992 -0.0019838868
0000d0 a5 97 c3 3e 19 e5 82 bf c7 32 84 be 0d 27 bd bd
       0.38201633 -1.0226165 -0.2581999 -0.09235964
0000e0 11 d5 75 3e 44 db 89 be bd 71 d8 3d f2 6e e3 bd
       0.2400706 -0.269251 0.10568569 -0.111051455
0000f0 74 28 80 3e 84 a1 61 3d e0 1d eb bd 28 71 1d bf
       0.25030863 0.055085674 -0.114803076 -0.6150079
000100 1b 63 0d 3e 1f 9a aa be 63 af 05 bf bb 88 47 3f
       0.13807337 -0.3332071 -0.52220744 0.7794301
000110 d0 ac 01 bf a2 88 ef 3d 01 fb 03 3f c1 77 f6 3e
       -0.50654316 0.116959825 0.51554877 0.4813824
000120 ba 99 b5 3e 73 75 10 3f a5 d4 8a be f7 b7 bf bd
       0.35468847 0.56429213 -0.2711536 -0.093612604
000130 48 09 a0 be e7 c2 e0 3c 64 23 f6 be 34 d9 92 be
       -0.3125708 0.027436687 -0.48073876 -0.28681338
000140 b2 23 36 3e 61 cf 8f 3e 39 97 90 3e 4b d6 2d be
       0.17787054 0.28087905 0.28240374 -0.16976278
000150 2b ad 23 3d 3b 30 7e bd 40 f5 6e be ad 54 1b be
       0.039960068 -0.062057715 -0.23335743 -0.1516902
000160 cf 85 0c 3e 6c 78 67 be e9 83 40 3e 22 63 e1 bd
       0.13722919 -0.22604531 0.1880032 -0.11005236
000170 8e a3 87 bd 9c e9 45 be 21 84 de 3d bc 8e cd be
       -0.066229925 -0.19327396 0.10865045 -0.4014796
000180 56 26 a1 3d 9c 69 ed bc d7 2d 1d be 50 62 41 bd
       0.0786864 -0.028981023 -0.15349518 -0.0472129
000190 95 5b da bd 2b dc 84 3c 82 ba b9 bd 9f 72 c1 bd
       -0.10661999 0.016218266 -0.09068777 -0.0944569
0001a0 72 5c 6f bd 89 d5 bb 3d 3c 1d be be 93 d1 a1 3d
       -0.058437772 0.09171588 -0.3713168 0.07901301
0001b0 fc d2 e0 3e e8 bc 46 3c cf c9 13 be 55 4c 19 be
       0.43910968 0.01213 -0.14432453 -0.14970525
0001c0 49 8c 14 be 7b 0f ba be 69 72 5c be 4f 7b 3a be
       -0.1450664 -0.36339936 -0.21528019 -0.18211101
0001d0 b1 ba 11 bd c1 65 cc bc c4 e1 31 3e 99 1c 7c bd
       -0.035578433 -0.024950864 0.17371279 -0.06155071
0001e0 80 88 ce 3e d5 b1 94 3c 06 c7 ba bd 14 18 ea bc
       0.40338516 0.018151203 -0.09119992 -0.028575934
0001f0 ed 17 39 bd 2f fa 60 3e d0 a5 b1 be be ce 2c 3f
       -0.045188833 0.21970437 -0.34696817 0.67502964
000200 a7 3a 96 be f5 4f b2 3e aa 3e bc 3d e2 06 77 be
       -0.29341623 0.34826627 0.0919164 -0.2412372
000210 3a f3 b0 be fb 66 6a be d0 65 d6 3d d5 9d cc be
       -0.34560567 -0.22890846 0.10468638 -0.39964166
000220 75 61 5a be 3d 88 71 3e ea 22 22 3d 68 7f 9c 3e
       -0.2132624 0.23587127 0.039584078 0.30565953
000230 d4 28 31 3e 98 25 8d be ca 18 68 bd 61 3d cb 3e
       0.17300731 -0.27567744 -0.056664266 0.39695266
000240 40 9d 0a 3d 03 c9 4a 3d d0 e4 0a be 09 0c 1d be
       0.03384137 0.049508106 -0.13563848 -0.15336622
000250 23 77 a9 be d1 0a 9b 3e 8a e9 a3 bf b6 24 60 3f
       -0.33098707 0.3028169 -1.2805645 0.87556016
000260 99 2b 3c 3e 4a 47 08 3f 07 96 73 bf 04 99 0f 3f
       0.18376006 0.5323378 -0.951508 0.5609286
000270 2c b7 7d 3e f1 9c 01 3f 76 a4 25 3e 76 77 53 3e
       0.24776906 0.506301 0.16176018 0.2065104
000280 fd ea 13 3f ed 1f fb be 67 ac 67 3e e3 65 39 3f
       0.5778044 -0.49047795 0.2262436 0.7242109
000290 e6 10 6d 3c de 35 58 bf 13 d8 36 be 11 20 f2 bd
       0.014469361 -0.84457195 -0.17855863 -0.118225224
0002a0 00 f6 3d 3e 57 28 79 3d 52 f3 55 be 5e 28 66 3f
       0.18550873 0.060829487 -0.208936 0.89905345
0002b0 d1 4b 29 bf 27 7e a5 3e ad b5 49 3f 79 41 3d be
       -0.6613131 0.3232281 0.7879284 -0.18482007
0002c0 70 b2 8f bf 85 34 08 3d a4 11 87 bf ad a9 91 3d
       -1.122633 0.03325321 -1.0552258 0.07112441
0002d0 00 82 b4 bf ed af a2 bf 2f af bd bd e7 cc 19 bf
       -1.4102173 -1.2709938 -0.09261929 -0.6007828
0002e0 a4 ad 83 3f 01 c0 4a bf 81 1d 13 3e 56 dc 99 3e
       1.0287366 -0.79199225 0.14366724 0.30050915
0002f0 f8 50 08 3f 14 f3 56 be e0 d1 46 bf 9c 78 b1 bd
       0.5324855 -0.20991164 -0.77663994 -0.086655825
000300 ed 2f c1 bf 86 58 f3 be f1 18 7f 3e d6 58 57 3e
       -1.5092751 -0.47528476 0.24911858 0.21029982
000310 ee d4 9a be b4 12 a7 bf 26 f2 f0 be 44 b2 2e 3f
       -0.30240577 -1.3052583 -0.47059745 0.6824076
000320 44 d4 a7 be 23 3f a9 3e 91 a7 f3 bd 98 18 b9 be
       -0.32779133 0.33055982 -0.11897195 -0.36151576
000330 12 c6 f6 3e 7f 7c 03 3f 59 4a da 3e d4 25 04 be
       0.4819799 0.5136184 0.42634848 -0.12905055
000340 b6 1a c6 3e a1 9d 84 bc b0 41 5d 3f 25 0d c7 3e
       0.38692254 -0.016188445 0.86428356 0.38877216
000350 56 4c 4c bf b1 da cb 3e 04 b5 0e bc cf 65 ac 3e
       -0.7980398 0.39815286 -0.00871015 0.33671424
000360 36 57 21 3d dd 30 87 3f a0 76 97 be 8f 30 b9 be
       0.03938981 1.0561787 -0.2958269 -0.3616986
000370 1a e2 9c bc 26 13 b4 3e e5 10 47 3f 94 6a 95 3f
       -0.019150782 0.3517086 0.77760154 1.167315
000380 70 7e 78 3e 5b 58 0b bf 20 9d ff be 8f b8 05 3e
       0.24266982 -0.54431695 -0.49924564 0.13058685
000390 8d c1 c4 3e 0d 46 fa bc f0 68 a1 bf 79 8f 9d be
       0.38428918 -0.030550981 -1.2610149 -0.30773523
0003a0 74 ab 40 bf 86 25 97 3c 36 c3 b0 be 19 d0 67 be
       -0.75261617 0.01845051 -0.34523934 -0.22637977
0003b0 37 66 3e be a1 f4 af 3e 55 e7 c1 be 84 ba 63 bb
       -0.1859368 0.34366325 -0.37871805 -0.0034748623
0003c0 87 2a 9f be f9 7f 0f 3f 1d 32 91 be 0c 66 37 3e
       -0.31087133 0.56054646 -0.28358546 0.17910022
0003d0 e5 85 2b 3f 4b 97 5b be c5 9a fb be 58 29 c6 be
       0.6700118 -0.21444432 -0.49141517 -0.38703418
0003e0 5f 88 44 be 2d 5d f4 bd 13 f8 13 bf 71 d3 1a be
       -0.19192646 -0.11931834 -0.57800406 -0.15119721
0003f0 62 d9 19 be 1f 3a 35 bc 98 37 98 3e fc 38 2c 3d
       -0.15024331 -0.01106122 0.29729915 0.042046532

lstm.bias_ih_l0 f4 [200]
000000 e8 72 ab 3d 0e 2b 70 3e 50 8e ab be 87 6e 8a 3f
       0.08371526 0.23453924 -0.33507013 1.081498
000010 e7 96 a3 3e bd 1b 25 3e 10 69 b1 3d da 02 21 be
       0.31951067 0.16123863 0.08662617 -0.15723744
000020 e8 57 cd 3d 3a 52 ea be 40 c4 23 3e f8 b9 b1 3d
       0.100265324 -0.4576586 0.15992832 0.08678049
000030 59 1d 56 3e 60 7a 21 3e 64 fb 56 be ed 19 19 3d
       0.20909633 0.15769339 -0.20994335 0.03737824
000040 31 78 8c 3d e8 42 c0 3e 99 24 00 be 96 36 9c be
       0.06858862 0.37551045 -0.12513961 -0.30510396
000050 03 0f 0c 3e 79 75 3c 3b ba de a9 3c 8e 82 44 3e
       0.13677602 0.0028756543 0.020736087 0.19190428
000060 6f b4 25 bd 69 f2 27 be 5c ae cf bd 47 c9 46 3d
       -0.040455278 -0.16401066 -0.10140678 0.048531797
000070 44 55 e1 3e 4f a5 6d bc d7 03 7c 3e a5 ea c1 bd
       0.44010365 -0.014504745 0.2461084 -0.09468583
000080 d4 c2 bd bd 43 c0 03 be 48 1b 6b 3e ad 47 33 be
       -0.09265676 -0.12866311 0.22959626 -0.17507811
000090 e3 c7 74 3e 2d 8c 62 be ef db 3e 3e 6f d1 02 be
       0.23904376 -0.22123785 0.18638586 -0.12775205
0000a0 ec e4 8a bc 88 b0 13 bc 8c ba 9d 3e 9c 65 54 3e
       -0.016954862 -0.009014256 0.30806386 0.20741886
0000b0 f2 ac 64 3d b1 21 0f 3e d0 d5 c4 b9 eb db 31 be
       0.055828996 0.13977696 -0.00037543336 -0.17369048
0000c0 b7 5f 0b 3f 94 33 69 3e e1 62 90 3c 04 aa c7 bd
       0.54442924 0.22773582 0.017625274 -0.09749225
0000d0 dd ab 9e be 23 ac 66 bd ab fe d8 3d ad 24 64 be
       -0.30990496 -0.056316506 0.10595449 -0.22279616
0000e0 19 09 7c bd e8 25 02 3e 51 12 24 be 7d 8b bc be
       -0.061532114 0.12709773 -0.16022612 -0.3682517
0000f0 8f 28 e3 bd 95 ba 62 3d 36 3b ed 3d 65 82 5e 3e
       -0.1109172 0.05535372 0.11583559 0.21729429
000100 cf 84 68 bd cd c7 32 3e 6b 24 7c 3e dc ff ff 3d
       -0.05676728 0.1745903 0.24623267 0.12499973
000110 93 be 27 bd ec cf fe bd ef d7 10 bd c4 75 1e 3e
       -0.04095323 -0.12442002 -0.03536218 0.15474612
000120 ab 29 bc bd 8a f1 bf 3c 23 d5 da 3c 51 81 bf bd
       -0.09187635 0.023430604 0.02671296 -0.09350837
000130 06 c2 76 3c 38 7b 6e 3e a7 bb 59 3d fa 04 59 3e
       0.015060907 0.23289192 0.053157475 0.21193305
000140 e9 76 b3 be ea 12 81 3d 33 7e 47 3e b9 da f5 bd
       -0.3505166 0.06302436 0.19481735 -0.12004609
000150 1a a1 43 bf 7f 0b d4 bc 6b 6b 6a be 38 05 a3 be
       -0.76417696 -0.025884388 -0.22892539 -0.3183992
000160 d1 36 3e be e7 c2 e7 be 2b 3e 78 be 0f 37 cc 3d
       -0.18575598 -0.45265886 -0.24242465 0.09971439
000170 93 48 17 3e 22 73 61 be 6a 1d 04 3e b0 87 7e 3c
       0.14773779 -0.22016576 0.12901846 0.01553528
000180 80 e4 86 be 65 fb ee be 9f 89 ef bd e0 2d 34 be
       -0.26346207 -0.46676174 -0.11696171 -0.17595625
000190 ad ef d0 bd 72 a0 9c bc c6 d1 0b be 41 56 ca 3c
       -0.102019645 -0.019119475 -0.13654241 0.024699332
0001a0 85 44 a9 3d 7f e0 c0 3b 6e 3b a7 3d ef 7f aa bd
       0.08265022 0.005886137 0.08165632 -0.08325183
0001b0 50 8c 00 3e 2f 57 b2 bd c8 18 ea 3d b7 9c 04 3e
       0.12553525 -0.08708035 0.11430508 0.12950407
0001c0 12 07 95 3c 59 f0 dd 3d a2 40 3b 3d 2d cb 55 bd
       0.018191848 0.10836858 0.045715936 -0.052195717
0001d0 99 5a 13 bd 7f 9d 35 3d dd fd 59 bd f0 15 35 3d
       -0.035975073 0.044339653 -0.05322062 0.044210374
0001e0 64 1f f6 3d 28 7a 29 bd ee 93 a6 3d 89 06 8f 3c
       0.12017706 -0.041376263 0.08133684 0.01745917
0001f0 38 3e 1e 3b 26 20 5e 3d f0 fc bc bc 71 c8 0e 3e
       0.0024145972 0.054229878 -0.023069829 0.1394365
000200 72 9a 1e 3e 09 a1 11 3e c0 8e 37 be 55 4d 0d bd
       0.15488604 0.14221586 -0.17925549 -0.034497578
000210 41 0d a2 3b a7 e6 f5 bb 17 e2 00 3d 2c 16 17 be
       0.0049454276 -0.0075043025 0.031465616 -0.14754552
000220 76 68 1e 3e 1e 2e 8a 3d 3e e6 89 bc 10 ee a1 bc
       0.15469536 0.067470774 -0.01683342 -0.019766837
000230 15 3c 9f 3d 40 75 d7 3d b2 b9 bc 3b b1 5c 3e bd
       0.077751316 0.105204105 0.0057594413 -0.046475116
000240 22 df d9 3d 62 83 62 3d 25 a6 d7 bd ac 12 de ba
       0.10638262 0.055301078 -0.105297364 -0.001694282
000250 46 fc 0f bc f0 41 d3 3c a9 af 17 bd c6 60 11 3e
       -0.008788174 0.025788277 -0.037032757 0.14197072
000260 5f e9 30 be 19 46 7f 3f 63 ca 6e bd ba a7 c1 bd
       -0.17276524 0.99716336 -0.05829848 -0.094558194
000270 5d ed b8 3d f3 6e 40 be 18 a3 99 bd 66 2f fb be
       0.090296485 -0.18792324 -0.07501811 -0.490596
000280 c2 82 bc 3d 97 af 8a 3d 77 04 3f 3d df df 9a 3e
       0.092046276 0.06771772 0.046635117 0.30248925
000290 e5 33 01 be f3 6f 04 bd c9 ac 65 bd da 44 6d 3e
       -0.12617452 -0.032333326 -0.056072984 0.23170796
0002a0 f1 49 50 be a0 f3 bf bd 0d c1 a1 bd 0d e2 0a 3e
       -0.20340706 -0.0937264 -0.0789815 0.13562794
0002b0 9f 3e 3c bd 26 78 62 3e 2a b3 93 bc bb a6 12 be
       -0.045958158 0.22116145 -0.018029768 -0.14321415
0002c0 79 f2 ad 3c f7 da d9 3c 87 0b 1f 3e 24 ba d7 3d
       0.021233784 0.026593668 0.15531741 0.105335504
0002d0 db b4 5b 3e 21 8e ca bd 7f fc e2 bd 33 ad a3 be
       0.2145571 -0.0989039 -0.11083316 -0.31968078
0002e0 ca b7 9b 3d 00 3d 3d bd ae 51 52 3e 1a 9e ea be
       0.07603414 -0.046200752 0.20538971 -0.45823747
0002f0 37 1d d0 bd 69 d4 34 be 4f 47 8c be 80 e5 78 bd
       -0.10161822 -0.17659153 -0.27398154 -0.060765743
000300 1c ee 9a 3e e8 00 b3 3d 31 9e d9 3d 6e 12 ee 3d
       0.30259788 0.08740407 0.10625876 0.11624609
000310 e1 7b 17 bd 1f 32 67 be df 73 e2 3e 4c 0f 25 3e
       -0.036983375 -0.22577713 0.44229028 0.16119117

lstm.bias_hh_l0 f4 [200]
000000 78 8e f9 3b ae 3f 5a 3e eb 64 20 be d9 0e 96 3f
       0.0076158606 0.21313354 -0.15663497 1.1723281
000010 5f 6f 8f 3e 17 fb 29 3d 7b 24 0c 3e 4f 10 d9 bd
       0.28014657 0.041499224 0.13685791 -0.10598814
000020 5e a2 79 3d be 64 a2 be fa 32 b9 bd 04 cd 6d bd
       0.06094586 -0.31717485 -0.09042926 -0.058056846
000030 b2 8c 7d 3d d6 a7 3e 3e ac 7a 31 be c5 7e a4 bd
       0.061901756 0.18618712 -0.17331952 -0.08031992
000040 ef 74 d8 3d e0 f3 a4 3e 77 04 e6 bd 7b e5 78 be
       0.10569178 0.32217312 -0.1123132 -0.2430629
000050 da 1a df bd 31 82 e9 3d 8a 74 99 3b c3 45 70 3e
       -0.108937934 0.11401785 0.004683082 0.23464112
000060 5a 37 c0 3d 49 42 47 be d4 2e b6 3d 97 fd 19 bd
       0.093855575 -0.1945888 0.088956505 -0.037595358
000070 d8 3a de 3e 67 b1 52 bd cb 43 3a 3e e1 68 a3 3c
       0.4340427 -0.051438715 0.18189923 0.019947471
000080 32 34 eb bd e9 a3 fe bd ba d2 58 3e e3 2e 87 bc
       -0.11484565 -0.12433607 0.21174136 -0.01650185
000090 67 0c 95 3e 3b b0 ae be 9c 72 1e bd ae d2 0d be
       0.29111025 -0.34118828 -0.03868352 -0.13849899
0000a0 e9 21 4f be ea dc f0 3b cc 5f 5e 3e 67 90 86 3e
       -0.2022778 0.0073505538 0.21716231 0.26282045
0000b0 17 f4 3f 3e 92 48 8e bc cd 50 27 be e3 f7 f4 bc
       0.18745457 -0.017368589 -0.16339417 -0.029903358
0000c0 c5 24 92 3e 7c 69 52 3e b6 4d c5 3d 42 b7 2c 3d
       0.28543678 0.20548052 0.09633963 0.042166956
0000d0 31 72 8e be a9 1e ef bd 5e 58 7b 3e ca a3 db bd
       -0.27821496 -0.1167577 0.24545428 -0.107246
0000e0 c8 cd c4 bd ed 58 cf 3d 22 ba de bd fa 6f 19 be
       -0.09609562 0.10124383 -0.10875346 -0.14984122
0000f0 ca 6d a5 be f2 de 32 3e d7 62 47 3d d3 c0 30 3e
       -0.32310325 0.1746786 0.048678245 0.17261057
000100 b1 18 28 3d db a3 57 3e d4 0e da 3d a1 70 45 3e
       0.041039173 0.210586 0.106473595 0.19281246
000110 11 13 c6 bd df f3 30 be cc c2 36 3e c2 cb 56 3e
       -0.096716054 -0.1728053 0.17847747 0.20976165
000120 03 dd 17 3e 39 ac 1a 3d 23 74 0e 3d e7 73 a2 be
       0.14830403 0.0377619 0.034778725 -0.3172905
000130 df 58 bd 3d 58 b5 53 3c 22 56 f9 3d 59 27 b5 3d
       0.092454664 0.012921654 0.12174632 0.088453956
000140 bf fd c1 be 87 a8 00 3c 95 7e 30 3e c5 7d 09 3e
       -0.37888905 0.00785268 0.17235787 0.13426884
000150 bf 76 07 bf 4f c5 d4 3d d1 e7 52 be c5 de 88 be
       -0.5291557 0.10389196 -0.20596243 -0.2673246
000160 e1 4e 5e be a7 35 b1 be 3b 67 11 be 1b 04 81 bc
       -0.21709777 -0.34611246 -0.14199536 -0.015749028
000170 79 8b b0 3d c1 4d 7e be 17 d2 cd bd cd 40 06 be
       0.08620352 -0.24834348 -0.10049837 -0.13110657
000180 e0 10 95 be 6d c4 cb be 13 d5 8e 3d a7 b7 cd 3c
       -0.29114437 -0.39798298 0.069742344 0.025111986
000190 67 7e aa bd 14 bb 14 3e 2d 46 89 3c 1f 00 39 be
       -0.083248906 0.1452449 0.016757095 -0.18066452
0001a0 33 d6 94 3d 2d d3 25 3e 3c d0 cc 3d db 0d a8 bd
       0.07267418 0.16193838 0.10000655 -0.08205768
0001b0 fd 4a 0f 3e 65 a6 9b 3d fa a3 bf bd 90 44 c5 3d
       0.1399345 0.076000966 -0.09357448 0.09632218
0001c0 8f dc 10 be 76 75 27 3e 82 5c e0 3c 3d 89 6c bd
       -0.14146636 0.16353402 0.027387861 -0.057748068
0001d0 da b8 c6 3d e4 a0 e9 3d a3 19 5a 3d 20 ea 8b bd
       0.097032264 0.114076406 0.053247105 -0.06831765
0001e0 b6 0f 7c 3d 53 22 de 3c 89 62 6a 3d 3a 21 0b bd
       0.06153842 0.027115976 0.057222877 -0.033967234
0001f0 c7 ab 8e 3d 1f a9 20 3c 7e c0 11 be e4 ef a5 bd
       0.06966358 0.009805947 -0.14233586 -0.08102396
000200 0b 8a a6 3d 49 5b 0d bd 10 29 01 be 7f a8 2c be
       0.08131798 -0.034510884 -0.1261332 -0.16861151
000210 22 e3 09 be 5b 61 26 3e 99 d2 2a bd ef 3f 90 3c
       -0.1346555 0.16248076 -0.041704748 0.01760861
000220 08 c7 89 3d f3 22 75 3d 66 af cd bd 88 45 be bc
       0.06727415 0.059847783 -0.1004322 -0.023226514
000230 62 0a 0b 3e 55 43 4f 3d 21 e7 08 bd 25 4f 60 bd
       0.1357818 0.050601322 -0.033423547 -0.054762978
000240 ba 01 2a 3e fe 0c 4b bd 01 b0 ee bc ca 3e ee bd
       0.16602221 -0.049572937 -0.02913666 -0.1163307
000250 92 45 39 bd ce 37 df bd f6 62 fe bd 52 0a 14 3e
       -0.045232363 -0.10899316 -0.12421219 0.14457062
000260 c9 d9 bc be 76 3b 75 3f d7 70 d6 3d 12 ac 36 bc
       -0.36884907 0.95793855 0.10470741 -0.011149423
000270 61 bb c0 3d 6a 6e 8a be 70 6b e0 bd 36 cf 91 be
       0.0941074 -0.27037364 -0.10957992 -0.28478402
000280 41 2a 6c bd ec 70 95 bb 28 9c be bd ea 7b 00 3e
       -0.057657484 -0.0045605805 -0.09307128 0.1254727
000290 46 0f 9c be fb d0 4e be be b6 9f bd 72 93 83 3e
       -0.30480403 -0.20196907 -0.07798527 0.2569843
0002a0 29 f6 a7 be 66 38 2c be a2 d7 10 be c4 05 68 3d
       -0.32804993 -0.1681839 -0.14144757 0.056646124
0002b0 94 71 06 3e 02 70 19 3e 22 7f fc bc 00 62 7c bc
       0.13129264 0.14984134 -0.03082234 -0.015404224
0002c0 e5 59 24 3d 02 03 30 3e 49 4d 1d 3e ff 66 00 be
       0.040124793 0.17188647 0.15361513 -0.1253929
0002d0 bc 0f bc bc 77 f0 d3 bd d3 8c 90 be 95 25 44 be
       -0.022956721 -0.103485994 -0.2823244 -0.19154961
0002e0 b9 4d 4f 3c a6 65 6a be 58 64 57 3e 6c 21 b0 be
       0.012652808 -0.22890338 0.21034372 -0.344005
0002f0 85 69 f6 3d f8 19 ee bd c8 ca 78 bd 2f d4 7d bb
       0.12031845 -0.11626047 -0.060740262 -0.0038731208
000300 56 ee a9 3e 63 ef 36 3d 27 d4 8d 3d b3 01 67 bc
       0.33189648 0.04466189 0.069252305 -0.014099526
000310 3a 27 6b be 2b 42 fc ba 69 a0 c0 3e 7d 40 b7 3d
       -0.22964182 -0.0019245794 0.37622383 0.08947847

linear.weight f4 [1, 50]
000000 81 3c c3 3d d0 3a 8e be e7 f2 02 3e 7c 45 59 be
       0.095330246 -0.27779245 0.12787972 -0.21217912
000010 e5 16 49 3e 1e 6c fb bd a7 42 50 3e 8e 90 dc 3d
       0.1963764 -0.12276481 0.20337926 0.10769759
000020 9a 66 65 3e 07 52 a8 bd 03 0e 81 be 8b 89 0c 3e
       0.2240242 -0.082187705 -0.25206003 0.13724343
000030 38 02 5d 3d 37 30 48 bb 04 e1 47 3e ef 8c 8f 3d
       0.053957194 -0.0030546316 0.1951943 0.07009303
000040 1e 2b 71 bd fa 8e 7f bc 6c 01 1a be 41 98 24 3e
       -0.05887901 -0.015598053 -0.15039605 0.16073705
000050 e1 fb 3e 3e ac ae eb bb 33 77 12 be 60 62 d2 be
       0.18650772 -0.0071924534 -0.14303283 -0.4109068
000060 dd da 8f be 50 f6 50 be db ca 91 bd 6e d5 12 be
       -0.28096667 -0.20406461 -0.0711877 -0.1433923
000070 32 ea 05 3e 0a 0f d2 bd 34 ab 9f 3e c0 8b 0c 3e
       0.1307762 -0.10256775 0.31185305 0.13725185
000080 3a 74 04 3e 91 03 ab 3d 11 d8 39 be 90 29 11 3e
       0.12934962 0.083502896 -0.18148829 0.14176011
000090 38 82 98 3d 27 6d 06 be 03 7a da be 8e c3 0f be
       0.07446712 -0.13127576 -0.42671213 -0.14039442
0000a0 c4 14 25 be 50 df 13 be 13 37 66 3e 72 57 87 be
       -0.16121203 -0.14440656 0.22481947 -0.26433903
0000b0 75 06 2e be 43 df 8f be 8b a8 4d be e4 a4 aa 3d
       -0.1699465 -0.28100023 -0.20083825 0.08332232
0000c0 e9 9a c4 3e 0e a1 19 be
       0.38399437 -0.15002844
