lstm_FullData/trial10/jt1_pos/lstm_model_epoch149.pth (torch, 50829 bytes, 5 tensors)

lstm.weight_ih_l0 f4 [200, 8]
000000 7b 88 99 bc e7 64 84 3c 4f b9 bd 3e 01 d7 85 be
       -0.018741837 0.016161395 0.37055442 -0.26140597
000010 a1 9a f7 3c a8 44 0c be 74 3e 2f bd da bb 4b 3e
       0.0302251 -0.13698065 -0.04278417 0.19895878
000020 03 04 0e bd 70 62 73 3a 4c 69 fd bc 65 0d 66 3e
       -0.034671795 0.00092843827 -0.030933999 0.22466047
000030 10 86 6f 3d d9 27 9a bd f1 68 a7 3b f8 6f d1 bb
       0.05847746 -0.075271316 0.0051089455 -0.0063915215
000040 8a e3 05 3b f9 58 56 3d b1 65 73 3e 74 fa 25 be
       0.0020429813 0.052330945 0.23769261 -0.16208822
000050 1e 98 f1 bc 0b b9 ee 3d fe df 27 3d a5 45 51 bb
       -0.02949148 0.11656388 0.0409851 -0.003193238
000060 ad 34 87 bd 56 04 36 3e 7f 5f a7 3d 1b f1 9c 3d
       -0.06601844 0.17775092 0.08172511 0.07663175
000070 78 a9 88 bd 7c e3 34 bd 3c db 8d bd c8 d1 2f bd
       -0.066729486 -0.04416226 -0.06926581 -0.042924672
000080 ef ea 78 3e 1a b3 45 bc 81 b0 7b 3e e5 94 55 be
       0.2430837 -0.012066627 0.2457905 -0.2085758
000090 04 3a d5 bd 03 0c 01 3e 53 68 0c 3e aa 77 f4 3d
       -0.10411456 0.12602238 0.13711672 0.119368866
0000a0 4f 6d be bd 3f cc 99 be 7b 82 94 3e fe 4e 8f be
       -0.09298193 -0.3003864 0.290058 -0.27989954
0000b0 68 9e 3a 3c ab 63 33 bd 15 74 aa 3d 7e c5 88 3e
       0.011390306 -0.043796223 0.08322922 0.26713175
0000c0 0e 9a f8 3d b9 c5 c7 bd 67 35 b9 bd f9 e1 1b 3d
       0.121387586 -0.097545095 -0.09043389 0.0380573
0000d0 fa 9a cd 3d 8e f9 f9 bc 4d 72 25 3e 8d 35 4d be
       0.10039325 -0.030514505 0.16156884 -0.20039959
0000e0 f0 f8 0f 3d b1 ed 14 bd 6b 1c f1 3d 34 52 99 be
       0.035149515 -0.036359493 0.117729984 -0.29945529
0000f0 1f 40 27 3d 21 d7 14 3c 81 e1 49 3d 8c 5b 06 3e
       0.040832635 0.009084494 0.049287323 0.1312086
000100 1d 49 6b bc 06 4a 7b 3d b1 0f 1a 3e 54 e1 82 be
       -0.014360693 0.06134989 0.15045048 -0.25562537
000110 ae b9 ef bd 03 c1 fd bd 11 75 c3 bd d5 d2 a6 bc
       -0.117053375 -0.1239033 -0.09543813 -0.020364204
000120 88 7b ef 3d a4 52 58 be 0d 9c d9 3e f7 b0 8f be
       0.116934836 -0.21125275 0.4250187 -0.280647
000130 2f 45 01 be 43 61 24 3e 1c 8c 27 bc 01 fb c9 3d
       -0.12624048 0.16052727 -0.010226276 0.09862328
000140 8b 76 0e bd d1 f9 f2 3a 5f e2 a7 bd 7b 10 db 3d
       -0.03478102 0.0018537586 -0.08197474 0.10696503
000150 60 5f d6 3d 02 e3 7d 3d cd e2 1a be 49 80 ca 3d
       0.1046741 0.06198407 -0.1512558 0.0988775
000160 45 3a 64 3e 09 de f3 bd 98 35 70 3c 0e b9 32 3d
       0.22287853 -0.11907584 0.014661215 0.043633513
000170 87 bf b2 3c f6 95 7f bd 22 0b fe bd bc 13 a1 bd
       0.021819843 -0.062398873 -0.12404467 -0.07865092
000180 8e 28 6e bd 3e 39 e8 bd 0d a1 d4 3c 1a 20 af bd
       -0.058144145 -0.11339043 0.025955701 -0.08551045
000190 97 38 4a be 99 9b dd bd 1e de 8b 3d 4c 91 0e 3d
       -0.1974815 -0.108206935 0.06829475 0.034806535
0001a0 7e 84 13 3d 41 3e 45 be df a9 63 3e 75 63 9e 3c
       0.036015026 -0.19262029 0.2223277 0.019334534
0001b0 68 a5 b4 bd 65 39 58 bd e6 19 9e 3d 1e a5 af bc
       -0.08820611 -0.05278911 0.077197835 -0.021441039
0001c0 f0 29 34 bd cc bd f6 bd f9 ea 83 3d 28 82 9c bd
       -0.043985307 -0.1204792 0.06441302 -0.07642013
0001d0 6e d5 81 3d 15 4b c3 3c 91 33 03 be 40 c4 56 3d
       0.063395366 0.023839513 -0.1281264 0.052433252
0001e0 ff 76 71 be 26 14 91 be d0 aa 07 3e c8 fc b7 bd
       -0.2358055 -0.28335685 0.13248754 -0.08983761
0001f0 2b ed 6c bd 45 ae 0e 3e d5 47 d1 bc 87 ec 4f 3e
       -0.05784337 0.13933666 -0.025546947 0.20305072
000200 89 e9 61 3d b7 42 5e bd 27 de d9 3c f8 60 2e 3d
       0.055154357 -0.054262843 0.026595188 0.042572945
000210 fd 7f 1c be cd d4 0d bd 86 d6 e4 3d df 97 13 be
       -0.15283199 -0.03462677 0.111737296 -0.14413403
000220 93 26 a8 bc 99 78 1d 3d 52 a0 06 3f 8a 8c e0 bc
       -0.020526206 0.03844509 0.5258838 -0.027410764
000230 db 64 8c 3d 73 0a 9b bd 03 18 61 3d 8e 3a 83 bc
       0.06855174 -0.075703524 0.05495454 -0.016019132
000240 a2 50 38 be 04 e0 f5 bd 8a 31 a8 3b 8e 6d b8 bd
       -0.17999509 -0.12005618 0.0051328586 -0.09005271
000250 55 ef 10 be ba 73 a1 3b a0 53 15 3e 91 79 cc bd
       -0.14153798 0.0049271258 0.14582682 -0.099841245
000260 49 3e c1 3c d4 9d a8 3d 1e 4e 1b be ea 63 47 bd
       0.02358927 0.08233228 -0.15166518 -0.04867927
000270 7d ef 94 bd f4 3f 81 bd 1c d8 f7 3c 72 69 2d 3e
       -0.07272241 -0.06311026 0.030254416 0.16934755
000280 9d 34 18 bd ca 7d b3 3d 07 93 d2 b9 00 60 97 3d
       -0.03715955 0.08764227 -0.00040163865 0.073913574
000290 f7 c7 3b 3d 60 a6 08 be 83 26 e1 bd b3 c9 2f bd
       0.045845 -0.13344717 -0.10993674 -0.042916965
0002a0 e0 78 f5 3b 29 75 eb bd df d8 9c 3e b2 57 1f bd
       0.007491216 -0.11496956 0.3063421 -0.038901992
0002b0 bc a8 3f be a7 42 22 3d f3 01 f6 b9 97 e2 ff 3d
       -0.18716711 0.039614346 -0.0004692223 0.124943905
0002c0 15 36 87 3e 2b f0 43 3d 5b 62 db bc 54 21 76 bd
       0.2640845 0.047836464 -0.026780298 -0.060090378
0002d0 70 65 ce bd c7 be 26 3e ab 22 1e 3d 87 17 25 bd
       -0.100779414 0.16283713 0.03860728 -0.04030564
0002e0 bb 1b 43 3c 9a f2 b9 3d 09 11 83 3e a0 e9 11 be
       0.011908467 0.09079476 0.25598934 -0.14249277
0002f0 c8 09 0f be 06 3b 4f be ef 8d 0b be 6a a6 22 3d
       -0.13968575 -0.2023736 -0.13628362 0.039709486
000300 b6 73 8b 3e c2 07 41 be 75 04 2d 3e ad 55 3a be
       0.27236718 -0.18850616 0.16896231 -0.18196745
000310 73 42 c9 3d 2a 09 a4 ba 8a 05 cb 3d 05 9a 2c 3e
       0.09827127 -0.0012514938 0.09913166 0.16855629
000320 b9 26 54 be d4 28 32 3e 36 a0 70 3d 77 59 96 bd
       -0.20717897 0.17398387 0.05874654 -0.07341283
000330 b2 41 32 3e 6e 27 a2 3d 52 2a c7 bd 02 55 ef 3d
       0.17407873 0.07917677 -0.09724869 0.11686136
000340 a7 d9 89 3e 32 7d 07 be 6c 7d 26 bd 09 aa a7 bd
       0.26923868 -0.13231352 -0.040646955 -0.081867285
000350 f8 0a 1d 3e e9 09 05 bd 44 ed 2b 3d ca 8d 5a be
       0.15336215 -0.032480154 0.04197432 -0.2134315
000360 fa 3c aa bd d2 b1 b5 bc cb 95 06 3e 34 38 38 3d
       -0.083124116 -0.022179518 0.13143079 0.044975474
000370 b0 95 02 be 3c ad 28 3d eb 55 a5 3b e8 ab 9e bc
       -0.12752414 0.041180834 0.0050456426 -0.01936908
000380 71 09 ea bd 77 54 43 be 63 a2 21 3e 0c 2d 84 bd
       -0.11427582 -0.1907519 0.15784602 -0.064539045
000390 af 3c d9 3d 51 89 90 bd b2 e2 b1 bd 9f e0 48 3d
       0.106072776 -0.07057441 -0.08685817 0.04904234
0003a0 d0 7d ea 3c de c7 61 3a e1 a4 7c 3e cb f5 6c be
       0.028624445 0.00086128514 0.24672271 -0.23140638
0003b0 8f e4 15 be 56 9e bb bd 3e 12 0b be 0c 74 53 3d
       -0.1463797 -0.091610596 -0.13581178 0.051624343
0003c0 df 7f e2 bc c7 39 4a 3d f1 90 68 bc 9f 44 1f be
       -0.027648864 0.049371507 -0.014194713 -0.1555352
0003d0 41 51 5d 3d ee c9 8f bd 56 4e ed 3d 40 36 63 bd
       0.054032568 -0.07020937 0.11587207 -0.05547166
0003e0 aa a7 61 3e f2 82 25 3e e2 13 9e bd 73 51 6e be
       0.22036615 0.16163233 -0.07718636 -0.23273258
0003f0 3b e3 32 bd ed 47 18 3d a7 11 a7 3d 9e e7 08 3b
       -0.043673735 0.03717797 0.08157664 0.0020890008

lstm.weight_hh_l0 f4 [200, 50]
000000 16 d8 14 3e 8f 2d 8c bc 1e 8d 17 be 7e 02 3d bd
       0.14535555 -0.017111568 -0.14799926 -0.046144955
000010 97 49 6f bd fd 6d 00 be 53 23 4c be ae 5b 82 be
       -0.05841979 -0.12541957 -0.1993535 -0.2546057
000020 5d d6 45 3e ec 9d 46 3e f7 37 f5 bd cf 56 bf bd
       0.19320054 0.1939618 -0.11973565 -0.09342729
000030 72 49 04 be d6 ad 80 3e e9 b6 d0 3c db a2 2f 3d
       -0.12918642 0.25132626 0.025477843 0.04287992
000040 3e 06 7a bd 8b d9 c6 3d 0e 26 23 3c a1 57 d1 bd
       -0.06104111 0.09709462 0.009957803 -0.10221792
000050 d4 b3 25 3e 65 91 97 bd 97 74 b9 3d 92 7a 43 3e
       0.1618188 -0.07400779 0.09055441 0.19089726
000060 11 30 9a 3a 4e f6 5d be 1f 88 02 3d c1 42 ce bd
       0.0011763592 -0.21675989 0.031868096 -0.10071326
000070 c6 f5 26 3d f0 77 0a be f6 aa 90 3b e7 5d 87 be
       0.04076173 -0.13522315 0.0044149114 -0.2643883
000080 4a b6 9b 3b 11 dd 14 3e ff 3c 77 3d 23 db f3 3d
       0.004751955 0.14537455 0.060360905 0.119070314
000090 b8 a9 04 bd 50 9f 1d bd 46 96 58 3e 36 86 a5 3c
       -0.03238842 -0.03848201 0.21151075 0.020205598
0000a0 64 15 82 3e 68 61 c1 3c 6e c8 f7 bc 3d 5d 0a bd
       0.25406945 0.023606017 -0.03024694 -0.033780325
0000b0 ed cd 84 3c e9 5a 94 bc e7 12 98 3d 5d 56 bd bd
       0.016211474 -0.018109756 0.0742548 -0.09244988
0000c0 ea 1f fd bb ea b1 ea 3d 43 fd 84 3d 89 91 8b 3d
       -0.0077247517 0.11459716 0.06493618 0.06814868
0000d0 09 2a ee bd 52 70 df bd f6 cd 97 3d 3d 29 91 3d
       -0.11629111 -0.10910095 0.07412331 0.07087944
0000e0 23 b4 0f be 2a 97 da 3c b8 66 18 3e d7 75 35 bd
       -0.1403356 0.026683409 0.14882934 -0.044301834
0000f0 cb 3b 5c bd c2 d0 8a 3d bb 3a 37 3d 31 ee a6 3d
       -0.05376796 0.06778099 0.044733744 0.081509
000100 50 59 fa 3d 21 95 12 bd 41 2c 39 be 18 09 e8 bc
       0.12224066 -0.03578675 -0.18083288 -0.028324649
000110 72 5b 4d 3d 66 cc 07 bd 34 20 f6 bd 65 4b b0 bd
       0.050136037 -0.033153914 -0.12017861 -0.0860813
000120 ed 57 ad bd 89 8d db 3c 99 80 bd bc 95 9d 84 bd
       -0.08464036 0.026800888 -0.02313261 -0.06475369
000130 52 3b ac 3d bf c5 39 3d a7 96 1a be 77 f2 34 3d
       0.08409752 0.0453546 -0.15096532 0.044176545
000140 54 6d b2 bd 75 49 3d 3a 2f 89 59 bd 3f 21 e3 bd
       -0.08712259 0.0007220724 -0.053109344 -0.110903256
000150 36 b9 ff bd d0 15 9c 3d 4b f1 39 bd f6 48 d1 bd
       -0.12486498 0.07621348 -0.04539613 -0.10218994
000160 fc 4c 2b bc 2f 94 74 3c 8c bd 01 3e 5c 6e 8a bd
       -0.010455366 0.014927908 0.12669963 -0.06759331
000170 eb c3 1e be 7f 05 ff bd fe 81 9e bd ad 09 83 bd
       -0.15504424 -0.1245222 -0.07739638 -0.0639833
000180 43 04 6a 3d 28 32 92 3d 52 ec f3 bd b0 57 4a 3e
       0.05713297 0.07138473 -0.11910309 0.19760013
000190 19 ae 8c 3c 96 88 24 bd 4c ec 8b bd 4e 11 f5 3d
       0.01717286 -0.04016932 -0.068321794 0.11966191
0001a0 5c 7a 12 3b ec 14 ce 39 bd 51 44 bd b1 8e 84 bd
       0.0022350764 0.0003930697 -0.047929514 -0.06472529
0001b0 e5 56 12 3c ca f0 01 bc 7e 9e 1e be 32 05 59 3c
       0.00893185 -0.007930944 -0.15490147 0.013245868
0001c0 71 98 d5 3c 61 ca e3 3d 80 66 9c bd dd b8 0d bd
       0.026073666 0.11122585 -0.07636738 -0.034600127
0001d0 e7 77 6a bd 46 93 13 3e c3 97 96 3d b1 f7 aa bd
       -0.057243254 0.14411649 0.07353165 -0.08348025
0001e0 5d 91 94 bd c3 a5 74 3d 1d f0 d1 3c 96 b5 ee 3d
       -0.07254288 0.059728395 0.02562719 0.116557285
0001f0 bc 6a a6 bd 8b 6a d7 3d 59 ae 17 3e 2c 36 36 3d
       -0.08125827 0.10518368 0.14812602 0.044485256
000200 5b 5b 09 be 2c 0a d6 3d 10 16 e1 bb b4 bb 5d bc
       -0.13413756 0.10451159 -0.006869085 -0.013533521
000210 a4 c2 e2 3d 1a ab a6 bc 92 4f bc bd d6 c5 74 3c
       0.11072281 -0.02034526 -0.09194864 0.014939746
000220 a9 e0 cc 3d 82 bb 8f bd a8 a7 27 bd aa 5c 88 3d
       0.10003788 -0.07018186 -0.040931374 0.06658299
000230 2d 8e 97 bc f6 b1 cc bd 38 59 e1 bd 73 94 7c 3b
       -0.018500412 -0.09994881 -0.11003345 0.003854063
000240 6f 69 87 bb 7f 34 ea bd 9a 35 24 be b4 e5 a9 3d
       -0.0041324417 -0.11435794 -0.16036072 0.082957655
000250 35 54 34 be 90 74 43 be ce 34 3a bd 11 fd a6 bc
       -0.17610247 -0.19087434 -0.045460515 -0.020384343
000260 c2 c0 e4 3c 1f 76 e4 3d 1c fc fc 3c c8 9a 38 3e
       0.027923945 0.11155342 0.030881934 0.18027794
000270 63 40 c2 bd 6f e2 67 bd bd fd 84 3d 80 ed e7 bd
       -0.09484937 -0.05661243 0.06493709 -0.113245964
000280 64 43 d6 3b 2e 57 12 3e 1f a2 2f 3c a8 29 cd 3d
       0.0065387953 0.14291069 0.010719805 0.10017711
000290 2d d3 fc bd d2 c6 8a bc e3 c9 a3 3d ea 3e b9 3d
       -0.12344966 -0.016940508 0.07997491 0.09045203
0002a0 05 8d aa 3d e2 7b 73 3d 75 c1 0b 3d 1e bc bb 3c
       0.083276786 0.059444316 0.034120042 0.02291685
0002b0 3f 33 e2 bd 9c b1 8b bd 87 c5 b8 bd 21 f4 8d bd
       -0.11044931 -0.06820986 -0.0902205 -0.069313295
0002c0 cc f4 31 3c 60 38 ea bd 67 12 e6 3d a9 15 8e bd
       0.010861587 -0.11436534 0.11233979 -0.06937725
0002d0 14 7a ee 3d 43 eb 77 bd 27 cf 3c be 8b d4 26 be
       0.11644378 -0.060527097 -0.18438397 -0.16292016
0002e0 e1 81 ab 3d df 6e fd 3d 62 e1 f3 3d 67 d7 3c bc
       0.08374382 0.123746626 0.11908223 -0.011525965
0002f0 a0 31 c7 bd 6c 26 01 be c1 87 90 bd bf 7d bc 3c
       -0.09726262 -0.12612313 -0.07057143 0.02300918
000300 ab 40 00 3e cf c9 60 3d 43 c5 d2 3a 4b 38 c9 3d
       0.12524669 0.05487996 0.0016080517 0.0982519
000310 5f 1f fb 3d 06 f9 19 be 62 89 35 3e 28 9a b7 bb
       0.12261843 -0.15036401 0.17728189 -0.0056030937
000320 57 c8 03 3e bc 1c 50 bd a1 3f 33 3d 8b 01 7a bd
       0.12869392 -0.050808653 0.043761853 -0.061036628
000330 69 35 3b 3d 53 00 7b bd dc c0 60 3b f1 f1 a5 bd
       0.045705233 -0.061279606 0.003429464 -0.08102787
000340 e8 b4 ab bc 08 2a 82 3c 75 63 1b be f3 e9 a2 bd
       -0.020960286 0.015889183 -0.15174659 -0.079547785
000350 4c 6a a6 bd 56 f4 67 3d 31 6b 3d 3c de 59 d7 3d
       -0.08125743 0.0566295 0.011561201 0.10515188
000360 c4 36 cd 3d 60 88 0a 3e d7 c4 d2 bd 39 a9 c1 3d
       0.10020211 0.13528585 -0.102914505 0.09456105
000370 0e 6e e2 3d eb 6e 95 bd ed ba 26 3d 15 ee 73 bc
       0.110561475 -0.072965465 0.04070561 -0.014888306
000380 76 5c 29 bc 4e 39 95 3d c8 81 56 3e f6 6c 06 3e
       -0.010336986 0.072863206 0.20947945 0.13127503
000390 a8 cc bf 3d 44 3d 4f bc 55 1a c1 3d 78 90 67 3d
       0.09365207 -0.012648884 0.094288506 0.05653426
0003a0 e2 70 26 3a 7b e0 ce bd 0c c9 03 bd d0 81 2b be
       0.00063492183 -0.1010141 -0.032174155 -0.16748738
0003b0 79 e6 6a bd 3e 92 2c 3e a4 d5 a3 3c c9 43 e3 bd
       -0.057348702 0.16852662 0.019999333 -0.11096913
0003c0 46 a2 48 bd da 8a 01 be be e0 84 bd 69 3a f5 3d
       -0.04898288 -0.12650624 -0.06488179 0.119740315
0003d0 71 32 10 be 03 da c3 bd 7b 0b a5 3c 59 45 a9 bc
       -0.14081742 -0.09563067 0.020147076 -0.02066295
0003e0 c5 2a 28 bb a9 16 f7 3d a4 2a 18 3e 6f 41 85 3d
       -0.0025660258 0.12064869 0.14860016 0.06506621
0003f0 e1 0d 45 3e 10 0e 15 3d df 8a 6b be 68 58 56 3c
       0.19243576 0.036390364 -0.23002194 0.013082601

lstm.bias_ih_l0 f4 [200]
000000 ed 95 8e 3e 36 ca 24 3e b9 14 2b 3e c1 6a f2 3d
       0.2784876 0.16092762 0.16707124 0.11836768
000010 77 76 b9 3d e3 ac ed 3e 4d 41 a9 3d fb a3 69 3e
       0.090557985 0.46420965 0.08264408 0.2281646
000020 74 0a 51 3e fe d9 ff 3d 2c 58 13 3e fd 4b 40 3e
       0.20414144 0.124927506 0.14389104 0.18778987
000030 ad bf 8d 3e 62 c5 25 3e b6 3f b1 3d 49 cc df 3d
       0.276853 0.16188577 0.0865473 0.10927636
000040 c2 20 ab 3d e6 dd 0f 3d 4e 72 c4 3d a5 c5 4c 3e
       0.083558574 0.03512373 0.095921144 0.1999727
000050 84 5b 94 3d 08 da 6a 3e b6 52 61 3e 2a 00 5b 3d
       0.07244018 0.22934735 0.22004208 0.053466953
000060 0c 37 cb 3c 57 62 20 3e 40 32 49 3c 93 1b 0c 3e
       0.024806522 0.15662514 0.012280047 0.13682394
000070 bc a4 63 3e 2f 6c 18 bd fc 0a 3f 3e de e6 14 3e
       0.2223081 -0.037212547 0.18656534 0.14541194
000080 1c d7 db bc eb 53 b6 bd 4d 4a d5 bc 8d 95 82 3d
       -0.02683597 -0.08902725 -0.026036406 0.06376181
000090 47 66 92 3e 60 91 4d 3e e2 db bc bb 71 a0 00 3e
       0.28593656 0.20074987 -0.0057635168 0.12561204
0000a0 5a 3c 29 3e a1 24 8d 3e 4c 99 d7 3d 89 da 0f 3e
       0.16526929 0.27567008 0.10527286 0.14048208
0000b0 1f 5b 04 3e d5 e8 21 3e ef ca e3 3c fb e4 69 3e
       0.12925385 0.15811475 0.027806727 0.22841255
0000c0 bf e2 8a 3e f4 99 34 3e d8 f2 b8 3d 9b 4a e2 3c
       0.2712612 0.17636853 0.09030694 0.027623465
0000d0 e9 1c 1c bd aa a7 ea bd d4 cf d0 bd 08 22 44 3d
       -0.03811351 -0.11457761 -0.1019589 0.047884017
0000e0 16 6e 98 bb 22 58 fc 3c 03 18 6f 3a bb bd 21 bd
       -0.004651795 0.030803744 0.00091207045 -0.03948758
0000f0 98 1c 21 3e f1 a5 e7 3d c4 b0 06 3e 14 45 c1 bd
       0.15733564 0.11310948 0.13153368 -0.09437004
000100 f5 91 1b 3e ca f6 c3 3d 16 1e 2e 3d a5 7e 65 bd
       0.15192397 0.09568556 0.04250916 -0.05602898
000110 d0 4c 13 be cc 0a 1a 3e bb a2 b5 3d 4d 34 1e 3e
       -0.1438477 0.15043181 0.08868929 0.15449639
000120 0a d1 6b bd 02 fb 30 3e 65 aa 07 3e f7 22 1e 3e
       -0.057572402 0.17283252 0.13248594 0.15443026
000130 9d 63 85 3c c4 44 3d bd 57 73 85 3d ae 46 04 bd
       0.01628285 -0.046208158 0.0651614 -0.032293968
000140 0a 95 44 bd c5 8b 50 3c a1 52 8b 3d 50 4a 0e 3d
       -0.047993697 0.012728636 0.068028696 0.03473884
000150 5a 7d c8 3d 1e b0 89 bd 46 a8 78 bd ea 2f 0a bd
       0.09789534 -0.06723045 -0.060707353 -0.0337371
000160 c0 56 e6 3d b2 a6 ff bc 2c e9 26 3e ee ce 98 3d
       0.11247015 -0.031207416 0.16299886 0.07461344
000170 2f 53 14 bd 86 ea b0 3c ba 9a 10 3e ff 0e d2 3d
       -0.036212143 0.021596204 0.14121523 0.102567665
000180 d4 03 cc 3d 10 d7 1b 3d 75 8c c0 3d 7b 9b 93 3d
       0.09961668 0.038046896 0.0940179 0.0720739
000190 40 09 21 3e ab 01 f0 bd 03 36 7a bd bf 44 dd 3d
       0.15726185 -0.11719068 -0.061086666 0.10804128
0001a0 0d 26 09 3d 7b 39 91 3c 62 4b e5 3d 75 b9 ef bd
       0.033483554 0.017727604 0.11196019 -0.11705295
0001b0 4a 44 d4 bd 62 8c a5 bd 9c bc a9 bd 1a f9 88 bc
       -0.103645876 -0.080834165 -0.082879275 -0.016720343
0001c0 c2 eb 38 3d 65 13 87 3d bc cd fb 3d a1 21 fa 3c
       0.04514671 0.06595496 0.122951 0.030533614
0001d0 db 22 a1 bc 38 3e 0c 3e 5f a3 a9 3d fd 0a b1 3d
       -0.01966994 0.1369561 0.08283114 0.08644674
0001e0 a4 62 e2 3d 29 6e 5d 3d d0 31 9f bd 7c c0 6a bc
       0.110539705 0.054060135 -0.07773173 -0.014328118
0001f0 69 11 5e bd f1 f7 2c 3d 49 9b b3 3d 0d c8 61 3d
       -0.054215822 0.042228643 0.08769853 0.055122424
000200 50 47 fc bd fe 6c 86 bd 5d bb fc bc aa 27 0d be
       -0.12318289 -0.06563757 -0.03085106 -0.13784662
000210 7f dd cb bd 5c 81 eb bc ec f4 fd bc 75 00 cc bd
       -0.099543564 -0.028748207 -0.031000577 -0.09961025
000220 84 89 fc 3d 01 2a 0d 3e c8 07 24 3d 2c 6f 06 be
       0.123309165 0.13785554 0.040046483 -0.13128346
000230 75 ca 37 3e e3 19 d1 38 35 ae 16 be 1c 75 54 3d
       0.17948325 9.9707184e-05 -0.14714892 0.051869497
000240 de e7 99 bd 67 e5 15 be 88 c5 1b 3c 39 54 dd bb
       -0.07514928 -0.14638291 0.009507544 -0.006754425
000250 74 c5 88 bd 64 d3 f9 3d 87 6c ed 3d 8f ae 87 3d
       -0.06678286 0.12198523 0.115929656 0.06625091
000260 b2 b0 56 3e 0c 0f 2c bd 11 c1 bf 3c 44 aa b4 3e
       0.20965841 -0.042006537 0.02340749 0.35286152
000270 d6 8d 40 bd 1f 75 0d 3e 95 ec e5 3b 8c 55 88 bd
       -0.047010265 0.1381421 0.007016728 -0.06656942
000280 55 81 b9 3d 27 2b 4b 3e 60 b0 f0 3d 24 57 8f 3e
       0.09057871 0.1984068 0.11752391 0.2799617
000290 b5 9b 22 3e 91 8e ca 3d 7e 71 d3 3d 0e 6b dd 3d
       0.1587971 0.09890474 0.10324381 0.10811435
0002a0 29 7c 06 be 7f 1c 72 bc 3e 8d dd bc 2f 36 7f 3d
       -0.13133301 -0.014777302 -0.027044889 0.062307533
0002b0 a0 e9 94 3d ad 94 9a 3c 9b ec 1e 3e 80 4d 2c 3e
       0.07271123 0.018869722 0.15519945 0.16826439
0002c0 66 63 30 3d 59 ce 8e bd 70 f1 da ba 4c 80 c1 3d
       0.043063544 -0.069729514 -0.0016704034 0.09448299
0002d0 aa 92 7d 3e ea 55 eb 3d ec 95 c6 bc a8 64 8c bc
       0.24762979 0.11490996 -0.02424141 -0.01713784
0002e0 52 07 b7 bc d1 f2 a7 3c 1b 00 20 3e 16 f0 c3 3c
       -0.022342358 0.020501526 0.1562504 0.023918193
0002f0 c9 d3 dc 3d b4 e9 35 3e 35 fd 5b 3e 1a 89 08 3e
       0.10782582 0.17764932 0.2148331 0.1333355
000300 69 8e 72 3e d6 e8 6b 3e f4 52 1a 3e 31 42 30 3e
       0.23687138 0.23038039 0.15070707 0.1721275
000310 ef b2 0b 3d ec 8c 4b 3e 58 5c 41 3e 54 d9 f9 3b
       0.03410619 0.19877976 0.18882883 0.0076247845

lstm.bias_hh_l0 f4 [200]
000000 37 ca af 3e 20 9e 7b bd b4 2f 39 3d 28 63 65 3d
       0.34333965 -0.061430097 0.04521151 0.056002766
000010 a2 09 82 3c c5 19 89 3e 79 d2 b6 3d 89 5e 6e 3e
       0.015873734 0.26777473 0.08926863 0.2327825
000020 3b dd 47 3e 30 e4 66 3e 19 a4 4b 3e 5b 4e 5e 3e
       0.19517986 0.22547984 0.19886817 0.21709578
000030 78 a1 71 3e 6c d8 b3 3e d6 4f 28 3e f0 d8 4e 3e
       0.23596752 0.35126054 0.16436705 0.20199943
000040 b6 08 26 3e 1e 32 da 3d cc b8 d8 3d 39 93 6f 3c
       0.1621426 0.1065409 0.10582122 0.014622503
000050 f3 36 78 3e 0d 6c b9 3d d6 46 ab 3d fa f9 83 3e
       0.24239711 0.09053812 0.0836312 0.25776654
000060 df 41 05 3e 5a 10 41 3e a4 74 d1 3d 1d 80 af 3b
       0.13013409 0.18853894 0.102273256 0.0053558485
000070 e4 19 70 3e 5c 97 5c 3d d0 b1 66 3e 2b cd 5b 3e
       0.23447376 0.053855285 0.22528768 0.21464984
000080 1e ce 5c 3e aa 0e db 3b 19 dd 93 bd a3 10 23 3e
       0.21563002 0.0066850977 -0.072199054 0.15924315
000090 88 15 24 3d bc 7a 1f 3e da 6e 75 3e 5f 65 70 3e
       0.040059596 0.15574163 0.23968068 0.2347617
0000a0 ea 93 e2 3d 3e e9 91 3e 24 f6 f7 3d 6b 05 b5 3c
       0.110633686 0.28498262 0.121074945 0.02209731
0000b0 38 2b 3c 3e bf 5e 1b 3d 4f 87 53 3d 3f 92 77 3e
       0.18375862 0.037932154 0.051642712 0.24176882
0000c0 8a 40 11 3e af f9 59 3e 22 8f 8a bd 63 d8 a6 3d
       0.14184776 0.21286653 -0.06765582 0.08146741
0000d0 23 e8 cc bc 5d 90 c8 bd c2 7d 2b bd 80 d2 e6 bd
       -0.025013035 -0.0979316 -0.04186798 -0.112706184
0000e0 72 9b 35 3c 8f 6f 8c bd d1 84 e9 3b 4b 4d ca bc
       0.011084424 -0.068572156 0.0071264287 -0.02469506
0000f0 07 16 4e 3d 46 f6 3e 3c 1f ec 72 bd 9d 03 bc 3d
       0.050313976 0.011655396 -0.059307214 0.09180377
000100 f1 54 53 bd fa b3 a3 3c 5e 0a 9b bd 5c 13 33 3d
       -0.05159468 0.01998328 -0.07570337 0.043719634
000110 cc ed 80 bd 9a 34 27 b9 63 3e 3f 3e 94 0d 0c 3e
       -0.06295356 -0.00015945957 0.18676142 0.13677055
000120 4b d4 1a 3e eb 3f 57 3e 34 87 1a 3d a1 d3 40 3e
       0.15120046 0.21020477 0.037726596 0.1883073
000130 b2 30 85 bd dd 88 18 3e b9 a6 03 bd 91 73 00 3e
       -0.065034285 0.14895959 -0.03214142 0.12544085
000140 48 65 87 3d 55 0a fc 3d 2e fe cd 3d 1a 29 0b 3e
       0.06611115 0.12306658 0.100582466 0.13589898
000150 0d 09 a7 bd a0 b2 a7 3d bf 54 98 3d 7a be 72 3d
       -0.08156023 0.08188367 0.07438039 0.059263684
000160 1a 29 d3 bd 26 2a 28 3e 47 90 8f 3d 3f 44 c2 3d
       -0.10310574 0.16422328 0.070099406 0.09485673
000170 d6 30 04 3e 8b fb 09 3e d6 d7 1e 3d 85 06 97 3b
       0.12909254 0.13474862 0.038780056 0.0046089315
000180 a0 4a 06 3e 2c 04 62 bd 25 a1 9d bd 02 8e 2a bd
       0.13114405 -0.05517976 -0.076967515 -0.041639335
000190 dd f7 ff 3c 58 fc a1 3c 28 44 83 3d 79 35 62 3d
       0.03124612 0.019773647 0.06409484 0.055226777
0001a0 ab 09 da bd f7 fb 88 bd c7 93 9c bd 7a aa 10 be
       -0.10646375 -0.066886835 -0.07645374 -0.14127532
0001b0 dd 31 b7 3d 92 e6 bd bd 1b 4d 0e be 3e fb 04 be
       0.089450575 -0.092724934 -0.13896601 -0.12986466
0001c0 d8 cd 8f bd 8a 03 36 bd 90 a9 cd 3c 82 cc 11 be
       -0.070216835 -0.04443697 0.025105268 -0.1423817
0001d0 f6 ee d0 bd df fb 94 3d 97 b7 02 3e c5 16 fa 3d
       -0.10201828 0.07274603 0.12765346 0.12211374
0001e0 35 96 7b bc 45 6d 9e 3d 25 62 04 be 0f 07 0d 3e
       -0.015355636 0.07735685 -0.12928064 0.13772224
0001f0 fe 77 42 bd 9d 1b 82 bd c7 5d ba 3d 16 72 e9 3d
       -0.047477715 -0.06352923 0.09099918 0.11398713
000200 f8 fd 71 bd a3 d5 f8 3b 27 f1 ab 3d 8d bf 3c bd
       -0.059080094 0.007593827 0.083956055 -0.046081115
000210 d0 77 9c 3d 1d 50 16 be cc 9e e5 3d 82 43 ea bd
       0.0764004 -0.14678998 0.11211929 -0.11438657
000220 47 57 59 bd 0a 3e 44 3c 78 f2 1e 3b c0 d6 22 3d
       -0.05306175 0.011977682 0.002425341 0.039755583
000230 04 db 12 3e 50 d7 78 3d 76 49 58 3d 33 ec 10 be
       0.1434136 0.060752213 0.052804433 -0.14152603
000240 c3 4b 9f bd f9 fa db bd 03 1f 72 3d 20 bf 48 3c
       -0.07778122 -0.107412286 0.059111606 0.012252599
000250 84 cf 85 bd 23 0f 62 bd c3 3e 97 3e a4 df f0 3d
       -0.06533721 -0.055190217 0.2954007 0.11761406
000260 c3 69 60 3e c1 9f 1c 3e 67 22 a4 3c ab a7 ae 3e
       0.21915345 0.15295316 0.020035936 0.34112296
000270 b5 72 37 bd 95 a3 a3 3e e5 a2 e6 3d 42 f1 26 bd
       -0.044787128 0.3196074 0.112615384 -0.040757425
000280 53 74 23 3e 5e 06 6f bc 5c ca 8c 3e 0b 4c 13 3e
       0.15962343 -0.01458892 0.27498138 0.14384477
000290 a2 00 80 bc 63 8f a7 3c 95 4b 66 3e fa e9 4a 3e
       -0.015625302 0.020454114 0.2248977 0.19815817
0002a0 3d 00 3a bd 13 0a 0d 3e 4c c1 69 3d 02 5a b0 3a
       -0.045410383 0.13773374 0.057069108 0.0013454559
0002b0 70 b6 41 bd 81 06 28 3e ae be 24 3e 0f 9f 44 3e
       -0.047293127 0.16408731 0.16088364 0.19201301
0002c0 d8 f2 10 3e 1f 3f 55 3d 5e db b0 3d a6 5f 3c 3e
       0.14155138 0.05206215 0.08635591 0.18395862
0002d0 62 ea 86 3e fc 98 69 3d ee bc 97 bc 43 d5 5e bd
       0.26350695 0.057030663 -0.018522706 -0.0544026
0002e0 bf 38 f1 3c 22 9c 39 3e 26 d9 55 3c d2 d8 4b 3e
       0.029446004 0.18125966 0.0130522605 0.19906929
0002f0 b1 d5 77 3e a2 72 1b 3e 2a ff f3 bb 70 fb 7d 3d
       0.2420261 0.15180448 -0.0074461894 0.062007368
000300 87 f7 4f 3d f7 d6 46 3e f2 41 2b 3d af 56 59 3e
       0.05077317 0.1941794 0.041810937 0.21224473
000310 08 d6 a4 3d 57 b4 c6 3d 79 4b b7 3e f0 b2 00 3e
       0.08048636 0.09702366 0.3579977 0.12568259

linear.weight f4 [1, 50]
000000 76 62 24 be 14 3d 04 3e 32 0a 49 3e 67 6b 1f be
       -0.16053185 0.12913924 0.19632795 -0.15568314
000010 60 fc 4a be 44 c3 0c 3e 04 d0 b4 bc 0c 54 4c 3e
       -0.19822836 0.13746363 -0.022071846 0.19953936
000020 15 26 dc bd 1e a3 37 be 1e 17 04 3e 72 e8 ff bd
       -0.10749451 -0.17933318 0.12899444 -0.12495507
000030 38 18 27 3e de 10 5e be 8b d7 cf 3d cc b4 a1 bd
       0.16317832 -0.21686122 0.101485334 -0.078958124
000040 dd 8d 55 be 70 3a 41 3e 51 27 c4 3c 33 78 09 be
       -0.20854898 0.18869948 0.023944529 -0.13424759
000050 3b 4f 26 3e 70 4d 42 3e 9e 2d 3b 3e 66 88 29 3e
       0.16241162 0.18974853 0.1827912 0.16555938
000060 e2 e2 4b be 33 d7 1a 3e 48 11 06 be 6a 2d 30 3d
       -0.19910768 0.15121154 -0.1309253 0.04301206
000070 40 96 54 be 4e 17 46 be 96 48 58 be 02 63 cb 3d
       -0.20760441 -0.19344828 -0.2112144 0.099309936
000080 df af 27 3e b0 0e aa 3b 9f b1 a9 3c 7c bf b8 3d
       0.16375683 0.005189739 0.02071458 0.09020898
000090 60 65 2c be e9 ed 31 be cc 03 7f be 10 30 65 3e
       -0.16835546 -0.17375912 -0.24903792 0.22381616
0000a0 1d 58 34 be 5a e2 9b 3a d3 c2 52 3d 8e 61 d4 3d
       -0.17611738 0.001189302 0.05145533 0.103701696
0000b0 96 33 06 3e 64 a6 18 3e 1f 5c 7d 3e 80 98 3a 3e
       0.13105616 0.14907223 0.24742173 0.18222237
0000c0 52 14 e4 3d fa 4b c4 bd
       0.11136688 -0.09584804
