lstm_FullData/trial9/jt1_pos/lstm_model_epoch143.pth (torch, 50829 bytes, 5 tensors)

lstm.weight_ih_l0 f4 [200, 8]
0	0xbeaee3ae	-0.3415808
1	0xbe7de846	-0.24795637
2	0xbe16bf01	-0.147213
3	0xbf51b37b	-0.8191449
4	0xbe1fd5a8	-0.15608847
5	0x3d73ec3c	0.059551463
6	0x3ebe52b4	0.37172472
7	0xbe6dbf06	-0.23217401
8	0x3ef44980	0.47712326
9	0xbf274719	-0.6534286
10	0xbd30d48e	-0.043171458
11	0xbe94f865	-0.2909576
12	0xbe0a4d40	-0.13506031
13	0xbdf4023c	-0.11914489
14	0xbc47e0f8	-0.012199633
15	0x3db5c202	0.08874895
16	0xbf15d90c	-0.5853431
17	0xbec2e7e1	-0.38067535
18	0x3df67c42	0.12035419
19	0xbe72dbb6	-0.23716626
20	0xbf5204e6	-0.82038724
21	0x3e1ab311	0.15107371
22	0x3ea1a47c	0.31570804
23	0x3d7d1e53	0.061796498
24	0x3db7742b	0.08957704
25	0xbe12c7a1	-0.14333965
26	0x3a81cb83	0.000990257
27	0xbdbc9582	-0.09208204
28	0xbd197f88	-0.03747514
29	0x3c1e50f5	0.009662856
30	0xbe67b2a0	-0.22626734
31	0xbdda9159	-0.10672254
32	0x3d4941fe	0.0491352
33	0xbee5d126	-0.4488613
34	0x3e18ce6d	0.14922495
35	0xbedc86e4	-0.43071663
36	0x3e45cb91	0.19315936
37	0x3d2fba32	0.04290218
38	0xbe0f875c	-0.14016479
39	0x3dfd4b35	0.1236786
40	0xbc944678	-0.018100008
41	0xbe63c9b4	-0.22244912
42	0xbe291e82	-0.16515544
43	0xbcd8ff20	-0.02648884
44	0xbcfb6ca5	-0.030691454
45	0xbcd431b0	-0.0259026
46	0x3e137f83	0.1440411
47	0xbea1a864	-0.31573784
48	0x3efc26da	0.4924839
49	0xbd437a34	-0.047723964
50	0x3b563ea8	0.0032691155
51	0xbef08937	-0.46979687
52	0x3de58aca	0.112081125
53	0x3d96a000	0.07354736
54	0xbd92d506	-0.07169537
55	0xbe18792d	-0.14889975
56	0xbe65762f	-0.22408365
57	0xbe2248e5	-0.1584812
58	0xbd15cd03	-0.036572468
59	0xbe00eb1f	-0.12589692
60	0x3ed547a3	0.41656217
61	0xbde21379	-0.1103887
62	0xbc3eb4ec	-0.011639815
63	0xbc919ec6	-0.017775904
64	0xbe8f9176	-0.28040665
65	0xbf366007	-0.71240276
66	0xbe8e1d6d	-0.27756825
67	0x3e902047	0.28149626
68	0x3e542cea	0.20720258
69	0x3e09f51e	0.13472411
70	0xbe34bf89	-0.1765119
71	0x3db4210b	0.08795365
72	0x3f01697d	0.5055159
73	0x3d9feb57	0.078085594
74	0x3d6433d1	0.05571348
75	0xbd9a45d8	-0.07532853
76	0x3e1b8f81	0.15191461
77	0xbd8fa41b	-0.070137225
78	0x3e8d30c4	0.27576268
79	0x3dab59df	0.08366751
80	0x3e775b42	0.24155906
81	0x3d963047	0.07333427
82	0x3e9e04c1	0.30863002
83	0xbe7caf14	-0.24676162
84	0xbd7635b4	-0.06010981
85	0xbe170f2c	-0.14751881
86	0xbd846e19	-0.06466312
87	0x3dd9ab0b	0.10628327
88	0xbe284fa4	-0.1643663
89	0x3d1244b1	0.03571004
90	0x3f451831	0.7699004
91	0xbe0bf835	-0.13668902
92	0xbd9a8b53	-0.07546105
93	0x3d4f21a9	0.05056921
94	0xbe5bd401	-0.21467592
95	0x3e54159c	0.20711368
96	0xbe1cf776	-0.15328774
97	0xbc085101	-0.008320094
98	0xbd65d437	-0.056110587
99	0x3e07409a	0.13208237
100	0xbd09800e	-0.033569388
101	0xbc6dea3c	-0.014521178
102	0xbe4bc6ee	-0.19900104
103	0x3e16944e	0.14705011
104	0xbe45c9db	-0.19315283
105	0xbd932873	-0.071854495
106	0x3df2e6eb	0.1186045
107	0xbe1ca552	-0.1529744
108	0x3d494fae	0.049148254
109	0x3cafde5c	0.021468334
110	0x3e0f447a	0.13990965
111	0x3cf50640	0.029910207
112	0x3d907ada	0.07054682
113	0xbd9b1892	-0.07573046
114	0x3e1ada15	0.15122254
115	0xbd873e49	-0.06603677
116	0xbd249650	-0.04018241
117	0xbd740105	-0.059571285
118	0x3d9e1baf	0.07720124
119	0xbdb08f14	-0.0862104
120	0x3da0b24b	0.07846507
121	0x3ceddeca	0.029036898
122	0x3e8debec	0.27719057
123	0xbcafc52f	-0.02145633
124	0x3db96708	0.09052855
125	0xbe41d6fb	-0.18929665
126	0xbea3c263	-0.31984243
127	0x3dbefc93	0.093255185
128	0x3dac0cb4	0.084008604
129	0x3e4b7431	0.19868542
130	0x3e781198	0.24225461
131	0xbe538b33	-0.20658569
132	0xbb866a62	-0.0041020373
133	0xbca1b2d8	-0.0197386
134	0xbe5724b5	-0.21010096
135	0x3be3af59	0.0069483933
136	0x3e2af35f	0.16694401
137	0xbdd42acd	-0.10359726
138	0xbebb2ab7	-0.36556026
139	0xbeb6745d	-0.35635653
140	0xbcfcdcb3	-0.030866956
141	0x3e8b4c8a	0.27206832
142	0x3d682e2e	0.056684665
143	0x3c018e07	0.007907397
144	0xbe9fd897	-0.31219932
145	0xbe669f99	-0.22521819
146	0x3e84eff2	0.25964314
147	0xbe407f5b	-0.18798582
148	0xbdb6841e	-0.08911918
149	0xbe2384da	-0.15968648
150	0x3e860a25	0.26179615
151	0x3e0307be	0.12795922
152	0x3e19486d	0.14969034
153	0x3c98b725	0.018642018
154	0x3d535f2f	0.051604446
155	0x3aeeec50	0.0018228386
156	0xbd8a7bdd	-0.06761906
157	0xbd84301f	-0.06454491
158	0x3e43dcb6	0.19127163
159	0xbe0f0b8e	-0.13969252
160	0x3eb91172	0.36146122
161	0x3eb67835	0.35638586
162	0xbecad0d0	-0.39612436
163	0xbef82fc8	-0.48473954
164	0xbd8c53ff	-0.068519585
165	0x3dd7f0f3	0.10544004
166	0xbe99132b	-0.29897436
167	0xbde24c44	-0.11049703
168	0x3dae851c	0.08521482
169	0xbe5eea3e	-0.21769044
170	0x3e6f9596	0.23396906
171	0xbe09c8ff	-0.1345558
172	0x3e594eda	0.21221486
173	0xbd832e49	-0.064053126
174	0x3e2c6b0e	0.16837713
175	0xbe526e43	-0.20549874
176	0x3ea9345b	0.33047757
177	0xbdd8b953	-0.10582223
178	0x3e2c2516	0.16811022
179	0x3deafa43	0.11473515
180	0xbe54cffc	-0.20782465
181	0x3bbb8dbe	0.005723684
182	0xbe095067	-0.13409577
183	0xbca169d4	-0.019703783
184	0x3e5b87b4	0.21438485
185	0x3c13cd1c	0.00902107
186	0x3ee3dbe2	0.44503695
187	0xbee1c4f4	-0.44095576
188	0xbdf373f1	-0.118873484
189	0x3daffa40	0.08592653
190	0x3daf90a8	0.08572513
191	0xbbaea599	-0.0053297994
192	0xbc785f26	-0.015159404
193	0xbdc12c25	-0.09432248
194	0x3f431542	0.7620431
195	0xbe9d629a	-0.3073929
196	0x3c45112e	0.012028022
197	0x3e2757be	0.16342065
198	0xbd322f8e	-0.043502383
199	0x3e7a5f66	0.24450454
200	0x3e98e059	0.29858664
201	0xbe8db09b	-0.27673802
202	0x3f12630b	0.5718238
203	0xbf189a69	-0.5961061
204	0x3d484904	0.048897758
205	0xbe87623e	-0.2644214
206	0x3dfec980	0.12440777
207	0xbdb4d37e	-0.088294014
208	0x3ed35eb4	0.4128319
209	0xbc90e232	-0.017685983
210	0x3eaca812	0.33721977
211	0xbeb99c77	-0.36252186
212	0xbd98e392	-0.074652806
213	0x3dd8f18d	0.10592947
214	0x3e88a369	0.26687172
215	0x3d946525	0.07245854
216	0x3efb43dd	0.49075213
217	0xbe71b927	-0.23605786
218	0xbeb74e08	-0.3580172
219	0xbdeb76a2	-0.11497237
220	0xbdb786ae	-0.08961235
221	0xbe25c1ba	-0.16187182
222	0xbc4d114f	-0.012516334
223	0xbd15bc4d	-0.03655653
224	0xbe67c261	-0.22632743
225	0x3e2da801	0.1695862
226	0x3e9cb143	0.3060399
227	0xbc21287b	-0.009836311
228	0xbe7cb839	-0.2467965
229	0xbe14259e	-0.14467475
230	0xbd86b825	-0.065780915
231	0x3e64781f	0.22311448
232	0xbe60fe4d	-0.21972008
233	0x3e2e7b82	0.17039302
234	0x3f223be6	0.6337265
235	0x3c952132	0.018204305
236	0xbe105db5	-0.14098246
237	0x3e2b2714	0.16714126
238	0xbec2d27d	-0.38051215
239	0xbd0b641f	-0.03403103
240	0x3ef9991a	0.4874962
241	0xbe321a06	-0.1739274
242	0xbdaddb9b	-0.08489152
243	0x3d5be435	0.053684432
244	0x3e201866	0.15634307
245	0xbe7beace	-0.2460129
246	0xbe1f7fc8	-0.15576088
247	0xbe6547f7	-0.22390734
248	0x3e838270	0.25685453
249	0xbe11fecf	-0.14257358
250	0x3cdbdff4	0.026840188
251	0xbed54f89	-0.41662243
252	0x3e5f7405	0.21821602
253	0x3e496912	0.19668987
254	0xbe9a3c6f	-0.30124232
255	0x3e43c768	0.19119036

lstm.weight_hh_l0 f4 [200, 50]
0	0x3c52d230	0.012867495
1	0xbda39ff2	-0.079894915
2	0x3d68bd4e	0.05682116
3	0xbdf0f588	-0.11765581
4	0x3edeb495	0.43497148
5	0x3da03374	0.07822314
6	0xbb14f120	-0.002272673
7	0x3dd97bf6	0.10619347
8	0x3d7d6193	0.061860632
9	0xbe000904	-0.12503439
10	0xbe31a51c	-0.1734814
11	0x3da31f61	0.079649694
12	0x3e6cabdd	0.23112436
13	0x3dce8f35	0.10085908
14	0x3e3eff13	0.1865199
15	0x3e8a9a20	0.27070713
16	0xbe80630c	-0.25075567
17	0xbe01cebf	-0.12676524
18	0x3e346887	0.17617999
19	0x3e4c25ab	0.19936244
20	0xbea0b890	-0.3139081
21	0x3dffb28c	0.12485227
22	0x3ce4a091	0.027908595
23	0xbd37590b	-0.044762652
24	0x3d820103	0.06347849
25	0x3decc1c3	0.115603946
26	0xbd939a39	-0.0720715
27	0x3edb6f4b	0.42858347
28	0x3e5db135	0.2164963
29	0x3d3c7973	0.04601426
30	0xbbf1f30d	-0.0073837102
31	0x3dbfe90a	0.093706205
32	0xbe8a630e	-0.27028698
33	0xbdb506a9	-0.08839161
34	0xbc24d92b	-0.0100615425
35	0xbe5397df	-0.20663403
36	0x3e83e1e4	0.25758278
37	0xbe767b29	-0.2407042
38	0xbd3be873	-0.045875978
39	0x3ee69f08	0.45043206
40	0xbea9c8b1	-0.33160928
41	0xbe53e69a	-0.20693436
42	0x3dd9209d	0.106019236
43	0x3e157c1f	0.1459813
44	0xbe00c7ee	-0.12576267
45	0x3e633b13	0.22190504
46	0x3d9e1b44	0.07720044
47	0xbdd84c66	-0.10561447
48	0x3e1dcd1c	0.15410274
49	0x3dd3f942	0.103502765
50	0x3e39ba04	0.18137366
51	0x3ad12285	0.0015955722
52	0xbd1350c7	-0.035965707
53	0xbd4f2e4b	-0.050581258
54	0xbdfae175	-0.12250034
55	0x3d46ad4c	0.048505113
56	0x3becadd4	0.0072228704
57	0xbc46ba45	-0.012129371
58	0xbdd51eec	-0.104062885
59	0xbd0484a2	-0.03235305
60	0x3e5f28b0	0.21792865
61	0x3e808d31	0.2510772
62	0xbdb04052	-0.08606018
63	0x3e4ccf6d	0.20001002
64	0x3e612aa4	0.21988922
65	0xbd1ee388	-0.03879121
66	0x3dfd298a	0.123614386
67	0x3e235ff7	0.15954576
68	0xbe2d1c3a	-0.16905299
69	0xbe701a97	-0.23447643
70	0x3c83393a	0.016018499
71	0xbe105b8f	-0.14097427
72	0xbc00d1ad	-0.007862491
73	0x3e3d7c81	0.18504526
74	0x3e66eee4	0.22552067
75	0xbdc67cfa	-0.09691806
76	0x3e9fe887	0.31232092
77	0x3c19c854	0.009386141
78	0x3e814ce6	0.2525398
79	0xbdfe3a18	-0.12413424
80	0x3cc20f61	0.023688974
81	0x3e8f706a	0.28015453
82	0xbd4880cb	-0.04895095
83	0xbe10c7e0	-0.14138746
84	0x3d670bd4	0.056407765
85	0x3dfd3dc9	0.123653
86	0xbd639794	-0.055564478
87	0x3c986a51	0.018605383
88	0x3d4bc273	0.049745988
89	0xbdd94a57	-0.10609882
90	0xbded5ed5	-0.115903534
91	0xbcb329d0	-0.021870524
92	0xbe42687c	-0.1898517
93	0xbdc570b5	-0.09640638
94	0xbe987102	-0.29773718
95	0xbc072176	-0.008247724
96	0x3d3affbc	0.045654044
97	0xbd92a0c6	-0.07159571
98	0xbe909237	-0.28236553
99	0x3d2167db	0.039405685
100	0xbe8d55a0	-0.2760439
101	0xbe19a420	-0.15004015
102	0x3e059b91	0.13047625
103	0x3ebfae7b	0.37437806
104	0x3e7e4502	0.24831012
105	0xbdfea9ef	-0.12434756
106	0x3df988a0	0.12184262
107	0xbe30bbb9	-0.1725911
108	0x3e954df2	0.2916103
109	0x3ec124f3	0.37723503
110	0x3e80fd43	0.25193223
111	0x3d12d8de	0.035851352
112	0x3d0a4932	0.03376121
113	0x3e95a432	0.29226834
114	0xbe5dbbb6	-0.21653637
115	0x3d83bcf9	0.06432528
116	0xbe47faa2	-0.19529203
117	0xbece3ebd	-0.4028224
118	0xbedc17ec	-0.42987
119	0x3ef52ac9	0.47884205
120	0xbed5b302	-0.41738135
121	0x3f175b45	0.5912364
122	0x3d3cc10a	0.046082534
123	0xbe801455	-0.25015512
124	0xbe96ac24	-0.29428208
125	0xbdf6b859	-0.1204688
126	0x3d206b59	0.039164875
127	0x3ed821d5	0.42213312
128	0x3e5809ef	0.2109754
129	0x3cf2bae2	0.029630128
130	0x3f18cfcb	0.59692067
131	0x3e382108	0.1798135
132	0xbdaedbf5	-0.08538047
133	0xbec16f16	-0.37780064
134	0x3ef8fd3d	0.48630705
135	0x3e3136bf	0.1730604
136	0x3e33c7f1	0.1755674
137	0x3d6b3192	0.05742032
138	0xbe2cc0c6	-0.16870412
139	0xbeb24fd4	-0.3482653
140	0x3e25350f	0.16133521
141	0x3d9df23e	0.0771222
142	0xbd8efdaa	-0.06981976
143	0xbdaf6b42	-0.0856538
144	0x3e6f3401	0.23359682
145	0x3cc45054	0.023964085
146	0x3ebec28b	0.372578
147	0x3debb4ce	0.11509095
148	0x3eafdf71	0.3435016
149	0xbe576a7c	-0.21036714
150	0x3b760552	0.0037539792
151	0xbdbc0283	-0.091801666
152	0x3e60606d	0.21911784
153	0x3d86f2f5	0.06589309
154	0xbda92798	-0.08259505
155	0x3e0c2bb4	0.13688546
156	0x3bc0b8f3	0.0058814227
157	0xbe1575cb	-0.14595716
158	0x3d09287d	0.03348588
159	0x3e98db55	0.29854837
160	0xbd2308ad	-0.039803196
161	0x3e1f38f0	0.15549064
162	0x3df0fe23	0.11767223
163	0x3d134012	0.035949774
164	0x3d971723	0.0737746
165	0x3d48cb6d	0.049022127
166	0xbda3c39f	-0.07996296
167	0xbd4efea8	-0.050535828
168	0x3df8a232	0.12140311
169	0xbd43a9c3	-0.04776932
170	0x3e27c209	0.16382612
171	0xbddcedd9	-0.10787553
172	0xbe21793f	-0.15768908
173	0x3d9b1e89	0.075741835
174	0xbdfbac83	-0.122887634
175	0x3e56c3f6	0.2097319
176	0x3c208403	0.009797099
177	0x3d08f644	0.033437982
178	0xbd97b566	-0.07407646
179	0x3cd75ee3	0.026290363
180	0xbe97ac44	-0.29623616
181	0xbdec2d56	-0.11532085
182	0x3e857789	0.2606776
183	0x3c49069c	0.012269642
184	0xbdb3aeb4	-0.08773556
185	0x3d09d02c	0.033645794
186	0x3e93ab8f	0.28841826
187	0x3ba1999d	0.004931642
188	0xbd8c5eb4	-0.06854001
189	0x3de79558	0.11307782
190	0xbd32c8d8	-0.04364857
191	0x3dc7e7d4	0.097610146
192	0xbe6abf6a	-0.22924581
193	0x3e6a5caf	0.22886918
194	0xbe4e00fe	-0.20117566
195	0xbc12bcbb	-0.00895613
196	0xbdb869c4	-0.09004548
197	0x3da28330	0.07935178
198	0x3db85450	0.09000456
199	0xbd5d5fe5	-0.05404653
200	0x3dda8185	0.10669235
201	0xbd99285b	-0.074784
202	0x3daa0f24	0.08303669
203	0x3ea86127	0.3288662
204	0x3ec3996d	0.38202992
205	0xbd0c9270	-0.03431934
206	0xbe4e4269	-0.20142521
207	0x3db17bc9	0.08666188
208	0xbe9896d1	-0.29802564
209	0x3b9e8513	0.004837641
210	0x3d78a3f8	0.060703248
211	0xbdbeeeb7	-0.09322875
212	0x3bdda8d5	0.006764511
213	0x3e37f344	0.17963892
214	0xbe4e3eb1	-0.20141102
215	0x3dba1fff	0.09088134
216	0xbd7bb9d9	-0.061456535
217	0xbe7a71d4	-0.24457484
218	0xbd09a81b	-0.033607583
219	0x3eb411ad	0.35169736
220	0xbc05b448	-0.008160658
221	0x3e1c0ce9	0.152393
222	0xbe508183	-0.20361905
223	0xbea4ed6a	-0.32212383
224	0xbdf1c382	-0.11804868
225	0xbe38eb27	-0.18058454
226	0xbcf2f61a	-0.029658366
227	0x3d12537f	0.03572416
228	0xbe8fe26e	-0.2810244
229	0x3d2f3a30	0.0427801
230	0xbcd5e406	-0.026109707
231	0x3ddad170	0.10684478
232	0x3e26fdf1	0.16307808
233	0xbe786d44	-0.24260432
234	0x3ea676e6	0.32512587
235	0xbe17471a	-0.14773217
236	0x3cbc7189	0.023003357
237	0xbd8a2ab9	-0.0674643
238	0x3e2d5bfd	0.16929622
239	0xbdcca097	-0.099915676
240	0xbdd18b9e	-0.10231708
241	0xbc9c5917	-0.01908545
242	0x3ec82f48	0.39098573
243	0x3def71d4	0.11691633
244	0xbd82cce6	-0.063867375
245	0xbd64cefe	-0.055861466
246	0x3cf3be8f	0.029753951
247	0xbe8d1c60	-0.2756071
248	0xbddb5301	-0.10709191
249	0xbe7ce0ce	-0.24695131
250	0xbc6b676a	-0.014367918
251	0xbe8ce695	-0.2751967
252	0xbe380a71	-0.17972733
253	0x3d695345	0.056964178
254	0x3e894812	0.26812798
255	0x3d388f5a	0.045058586

lstm.bias_ih_l0 f4 [200]
0	0x3da0f00b	0.078582846
1	0x3eb81a9c	0.359578
2	0x3ec341a1	0.38136008
3	0x3d9e132d	0.07718501
4	0x3e89bd07	0.2690203
5	0x3e424787	0.18972598
6	0x3eba62a5	0.36403385
7	0x3d8b0ea0	0.06789899
8	0x3e85976d	0.2609209
9	0x3dc201f6	0.0947303
10	0x3e7fbe7d	0.2497501
11	0x3e0d4b41	0.13798238
12	0x3d223a3c	0.039606318
13	0x3e982845	0.29718223
14	0x3e04d867	0.12973176
15	0x3df5e21c	0.120060176
16	0x3e340582	0.17580226
17	0x3e29c0ee	0.16577503
18	0xbb9c2e1a	-0.004766238
19	0x3be4ff19	0.006988418
20	0x3f28625c	0.65775084
21	0x3d6a954c	0.057271287
22	0x3e9ebaea	0.3100198
23	0x3e9d6588	0.30741525
24	0x3e796cb7	0.24357878
25	0x3e255055	0.16143925
26	0x3e9480af	0.29004428
27	0x3e6da297	0.23206554
28	0x3e81ae04	0.25328076
29	0x3e3abc96	0.18236002
30	0x3e76736a	0.24067464
31	0x3d23478a	0.039863147
32	0x3e648b60	0.22318792
33	0x3e02b5ad	0.12764616
34	0x3e61e401	0.22059633
35	0x3d74af7b	0.059737664
36	0x3e85406c	0.26025712
37	0x3e82f660	0.25578594
38	0x3e365b3a	0.17808238
39	0x3e156efb	0.14593117
40	0x3e7e0b52	0.24809006
41	0x3e7612d2	0.24030617
42	0x3e7c1575	0.2461756
43	0x3dd231a2	0.10263373
44	0x3f63cbce	0.88982856
45	0x3e30e3f5	0.17274459
46	0x3e931d3f	0.2873325
47	0x3e753e22	0.23949483
48	0x3db0a679	0.08625502
49	0x3e92affa	0.28649884
50	0x3e3456cc	0.17611235
51	0x3e065baa	0.13120905
52	0x3da7b07b	0.08187958
53	0xbd126fa8	-0.035751015
54	0x3e4117f4	0.18856794
55	0x3e00c5b9	0.12575425
56	0x3d791992	0.0608154
57	0x3df168a2	0.11787535
58	0x3e0411c6	0.12897405
59	0xbd596e9e	-0.05308401
60	0x3d98fb87	0.0746985
61	0x3cfbd928	0.030743197
62	0x3b95c408	0.004570488
63	0x3e43e0db	0.19128744
64	0x3d6c7a96	0.057734095
65	0x3c8fc545	0.01755012
66	0x3e6aaf13	0.22918348
67	0xbc2f9ac6	-0.010718053
68	0x3d322ce0	0.043499827
69	0x3d8ee328	0.0697692
70	0x3e1dbc8a	0.15403953
71	0xba417738	-0.00073801307
72	0x3dde8475	0.10865108
73	0x3e05b414	0.13056976
74	0x3d8eb24f	0.069676034
75	0x3dd5e245	0.10443548
76	0xbd4ca5f3	-0.04996295
77	0xbc5d1719	-0.013494276
78	0xbc195ef1	-0.009361015
79	0x3dfa3b00	0.122182846
80	0x3e4275fa	0.18990317
81	0x3e5549de	0.2082896
82	0x3d9c9165	0.07644919
83	0x3da5e0ab	0.08099493
84	0x3e4f8486	0.20265397
85	0x3d89e9ac	0.067340225
86	0xbc61178b	-0.013738523
87	0x3d93aef0	0.07211101
88	0xbe069f2c	-0.13146657
89	0xbd1ef069	-0.03880349
90	0x3e289bc5	0.16465671
91	0x3cfea74f	0.031085638
92	0x3e301eb7	0.17199217
93	0x3e4a57b2	0.19760016
94	0xbd71ca14	-0.059030607
95	0x3db60430	0.088875175
96	0x3e2a50b8	0.16632354
97	0x3de0acee	0.10970484
98	0x3e5fca5d	0.21854539
99	0x3cead291	0.028664859
100	0xbd946782	-0.07246305
101	0xbd914c59	-0.0709464
102	0x3d494d30	0.049145877
103	0x3d2557f2	0.040367074
104	0x3c49cb9b	0.01231661
105	0x3c8c5cc9	0.017134087
106	0xbde899c0	-0.113574505
107	0x3c3232d6	0.010876378
108	0xbd4e2bf0	-0.05033487
109	0xbdb95308	-0.0904904
110	0x3def65ac	0.11689314
111	0xbdfb3cab	-0.12267431
112	0x3dd33913	0.103136204
113	0xbd74d456	-0.05977281
114	0x3d1567f0	0.036476076
115	0xbdb32314	-0.08746925
116	0xbcf87ed9	-0.030333923
117	0x3e03ecda	0.1288332
118	0xbd168ba5	-0.03675427
119	0x3d9dc62c	0.07703814
120	0x3e548e27	0.20757352
121	0x3dc0d74f	0.09416067
122	0x3d083c2c	0.03326051
123	0xbda0a1a7	-0.07843333
124	0x3e3324dc	0.1749453
125	0xbcf94bcf	-0.030431656
126	0xbda2c81e	-0.079483256
127	0x3dbf36dc	0.093366355
128	0xbc79fc65	-0.015257929
129	0x3d336620	0.043798566
130	0xbd4942a5	-0.049135823
131	0xbdd7fa48	-0.10545784
132	0x3d62fbce	0.05541592
133	0xbe4b7592	-0.19869068
134	0x3b2f16d1	0.002671648
135	0xbe19949f	-0.149981
136	0x3cb1ffbd	0.02172839
137	0xbd9ec872	-0.07753076
138	0x3d0e56ff	0.034750935
139	0x3db0d5de	0.08634542
140	0xbdeeddbc	-0.11663386
141	0xbd47f798	-0.04882011
142	0xbd5937f3	-0.053031873
143	0x3dd6530a	0.10465057
144	0x3d0ac4a7	0.03387895
145	0xbcd66ad4	-0.026173986
146	0x3d362f3b	0.044478636
147	0xbe05dd07	-0.13072596
148	0xbccf079a	-0.02527218
149	0xbdf02130	-0.1172508
150	0x3e137d41	0.1440325
151	0x3eacddab	0.3376287
152	0x3ef0d330	0.47036123
153	0x3dd5674d	0.10420094
154	0x3df0b46f	0.11753165
155	0x3dc0d489	0.09415538
156	0x3e8dee50	0.2772088
157	0x3e872528	0.26395535
158	0x3eb48726	0.3525936
159	0x3e94a055	0.29028574
160	0x3e8eb532	0.27872616
161	0x3dec2715	0.11530892
162	0x3d630a83	0.055429947
163	0x3e7eb918	0.24875295
164	0x3d929049	0.071564265
165	0x3c9aa300	0.018876553
166	0x3e4c9f77	0.19982706
167	0x3cf0193b	0.029308906
168	0x3e0b4e2b	0.13604037
169	0x3e5c4550	0.21510816
170	0x3f2b49be	0.66909397
171	0x3d8cff7e	0.06884669
172	0x3e1cf23c	0.1532678
173	0x3e55783a	0.20846644
174	0x3ebb0489	0.36526898
175	0x3ea18fa7	0.3155491
176	0x3e8e5847	0.27801725
177	0x3e32cdeb	0.17461364
178	0x3e3445f6	0.17604813
179	0x3dfd576b	0.12370189
180	0x3e9bb9fb	0.3041533
181	0x3e0024f2	0.12514094
182	0x3e973c18	0.29538035
183	0x3e5a2673	0.2130373
184	0x3e6633fc	0.22480768
185	0x3e007720	0.12545443
186	0x3ec2916b	0.3800157
187	0x3e94975b	0.29021725
188	0x3e0148bc	0.12625402
189	0x3e3f8893	0.18704443
190	0x3d995a1f	0.07487892
191	0x3e0cbd92	0.1374419
192	0x3e5b011e	0.21387145
193	0x3ea4aea4	0.3216449
194	0x3f03f098	0.5153899
195	0x3c2c97ac	0.010534208
196	0x3ea35b47	0.31905577
197	0x3db87f3f	0.09008645
198	0x3e4db9f2	0.20090464
199	0x3e7aa196	0.24475703

lstm.bias_hh_l0 f4 [200]
0	0x3da24a97	0.07924383
1	0x3f062230	0.52395916
2	0x3f0cfbb5	0.55071574
3	0x3da7c17f	0.08191203
4	0x3e49af19	0.196957
5	0x3e1bf7a9	0.15231194
6	0x3e6ba1ed	0.23010989
7	0x3ea7e043	0.32788286
8	0x3ebd3e74	0.3696171
9	0x3e217b9e	0.15769812
10	0x3e90c7d7	0.28277466
11	0x3e68dfea	0.22741666
12	0x3e2c4996	0.16824946
13	0x3e8c13fd	0.27359
14	0x3e3e530e	0.1858637
15	0x3e22ad44	0.15886408
16	0x3e81fdcb	0.2538894
17	0x3e517157	0.20453392
18	0x3dc6c7d2	0.097060814
19	0xbbba8885	-0.005692544
20	0x3f04e31e	0.51909053
21	0x3d936cf8	0.071985185
22	0x3ea1498a	0.31501418
23	0x3ebb3425	0.3656322
24	0x3ee986cf	0.45610663
25	0x3e8c1c7e	0.27365488
26	0x3e21460f	0.15749381
27	0x3dcbeb4c	0.09956989
28	0x3e9a56a2	0.3014422
29	0x3eb5aba0	0.35482502
30	0x3e92431e	0.2856683
31	0x3e0fbeb7	0.14037596
32	0x3ec78185	0.38966003
33	0x3dd21fff	0.10260009
34	0x3e95b5df	0.2924032
35	0x3e265829	0.16244568
36	0x3e938cf0	0.28818464
37	0x3e7a3115	0.24432786
38	0x3d9db792	0.07701029
39	0x3ddda804	0.10823062
40	0x3eaa0df2	0.33213764
41	0x3d0d87b8	0.03455326
42	0x3e5ac23d	0.21363159
43	0x3ea329e4	0.31867898
44	0x3f789ac3	0.9711115
45	0x3e5fd35a	0.21857968
46	0x3e848472	0.25882298
47	0x3e402d7f	0.18767355
48	0x3e401565	0.18758161
49	0x3ea562cf	0.32301947
50	0x3e3b91ec	0.18317384
51	0xbddfc87a	-0.1092691
52	0x3dee51ac	0.116366714
53	0x3e0b00e9	0.13574566
54	0x3d42bbd1	0.047542397
55	0x3e60bc7c	0.21946901
56	0xbde95593	-0.11393275
57	0x3c526747	0.012842006
58	0x3e668ef7	0.22515474
59	0xbd9879fa	-0.0744514
60	0xbd3eec46	-0.046612047
61	0x3dbbfc08	0.091789305
62	0x3e762108	0.24036038
63	0x3de862b0	0.11346948
64	0x3dcec837	0.10096782
65	0x3ddde274	0.10834208
66	0x3e017eee	0.12646076
67	0x3e213886	0.15744218
68	0xbd5e8849	-0.05432919
69	0x3df68d5d	0.12038682
70	0x3dfb639b	0.122748576
71	0x3c1bd51e	0.00951126
72	0x3e27b76f	0.16378568
73	0x3d8cf59e	0.06882785
74	0xbe3b0231	-0.18262555
75	0x3e3c5354	0.18391162
76	0x3ce2cd97	0.027685924
77	0xbda4260a	-0.08015068
78	0x3c0259b1	0.007955954
79	0x3c82c994	0.01596526
80	0x3e32a621	0.17446186
81	0x3e4cee24	0.20012718
82	0x3d704f1d	0.0586692
83	0x3e3b017a	0.18262282
84	0x3e7ebcd6	0.24876723
85	0x3def293a	0.11677785
86	0x3dac4c00	0.08412933
87	0x3c4f0bcb	0.012637089
88	0x3d099a1e	0.033594243
89	0x3d07fcd3	0.033200096
90	0x3d12512d	0.035721947
91	0xbd350c09	-0.04420093
92	0xbc92a693	-0.017901694
93	0x3e297ee1	0.16552307
94	0x3e224544	0.15846735
95	0x3e16ef89	0.14739813
96	0x3e1f72b1	0.15571095
97	0x3e71634b	0.23573034
98	0x3c770858	0.015077673
99	0x3e2d4681	0.16921426
100	0xbe0a2c84	-0.13493544
101	0xbc9b1b86	-0.018934023
102	0x3de60ee3	0.11233308
103	0xbd223149	-0.039597783
104	0xbdaff541	-0.085917
105	0xbdb26341	-0.087103374
106	0x3d88ec86	0.06685738
107	0x3c8e61eb	0.017380675
108	0x3d77f02e	0.060531788
109	0x3dc3f489	0.09568126
110	0x3e0d9b41	0.13828756
111	0x3c3de160	0.011589378
112	0xbd5c65aa	-0.053807892
113	0x3dd6d3bb	0.10489603
114	0xbd6c0645	-0.057623167
115	0x3dbbd1d7	0.09170883
116	0xbdb0fec7	-0.08642345
117	0xbcf69a7a	-0.030102957
118	0x3dcf66e5	0.101270474
119	0xbce121a8	-0.027481869
120	0x3d998c3b	0.0749745
121	0x3bf6fa3f	0.007537156
122	0xbd1d38a7	-0.038384106
123	0x3d2c1582	0.0420127
124	0x3e0c4b67	0.13700639
125	0xbd7dfd98	-0.062009424
126	0x3cdb757f	0.026789425
127	0x3c16ba20	0.009199649
128	0xbcf296cf	-0.029612927
129	0x3d9e1862	0.077194944
130	0xbcf9c463	-0.030489152
131	0xbdfd04c4	-0.123544246
132	0x3deef976	0.11668675
133	0x3d9c4dc0	0.07632017
134	0xbdfa4ae1	-0.12221313
135	0x3d4d9c00	0.0501976
136	0xbd61a4b9	-0.055088732
137	0xbd7c5342	-0.06160284
138	0x3d5848dd	0.052803863
139	0xbac1f437	-0.0014797513
140	0xbc05c864	-0.008165453
141	0x3db5ff45	0.088865794
142	0x3e14395e	0.14475009
143	0x3dabef74	0.083952814
144	0x3d7a45c2	0.061101682
145	0xbb9ef884	-0.0048514027
146	0x3cde88f6	0.027164917
147	0xbdfd47b8	-0.12367195
148	0xbd8b45c2	-0.068004146
149	0xbe227f96	-0.15868983
150	0x3e8b888c	0.27252614
151	0x3e350b65	0.17680128
152	0x3ea2e6d0	0.3181672
153	0x3d8f48b8	0.06996292
154	0x3d912659	0.07087392
155	0x3e787aae	0.24265549
156	0x3e719691	0.23592593
157	0x3e8d7f39	0.27636126
158	0x3e7c45db	0.24636023
159	0x3e91d265	0.2848083
160	0x3e6781fe	0.22608182
161	0x3e2035bf	0.15645503
162	0x3e8d7a63	0.27632436
163	0x3e030653	0.12795381
164	0x3e6de323	0.23231177
165	0x3e8b42c9	0.2719939
166	0x3e7b2884	0.24527174
167	0x3e2fa39f	0.1715226
168	0x3e16975f	0.14706181
169	0x3d9ad3f4	0.07559958
170	0x3ecd1b07	0.40059683
171	0x3dafd7b2	0.085860625
172	0x3d81b947	0.06334167
173	0x3e4c0579	0.19923963
174	0x3e535dc1	0.20641233
175	0x3ea9a99b	0.3313721
176	0x3e93ef2c	0.2889341
177	0x3e04dfef	0.12976049
178	0x3e1afff9	0.15136708
179	0x3e975bf0	0.2956233
180	0x3e682423	0.22670035
181	0x3be30324	0.0069278646
182	0x3dd9a9ad	0.10628066
183	0x3e45bdbe	0.19310662
184	0x3e921066	0.28528136
185	0x3e81ee69	0.25377205
186	0x3e27bba5	0.16380174
187	0x3ec21df6	0.37913483
188	0x3e834a25	0.25642505
189	0x3e816ddb	0.25279126
190	0x3e2e599e	0.17026374
191	0x3d4cb256	0.049974762
192	0x3ea21f41	0.3166447
193	0x3e90adec	0.28257692
194	0x3f0523df	0.5200786
195	0x3d083d00	0.0332613
196	0x3e9ad44c	0.30240095
197	0x3d7a78b9	0.061150286
198	0x3ead7530	0.3387847
199	0x3e9c1bd7	0.3048999

linear.weight f4 [1, 50]
0	0xbd3d24bd	-0.046177614
1	0x3e4ab74c	0.19796485
2	0x3d831f1f	0.0640242
3	0x3e5b12fd	0.21393962
4	0xbda93db4	-0.08263722
5	0x3e432125	0.19055612
6	0xbecca478	-0.3996923
7	0x3e75ed80	0.2401638
8	0xbdd23de7	-0.10265713
9	0xbe745e0f	-0.23864006
10	0xbd4fa9e0	-0.050699115
11	0xbda5b367	-0.08090859
12	0x3e59fd78	0.21288097
13	0xbd3bd9d8	-0.04586205
14	0x3e533a0c	0.20627612
15	0x3e7fa738	0.24966133
16	0x3de52d29	0.11190254
17	0xbe3329ef	-0.17496465
18	0x3e36b198	0.17841184
19	0x3e548944	0.20755488
20	0xbe6e9feb	-0.23303191
21	0xbe905432	-0.28189236
22	0xbe49f7f6	-0.19723496
23	0xbe4dceb1	-0.20098378
24	0xbbfc8089	-0.0077057523
25	0x3e8e7615	0.27824464
26	0xbd829687	-0.06376367
27	0xbe51a8c4	-0.20474535
28	0xbe7d523d	-0.24738403
29	0x3e750060	0.23925924
30	0xbe4eff8d	-0.20214672
31	0x3e162955	0.14664204
32	0xbe32ba9c	-0.17453998
33	0xbe5323fd	-0.20619197
34	0x3e3bb096	0.18329081
35	0xbe0f5a91	-0.13999392
36	0xbea52f2e	-0.32262558
37	0x3db3b07a	0.087738946
38	0x3e963f86	0.2934534
39	0x3e8f147a	0.2794531
40	0xbe01c076	-0.12671074
41	0x3dd399e5	0.103320874
42	0x3db467c8	0.08808857
43	0x3d8142c8	0.06311566
44	0x3e814d94	0.252545
45	0x3e0943ac	0.13404721
46	0x3e8cbccc	0.2748779
47	0xbddd4ea8	-0.10806018
48	0xbe0aecdb	-0.13566916
49	0xbe7cf451	-0.24702574
