lstm_BigData/trial9/jt1_vel/lstm_model_epoch135.pth (torch, 50829 bytes, 5 tensors)

lstm.weight_ih_l0 f4 [200, 8]
-0.09963714 0.1414873 0.24045537 -0.33647838 -0.006622891 0.3158838 -0.38272783 0.009826854
-0.11368351 0.06037611 0.23118542 -0.07398797 0.116206534 -0.12492111 0.019934757 0.030950738
-0.045163743 -0.17781362 0.16623151 -0.4596561 -0.12092544 -0.08401139 -0.18449877 0.23724672
0.25277618 0.3054105 0.08334226 -0.1440473 -0.41361925 0.08903246 -0.2829216 0.046256036
0.09327967 -0.48109165 0.5234977 -0.30411163 -0.21169178 0.2127909 0.6060298 0.561662
-0.26254877 0.042338308 0.7883911 -1.0824994 -0.08834034 -0.17676044 0.08478462 -0.00957668
0.5711419 -0.19913927 -0.029358778 -0.28479046 0.00393507 0.29054725 -0.09925037 0.00026412148
0.053950753 -0.31079227 0.28059584 -0.23335442 -0.0075009125 -0.21879545 0.10800746 0.04573655
0.048972618 -0.10287327 0.54892004 -0.6486524 0.31439814 -0.8024001 0.23339368 -0.15205279
0.49257135 -0.5581574 0.03699343 -0.14779042 -0.16225795 -0.121135786 0.09119805 -0.25410104
-0.37145096 -0.39926445 0.9539298 -1.2827909 0.04628453 0.09315081 -0.068348356 -0.01111969
0.16002314 -0.15374526 0.11792477 -0.41335875 -0.16338234 0.049722202 0.1289602 -0.02211167
0.020080509 0.022703154 0.4980203 -0.23282234 0.034938943 -0.24729256 0.54739994 -0.34272227
-0.10557206 -0.77323776 0.07460163 -0.020511903 -0.5591554 -0.41565475 0.105387956 -0.030494265
-0.47119176 -0.33266985 1.016654 -0.6223234 -0.07687302 -0.080560245 -0.33127394 0.44295475
0.15413648 -0.6325735 -0.334547 -0.10677396 -0.19315164 0.15744354 -0.16139814 -0.3316887
-0.1519248 -0.23367836 1.529853 -0.3665532 0.2805169 -0.012833612 0.12551235 -0.21075185
-0.03485318 -0.23132202 0.018283477 0.21432193 0.013929684 -0.1397018 -0.3739938 -0.115954086
0.16515994 -0.62898856 0.5651322 -0.106352516 -0.10391844 -0.0030036173 -0.025467005 0.11075946
-0.6358401 -0.0634839 0.36147645 -0.14822167 -0.019418571 -0.10723222 0.025841586 -0.050560832
0.50611025 -0.37949467 0.04085486 -0.42032483 0.16403954 -0.008513898 0.07796717 -0.059617553
-0.18238874 -0.24515545 0.5152208 -0.3947713 -0.01699112 0.19018517 -0.08183349 0.33992806
-0.09875897 0.068730645 0.41934964 -0.07013659 -0.22402634 0.09844151 0.034642767 0.17742638
-0.5600793 -0.56147265 0.20761801 -0.43359494 0.63802767 -0.14444856 0.50254035 -0.56653297
-0.36773828 0.12550545 -0.22757407 -0.49332187 0.081989154 -0.18698974 0.2037254 0.12229995
-0.25040874 0.055128805 0.2016189 -0.54401577 -0.09441741 -0.0075575537 -0.2983203 -0.2963342
0.24277696 -0.6915415 0.20037523 -0.3019481 0.544682 -0.34625635 -0.022843208 -0.060620904
0.05514511 -0.121814124 0.60069203 -0.61625934 -0.3334619 -0.10633811 -0.101511 -0.11789249
-0.4056841 -0.1432911 0.19609228 -0.031297646 -0.2577752 -0.016206698 -0.012905654 0.4339749
-0.4782261 -0.43743578 0.111960486 -0.34419245 -0.16278644 -0.06096094 -0.049025856 0.38136145
-0.39388782 -0.18393971 0.73929024 -0.3676069 0.25340217 -0.6230357 0.020941747 -0.19047938
-0.13274394 -0.13519323 0.16136588 -0.0706169 0.1687527 0.3155557 0.19830604 -0.28625622
00000000: 8f0e ccbd 0ce2 103e ef39 763e e546 acbe
00000010: d604 d9bb 85bb a13e e7f4 c3be d000 213c
00000020: e6d2 e8bd f14c 773d dfbb 6c3e 0187 97bd
00000030: b1fd ed3d a4d6 ffbd 374e a33c 678c fd3c
00000040: 9efd 38bd c614 36be 9838 2a3e 0b58 ebbe
00000050: c2a7 f7bd 2a0e acbd 3fed 3cbe cef0 723e
00000060: e16b 813e c45e 9c3e 59af aa3d 2381 13be
00000070: e7c5 d3be a656 b63d 1adb 90be f876 3d3d
00000080: 6909 bf3d a551 f6be f203 063f 85b4 9bbe
00000090: bbc5 58be dce5 593e c524 1b3f 15c9 0f3f
000000a0: cb6c 86be ef6a 2d3d 00d4 493f 578f 8abf
000000b0: c8eb b4bd b000 35be 8fa3 ad3d 82e7 1cbc
000000c0: 5b36 123f 2aeb 4bbe d281 f0bc 0ed0 91be
000000d0: c2f1 803b 9cc2 943e c743 cbbd c979 8a39
000000e0: 77fb 5c3d 2a20 9fbe 42aa 8f3e 76f4 6ebe
000000f0: 37ca f5bb ea0b 60be 0433 dd3d 4056 3b3d
00000100: 8397 483d 39af d2bd 0686 0c3f 150e 26bf
00000110: cbf8 a03e 186a 4dbf c1fe 6e3e bab3 1bbe
00000120: 5032 fc3e 67e3 0ebf 6c86 173d 5f56 17be
00000130: f326 26be 0a16 f8bd 0bc6 ba3d 8819 82be
00000140: d22e bebe 646c ccbe be34 743f 7e32 a4bf
00000150: d994 3d3d dac5 be3d 39fa 8bbd 5c2f 36bc
00000160: 1bdd 233e 666f 1dbe 8b82 f13d c2a3 d3be
00000170: b34d 27be 82a9 4b3d 250e 043e 8823 b5bc
00000180: e17f a43c f7fb b93c 84fc fe3e fb68 6ebe
00000190: 231c 0f3d 433a 7dbe 6722 0c3f 4b79 afbe
000001a0: 2a36 d8bd e9f2 45bf bdc8 983d 9408 a8bc
000001b0: cf24 0fbf b3d0 d4be a4d5 d73d 1ccf f9bc
000001c0: 0c40 f1be b453 aabe b821 823f 9650 1fbf
000001d0: 9a6f 9dbd c5fc a4bd bd9c a9be f7ca e23e
000001e0: f4d5 1d3e 56f0 21bf bf49 abbe 4eac dabd
000001f0: 8bc9 45be e138 213e 8e45 25be 1ad3 a9be
00000200: 2d92 1bbe 6149 6fbe 39d2 c33f dcac bbbe
00000210: e99f 8f3e 1244 52bc 4f86 003e 55cf 57be
00000220: 35c2 0ebd aedf 6cbe 3bc7 953c 3577 5b3e
00000230: 5439 643c fd0d 0fbe 1e7c bfbe 5679 edbd
00000240: b01f 293e 6505 21bf 81ac 103f 59cf d9bd
00000250: 31d3 d4bd 56d8 44bb 2ea0 d0bc dbd5 e23d
00000260: 6bc6 22bf d903 82bd 7113 b93e 6cc7 17be
00000270: b213 9fbc 919c dbbd bcb1 d33c e018 4fbd
00000280: 7190 013f 204d c2be 6d57 273d d134 d7be
00000290: fbf9 273e e07d 0bbc 40ad 9f3d 8931 74bd
000002a0: 1dc4 3abe 080a 7bbe 83e5 033f 771f cabe
000002b0: f630 8bbc e7bf 423e 5198 a7bd 0d0b ae3e
000002c0: 2542 cabd a7c2 8c3d ffb4 d63e c6a3 8fbd
000002d0: 2967 65be b49b c93d 93e5 0d3d 43af 353e
000002e0: 5b61 0fbf acbc 0fbf d199 543e 2800 debe
000002f0: c855 233f 53ea 13be 7ca6 003f 4e08 11bf
00000300: 3148 bcbe 8084 003e 2d09 69be af94 fcbe
00000310: eee9 a73d 3d7a 3fbe 649d 503e 6578 fa3d
00000320: 9335 80be bece 613d 2f75 4e3e 9e44 0bbf
00000330: ea5d c1bd 5ba5 f7bb 70bd 98be 1eb9 97be
00000340: 869a 783e dd08 31bf 2a2f 4d3e f198 9abe
00000350: 4870 0b3f 8348 b1be ae21 bbbc a04d 78bd
00000360: d7df 613d af79 f9bd f4c6 193f 2cc3 1dbf
00000370: 85bb aabe ccc7 d9bd 00e5 cfbd 9e71 f1bd
00000380: d4b5 cfbe e7ba 12be 6acc 483e f631 00bd
00000390: 1cfb 83be e9c3 84bc 3c72 53bc f531 de3e
000003a0: 0dda f4be 95f7 dfbe 8a4b e53d fe39 b0be
000003b0: 7db1 26be 2eb2 79bd 56cf 48bd cf41 c33e
000003c0: aaab c9be b15a 3cbe 2042 3d3f f936 bcbe
000003d0: eebd 813e 457f 1fbf 078e ab3c 070d 43be
000003e0: 07ee 07be 1870 0abe 193d 253e 989f 90bd
000003f0: 82cd 2c3e 8490 a13e bd10 4b3e 2d90 92be

lstm.weight_hh_l0 f4 [200, 50]
-0.17509219 0.08303404 -0.15517242 -0.35286927 -0.16716993 -0.17007634 -0.28915733 0.28602955
0.07865216 0.08505197 -0.02820566 0.019288165 -0.26492146 -0.13477093 -0.27340475 -0.14916752
0.030589616 0.15705027 -0.08254376 0.21897025 -0.042666834 0.062815465 -0.02207304 0.010606799
0.11942272 -0.08404844 -0.041543182 -0.18765281 0.047032505 -0.14744772 0.07830056 0.2868412
0.18171708 0.037809134 -0.05681943 0.10165147 -0.0129943965 -0.109654866 -0.046944197 -0.06510756
-0.010798959 0.076009825 -0.09069446 0.070841074 0.15780844 0.18324375 0.02519127 0.1759797
-0.118379064 0.030661145 0.12699881 -0.10084992 0.16501057 -0.38431072 -0.104576334 0.0075567267
-0.26424384 0.3748027 -0.12521076 0.05552765 -0.21977481 0.19586942 -0.06167293 0.10637541
0.036826245 -0.15138456 -0.24739234 -0.19826342 -0.3545534 -0.1649346 -0.07992367 0.15589201
0.0985571 -0.072580054 -0.18082933 -0.23726188 -0.07289745 0.006501744 -0.018967943 -0.03635674
0.019133875 0.025648039 0.090630755 0.05400178 -0.036282204 -0.096689284 0.12817007 -0.083369635
-0.011441466 -0.11862061 0.06794105 -0.06274735 -0.095897995 -0.08628222 -0.19837238 -0.19534321
0.07289737 -0.029033197 0.13445808 -0.054832198 -0.11983614 0.120981015 0.006014275 -0.21094562
0.07116105 -0.09874696 0.02540236 0.0010765133 -0.15157294 -0.23639835 -0.0044508264 0.07516533
-0.00658971 0.03494097 0.18307985 -0.015028946 -0.040111188 -0.009798204 -0.15373033 0.1172143
0.026834095 -0.0068192934 0.103766404 0.15968533 0.22345994 0.163011 0.08112335 0.009761527
-0.16248587 -0.17740019 0.089698136 0.028071381 0.02671343 -0.20482352 -0.04808297 0.076831184
0.12203912 0.11432614 0.20183823 -0.029320177 0.031665 0.20047456 -0.03213942 -0.08487557
0.23420987 -0.1442635 0.3231472 -0.078792244 0.022452584 -0.044738997 -0.41920537 0.01962961
0.082849875 -0.14850342 -0.06597578 -0.05532018 -0.07840138 0.12744501 -0.10689904 0.068431325
0.11401855 -0.0815349 0.05628627 -0.42163566 0.24221082 -0.56837463 0.32969075 -0.22193731
0.016930217 -0.25671262 0.18799743 -0.1014237 0.06982188 -0.18563788 0.14804207 -0.06464544
0.38312957 0.008088106 -0.17334567 -0.2952278 0.0170938 -0.058169585 0.08772794 -0.0720756
0.028425405 0.36847004 -0.49903432 -0.24351138 -0.08938022 -0.05428942 -0.46771327 -0.23446168
0.27643317 0.23021501 -0.062591165 -0.03238624 -0.17216806 -0.42152062 0.040678438 -0.028151905
-0.18573096 0.10456454 -0.0040989164 0.0072897817 0.08047041 0.054063607 -0.19087844 0.06276957
-0.056478143 0.015714843 0.018613432 0.05048921 -0.16767716 -0.082032904 0.34920257 0.0899514
-0.18862024 -0.1472762 -0.036206774 0.23705307 0.19567083 0.08551406 -0.017930502 0.23749973
0.07981614 0.027490864 -0.00767745 -0.34382382 -0.115160644 -0.051652323 -0.101541586 -0.09053292
-0.10401892 -0.39808562 0.13871334 0.0034246002 0.0032104664 -0.035866655 0.1551734 0.06049167
-0.09600722 -0.03881375 -0.13337593 -0.1875051 -0.034960542 -0.04355783 -0.06718442 0.0069682575
-0.12482198 0.1380221 -0.1175785 -0.17166281 0.25337455 -0.47215515 -0.09968158 -0.1399535
00000000: 5e4b 33be c00d aa3d 85e5 1ebe 48ab b4be
00000010: 982e 2bbe 7e28 2ebe 6e0c 94be 7772 923e
00000020: 6214 a13d ba2f ae3d 8e0f e7bc 3702 9e3c
00000030: c9a3 87be 6401 0abe b5fb 8bbe 5fbf 18be
00000040: 1397 fa3c c9d1 203e b40c a9bd bd39 603e
00000050: 6bc3 2ebd 65a5 803d 85d2 b4bc 24c8 2d3c
00000060: e693 f43d 9721 acbd 2f29 2abd 0f28 40be
00000070: 28a5 403d 89fc 16be 0b5c a03d dadc 923e
00000080: 0b14 3a3e c0dd 1a3d 7ebb 68bd a52e d03d
00000090: 73e6 54bc bb92 e0bd 8f48 40bd 1d57 85bd
000000a0: 1eee 30bc 0aab 9b3d 04be b9bd 2015 913d
000000b0: 8998 213e 40a4 3b3e ec5d ce3c 0634 343e
000000c0: b970 f2bd 152d fb3c fa0b 023e 678a cebd
000000d0: 88f8 283e 60c4 c4be 1e2c d6bd 6b9e f73b
000000e0: f84a 87be 24e6 bf3e 4037 00be f670 633d
000000f0: a60c 61be fe91 483e c19c 7cbd 5adb d93d
00000100: 1ed7 163d 8e04 1bbe 6b54 7dbe 9105 4bbe
00000110: 0688 b5be 9ee4 28be 05af a3bd 28a2 1f3e
00000120: 4ed8 c93d daa4 94bd 532b 39be c7f4 72be
00000130: 424b 95bd 950c d53b a962 9bbc ceea 14bd
00000140: a5be 9c3c d61b d23c 9e9c b93d f830 5d3d
00000150: a69c 14bd 0805 c6bd 043f 033e b3bd aabd
00000160: fd74 3bbc 5def f2bd ad24 8b3d af81 80bd
00000170: 2b66 c4bd bcb4 b0bd 2122 4bbe 0d08 48be
00000180: 374b 953d 07d7 edbc 61af 093e ba97 60bd
00000190: a66c f5bd e5c4 f73d 6513 c53b 2102 58be
000001a0: e2bc 913d d93b cabd 9c18 d03c cb19 8d3a
000001b0: f035 1bbe 6912 72be 3dd8 91bb 48f0 993d
000001c0: 7eee d7bb 431e 0f3d 4979 3b3e f83b 76bc
000001d0: a14b 24bd a588 20bc 7c6b 1dbe 0d0e f03d
000001e0: 2dd3 db3c 6174 dfbb 7b83 d43d 8d84 233e
000001f0: afd2 643e 5bec 263e 0024 a63d d0ee 1f3c
00000200: b262 26be 65a8 35be a8b3 b73d f4f5 e53c
00000210: 20d6 da3c 42bd 51be a6f2 44bd ab59 9d3d
00000220: a5ef f93d d323 ea3d aeae 4e3e de30 f0bc
00000230: 29b3 013d 3449 4d3e a0a4 03bd 3ed3 adbd
00000240: b6d4 6f3e d0b9 13be 8d73 a53e d45d a1bd
00000250: 7bee b73c 3d40 37bd 16a2 d6be 47ce a03c
00000260: 32ad a93d 4811 18be 4f1e 87bd 6a97 62bd
00000270: e790 a0bd f280 023e e2ed dabd b925 8c3d
00000280: 8f82 e93d c5fb a6bd 6f8c 663d a1e0 d7be
00000290: 1d06 783e 0081 11bf 3acd a83e 8943 63be
000002a0: 3db1 8a3c d66f 83be 6682 403e 3bb7 cfbd
000002b0: c6fe 8e3d db17 3ebe 5798 173e d464 84bd
000002c0: 8f29 c43e fa83 043c 8781 31be 1928 97be
000002d0: 4c08 8c3c 3b43 6ebd b5aa b33d 5f9c 93bd
000002e0: 65dc e83c 1ba8 bc3e 6d81 ffbe 0c5b 79be
000002f0: fa0c b7bd 955e 5ebd 1d78 efbe b916 70be
00000300: a688 8d3e 7cbd 6b3e cc2f 80bd 6fa7 04bd
00000310: d34c 30be 8dd1 d7be 6f9e 263d d39e e6bc
00000320: 4230 3ebe ef25 d63d 3450 86bb 1fdf ee3b
00000330: accd a43d cd71 5d3d a375 43be 558d 803d
00000340: a055 67bd 6abc 803c 327b 983c c6cd 4e3d
00000350: 90b3 2bbe de00 a8bd aeca b23e 7138 b83d
00000360: aa25 41be 92cf 16be 8e4d 14bd 0abe 723e
00000370: ef5d 483e ff21 af3d fde2 92bc 2133 733e
00000380: a576 a33d 8534 e13c 1e93 fbbb ad09 b0be
00000390: 58d9 ebbd 6391 53bd 09f5 cfbd 5369 b9bd
000003a0: df07 d5bd e1d1 cbbe df0a 0e3e 426f 603b
000003b0: b066 523b eae8 12bd c7e5 1e3e 1dc6 773d
000003c0: 6f9f c4bd 2bfb 1ebd b393 08be 5601 40be
000003d0: c932 0fbd b269 32bd fc97 89bd fb55 e43b
000003e0: aba2 ffbd aa55 0d3e ffcc f0bd 60c8 2fbe
000003f0: 4fba 813e 52be f1be db25 ccbd f84f 0fbe

lstm.bias_ih_l0 f4 [200]
0.26832464 -0.01193702 0.13848537 0.009614562 0.35606036 0.37731913 0.27327886 0.22254315
0.19603717 0.12270839 0.453581 0.17334323 0.23169494 0.21531974 0.56310827 0.33775494
0.36740306 0.42823735 0.05134131 0.14717448 0.43033558 0.525118 0.39826894 0.42089647
0.3163357 0.33452713 0.19895633 0.20940843 0.12325618 0.15305136 0.44345912 0.07500515
0.4501025 0.2861501 0.43959367 0.71918523 0.37029377 0.05059993 0.08694556 0.47600424
0.08183796 0.1812761 0.2181044 0.31562313 0.48285988 0.24005215 0.64403856 0.30297035
0.37034583 0.17142786 0.0461951 0.14532481 0.20790336 0.022642795 0.18279555 0.009728943
0.112895764 0.052668083 0.03703151 0.092869624 0.030529229 -0.07759931 0.051802345 0.16777843
-0.09294268 0.17498489 0.06929425 0.1704011 -0.040123586 -0.023737123 0.12793773 -0.095539935
-0.08517765 0.07370673 -0.026558677 -0.0501467 0.17915235 0.048835322 0.056388848 -0.08924885
0.079181395 -0.05592547 -0.01631162 0.13023426 0.0982291 0.28364077 0.021909311 -0.033465665
0.13307162 0.20982866 0.0019199116 0.15199852 0.26354942 0.08259751 0.13122614 0.17080653
-0.0858983 0.23928061 -0.02465635 0.09126321 -0.17898293 0.1200639 -0.07004543 -0.04183254
0.07634208 -0.114850484 0.12648194 0.013843745 -0.01848865 -0.072958484 0.11350514 -0.066927545
-0.055940844 -0.10024669 0.14451861 -0.05268869 0.2102817 -0.18207388 -0.12493545 0.018174348
0.009299022 -0.16619466 0.10830894 -0.07538681 0.13908662 -0.121265985 0.045229193 -0.12260369
0.0027663647 -0.0044576908 -0.08148287 0.021703428 0.1938711 -0.060265217 0.01056628 0.13147296
-0.0056257495 -0.13957384 -0.095573686 0.16415967 -0.05657257 0.11657353 0.095590375 0.07457507
-0.12893796 -0.010409698 0.027814638 0.020501643 0.00075264607 -0.1317095 0.043071616 0.15399963
0.052236855 0.17263412 0.5055129 0.20216982 0.26541665 0.4250985 0.2909031 -0.0011991141
0.3488618 0.26812178 0.13583632 0.28384373 0.37892178 0.23460568 0.18175724 0.10949727
0.13231246 0.22904709 0.22971265 0.48790574 0.20885642 0.49081552 0.117801785 0.38882825
0.3737622 0.23580523 0.23952684 0.19665873 0.171846 0.24839067 0.61753476 0.26482996
0.25593945 0.6937758 0.220601 0.28090486 0.12833872 0.35813197 0.12590654 0.25328022
0.35301813 0.43452626 0.27065012 0.14649785 0.4727553 0.23128177 0.16731635 0.16275121
00000000: d961 893e 7e93 43bc 1ccf 0d3e 6586 1d3c
00000010: 8b4d b63e f92f c13e 35eb 8b3e 5ae2 633e
00000020: f8bd 483e 894e fb3d c53b e83e e380 313e
00000030: 7041 6d3e c77c 5c3e dd27 103f 37ee ac3e
00000040: 411c bc3e ed41 db3e 444b 523d e8b4 163e
00000050: f254 dc3e 226e 063f e8e9 cb3e be7f d73e
00000060: c1f6 a13e 2447 ab3e 35bb 4b3e 2a6f 563e
00000070: bc6d fc3d 7fb9 1c3e 130d e33e 4d9c 993d
00000080: d673 e63e 4482 923e 6c12 e13e 861c 383f
00000090: 2597 bd3e df41 4f3d 8410 b23d d4b6 f33e
000000a0: a99a a73d 71a0 393e c356 5f3e 5b99 a13e
000000b0: 6939 f73e 3bd0 753e b6df 243f ee1e 9b3e
000000c0: f89d bd3e c98a 2f3e 1337 3d3d 07d0 143e
000000d0: 9ee4 543e 627d b93c c22e 3b3e 2566 1f3c
000000e0: e535 e73d 7dba 573d 5aae 173d 6e32 be3d
000000f0: 6f18 fa3c 63ec 9ebd b22e 543d 1cce 2b3e
00000100: bb58 bebd 3d2f 333e 25ea 8d3d a07d 2e3e
00000110: a158 24bd 5b74 c2bc 1c02 033e 71aa c3bd
00000120: 9f71 aebd 8ef3 963d 9591 d9bc a066 4dbd
00000130: b773 373e 8c07 483d fef7 663d 1ac8 b6bd
00000140: db29 a23d 1b12 65bd f29f 85bc 215c 053e
00000150: 572c c93d 5d39 913e 287b b33c 4b13 09bd
00000160: ed43 083e 53dd 563e 8ba5 fb3a 80a5 1b3e
00000170: f3ef 863e e228 a93d 2560 063e e8e7 2e3e
00000180: 73eb afbd fa05 753e 1dfc c9bc 35e8 ba3d
00000190: 4d47 37be 10e4 f53d fa73 8fbd 9958 2bbd
000001a0: 3d59 9c3d bb36 ebbd 7b84 013e e0d0 623c
000001b0: 8275 97bc 426b 95bd 6275 e83d 4f11 89bd
000001c0: 3a22 65bd 234e cdbd b0fc 133e 19d0 57bd
000001d0: 1654 573e 9371 3abe 28de ffbd 5fe2 943c
000001e0: ed5a 183c ef2e 2abe 14d1 dd3d 6664 9abd
000001f0: b96c 0e3e 4d5a f8bd 3f42 393d a517 fbbd
00000200: e64b 353b d211 92bb 7ee0 a6bd 63cb b13c
00000210: 2586 463e a9d8 76bd 311e 2d3c d9a0 063e
00000220: 3558 b8bb 72ec 0ebe 23bc c3bd 7919 283e
00000230: a4b8 67bd 1abe ee3d e3c4 c33d d0ba 983d
00000240: 5008 04be 708d 2abc 86db e33c 10f3 a73c
00000250: 394d 453a dbde 06be dd6b 303d 14b2 1d3e
00000260: 50f6 553d 00c7 303e 4b69 013f 9b05 4f3e
00000270: b1e4 873e 83a6 d93e 40f1 943e 982b 9dba
00000280: 049e b23e 4247 893e ad18 0b3e f753 913e
00000290: 0902 c23e 793c 703e 921e 3a3e 1b40 e03d
000002a0: eb7c 073e 528b 6a3e cb39 6b3e c8ce f93e
000002b0: 75de 553e 2c4c fb3e 1042 f13d 7f14 c73e
000002c0: c25d bf3e ed76 713e 8646 753e e860 493e
000002d0: 66f8 2f3e 205a 7e3e c216 1e3f cb97 873e
000002e0: 7f0a 833e 4a9b 313f 3be5 613e c3d2 8f3e
000002f0: 3a6b 033e 135d b73e a5ed 003e f2ad 813e
00000300: cbbe b43e 3a7a de3e a792 8a3e 8803 163e
00000310: fc0c f23e 21d5 6c3e fa54 2b3e 41a8 263e

lstm.bias_hh_l0 f4 [200]
0.15732706 0.108767934 0.105196044 0.015400254 0.23238361 0.24406497 0.16472891 0.1825763
0.25650707 0.27114815 0.37170213 0.0687206 0.15243918 0.20856833 0.8271702 0.4156518
0.31335753 0.38971615 0.28534037 0.21465182 0.35803616 0.35795203 0.2748231 0.22776552
0.16474181 0.20645149 0.19827235 0.27715713 0.29873863 0.4004915 0.49497145 0.13918386
0.6374965 0.28641915 0.51520866 0.82836115 0.27428317 0.08259199 0.1988646 0.34913006
0.23269023 0.32279164 0.24692212 0.21373968 0.2721472 0.16196226 0.5925812 0.2588027
0.43207335 0.053659026 0.0415981 -0.048866 0.1396761 -0.046264105 -0.0048861043 -0.030664638
0.20704232 -0.047060408 0.050739843 0.16601795 0.2637767 0.0373113 0.037138607 0.09346751
-0.20300394 0.29579863 0.15252158 0.02757878 -0.06517063 0.077829525 0.1036757 -0.034490693
0.061461724 0.20715436 0.09563624 0.0015826597 0.19392201 0.15519315 0.14767651 0.10388123
-0.017090863 0.12509951 0.026789432 0.04758123 0.06560469 0.11011411 0.058280893 0.18028115
0.11166032 0.08294295 0.010739337 -0.0036154366 0.14148372 -0.026082505 0.10436868 0.17403969
-0.04422456 0.21589339 -0.020457663 0.10479975 -0.15593788 -0.082574986 0.058201786 0.03924584
-0.14222631 -0.13007893 0.008734424 0.0018294774 0.08544317 0.06742685 -0.06416541 -0.08090238
0.08766384 -0.01720357 0.1864165 -0.1293578 0.02479218 -0.21533784 0.10847526 -0.027948208
0.17285769 -0.07845459 0.030796926 0.010820375 0.10126752 0.023341957 0.061891615 -0.104125604
0.001679591 -0.14016226 -0.118269496 -0.08126817 0.14278454 0.18803903 0.093990706 0.042348046
-0.13597165 -0.0761654 0.0743191 0.1440883 -0.11023734 0.072266124 0.14169656 0.17851351
-0.056639865 0.06343276 0.03490208 -0.17593011 0.10502022 0.10142649 0.29269078 0.23105694
0.2960683 0.17187546 0.25436285 0.17483205 0.24224202 0.2728185 0.2736768 0.13438085
0.36724958 0.20341477 0.16515425 0.2569293 0.45738918 0.30794522 0.20043285 0.2900019
0.016084148 0.005832396 0.1286132 0.3130447 0.19060604 0.51267797 0.1325278 0.25562882
0.44163394 0.18901867 0.2533171 0.34619233 0.15987763 0.26623175 0.57853943 0.34653875
0.22624525 0.45866615 0.3572021 0.17316869 0.31797925 0.31197074 0.3350255 0.27515584
0.34782714 0.40130165 0.16026336 0.2836333 0.51821464 0.13579828 0.35841265 0.10968361
00000000: 581a 213e b9c1 de3d 0671 d73d 5951 7c3c
00000010: f8f5 6d3e 2bec 793e b2ae 283e 48f5 3a3e
00000020: e554 833e eed3 8a3e be4f be3e 63bd 8c3d
00000030: 0419 1c3e f092 553e 6dc1 533f 50d0 d43e
00000040: 6670 a03e e088 c73e 2218 923e b0cd 5b3e
00000050: 8450 b73e 7d45 b73e 9db5 8c3e 5d3b 693e
00000060: 14b2 283e 0568 533e e807 4b3e 8ae7 8d3e
00000070: 45f4 983e 390d cd3e e66c fd3e 3786 0e3e
00000080: f832 233f 88a5 923e b7e4 033f 7a0f 543f
00000090: d86e 8c3e fd25 a93d 29a3 4b3e 2dc1 b23e
000000a0: 5946 6e3e f244 a53e 27d9 7c3e 93de 5a3e
000000b0: e156 8b3e 6fd9 253e 67b3 173f ca81 843e
000000c0: b838 dd3e 91c9 5b3d c562 2a3d b727 48bd
000000d0: 4007 0f3e 6e7f 3dbd 9d1b a0bb 6834 fbbc
000000e0: e702 543e 6ac2 40bd 95d4 4f3d 9c00 2a3e
000000f0: bd0d 873e bcd3 183d a71e 183d e56b bf3d
00000100: 44e0 4fbe eb72 973e 9e2e 1c3e e5ec e13c
00000110: 2e78 85bd 1665 9f3d ed53 d43d 1d46 0dbd
00000120: 4abf 7b3d 4620 543e efdc c33d 3f71 cf3a
00000130: 7e93 463e f4ea 1e3e 8338 173e afbf d43d
00000140: 2302 8cbc 161a 003e 8375 db3c 89e4 423d
00000150: c05b 863d 8283 e13d f2b7 6e3d 9f9b 383e
00000160: 2aae e43d fedd a93d 0bf4 2f3c f6f0 6cbb
00000170: 1ce1 103e faaa d5bc 3fbf d53d 7637 323e
00000180: d024 35bd 2813 5d3e d496 a7bc 40a1 d63d
00000190: 2eae 1fbe 131d a9bd ff64 6e3d 3fc0 203d
000001a0: c6a3 11be 6933 05be d41a 0f3c 13cb ef3a
000001b0: d4fc ae3d 1717 8a3d 2869 83bd 26b0 a5bd
000001c0: 1989 b33d 80ee 8cbc f8e3 3e3e 5f76 04be
000001d0: f818 cb3c 8681 5cbe 4728 de3d a4f3 e4bc
000001e0: 9b01 313e cdac a0bd d649 fc3c f147 313c
000001f0: 5865 cf3d a237 bf3c 1082 7d3d ce3f d5bd
00000200: b925 dc3a b286 0fbe 4737 f2bd ed6f a6bd
00000210: 1c36 123e 4e8d 403e 337e c03d 2575 2d3d
00000220: 273c 0bbe 9bfc 9bbd 9d34 983d e28b 133e
00000230: 1dc4 e1bd 4300 943d e718 113e 3fcc 363e
00000240: 34ff 67bd 09e9 813d 7cf5 0e3d 0627 34be
00000250: d714 d73d b1b8 cf3d 91db 953e 319a 6c3e
00000260: 4496 973e 1f00 303e d93b 823e 2c07 333e
00000270: 4b0e 783e deae 8b3e 5e1f 8c3e 229b 093e
00000280: 2308 bc3e f64b 503e 321e 293e 3d8c 833e
00000290: ea2e ea3e ffaa 9d3e 453e 4d3e 217b 943e
000002a0: e7c2 833c af1d bf3b 2eb3 033e 6547 a03e
000002b0: 3b2e 433e dd3e 033f 5eb5 073e c8e1 823e
000002c0: d81d e23e 1c8e 413e c7b2 813e 1f40 b13e
000002d0: f6b6 233e 874f 883e 291b 143f 876d b13e
000002e0: d6ac 673e 4ad6 ea3e 32e3 b63e 2253 313e
000002f0: 2dce a23e a1ba 9f3e 7688 ab3e 3ae1 8c3e
00000300: 6616 b23e 6977 cd3e 141c 243e 6238 913e
00000310: b7a9 043f b40e 0b3e dd81 b73e cda1 e03d

linear.weight f4 [1, 50]
0.26294178 -0.22813937 -0.22199862 0.41934964 -0.30936903 0.36228383 0.30664948 0.13816692
-0.220488 0.3465459 -0.28935283 -0.1021759 -0.4333165 0.30874327 -0.3900488 0.36499247
-0.5226359 -0.13781603 -0.27619177 -0.06983141 0.21753567 -0.0730319 -0.052889146 0.01985793
-0.047455274 0.22042964 0.36499938 0.30190927 -0.07534933 0.4287756 0.4358968 -0.48564854
0.2087994 -0.3435525 0.5255786 0.14283475 -0.24897435 0.2363604 0.13563521 0.36499056
-0.4421659 -0.3216786 0.21605048 -0.119795315 -0.054055214 0.33019286 0.6024846 0.43184215
0.32952237 0.3616229
00000000: 4ea0 863e 5e9d 69be 9b53 63be ffb4 d63e
00000010: 9e65 9ebe 447d b93e 2901 9d3e a17b 0d3e
00000020: 9bc7 61be 776e b13e 0e26 94be 9941 d1bd
00000030: a9db ddbe 9913 9e3e 7ab4 c7be 4be0 ba3e
00000040: 77cb 05bf a51f 0dbe 0269 8dbe c503 8fbd
00000050: acc1 5e3e c091 95bd 4aa2 58bd 19ad a23c
00000060: 7660 42bd 4fb8 613e 33e1 ba3e da93 9a3e
00000070: c050 9abd 7a88 db3e de2d df3e eda6 f8be
00000080: 83cf 553e 1de6 afbe 528c 063f 4643 123e
00000090: 22f3 7ebe 7608 723e f5e3 0a3e 0be0 ba3e
000000a0: 9263 e2be 0fb3 a4be 563c 5d3e 3f57 f5bd
000000b0: 0069 5dbd 0a0f a93e 6e3c 1a3f 6a1a dd3e
000000c0: 28b7 a83e a326 b93e
