lstm_4to4/trial2/lstm_model_epoch6.pth (torch, 48236 bytes, 6 tensors)

lstm.weight_ih_l0 f4 [200, 4]
00000000: eefb 0dbd 74db 8cbe 8856 20bd e890 093e
00000010: fa30 f03d 891f 823e 049d 9ebe 8e0f 0e3d
00000020: 3063 7cbd 614e c33b f00d 0d3f 7c48 dd3d
00000030: cfdc 38be 1cf7 ac3d 7bba 243e e57f 4fbe
00000040: a175 ad3e a686 dfbd 4258 c63e 3972 0cbe
00000050: 9777 2dbe 7568 5b3c 3421 d03d b92f 3e3e
00000060: 8a19 05bf c476 b73e 7620 43be aa2a 9a3e
00000070: cfaf 2b3e 279f d3be cd8d 413f a35e 24bc
00000080: ec5e d23c 7a56 09be bfcb 32be 9e74 66bd
00000090: 03d1 c9bd 9c94 34bd c868 b43e 5bcf c2be
000000a0: b35a e73e fa9a 94bf 48a2 6c3e 8791 8abe
000000b0: eb3a 3e3e 4a14 52be eb05 70bd c03a 7abe
000000c0: 5cc9 9abe 7bb5 4fbe 89e7 183d 8c31 27be
000000d0: 3beb 6bbe c3bf b2bd 1c79 b13e cd91 a13b
000000e0: 6153 7b3d ed93 98bc 2694 3a3c 2d9a 04be
000000f0: 12a7 00bd 4a6a 09be 655d d6bd d2df 1bbe
00000100: b11a e03d 8aab 23bf 8a92 2d3f 0eb0 88be
00000110: 9209 c5be c3e2 6abe 5785 29bd ab38 98bc
00000120: 62dc 023d c53a 113d 7887 85be 8e65 acbe
00000130: c529 29bf a129 17be 7cc0 08be f8f5 b8be
00000140: 9d16 243e 0c98 22bd dc77 823e c35d 47be
00000150: 163a 19bd acf6 08bd 42cc b6be 99d9 45be
00000160: 6fc5 483e 53c1 86bd cc4a 123f d833 0a3c
00000170: 63fe fbbd 02da e1be b58f 94bc 5f14 8bbe
00000180: d0b6 3b3f a1fc 053f 602f 0c3e d61c 903d
00000190: 95c6 c8bd 7b54 5f3e 3f20 53be 0b50 d3bd
000001a0: 1633 d23e 82f2 fcbe ee1d 9cbe 66ff 563e
000001b0: cf5e 903d a0f7 d0bf 2ea3 aabe 7224 123e
000001c0: f5d4 48be 36d3 c7be f413 543e 9c20 febd
000001d0: 319f 70bf 818c 0d3f 8552 aebe b964 883d
000001e0: 6f46 11bf 0e77 30bf e874 c4bd 1731 04bd
000001f0: 4a40 ad3d 5b2e 2abe 974e f13c 2bbb 34bc
00000200: ecb6 a2be e914 c6bc 8c7c b13e 1222 dfbc
00000210: 16f4 c23e adb5 523c 3c73 b63e 2d07 6e3d
00000220: c859 a83c 0f7d 2ebe d8b4 003e b005 1e3e
00000230: 49ee 5c3f ab4b a7be 7ff4 6c3e 5899 193d
00000240: ae19 63be 0329 4cbe 6aa7 d33d 609f ecbe
00000250: 6e28 943d 00ef bbbe 5024 32be 3127 543c
00000260: 04ac 2a3e 303c ccbd 9842 c8be bf71 29bf
00000270: d0fc c1bd 42c4 6dbe b53a 2a3f 0f6c 21bf
00000280: 229f acbe 5267 debe 2416 823e 66f9 8cbc
00000290: 34fe 9ebf 389f 9a3f ff88 86bf 18ac 5dbf
000002a0: 9826 af3d c248 06be 994a 70be ec0a 91be
000002b0: 876f b53d e9c6 40bf 2ab4 773e 64cc d5bd
000002c0: cee9 233f a5e9 bebd 7551 09be 5bc8 233d
000002d0: 8915 743d 23e4 43be 6961 cd3d ba47 2ebe
000002e0: 5f60 01be 8b25 f8bd 7bed 20bd 45af 74bf
000002f0: 2427 cd3d 2c28 80be 6b89 273f 08aa cfbe
00000300: 117a e3be 84b9 c03b fb84 04be fafa 47bf
00000310: f6be a6be 1d99 dcbe c3c9 3dbf a443 86bf
00000320: 4855 583d a4be 2cbd ccb8 8cbd 6650 663e
00000330: be9d 6a3e d14e fa3e 3a7f afbd 8799 78bb
00000340: a479 4cbd 34c6 9abd 34e8 0fbd d2b2 fc3d
00000350: 99af 1cbf 5056 793e 1636 03be 755d 84bd
00000360: 06dc cf3e 0808 65be 40a7 403e 103c 98be
00000370: 1974 1bbb 5dc4 bf3d 2627 053e faea 183e
00000380: 8ce6 1abe 66b4 e73e f183 7ebe b518 ca3e
00000390: dde2 d5bd b697 febd 8e4a 073e d1e6 773e
000003a0: 33f0 48bf 3e5f 40bd 8873 493d bb76 813d
000003b0: b4c6 b33d 1913 99bd cd56 f03a 6add 173e
000003c0: 75cf b43e 0d58 aebd ace3 fc3c c7f8 39be
000003d0: 78b4 e33d 56ad 8ebe 9b25 da3d 4639 4ebe
000003e0: 3605 1d3e a249 83be 00a5 ebbd fa67 273c
000003f0: f9f5 d6be 9b6a 9f3e 30ce 3cbc 7593 c83d
-0.034664087 -0.2751118 -0.039145023 0.13434184 0.117280915 0.25414684 -0.30979168 0.034682803
-0.06161803 0.005960271 0.5509939 0.10804841 -0.18052982 0.0844557 0.16086762 -0.20263632
0.33878806 -0.10914354 0.3873921 -0.13715447 -0.16940151 0.013391604 0.10162583 0.18572892
-0.51992095 0.35832798 -0.19055352 0.30110675 0.16766284 -0.4133236 0.75606996 -0.010032329
0.025680028 -0.13411894 -0.17460535 -0.05626356 -0.09854319 -0.044087037 0.35236192 -0.38048825
0.45186386 -1.1609795 0.2310878 -0.27064154 0.18577163 -0.20515552 -0.058599394 -0.24436474
-0.3023175 -0.20284073 0.037330184 -0.16327494 -0.23038952 -0.08727982 0.34662712 0.004930711
0.061358813 -0.018625224 0.01138786 -0.12949438 -0.03140933 -0.13419452 -0.10467032 -0.152221
0.10942591 -0.6393362 0.67801726 -0.2669682 -0.38483864 -0.22938065 -0.04138693 -0.018581709
0.031948455 0.035456438 -0.26079917 -0.3367123 -0.6607936 -0.14761974 -0.13354677 -0.3612516
0.16024251 -0.039695784 0.2548207 -0.19469361 -0.03740891 -0.03343837 -0.3570271 -0.19321288
0.19606565 -0.065798424 0.5714538 0.008435212 -0.1230438 -0.4411164 -0.018134931 -0.2716398
0.73325825 0.52338606 0.13689947 0.0703675 -0.098035015 0.2180957 -0.2061777 -0.10318001
0.410546 -0.4940377 -0.30491585 0.20995864 0.07049333 -1.6325569 -0.3332762 0.14271715
-0.19612487 -0.3902833 0.20710737 -0.124085635 -0.93992907 0.55292517 -0.34047332 0.06659836
-0.567481 -0.68931663 -0.095926106 -0.03227338 0.08459528 -0.16619246 0.02945642 -0.011030952
-0.31780183 -0.024179893 0.34665334 -0.027237926 0.38076848 0.012860698 0.35634792 0.058112312
0.020550624 -0.17039894 0.12568986 0.15431857 0.86301094 -0.32674918 0.23140143 0.037499756
-0.22177765 -0.1993752 0.10334666 -0.46215343 0.07234274 -0.3670578 -0.17396665 0.012948797
0.16667181 -0.09972417 -0.39113307 -0.6618919 -0.09472048 -0.23219398 0.6649583 -0.6305551
-0.3371516 -0.43438202 0.25407517 -0.017208766 -1.2421327 1.207984 -1.0510558 -0.8659072
0.08552283 -0.13113692 -0.23465957 -0.28328645 0.08859163 -0.7530351 0.24189821 -0.10439375
0.6402863 -0.09321908 -0.1340998 0.039985996 0.05959085 -0.19129996 0.10028345 -0.17019549
-0.12634419 -0.12116536 -0.03928898 -0.9557994 0.10017231 -0.2503065 0.6544406 -0.4055941
-0.44429067 0.00588149 -0.12941353 -0.78117335 -0.32567567 -0.43085566 -0.7413599 -1.0489392
0.052815706 -0.042173997 -0.06871185 0.22491607 0.22911736 0.48888257 -0.085691884 -0.0037933306
-0.049920693 -0.075573355 -0.035133556 0.12338795 -0.6120544 0.24349332 -0.12813601 -0.06463138
0.40597552 -0.22366345 0.18813801 -0.29733324 -0.0023720323 0.09363625 0.13003215 0.14933386
-0.15127009 0.4525482 -0.24855019 0.39471975 -0.10443661 -0.1243128 0.13212034 0.24209143
-0.78491515 -0.04696583 0.049182445 0.06321474 0.08778134 -0.07474346 0.0018336416 0.14830557
0.35314527 -0.08512888 0.030870281 -0.18161307 0.11118406 -0.2786662 0.10651704 -0.20139036
0.15334019 -0.25642115 -0.115060806 0.010217661 -0.41984537 0.3113602 -0.011523768 0.0979375

lstm.weight_hh_l0 f4 [200, 50]
00000000: 6da3 3a3d 4b42 7fbe 974e 0ebe 0cb8 b33e
00000010: c2c2 4d3e e547 ee3d f2f6 62bf e4fc 04bf
00000020: 5378 c9be 843e bfbe f7cd 9a3e c5f8 fa3d
00000030: 442f 703e 1614 b7be 65f8 3f3c 27f1 81be
00000040: 9c96 943d cfb6 c9bd b2a7 5fbe 26f9 ac3e
00000050: e927 203d a9d2 703e 98f0 9f3c 653c d0be
00000060: ef8e 70be 7e5b ba3d a7c7 44bf fdb2 033e
00000070: 2f30 91be 0300 05bf b292 86bf bd3c 143e
00000080: a619 57bd 54a9 02bb 206d 74be 4c48 e0ba
00000090: a243 b63e 2253 27be 7c80 9dbd 07b1 093e
000000a0: ea32 663e 430d d8be a5a3 613e d4f9 703e
000000b0: 536d 303e 069a 2cbe 8c67 05be c79f 8ebe
000000c0: 96a4 b5be 5354 33be 3673 843e cda4 2cbc
000000d0: e096 283e d7e4 a9be 3086 a0be 34bd 60be
000000e0: 505b bf3d 86d6 5f3e 6197 313e a689 85be
000000f0: 624f 4b3e c53c 363e 77ac d5be e261 413e
00000100: 1599 3b3e c1a7 e43d 0f0e 033e a603 30bd
00000110: c33e 22be 18f8 a9bd cf1d c03e 69c8 91bd
00000120: b99b 81be e15a 92be 460a 003d f56f 2bbe
00000130: 34ce 023f d783 81be 9fee 5abe 95e4 10be
00000140: cc72 fa3d a4e7 b83e faf0 7ebe c66b 373f
00000150: 6631 3d3e 1bf6 863f 811f a5bb 19e5 40bd
00000160: 5a97 d8bd bb13 8d3e 5bbf eebd ae11 293d
00000170: 482f 443e 3359 1abd 112c 98bd 499c 77be
00000180: 4d99 363d b4bd 5abe 9df9 7bbe 89a3 5ebe
00000190: 8104 34bc b4ad 8e3d ca57 7b3e 4d21 21be
000001a0: 212c 303e 783b 8e3d 3f09 043e 37b9 583e
000001b0: 2bf2 08be 7714 77bd af4b e13c 802f d63d
000001c0: 791c 323e a691 6fbe be22 ad3b 8554 703d
000001d0: 933a 9a3e 74a4 b83e 65d9 b93d 25ff 3e3f
000001e0: a9b9 12be 57b0 e03e a79c 92bd 8593 863e
000001f0: 54b1 f5be 51ef 653d b8aa 10be 21cf e83e
00000200: c5a7 cb3e 2d30 003e 57bc 15bd 1973 703e
00000210: 7789 c33e c702 2b3d d098 a8bc bb6f 48be
00000220: effe e83e 6f21 eebd 33f5 b63e 5a02 25bd
00000230: 45eb a23e 17d3 d1be aa50 473e 360c a43e
00000240: e022 f33d 7bac 823e c047 183f c6a8 bfbd
00000250: e72f f3be 592c a63d 5503 89be e5a2 02bf
00000260: 36eb e33d 5df6 ba3e 104b 5ebd d330 e9bd
00000270: 8ae1 7b3d e1e0 ec3c 15c0 0bbd da3e cbbd
00000280: 3079 af3d fccd c5bc bfe5 a6be 2cc4 e7bd
00000290: c386 8bbd b47e 633e dc13 b13e b136 3dbe
000002a0: 2888 343f 5074 d8bd 2fa9 5bbd 1ec8 19be
000002b0: 73fe 2ebe 55ab 163e c62e f3bd 7310 e7bd
000002c0: c8f0 113f ead6 263d 36bc bc3e ed9b b03e
000002d0: dcf6 883e 24a5 d23e b032 a9bc 8189 053f
000002e0: ec49 6f3e 34ff 92be d77b a0be 0c97 a0be
000002f0: 1c0a 813d 7775 203d 90fa d2bd 3ff7 38bf
00000300: 7c0b a9be 69f1 4fbe e465 28be dcf9 2a3c
00000310: bb34 fabd 1da1 18be 5b9d 283d 09da 413d
00000320: 0ebf 84bd 97ff 393e 659e 323d 269f f23e
00000330: 7d73 32bc e449 fe3d a6a7 053f 3200 75bd
00000340: fe57 b5bd 2372 21be 2b08 5a3e 8fd5 253e
00000350: cb19 22be f21b bfbd 2ce1 463e 6d25 b7bd
00000360: 8e87 2c3d 9b23 afbd f272 4cbe 6bd2 2b3e
00000370: a4ae 46bd 1c20 f03c 79b5 d53c d3a7 0fbe
00000380: ea84 09bb 9144 883e c810 ddbd ba93 00bd
00000390: 7d2e 9abe d412 17bf eb22 aebe c900 1f3d
000003a0: 1aa2 0f3d 403f 50be f597 56be 3ccb 513e
000003b0: 610f e4bd 3b2a 5dbd b408 ffbc c88c 8ebd
000003c0: d1d5 6cbd d45a 93be 9484 cc3d 562d 593e
000003d0: 6de6 3d3e 067c 53be 92e3 c83e df38 32bd
000003e0: 3532 89be 25c5 2bbf 4a2c 9f3b 4bdf d9bd
000003f0: 48c2 0abe e8fa 913e ffd7 693c cc30 1b3e
0.04556601 -0.24927633 -0.13897167 0.35101354 0.20093825 0.116348065 -0.8865806 -0.5194838
-0.39349613 -0.37352383 0.30235264 0.1225448 0.2345553 -0.35757512 0.011716937 -0.25379297
0.07255289 -0.09849321 -0.21841314 0.33783835 0.03910056 0.2351786 0.019523904 -0.40671077
-0.23492025 0.09099482 -0.76867145 0.12861247 -0.28357074 -0.5195314 -1.0513518 0.14476295
-0.052514695 -0.0019937353 -0.23869753 -0.001711139 0.35598475 -0.16340306 -0.07690522 0.13446437
0.2248036 -0.42197618 0.22035082 0.23532802 0.17229204 -0.1685563 -0.13027781 -0.27856275
-0.35477132 -0.17512636 0.2586915 -0.010537338 0.16463804 -0.33182403 -0.31352377 -0.21947175
0.09343588 0.21859178 0.17342903 -0.2608158 0.19854501 0.17796619 -0.41733143 0.18884996
0.18320115 0.11164809 0.12798332 -0.04297223 -0.15844254 -0.08299273 0.37522742 -0.07118303
-0.2531412 -0.2858496 0.031259798 -0.16741927 0.5109589 -0.25295898 -0.21380089 -0.14149697
0.12228927 0.36114228 -0.24896613 0.71648824 0.18475875 1.0543855 -0.005039156 -0.047093485
-0.10575743 0.27554116 -0.11657592 0.041276626 0.19158661 -0.037682723 -0.0743028 -0.24180712
0.044579793 -0.21361428 -0.24606939 -0.21742071 -0.010987402 0.06966725 0.24545208 -0.1573536
0.17204334 0.069449365 0.12894152 0.21164404 -0.1337363 -0.06032225 0.027501909 0.10458279
0.17393674 -0.23395404 0.0052836826 0.058674354 0.30122814 0.36062968 0.09074668 0.7460807
-0.14328636 0.43884537 -0.07158785 0.26284423 -0.47986853 0.056136433 -0.14127624 0.45470527
0.39776435 0.12518378 -0.036556568 0.23481406 0.38190815 0.041750696 -0.02058068 -0.19573872
0.45507 -0.11627471 0.35733947 -0.040285446 0.3182012 -0.4098136 0.19464365 0.32040566
0.11871886 0.25522217 0.5948448 -0.09358363 -0.47497484 0.081139274 -0.26760355 -0.5102981
0.11128847 0.36516085 -0.054270804 -0.113862656 0.061494388 0.028915824 -0.03411873 -0.09924097
0.085680366 -0.024146073 -0.32597157 -0.11316714 -0.06812813 0.22216302 0.34585464 -0.18477894
0.7052026 -0.1056906 -0.053628143 -0.15017745 -0.17089252 0.14713795 -0.11874156 -0.11282434
0.5700803 0.0407323 0.36862344 0.34493962 0.2675084 0.41141617 -0.020654052 0.5216294
0.23368043 -0.2871033 -0.31344482 -0.3136524 0.06300756 0.039174523 -0.10301697 -0.7225227
-0.33016574 -0.20306934 -0.16445118 0.010435548 -0.12217089 -0.1490521 0.04116569 0.047327075
-0.06481753 0.18163906 0.043608088 0.47387046 -0.010891792 0.12416437 0.52208936 -0.05981464
-0.08854674 -0.15766196 0.21292178 0.16194747 -0.15830152 -0.09331502 0.19421834 -0.08942685
0.042121463 -0.08551713 -0.19965723 0.16779487 -0.048506394 0.029312186 0.02608751 -0.14028864
-0.0020983764 0.26614812 -0.107942164 -0.031390883 -0.30113593 -0.59013104 -0.34011015 0.03881911
0.0350667 -0.20336628 -0.20956405 0.20487684 -0.11135746 -0.053995352 -0.03113208 -0.06960446
-0.0578211 -0.28780234 0.09986225 0.212087 0.18544932 -0.2065278 0.39236122 -0.043511268
-0.26796117 -0.67097694 0.0048575746 -0.10638293 -0.13550675 0.2851174 0.014272689 0.15155333

lstm.bias_ih_l0 f4 [200]
00000000: 9da8 453e eacc 043e 4de7 87bd ce53 ae3e
00000010: 57c4 1ebe 689f cc3c a19f c0bd 608d 853e
00000020: 7451 d33e d52b 423e c024 a83e fa5b 863b
00000030: 16f1 083f 1337 353e 69a8 4b3e 404b 2b3e
00000040: 4214 fc3e d1eb e43d db0a 2a3e 4be7 113f
00000050: 647e 123e 64ee 533e a7b8 f0bd 4431 f83e
00000060: 1944 ce3d 3a40 2dbe 6cf6 0b3e a3af 683f
00000070: 255f cb3e 3488 503e 9acd 2b3e 6123 893e
00000080: f1f8 033f f0b5 563e 93ec c83d 82aa 403f
00000090: b5cc ee3e 4cdd b8bd 90d7 213e 7f4e e43e
000000a0: 2e39 853e b73a 373f fece 0cbd 0c58 cf3e
000000b0: d940 8a3e 6d4b 933e c8a7 a83e 8ebf c23e
000000c0: 56da 463f 66eb 6c3e a4de 85bc d1c9 0a3d
000000d0: ac2e f6bc c69c e13d 6b94 9c3d 80ee 8b3c
000000e0: 1680 713d a026 89be a7de d63d 99b5 ccbd
000000f0: 2843 2ebe 24ac 07bd 110d efbd 7940 24be
00000100: 978f 72bd 588c afbd 2fc9 2a3d 8daa 53bd
00000110: 1bf7 11be 6980 71bc 505f 223d 2432 4cbd
00000120: 0fa2 e43d c517 8d3c e877 d53d d5b1 df3d
00000130: 12b4 36be a3c9 b4be 6a04 12be be59 cbbb
00000140: 8968 ccbd 7d3c 8dbd 859c 403e 569a e4bd
00000150: 6877 363d 97d8 66bd de11 0a3d 9eff 2dbe
00000160: c5dc 3ebd fbe4 a5be 4444 5f3e 9052 babe
00000170: de24 7a3d fafe 773d da21 6e3e 1951 dc3c
00000180: 4251 99be b6fd a5be e954 353e 55d3 1abe
00000190: 3198 673d b531 03be f71e f23c aa67 c9bd
000001a0: 8aaf cfbc 81e1 0b3d aaa8 23be 14c7 28be
000001b0: aaae b9bd c196 80bc cbfb 553d c19d 8f3d
000001c0: c7ae 843c b8a6 e3bd 7017 c3bb 5922 cebd
000001d0: c7af 79bd c2ef bfbd c845 77be 28bb 913d
000001e0: 9ca7 9ebd d1dd 3fbd 9282 20be 0235 b2bc
000001f0: e95e 883d 156b 643d 53a2 04ba 4e21 fabd
00000200: 3c39 09be c691 bcbd 34ef 7fbe c48d 88bc
00000210: a1df 843d d75a f13d 493f c83c 5f5c c63d
00000220: 0980 0b3d 160c 59bd d4ec 8dbd a8e1 2a3c
00000230: 9199 55bd ecb1 88bd fe46 db3c cf57 11bd
00000240: 3a41 a5bd ab52 61bc 3a1c 33bd 8cd0 863d
00000250: 3a0d a6bd 6e38 323e ce92 023e 1f91 063c
00000260: 6b34 7e3d d0d0 aa3e 6fdb ac3c f1db 91bc
00000270: a779 053d a60b 873e e897 a93e 2974 363e
00000280: 82a4 313e fb2b e13d 13cd 7b3d afe7 753e
00000290: 93e3 273d a014 62bb 5fc6 c73e 4936 003e
000002a0: bce4 313e 4580 9a3e 19f4 d33d 599a f93d
000002b0: 5a66 8b3d ffd0 8a3e c7bc ad3d 0448 f0bd
000002c0: e12d d43d 9bdb 403f a207 003f 2320 513e
000002d0: 41d1 ad3d d740 593d ee16 803e 4433 f73d
000002e0: f72b 583e 79c4 243f 612d fa3d e29f 37be
000002f0: 31ff 8e3d b210 b43e 358c f93d 0ac5 073f
00000300: f2af 8d3d 4aae 873e e74f 503e a785 443e
00000310: d6b1 b33e 4311 283e 8070 173f 00f7 853e
0.19302602 0.12968794 -0.06635914 0.34048313 -0.15504585 0.024978355 -0.09405447 0.26084423
0.4127308 0.18962033 0.32840538 0.00410032 0.5349287 0.1769679 0.19888462 0.16727924
0.49234205 0.11177791 0.16605704 0.5699355 0.14306027 0.20696408 -0.1175397 0.48475087
0.10071582 -0.16919032 0.13668221 0.90893 0.39721027 0.20364457 0.1677765 0.26784804
0.5155173 0.20967841 0.09810748 0.75260174 0.46640554 -0.09026584 0.15804887 0.44591138
0.26020187 0.71573967 -0.03437709 0.40496862 0.270026 0.28768483 0.32940507 0.3803677
0.77676904 0.23136672 -0.016341515 0.033883873 -0.030051552 0.1101623 0.07645496 0.0170815
0.058960043 -0.2678728 0.10491686 -0.099955745 -0.17017806 -0.03312315 -0.11672414 -0.1604022
-0.05921897 -0.0857169 0.04169577 -0.05167632 -0.1425442 -0.014740088 0.03964168 -0.049852505
0.11163723 0.017223248 0.10423261 0.10922591 -0.17842129 -0.35310087 -0.14259496 -0.0062057665
-0.09980876 -0.06896303 0.18809707 -0.1116225 0.04454747 -0.0563589 0.033708446 -0.16992041
-0.04659726 -0.3240126 0.21803385 -0.36391115 0.061070316 0.0605459 0.23255101 0.02689414
-0.29944807 -0.3242013 0.17708172 -0.1511968 0.056541625 -0.1281193 0.02955578 -0.098342255
-0.025352258 0.034150604 -0.15982309 -0.16482192 -0.09066518 -0.015696885 0.05224208 0.07012511
0.016196622 -0.111157835 -0.0059537217 -0.10065145 -0.06095865 -0.09371902 -0.24147713 0.07115775
-0.07746813 -0.0468424 -0.15674809 -0.021753792 0.06658728 0.055766184 -0.00050595886 -0.122133836
-0.1340074 -0.092074916 -0.24993593 -0.016669162 0.06487966 0.117849045 0.02444424 0.09685587
0.03405765 -0.05299004 -0.06929937 0.010429777 -0.052148405 -0.06674561 0.02676725 -0.03548413
-0.080690816 -0.01375262 -0.04372809 0.06582746 -0.081079915 0.17404339 0.12751314 0.0082133105
0.06206171 0.33362436 0.021100728 -0.017805072 0.03258672 0.26376075 0.33123708 0.17817749
0.17347911 0.10994717 0.06147487 0.24014162 0.040988516 -0.0034497157 0.39018533 0.12520708
0.17372411 0.30175987 0.10349292 0.121876426 0.068066314 0.27112576 0.08483272 -0.11732486
0.10360313 0.7533509 0.50011647 0.20422415 0.08487178 0.05304035 0.25017494 0.12070325
0.21110521 0.64362293 0.122156866 -0.17932084 0.06982268 0.35168988 0.121849455 0.5303503
0.069183245 0.2650016 0.2034298 0.1919161 0.35096616 0.16412835 0.59156036 0.2616501

lstm.bias_hh_l0 f4 [200]
00000000: 7156 053e f59f 25bd e3fb 843d ef82 0b3e
00000010: 45b0 e3bc 0562 a93d a1d5 17bb caf7 223e
00000020: 52d2 533e da25 e13d b469 cd3e e685 5abd
00000030: 9702 d53e b959 cb3d 2367 5d3e c04d fc3d
00000040: d2b9 093f 7967 c03d 6393 ae3e 216a 143f
00000050: aa3b b93e fc4a 2d3e eb3c d3bd 3c24 b73e
00000060: 2c0f eaba f2bb 3ebd f2c0 253c 39a2 453f
00000070: 15eb af3e 2c32 563e 8433 573e 8146 0b3e
00000080: 9fa5 063f 8475 833c 1d87 453e 1238 4b3f
00000090: e93a 033f 5782 31bd 7cd6 1b3e df2b 163f
000000a0: f0ad 913e 037a 133f f4da b43d f6cb c33e
000000b0: c553 043e dc04 703e bc6f a03e ac8f b43e
000000c0: 809c 423f a720 2a3e b9f8 143e c0be 2a3e
000000d0: 3836 08bd cb34 6bbd 5793 e7bd 8e8f 2abe
000000e0: 042b 093d de6e debd 75de 9bbd 1e1b 403c
000000f0: 0578 98bc 5b44 34bd f353 cf3c a4ec d9bd
00000100: 43d3 3ebd edd2 1cbc 5154 ebbd e4d6 6abe
00000110: 2e11 9a3b 942a 2fbd 6a73 0bbd b812 213c
00000120: 01d5 87bd 6590 1b3c e83b e03d e259 033e
00000130: 0076 33be a39f 83be 4cdf 963d 21f3 f5ba
00000140: 4fdb 3fbe f34e 4abe bbf3 8d3d f5f8 77bd
00000150: ec60 c5bd 6662 8f3d 09b9 dabd 81dd 80bc
00000160: ff08 2ebd baa3 5fbe 0f32 633c ce62 62be
00000170: 08fc 0ebe 16dd d23c 3537 b73e c463 5b3d
00000180: d430 99be 4ec2 9cbe 7a2d 893e 75fa 6ebd
00000190: 08f9 d03d b4fa ccbd f4a7 45bd b6f1 833c
000001a0: 563f e03c f51f 993d 00e0 5fbd 3a24 c5bd
000001b0: 6ee2 d93b bfb3 0fbd 760d d8bd f4d9 dcbc
000001c0: 44d6 a7bb cf98 283e edc3 df3d 636d b5bd
000001d0: acfa a9bc 1ee5 3a3c 47be 563c 7cb2 9a3c
000001e0: d18f 013e df87 dcbd dc66 debc d9e0 c6bd
000001f0: 92c5 623d 526f f5bc 2ece 8e39 426f e3bd
00000200: 7488 ab3c ceb9 0fbe a177 bbbd d769 723c
00000210: a435 27bd fbca edba 259d 9dba e5c3 f13d
00000220: e6f0 a43d f2a3 11be 64df 36bd 2318 0ebd
00000230: e42f 123e 83b3 52bd 1efb c73d 5a39 a03d
00000240: 65cf 123e 93f4 5abd cb31 01be d8ee 03bd
00000250: 5b3d 3dbd b876 283e bb4b d13d a436 a8bd
00000260: eb5b eabd 9c1d 483e 5dcc 3fbe a685 073e
00000270: 747e a43d 0a47 b03e 5e1d 103e bb9d 113e
00000280: 32ec 773e a931 82bd 74f5 923e 1bf5 573e
00000290: d766 ad3d 4581 d9bd 6fbb b93e 2601 fc3d
000002a0: fd54 d43e 29d8 883e 5f27 c53d 1798 dc3d
000002b0: febe 39be 9f90 2d3e 7c8a 3fbd e2ae 323c
000002c0: c03b d2bc 2bf5 323f ca0a b83e cd7c 4c3e
000002d0: 1b05 463d 6fa5 7bbc c700 4e3e 0ce7 163e
000002e0: bf43 d43d 5984 1d3f 0c3e 6d3e b72f 2dbd
000002f0: 6f07 483e 10ab c53e 0530 9e3d 1603 0b3f
00000300: 06e1 dc3d 3a09 973e c3a8 aabb 4b4d 96bc
00000310: aef8 2c3e 2d0d 4c3e c825 113f 95f6 413e
0.13021256 -0.04043575 0.06493356 0.13624166 -0.027794013 0.08270649 -0.0023168104 0.15914837
0.206857 0.10993548 0.40119708 -0.05335035 0.41603538 0.099292226 0.21621375 0.12319517
0.53799164 0.09394736 0.34096822 0.5797444 0.36178333 0.16923136 -0.103143536 0.35769832
-0.0017857305 -0.046565957 0.0101168025 0.7720066 0.3435904 0.20917577 0.21015745 0.13601114
0.5259647 0.016047247 0.19289823 0.7938243 0.51261765 -0.043337192 0.15218538 0.5866069
0.28453016 0.5760805 0.088308245 0.38241547 0.1292258 0.23439354 0.31335247 0.35265863
0.7602005 0.16614018 0.14548005 0.16674328 -0.033254832 -0.057423394 -0.113074 -0.16656324
0.03348829 -0.1086099 -0.0761079 0.011725215 -0.018611917 -0.0440105 0.025308585 -0.10640839
-0.046588194 -0.009571773 -0.114906915 -0.22933537 0.004701755 -0.042765215 -0.034045614 0.009831123
-0.06632424 0.009494876 0.10948926 0.12827256 -0.17525482 -0.2570773 0.07366809 -0.0018764475
-0.18736003 -0.19756679 0.069312535 -0.06054016 -0.09637627 0.0700119 -0.10679824 -0.015730621
-0.042489048 -0.218398 0.013866915 -0.22108003 -0.1396333 0.025740188 0.35784307 0.05356194
-0.29920065 -0.30616993 0.26792508 -0.058344323 0.10203749 -0.10008755 -0.048255876 0.016106468
0.02737395 0.074767984 -0.054656982 -0.0962605 0.006649307 -0.03508353 -0.105494425 -0.026959397
-0.005121978 0.16464542 0.10926042 -0.088587545 -0.020749412 0.011407165 0.013106889 0.018883936
0.12652518 -0.10768103 -0.027148657 -0.09710855 0.0553642 -0.029960308 0.00027237966 -0.11105205
0.02093909 -0.14035723 -0.09153677 0.014795742 -0.04082264 -0.0018142158 -0.0012024982 0.11804942
0.0805376 -0.14222696 -0.044646636 -0.034690987 0.14276081 -0.051440727 0.09764694 0.07823439
0.14336927 -0.0534559 -0.12616651 -0.0322102 -0.04620109 0.16451538 0.102195226 -0.08213547
-0.11443313 0.19542545 -0.18730302 0.13234577 0.080319315 0.34429199 0.14073703 0.14220326
0.24211195 -0.06357128 0.2870289 0.21089594 0.08466881 -0.10620359 0.36275813 0.123049065
0.4147109 0.26727417 0.0962665 0.10771196 -0.18139264 0.169497 -0.04676293 0.010905953
-0.025663257 0.69905347 0.3594573 0.19969483 0.048344713 -0.015359267 0.20117484 0.14736575
0.10364484 0.6153007 0.231682 -0.042281833 0.19534086 0.38607073 0.07724003 0.54301584
0.10785107 0.29499227 -0.0052081062 -0.018347403 0.16891739 0.19926901 0.56698275 0.1894172

linear.weight f4 [4, 50]
00000000: a147 a63c 3f67 803d deb3 4e3e 464f 17bd
00000010: f4a9 19bc 4923 6f3d 317e ea3d 2f17 553e
00000020: 1be8 2c3d 9305 7b3e 79f0 3dbe 89e7 0abe
00000030: 710c 47bd 0c2a 6e3d 0417 78bd 5871 923e
00000040: eff0 a3be 4deb 333d 2a07 843d 18a5 9f3e
00000050: 3958 9abd 692a f83d 9531 213e 7a79 343e
00000060: 58cc c43c 9b85 e93d f3c9 c03e f411 a7bd
00000070: dd9d 953e 5e67 85be c60e 563d c386 94bc
00000080: bba3 4dbd 89c5 6a3e c9d3 a6ba dcef 913e
00000090: 6b3d a4bd f9a3 edbc 4d13 a03d 1a55 81be
000000a0: 81dd 65be 13a3 b43e 8b34 6cbd 7d45 77be
000000b0: a368 50bd 6929 8d3d 66e9 e33e a8dc a13e
000000c0: 2cb6 39be 148f a3be 2c8b bfbd b566 103e
000000d0: d08d 00be 5956 60be a5ee 03be 094f 4ebe
000000e0: e8f0 9a3d 7a3b 3e3d 8f3c 303e 08a8 3f3d
000000f0: 4f98 8e3d d5e7 3c3e 65f9 c93d 28fd 973e
00000100: 9c2f 88be dd6a c63d 0137 0d3e b6e5 ad3d
00000110: 88e7 e0be 6e02 023d 9712 983e 241c 0c3e
00000120: b80c b0bd dbe4 70be efd5 1a3d 9dfe f23b
00000130: 0696 34be d83c 9bbd 9a07 1d3e aad0 8fbd
00000140: 735a 2d3d 20cc 37be f8c9 363e da93 3abe
00000150: aed1 27bd c391 c73e c084 c03e d11a 613d
00000160: df35 373e 051b 043f c6c9 113d 534e b03e
00000170: 7d59 5b3e 93d8 303d d68a 663e 95f0 18be
00000180: 66aa ee3d ad8b 92be 5760 42be 7d55 5cbe
00000190: 3ddb f1bb 4641 993d 582a 3fbd 1006 9fbd
000001a0: 209a 913d dc4e 5a3e 857c cf3d 7c3b 7d3e
000001b0: 6be6 84be 6fa1 013c a647 8c3d 0306 56be
000001c0: 92c6 4d3e 1065 903d 53fe c2bd e3fd 253c
000001d0: 4c5a 9fbe f9bb 4a3e 0404 96bd a72e 40be
000001e0: 55e6 82be 8d18 133e e0aa 06be dcfc 2b3e
000001f0: ead1 80bc 3483 0bbd 904c 843e 2a39 a3bd
00000200: c051 22be 3ce8 0bbe d8d9 a03e 5f95 8bbd
00000210: bf62 573b 52c6 18be ebf6 36be 52b8 ea3e
00000220: b6b2 84bd 5e37 673e aaaa b6bd d4f5 25be
00000230: 275c 943d b096 e3bc 6fa7 90bd 5cc2 3d3e
00000240: bca0 1c3e 01fa dfbd 55b0 c8bd c1bf 7dbe
00000250: 695a 1a3d 074c 85bd 9efb ae3e f84d 4a3e
00000260: 90d6 413e 2793 70bd 4254 0dbe 22a9 0cbd
00000270: c3ad b73d 502d 14be d180 643c 7cac 0abb
00000280: 3fe3 9f3e 06d0 423e 2938 7fbe 2dca d83a
00000290: d31c 9b3d 6603 a03e 4ad5 f63c f790 a23e
000002a0: 07eb cd3c f629 a2be ff19 5dbd cd34 99bd
000002b0: f1fb b03d 37f7 773e 929b 17be bd70 d73d
000002c0: 1ef4 c33c 4a56 24bf 1fc1 36be a3dd 47be
000002d0: bf82 8a3c ced1 6e3e b1d2 46be 84e8 8c3e
000002e0: f3c2 953e eac8 5f3d b6e5 4dbd 3d90 60bd
000002f0: 82e0 7b3d c763 193e 21c0 7cbe bab2 0bbf
00000300: 198b 343e 40b0 643e ae4a 07be 1ac1 933e
00000310: 1ad5 9f3e e4ce babc 7cfe 89be 0ac1 d9be
0.020297827 0.06269693 0.20185801 -0.036940835 -0.009378899 0.05838326 0.1144985 0.20809625
0.04221354 0.24513845 -0.18548764 -0.13564886 -0.04859585 0.058145568 -0.060568824 0.286021
-0.32019755 0.043925572 0.06446679 0.31180644 -0.075363584 0.12117464 0.1574157 0.17624465
0.02402322 0.11402436 0.37654075 -0.08157721 0.29222003 -0.26055425 0.052260183 -0.018130666
-0.050204974 0.22926916 -0.0012727912 0.2850331 -0.08019527 -0.029008852 0.07816181 -0.2526024
-0.22447778 0.35280666 -0.057667296 -0.24147601 -0.05088104 0.06892664 0.44514006 0.3161366
-0.181359 -0.31945097 -0.09352717 0.1410168 -0.12554097 -0.21907939 -0.12884004 -0.20147337
0.075654805 0.04644344 0.17210601 0.046791106 0.06962644 0.18447812 0.09862021 0.2968533
-0.26598823 0.09688351 0.13790514 0.084910795 -0.43926644 0.0317406 0.29701683 0.1368261
-0.08596176 -0.23524801 0.03780168 0.007415606 -0.17635354 -0.075799644 0.15334931 -0.070222214
0.042322587 -0.17948961 0.17850482 -0.18220463 -0.04097145 0.38978395 0.3760128 0.054957215
0.17891644 0.5160373 0.035592817 0.34434757 0.21420856 0.04317529 0.22513899 -0.14935525
0.11653595 -0.2862219 -0.18982063 -0.21516986 -0.0073808716 0.07483153 -0.04667124 -0.07764828
0.07109475 0.21319145 0.10131172 0.24729723 -0.25957045 0.007912024 0.06849603 -0.20900731
0.2009528 0.07050526 -0.09521165 0.010131332 -0.3112358 0.19798268 -0.07324985 -0.18767796
-0.25566354 0.14364834 -0.13151121 0.16795677 -0.015725095 -0.034060672 0.25839663 -0.079698876
-0.15851498 -0.13662809 0.31416202 -0.068156 0.0032865254 -0.14919403 -0.17867629 0.4584375
-0.06479399 0.22579715 -0.0891927 -0.16207057 0.07244139 -0.027781814 -0.070631854 0.18531173
0.1529569 -0.10936356 -0.09799258 -0.2478018 0.037683878 -0.06508642 0.34176344 0.19756305
0.18929505 -0.058734085 -0.13801673 -0.034340985 0.08968689 -0.1447041 0.013946728 -0.0021159938
0.31228063 0.19024667 -0.24923767 0.0016539745 0.07573857 0.31252593 0.030131001 0.31751224
0.025136484 -0.3167264 -0.05397987 -0.07480774 0.08641804 0.24215399 -0.14805439 0.1051955
0.023920115 -0.64194167 -0.17847107 -0.19518141 0.016908048 0.23322222 -0.1941631 0.27521145
0.29250297 0.054634966 -0.050267898 -0.054825056 0.061493404 0.14979468 -0.24682666 -0.5456959
0.17631187 0.22332859 -0.13212082 0.28858262 0.3121727 -0.022803731 -0.2695197 -0.4253009

linear.bias f4 [4]
00000000: 6428 7b3d 41d2 62bd 981a 5bbd 919c b8bc
0.061317816 -0.055376295 -0.05349216 -0.022535594
